data/results/1731785808.pth (torch, 14370 bytes, 16 tensors)

fc1.weight f4 [16, 36]
0	0xbe427e6f	-0.18993543
1	0xbd3f26e8	-0.046667963
2	0x3e121512	0.1426585
3	0xbd302f6c	-0.043013975
4	0x3d65814a	0.056031503
5	0xbed88aec	-0.4229349
6	0x3cef7596	0.029230874
7	0xbfaa5c68	-1.330945
8	0x3ede6089	0.43433025
9	0x3f816a01	1.0110475
10	0x3f644859	0.89172894
11	0xbd8241d6	-0.063602135
12	0x3fa85b9b	1.3152956
13	0x3dfd43c8	0.12366444
14	0xbe39534a	-0.18098179
15	0xbe9f2239	-0.31080797
16	0xbde567c4	-0.11201432
17	0xbcc3d3e2	-0.023904745
18	0xbfbbfb5a	-1.4686081
19	0xbe9e8ce3	-0.30966863
20	0x3e0baf55	0.13641103
21	0xbf61b075	-0.8815988
22	0x3e64e499	0.22352828
23	0xbf4dc5ee	-0.8038014
24	0x3fa367db	1.2766069
25	0x3f2e1549	0.6800123
26	0xbdbf790c	-0.0934926
27	0xbf77546e	-0.96613204
28	0x3e545ce6	0.20738563
29	0xbe75a634	-0.23989183
30	0xbe3f0a54	-0.18656284
31	0xbcc9b8e9	-0.024624305
32	0xbd645615	-0.055746157
33	0xbe05be65	-0.13060911
34	0xbd335355	-0.043780643
35	0x3e865d90	0.26243258
36	0x3deb333a	0.1148438
37	0x3eaf60a8	0.3425343
38	0xbd8a6658	-0.06757802
39	0x3e91337b	0.2835959
40	0x3dd7f4e9	0.1054476
41	0x4067b95e	3.620689
42	0xbbe73583	-0.0070559396
43	0xbc8576e9	-0.016292052
44	0xbe4552ca	-0.19269863
45	0x3bd0a264	0.0063670147
46	0x3e6da53e	0.23207566
47	0x3e1d555a	0.1536459
48	0xbe9f2190	-0.31080294
49	0x3db7ac24	0.0896838
50	0x3dc11ca8	0.09429294
51	0xbd5d46d5	-0.05402263
52	0xbdca5ebc	-0.098813504
53	0xbb6ee936	-0.0036454923
54	0xbef73b8e	-0.48287624
55	0xbca293fa	-0.019845951
56	0x3d9abb94	0.07555309
57	0x3e95ea82	0.29280478
58	0x3d54e056	0.051971756
59	0x3ea97da0	0.33103657
60	0x3e16d4af	0.1472957
61	0x3e972d10	0.29526567
62	0x3d8e05e4	0.06934717
63	0xbc4534d5	-0.012036522
64	0x3e05448c	0.1301443
65	0x3dca7b99	0.09886856
66	0xbd22b341	-0.03972173
67	0x3cc3c898	0.023899361
68	0x3d25da40	0.040491343
69	0x3e6c75ed	0.2309186
70	0x3e7e8907	0.2485696
71	0xbe030927	-0.1279646
72	0x3d8a4b37	0.06752627
73	0x3e39a56a	0.18129507
74	0x3e9692b5	0.29408804
75	0xbed92956	-0.4241435
76	0xbeaeb527	-0.34122583
77	0xbfa5940e	-1.2935808
78	0x3ecb0ed2	0.39659745
79	0x3ec4febc	0.38475597
80	0xbe604ed4	-0.2190507
81	0x3ed81698	0.42204738
82	0x3ef212ba	0.47279912
83	0x3ee1dde3	0.441146
84	0x3f804ca2	1.0023386
85	0xbe866c79	-0.26254633
86	0x3e9cfd7b	0.3066214
87	0x3fb44573	1.4083694
88	0x3e8db4e8	0.27677083
89	0x3e1d2461	0.15345909
90	0x3e09c9ce	0.13455889
91	0x3f132b9f	0.57488436
92	0x3e3085be	0.17238519
93	0x3eddd1a5	0.4332401
94	0xbe2dcf49	-0.16973604
95	0xbed0372c	-0.40667093
96	0xbf69c7ce	-0.913205
97	0xbf452e8d	-0.77024156
98	0x3e267d09	0.16258635
99	0xbedd0228	-0.43165708
100	0x3db522ed	0.08844552
101	0xbe15477b	-0.14578049
102	0x3e88a9f9	0.2669218
103	0x3e141f0a	0.14464965
104	0xbf2a7a10	-0.665925
105	0x3e7a6455	0.24452336
106	0x3f407d66	0.7519134
107	0xbf00c4f5	-0.5030053
108	0xbe93fe7e	-0.289051
109	0x3e10dbc6	0.14146337
110	0xbf703fd0	-0.9384737
111	0xbd3756b2	-0.044760413
112	0xbd16d566	-0.036824606
113	0xbf7fda05	-0.99942046
114	0x3c9bbee4	0.019011922
115	0xbeed7284	-0.4637643
116	0x3e693235	0.22773059
117	0x3c2cdc12	0.010550516
118	0xbfbf3aa6	-1.4939773
119	0x3e168da1	0.14702465
120	0xbf16a68f	-0.588479
121	0x3e8aa3aa	0.2707799
122	0xbe8967ed	-0.26837102
123	0xbf6b109a	-0.91822207
124	0xbfd44a0f	-1.6585101
125	0xbe5e9bb8	-0.2173909
126	0xbe9b679f	-0.30352494
127	0xbec4eee6	-0.38463515
128	0xbd4a71c1	-0.04942489
129	0x3ec63d7f	0.38718793
130	0xbe447425	-0.1918493
131	0x3e433043	0.19061379
132	0xbe0a943a	-0.13533106
133	0x3f896244	1.0733113
134	0xbda56caf	-0.080773704
135	0xbf4c9c7c	-0.79926276
136	0xbdf8ddc5	-0.12151674
137	0x3e72a395	0.23695214
138	0x3f1934ca	0.59846175
139	0xbcb5ad73	-0.022177434
140	0xbfd8fe49	-1.6952602
141	0x3f43f2c8	0.7654233
142	0xbe666004	-0.22497565
143	0xbeb77729	-0.358331
144	0xbd1dae13	-0.03849609
145	0x3cd09d3d	0.025465602
146	0x3e303705	0.17208488
147	0x3e2b02a1	0.16700222
148	0x3d66fb18	0.056391805
149	0xbecbb430	-0.3978591
150	0xbf7a00f3	-0.976577
151	0xbe962ea3	-0.29332456
152	0xbe5f7600	-0.21822357
153	0xbe8ddd62	-0.27707964
154	0xbf90f5aa	-1.1324971
155	0x3eb3da64	0.35127556
156	0x3f614420	0.87994576
157	0xbf0021a1	-0.50051314
158	0x3f0048ca	0.5011107
159	0xbf1ba331	-0.60795885
160	0x3ea8337b	0.32851776
161	0x3ed91c49	0.42404392
162	0xbf775da1	-0.9662724
163	0x3f3e3659	0.7430168
164	0xbbf465ab	-0.007458409
165	0xbf219b20	-0.63127327
166	0xbee36cc9	-0.44418934
167	0xbea30c0a	-0.31845123
168	0x3f9d3664	1.2282224
169	0x3fa2fc5c	1.2733264
170	0xbe5e1b19	-0.21690024
171	0xbf94598b	-1.1589826
172	0xbe769c6f	-0.24083112
173	0xbed12005	-0.4084474
174	0x3e3a7055	0.18206914
175	0xbf6101d9	-0.87893444
176	0x3eec6df3	0.46177635
177	0x3eccb639	0.39982775
178	0xbf258807	-0.64660686
179	0x3ea83002	0.32849127
180	0xbd6a0803	-0.057136547
181	0x3e217159	0.15765895
182	0xbc87c345	-0.016572604
183	0xbd912442	-0.07086994
184	0xbe238ac4	-0.15970904
185	0xbf932495	-1.1495539
186	0x3eb981e5	0.36231914
187	0xbf020dd7	-0.5080237
188	0xbf470a94	-0.77750516
189	0xbe02c5f0	-0.1277082
190	0xbf8fd871	-1.1237928
191	0xbef64795	-0.48101488
192	0xbf2d3068	-0.6765199
193	0xbe40af50	-0.18816876
194	0xbd7f50f0	-0.062333047
195	0xbf54b17c	-0.8308332
196	0x3e571dc2	0.21007445
197	0xbe759246	-0.2398158
198	0xbeb1735e	-0.3465833
199	0xbfc45c17	-1.5340604
200	0xbd37ddca	-0.04488925
201	0x3f123e3f	0.5712623
202	0xbd7a76a9	-0.06114832
203	0xbfad84b1	-1.3556119
204	0x3de9f537	0.11423724
205	0xbfa6b829	-1.3024951
206	0x3de3fb5b	0.111319266
207	0x3ec6b6f5	0.3881146
208	0x3e2c1596	0.1680511
209	0xbe2ea031	-0.17053296
210	0x3d6310a9	0.05543581
211	0x3efc79c0	0.49311638
212	0x3cccba4c	0.024991177
213	0xbec749f0	-0.38923597
214	0xbf002f11	-0.5007182
215	0xbf192a78	-0.5983043
216	0x3e561675	0.20907004
217	0x3e253531	0.16133572
218	0x3e8b0e93	0.27159557
219	0xbec32ca9	-0.3812001
220	0xbecc7f04	-0.39940655
221	0xbf5ac50a	-0.8545691
222	0xc04dc64f	-3.2152288
223	0xbe5c8a4e	-0.21537134
224	0xbe4949c7	-0.1965705
225	0xbea27021	-0.31726173
226	0x3dca9998	0.09892577
227	0xbd957fa2	-0.07299735
228	0xbf17e409	-0.5933233
229	0xbf16ad15	-0.5885785
230	0x3e64e6b8	0.22353637
231	0xbfcd425e	-1.6035879
232	0xbfa2da6b	-1.2722906
233	0xbedd8a4b	-0.43269572
234	0xbf554e27	-0.83322376
235	0x3f3eef91	0.745843
236	0x3ea73d74	0.32664073
237	0xbec3e8c1	-0.38263515
238	0xbe8e4b4b	-0.2779182
239	0xbe8b6807	-0.27227804
240	0xbf0de969	-0.5543428
241	0xbee146cb	-0.43999323
242	0x3ebf132d	0.37319317
243	0x3e10849c	0.14113086
244	0x3d396690	0.045263827
245	0xbcd826c6	-0.026385676
246	0xbdb82409	-0.08991248
247	0x3e45c30a	0.19312683
248	0xbec5957e	-0.38590616
249	0x3eb7b23d	0.35878173
250	0xbebc0476	-0.36722153
251	0x3eaa6381	0.3327904
252	0x3e822083	0.2541543
253	0x3db19b1f	0.08672165
254	0x3e27424c	0.16333884
255	0x3c15b9a4	0.009138498

fc1.bias f4 [16]
0	0xbfa37671	-1.277052
1	0xbf8e87f4	-1.113524
2	0xbf7402cf	-0.95316786
3	0xbe3bdf41	-0.18346883
4	0x3c049c06	0.0080938395
5	0xbf0a74a8	-0.54084253
6	0xbf01aed7	-0.5065741
7	0xbf849461	-1.0357782
8	0xbe47b07b	-0.19500916
9	0xbf9fc82f	-1.2482966
10	0xbf99c689	-1.2013713
11	0xbf3a115b	-0.7268273
12	0xbf56c049	-0.83887154
13	0xbf57d7d7	-0.8431372
14	0xbfb7a43c	-1.4346995
15	0xbd0332ad	-0.03203075

fc2.weight f4 [16, 16]
0	0x3f5c7ee9	0.8613115
1	0xbfedeb21	-1.8587381
2	0xbf1b9a29	-0.60782105
3	0xbd97b05a	-0.07406683
4	0x3f0f3efc	0.5595548
5	0xbea63686	-0.32463473
6	0x3f1d2def	0.61398214
7	0x3f02f370	0.51152706
8	0x3f239a41	0.6390725
9	0x3ee20a9a	0.44148713
10	0xbdb8cfd9	-0.09024019
11	0x3f2d24da	0.67634356
12	0x3ed25ac6	0.4108488
13	0x3d80d303	0.06290247
14	0x3f3f2a32	0.7467376
15	0x3e60f589	0.21968664
16	0x3cf18ed2	0.029487047
17	0xbf635812	-0.8880626
18	0x3e8c7535	0.27433172
19	0x3ead687c	0.33868778
20	0x3ecaa8d0	0.3958192
21	0x3eb2ba93	0.3490797
22	0x3ea4c777	0.3218343
23	0x3fa43204	1.2827764
24	0x3e7c720b	0.24652879
25	0x3f5c6d70	0.8610449
26	0x3dafd93d	0.08586357
27	0xbd6b6a16	-0.05747422
28	0xbe888e3f	-0.26671025
29	0x3f2ee191	0.6831294
30	0x3f32002f	0.6953153
31	0x3ef48e72	0.47764927
32	0x3f2b8e63	0.6701414
33	0x3e614689	0.21999563
34	0xbfd008f3	-1.6252731
35	0x3dcfbfd9	0.10144014
36	0x3dc52dd8	0.096278846
37	0xbe9863e4	-0.2976371
38	0x3eff3cd8	0.49851108
39	0x3f954c44	1.16639
40	0xbf170949	-0.58998543
41	0x3f1ea281	0.6196671
42	0xbebcbfd4	-0.36865103
43	0x3aaab9d5	0.0013025353
44	0x3e04bdaa	0.12962976
45	0xbe45dbad	-0.19322081
46	0xbf1843a1	-0.59478194
47	0xbe9b72b2	-0.30360943
48	0xbfb1c36d	-1.3887764
49	0xbf03e7a2	-0.5152532
50	0x3d9384df	0.072030775
51	0xbea6719b	-0.3250855
52	0xbfc1e8a0	-1.5149117
53	0xbf4123e1	-0.7544537
54	0xbff83cff	-1.9393615
55	0x3e9299fa	0.286331
56	0x3d8cfecd	0.06884537
57	0xbebdeeb4	-0.3709618
58	0xbea05d39	-0.31321123
59	0xbd71caef	-0.059031423
60	0x3e1f44c2	0.15553573
61	0x3f8c216a	1.0947697
62	0xbccb8d70	-0.024847716
63	0xbf309dda	-0.6899086
64	0xbf0ebf62	-0.55760777
65	0x3fa4db3b	1.2879404
66	0xbeb6a785	-0.35674682
67	0xbeca847e	-0.3955421
68	0x3f7555dc	0.95834136
69	0xbe5887d6	-0.21145567
70	0xbe8a1289	-0.26967266
71	0xbf34b538	-0.7058902
72	0x3f3e12d7	0.742475
73	0xb97bef53	-0.0002402638
74	0x3ca1e881	0.019764187
75	0xbd8dd0a8	-0.06924564
76	0xbe96294d	-0.29328385
77	0xbf249c41	-0.64300925
78	0xbf1a9c34	-0.603946
79	0xbe4e6ddf	-0.201591
80	0x3f1bf477	0.609199
81	0xbe34704c	-0.17620963
82	0xbf9c8bde	-1.2230184
83	0xbedc2f6c	-0.4300493
84	0xbf63693f	-0.8883247
85	0x3e873977	0.2641103
86	0xbee4e321	-0.44704536
87	0x3ea3701a	0.31921464
88	0x3cc6394e	0.024197247
89	0xbf4c7080	-0.7985916
90	0xc045709c	-3.0849981
91	0x3f0d1786	0.5511402
92	0x3edca249	0.43092564
93	0x3ed736cf	0.42034003
94	0xbdd41c2c	-0.10356936
95	0x3f65e8c3	0.8980829
96	0xbe4fcf78	-0.20293987
97	0xbfca890a	-1.5823071
98	0x3f15420c	0.58303905
99	0x3f0e1df3	0.5551445
100	0x3f0e0d52	0.55489075
101	0x3ecf3b7a	0.40475065
102	0xbd7e2a7c	-0.062052235
103	0x3e87e29b	0.26540074
104	0x3f389ab4	0.7211106
105	0x3e35733c	0.1771974
106	0xc0290568	-2.640955
107	0x3eee5f52	0.465571
108	0xbf02a6fc	-0.5103605
109	0xbecaa8cb	-0.39581904
110	0xbf7847bd	-0.96984464
111	0x3d38b480	0.045094013
112	0xbf939118	-1.1528654
113	0xbf14a8f4	-0.580703
114	0x3ed5c537	0.41752025
115	0x3d222503	0.03958608
116	0x3f28637e	0.65776813
117	0x3f7d3846	0.9891399
118	0x3f016fd6	0.50561273
119	0x3e8cddac	0.27512872
120	0xbf8d753e	-1.1051404
121	0x3e62ec75	0.22160514
122	0xbe6def1e	-0.23235747
123	0xbf884b3f	-1.0647963
124	0x3e8a783b	0.27044854
125	0x3ea833c7	0.32852003
126	0x3eaa42e5	0.3325416
127	0x3d8a4400	0.06751251
128	0x3f39cfce	0.7258271
129	0x3db657ed	0.08903489
130	0x3d904854	0.070450455
131	0x3e4b390c	0.1984598
132	0x3f3ebc30	0.745059
133	0x3ef5ada7	0.4798405
134	0x3e94404c	0.28955305
135	0x3ec0d8e9	0.3766549
136	0x3e267f56	0.16259512
137	0xbd8aded9	-0.06780786
138	0xbeb8a93d	-0.3606662
139	0xbf673367	-0.9031281
140	0x3f5848d4	0.84486127
141	0x3a1f1b89	0.0006069472
142	0x3e9cf416	0.30654973
143	0x3f5b7290	0.85721684
144	0x3e9255d5	0.2858111
145	0xbd8ae02b	-0.06781038
146	0xbe159e5c	-0.1461119
147	0xbf069fcb	-0.52587575
148	0x3f5a8aea	0.85368216
149	0xbbad1319	-0.0052818176
150	0x3f3ed0ff	0.7453765
151	0x3db90cb5	0.09035627
152	0x3ef425db	0.4768513
153	0x3f42ad31	0.7604552
154	0xbe9a3caf	-0.30124423
155	0x3f063a1b	0.5243241
156	0x3ea2a687	0.31767675
157	0xbdf23537	-0.11826556
158	0xbca0870f	-0.019595651
159	0x3f0ad856	0.5423635
160	0x3f545f88	0.8295827
161	0xbedf52c6	-0.4361784
162	0xbeaed2a3	-0.34145078
163	0x3e83b0b6	0.25720757
164	0x3f352d60	0.7077236
165	0x3e5f79ec	0.21823853
166	0x3f06f6df	0.52720445
167	0x3f5da0fd	0.86573774
168	0x3f2b1a5a	0.66837084
169	0x3f55536d	0.8333042
170	0xbcee67df	-0.029102264
171	0x3f0c9919	0.5492111
172	0x3f80e95a	1.0071213
173	0x3ea78f2d	0.32726422
174	0x3f59b3bf	0.85039896
175	0xbe0183f0	-0.12647986
176	0x3eda3338	0.42617202
177	0xbf700f98	-0.93773794
178	0x3effbab3	0.49947128
179	0x3f10480b	0.5635993
180	0x3ecea476	0.4035985
181	0x3f147c10	0.58001804
182	0xbe7d5fc8	-0.24743569
183	0x3e0be12f	0.1366012
184	0x3e5489ec	0.20755738
185	0x3f2e7885	0.6815265
186	0xbeaaf8ea	-0.3339303
187	0xbf5ad141	-0.85475546
188	0x3f3bbbc2	0.7333337
189	0xbd6481c1	-0.055787805
190	0x3e791b23	0.24326758
191	0xbd0a4f1d	-0.033766855
192	0xbeca1087	-0.39465734
193	0xbdfcc5bf	-0.123424046
194	0x3ebc15de	0.36735433
195	0x3f047ccf	0.5175294
196	0x3f17cef3	0.59300154
197	0x3edcf12f	0.43152758
198	0xbe968a93	-0.294026
199	0x3eee4290	0.46535158
200	0x3f780a8d	0.968911
201	0x3e12a4ac	0.1432063
202	0xc0638d6b	-3.5555065
203	0x3f0db14d	0.55348665
204	0xbf27e190	-0.65578556
205	0xbfbf6c89	-1.4954997
206	0xbfc00c1f	-1.5003699
207	0x3e2dc3e9	0.16969265
208	0x3fac49cd	1.3460022
209	0xbe0e4230	-0.13892436
210	0x3ddbee68	0.10738832
211	0x3f09685e	0.53674877
212	0xbf3cb3a0	-0.73711586
213	0xbee8ab12	-0.45443016
214	0xbe168fc9	-0.14703287
215	0x3e3ce37f	0.18446158
216	0x3e5e584d	0.21713372
217	0x3ef61a4b	0.48066935
218	0x3e96e029	0.29467896
219	0xbf701b70	-0.93791866
220	0x3eee3e53	0.46531925
221	0xbf602ef5	-0.8757165
222	0xbe666de2	-0.22502854
223	0x3f95509b	1.1665224
224	0xbe6d43f4	-0.23170453
225	0xbdda3f5e	-0.106566176
226	0xbede7788	-0.4345057
227	0x3edc834b	0.4306892
228	0x3dca21fa	0.09869762
229	0x3f5fceff	0.87425226
230	0x3f0138b3	0.5047714
231	0xbea78eef	-0.32726237
232	0x3de715f7	0.11283486
233	0x3ee21d48	0.44162965
234	0xbea615be	-0.32438463
235	0xbf228229	-0.6347986
236	0x3eaa3a31	0.33247522
237	0x3de567ed	0.11201463
238	0xbf3dbe80	-0.74118805
239	0x3ebe46a7	0.37163278
240	0xbf7b462e	-0.9815396
241	0xbf15eac1	-0.5856133
242	0x3e40280f	0.18765281
243	0xbf1d3356	-0.6140646
244	0x3f3f4504	0.74714684
245	0x3f02d47d	0.5110548
246	0x3f0ef281	0.5583878
247	0x3eebf832	0.46087795
248	0x3ebacc80	0.36484146
249	0xbf51c892	-0.8194667
250	0xbe309dfa	-0.17247763
251	0xbf8448a5	-1.0334669
252	0xbf22a183	-0.635277
253	0xbe728f6e	-0.23687527
254	0xbf568eb4	-0.838115
255	0x3ee82e2e	0.45347732

fc2.bias f4 [16]
0	0xbfefed73	-1.8744339
1	0xbf7f67e8	-0.99767923
2	0xbfe8ef5b	-1.8198045
3	0xbf328d59	-0.6974693
4	0xbf8ef1ca	-1.1167538
5	0xbf8da997	-1.106738
6	0xbfa5c17f	-1.2949675
7	0xbfbbe951	-1.4680578
8	0xbc321530	-0.010869309
9	0xbe310ad5	-0.17289288
10	0xbf510f1e	-0.8166369
11	0xbff16ce8	-1.886136
12	0x3f15c4ef	0.5850362
13	0xbfc0f52c	-1.507482
14	0xbf6dab24	-0.92839265
15	0xbf8fbdeb	-1.1229833

fc3.weight f4 [16, 16]
0	0xbe51210f	-0.20422767
1	0xbc9e39ac	-0.01931461
2	0xbf5a0e39	-0.8517795
3	0x3f8690f6	1.0512989
4	0xbead9071	-0.33899263
5	0x3f16598a	0.58730376
6	0x3f6ea7b1	0.93224627
7	0x3eb1b20a	0.34706146
8	0x3e5cdd3a	0.21568766
9	0x3f027115	0.509538
10	0x3f1b5ce8	0.6068864
11	0x3da22c6b	0.07918628
12	0x3fcc0960	1.5940361
13	0x3f4a9c1f	0.7914447
14	0xbc77eec3	-0.015132609
15	0x3de751ee	0.11294924
16	0xbd68235d	-0.05667435
17	0x3deb109e	0.11477779
18	0xbf26e120	-0.65187263
19	0x3f88bd11	1.0682698
20	0xbe70f38a	-0.23530403
21	0x3f66bed1	0.9013491
22	0x3f8371e0	1.0269127
23	0x3f17e8fe	0.5933989
24	0x3ea30a7d	0.3184394
25	0x3e769b85	0.24082763
26	0x3eebe1c9	0.46070698
27	0x3e34d732	0.17660215
28	0x3fba84fa	1.4571831
29	0x3f18be43	0.59665316
30	0x3ef5c3e4	0.48001015
31	0x3e9cda6c	0.30635393
32	0xbf239f0c	-0.6391456
33	0xbddc5e87	-0.10760217
34	0x3eb9bf1f	0.36278626
35	0xbf47ddca	-0.780728
36	0x3d5bbcdb	0.053646903
37	0xbf39f127	-0.72633594
38	0xbf3bd79f	-0.73375887
39	0x3e26eca3	0.16301207
40	0x3dd28d57	0.10280865
41	0x3d3aca6c	0.0456032
42	0x3ed4dce1	0.41574767
43	0xbeedd8ae	-0.46454376
44	0xbe8bef7b	-0.27331147
45	0x3d50f60e	0.051015906
46	0xbd80a68b	-0.062817656
47	0xbf198dbd	-0.599819
48	0xbfb7c724	-1.4357648
49	0x3f935caa	1.1512654
50	0xbed37084	-0.4129678
51	0x3f6b204c	0.91846156
52	0xbf26ecf0	-0.6520529
53	0xbf668114	-0.9004071
54	0xbf5f9abf	-0.873455
55	0xbf2accef	-0.66718954
56	0xbf93eecf	-1.1557254
57	0xbf241ba2	-0.64104664
58	0xbf2828fc	-0.6568754
59	0xbee69ab3	-0.450399
60	0xbebf80de	-0.37403005
61	0x3f50f41c	0.8162248
62	0x3ec03870	0.37543058
63	0xbe63693d	-0.22208114
64	0x3f9ecadc	1.2405658
65	0xbd8f0e48	-0.06985146
66	0xbf658223	-0.896517
67	0x3e3952ec	0.18098038
68	0xc0004344	-2.0041056
69	0x3edab3fe	0.42715448
70	0x3faf6071	1.3701307
71	0x3f3d4379	0.7393108
72	0xbe8c8c1e	-0.2745065
73	0xbd7f0136	-0.062257014
74	0x3ebdc517	0.3706443
75	0x3f0d5448	0.5520673
76	0x3e7593f6	0.23982224
77	0x3f277eba	0.65427744
78	0x3e82fabf	0.2558193
79	0x3e1f64f7	0.15565859
80	0xbccc2a30	-0.02492246
81	0xbeace0d6	-0.33765286
82	0xbdbbd88e	-0.09172164
83	0x3d970cfc	0.073755234
84	0xbe953428	-0.29141355
85	0xbe5a6350	-0.21326947
86	0xbe73c352	-0.23804978
87	0xbe77ec26	-0.24211177
88	0xbdba664d	-0.091015436
89	0xbdd1730c	-0.102270216
90	0xbe98abda	-0.29818612
91	0xbe5b6e38	-0.21428764
92	0xbe05f55a	-0.13081875
93	0xbdb977a3	-0.09056022
94	0xbe83d6e3	-0.25749883
95	0x3e148150	0.14502454
96	0x3ddcad7d	0.10775278
97	0xbe88e5ac	-0.26737726
98	0xbe8ebc19	-0.27877882
99	0x3d4c24a2	0.049839623
100	0x3aea96c7	0.0017897718
101	0xbdf6b5b3	-0.12046375
102	0x3e5dbfee	0.21655247
103	0x3de44d81	0.11147595
104	0xbe73cb0a	-0.23807922
105	0xbe176d10	-0.14787698
106	0xbcabda2a	-0.020978052
107	0x3d4e42c7	0.050356653
108	0xbe4cf64e	-0.20015833
109	0xbdfca0ef	-0.12335383
110	0xbe417fcd	-0.18896408
111	0xbe14cfbb	-0.14532368
112	0xbf376968	-0.7164521
113	0x3eb60e37	0.3555772
114	0xbe77f159	-0.2421316
115	0xbdd257da	-0.102706626
116	0xbf0fb0a8	-0.5612893
117	0xbf27c266	-0.65531003
118	0xbe9073c6	-0.28213328
119	0x3e64d33e	0.22346207
120	0xbf0979a1	-0.53701216
121	0x3ec07a66	0.37593383
122	0xbef1f104	-0.47254193
123	0x3c5616a5	0.013066922
124	0x3f0295cc	0.5100982
125	0xbf8a8442	-1.0821612
126	0xbf2157f8	-0.63024855
127	0x3f0b52db	0.544233
128	0xbed53740	-0.41643715
129	0xbd8fcd59	-0.07021589
130	0x3e9c4c9f	0.30527207
131	0x3f2cf994	0.67568326
132	0xbda87499	-0.08225364
133	0xbea1cb7e	-0.31600565
134	0x3e256c7b	0.16154663
135	0x3ef787a7	0.48345682
136	0x3d9b65be	0.07587765
137	0xbec8cfef	-0.3922114
138	0xbec1de5e	-0.37864965
139	0x3f1a441c	0.60260177
140	0xbecc6314	-0.3991934
141	0xbe12c64b	-0.14333455
142	0xbf22811d	-0.6347826
143	0xbf18f31c	-0.59745955
144	0x3d914e10	0.07094967
145	0xbe2ce890	-0.1688559
146	0xbec9c391	-0.39407018
147	0x3f102634	0.56308293
148	0xbf276114	-0.65382504
149	0x3ec3cd54	0.3824259
150	0x3e8c616b	0.27418074
151	0xbec8e234	-0.3923508
152	0xbef5fb4d	-0.4804329
153	0x3e19551e	0.14973876
154	0x3e980cbf	0.29697224
155	0x3d3facf8	0.046795815
156	0x3ec9d77f	0.39422223
157	0x3d2c71f9	0.04210088
158	0x3c24fed6	0.010070523
159	0x3d984d3b	0.074366055
160	0x3f52fd00	0.824173
161	0x3eed01b1	0.46290353
162	0xbfcf48a2	-1.6194041
163	0x3f0088cb	0.5020873
164	0xbf6baf37	-0.9206423
165	0x3f359434	0.70929265
166	0x3f7d5166	0.9895233
167	0x3efcd42f	0.49380633
168	0x3d4bab40	0.049723864
169	0x3e3ab991	0.1823485
170	0x3f01f506	0.507645
171	0x3ef14b2f	0.47127673
172	0x3f6e571b	0.9310166
173	0x3e9c9bcf	0.30587623
174	0x3e627f51	0.2211888
175	0x3d011db6	0.031522475
176	0xbe1e3a8e	-0.15452024
177	0xbe2b85c1	-0.16750242
178	0xbe5d8974	-0.21634465
179	0xbe30cda0	-0.1726594
180	0xbc048c40	-0.008090079
181	0x3da2fce0	0.07958388
182	0xbd8ac76c	-0.06776318
183	0xbe6d2eb3	-0.23162346
184	0xbe482cd8	-0.19548357
185	0xbe813bac	-0.2524084
186	0xbdbfe62e	-0.09370075
187	0x3d3d7fef	0.046264585
188	0xbd0da5c0	-0.0345819
189	0xbe6a1d8c	-0.22862834
190	0xbe9c295a	-0.305003
191	0x3dcb8c78	0.09938902
192	0x3c55604f	0.01302345
193	0x3db93350	0.0904299
194	0xbee15587	-0.44010565
195	0xbe80aa1d	-0.25129786
196	0xbd833948	-0.0640741
197	0xbdeefa16	-0.11668794
198	0x3e54f7b4	0.20797616
199	0xbd7b0f82	-0.061294086
200	0xbe944fda	-0.28967172
201	0xbdc4b8fd	-0.09605596
202	0xbea80f81	-0.3282433
203	0xbcf2ad24	-0.029623576
204	0xbed32485	-0.412388
205	0xbe2842a9	-0.16431679
206	0xbd2b1fbc	-0.04177831
207	0xbe74c3e5	-0.23902853
208	0xbd97ab79	-0.07405753
209	0xbe1266e0	-0.14297056
210	0xbed5723f	-0.41688725
211	0xbbd62179	-0.006534752
212	0xbde62a3b	-0.112385236
213	0xbe8ccbd9	-0.27499273
214	0x3df6e441	0.12055255
215	0xbebf1d5e	-0.37327093
216	0xbe9fcb51	-0.31209806
217	0xbd4cbc8e	-0.049984507
218	0xbc3bfdc4	-0.011474077
219	0xbe664d12	-0.22490337
220	0xbdada554	-0.084787995
221	0xbe8a8b99	-0.2705963
222	0xbe13b115	-0.1442302
223	0xbe330823	-0.17483573
224	0x3f5b9c4c	0.85785365
225	0xbf6f915b	-0.9358117
226	0x3eca9db7	0.39573452
227	0x3e0bb71c	0.1364407
228	0x3f5edf4b	0.8705947
229	0xbf147aa1	-0.57999617
230	0xbe6a1a8c	-0.2286169
231	0x3f06c624	0.5264609
232	0xbe9d3934	-0.30707705
233	0x3eac2c4e	0.33627552
234	0xbdcca221	-0.09991861
235	0xbf440e81	-0.7658463
236	0x3ee50ffa	0.44738752
237	0x3fc0884d	1.5041596
238	0x3e8e58fe	0.2780227
239	0xbf90ec7e	-1.1322172
240	0x3f928f7f	1.1450042
241	0xbeda9532	-0.42691952
242	0xbfad1210	-1.3521137
243	0x3f8a7677	1.0817403
244	0xbfca1cfb	-1.5790094
245	0x3eeb6395	0.45974413
246	0x3e68b7cf	0.22726367
247	0xbf559d44	-0.83443093
248	0xbe97a23a	-0.29615957
249	0xbea7dd32	-0.32785946
250	0x3e43a36a	0.19105306
251	0x3d89354c	0.06699619
252	0x3f588a6a	0.84586203
253	0x3d7d339e	0.061816804
254	0x3e8d9bb0	0.27657843
255	0x3d6dd1ab	0.058061283

fc3.bias f4 [16]
0	0xbe89266e	-0.26787132
1	0xbe8215cc	-0.25407255
2	0x40016b0d	2.0221589
3	0xbf46e88f	-0.77698606
4	0xbfe3b70e	-1.7790239
5	0xbecdcc51	-0.40194944
6	0xbecd70ab	-0.4012502
7	0x3fa1eaa7	1.2649735
8	0xbe11e35c	-0.14246887
9	0xbf24d2a5	-0.6438392
10	0xbf9bda81	-1.2176057
11	0xbe9aad45	-0.3021032
12	0xbeacc372	-0.33742863
13	0xbe3169c1	-0.17325498
14	0xbfef1094	-1.8676934
15	0xbf0a934d	-0.54131013

fc4.weight f4 [16, 16]
0	0xbe562b00	-0.2091484
1	0xbdbac326	-0.09119253
2	0xbe9986de	-0.29985708
3	0xbe3c7628	-0.18404448
4	0xbd3fc6c2	-0.04682041
5	0xbe8784e7	-0.26468584
6	0xbdb78c1f	-0.08962273
7	0xbead61d5	-0.33863702
8	0xbd0d96fb	-0.034567814
9	0x3e0369a3	0.12833266
10	0xbe06d9ef	-0.13169073
11	0x3cee8d8c	0.02912023
12	0xbe08104f	-0.13287471
13	0x3e4807be	0.19534203
14	0xbedcc7b1	-0.43121102
15	0xbe93268d	-0.2874035
16	0x3f15ce75	0.58518153
17	0x3eebfd8e	0.46091884
18	0x3e031071	0.1279924
19	0x3f6b234e	0.91850746
20	0x3f546528	0.8296685
21	0xbd3efd66	-0.04662838
22	0xbcebca55	-0.028783003
23	0x3c09a78e	0.008401765
24	0xbca07618	-0.019587561
25	0x3c942c9f	0.018087683
26	0x3ec43aaf	0.38326022
27	0xbe61ea50	-0.2206204
28	0xbddef099	-0.10885734
29	0xbd3c4877	-0.045967545
30	0xbf3e7d4c	-0.7440994
31	0x3e989b7b	0.29806122
32	0xbbf1ab85	-0.007375183
33	0xbe23ae88	-0.15984547
34	0xbe41ed1f	-0.18938111
35	0xbd9139d6	-0.070911095
36	0x3db343fa	0.087532
37	0x3cda2100	0.026627064
38	0x3d200327	0.039065506
39	0xbee1bf14	-0.44091094
40	0x3db79c5d	0.08965371
41	0x3d12ee79	0.035871956
42	0x39c874e9	0.00038234078
43	0x3e2c2f39	0.16814889
44	0xbd86506c	-0.06558308
45	0xbd5be9d4	-0.053689793
46	0xbebb748e	-0.36612362
47	0xbdd48a83	-0.103779815
48	0xbc8359eb	-0.016034087
49	0xbd6df185	-0.05809166
50	0xbe2c763c	-0.16841978
51	0x3dbb18d4	0.09135595
52	0x3df87473	0.12131586
53	0xbe3bf200	-0.18354034
54	0xbe3a071a	-0.18166772
55	0xbe211081	-0.15728952
56	0xbc96c817	-0.018405957
57	0xbe09090a	-0.13382354
58	0xbe5291e7	-0.2056347
59	0x3d81f358	0.06345242
60	0xbe67a24c	-0.22620505
61	0xbe3b1554	-0.18269855
62	0xbda11b08	-0.07866484
63	0x3b3fea03	0.002928377
64	0xbc8c6b19	-0.017140912
65	0xbe8c175f	-0.2736158
66	0xbe46dea6	-0.19420871
67	0xbe618808	-0.22024548
68	0xbf3ef529	-0.74592835
69	0xbe009c69	-0.12559666
70	0xbe137d9c	-0.14403385
71	0x3ca024be	0.01954877
72	0x3e29aa83	0.16568951
73	0xbece0dbe	-0.4024486
74	0xbdc3125f	-0.095249884
75	0xbe3c3216	-0.18378481
76	0x3d4e7f68	0.050414473
77	0x3daede5c	0.085385054
78	0x3da54d40	0.08071375
79	0xbdda6dae	-0.10665451
80	0xbebfe292	-0.37477547
81	0xbeef4577	-0.46732685
82	0xbe5fd4c7	-0.21858512
83	0xbd092bbb	-0.03348897
84	0xbdf30a62	-0.11867215
85	0x3c8978d0	0.01678124
86	0xbe4f03ef	-0.20216344
87	0xbe2aa836	-0.1666573
88	0xbd782273	-0.06057973
89	0xbc2b647d	-0.01046097
90	0xbe5a8d8c	-0.21343058
91	0xbe7b21b8	-0.24524581
92	0x3e1dd079	0.15411557
93	0xbe1a4e6b	-0.15068977
94	0xbe087fd7	-0.13330017
95	0xbe71b291	-0.23603274
96	0x3e0e7c73	0.13914661
97	0x3d255c61	0.040371303
98	0xbfa65b0b	-1.2996534
99	0x3f198b64	0.5997832
100	0x3f9c71a4	1.222218
101	0xbdac7680	-0.084210396
102	0x3b8f9107	0.0043813023
103	0xbfa950cd	-1.3227783
104	0xbee946b1	-0.45561746
105	0x3e82012f	0.25391528
106	0x3ef228b9	0.47296694
107	0x3e6a1d92	0.22862843
108	0x3ceadd58	0.028669998
109	0x3d5f2ca4	0.054485932
110	0xbf34652a	-0.70466864
111	0x3ef753d1	0.48306134
112	0xbed074f4	-0.40714228
113	0xbeda47d0	-0.42632914
114	0xbf013c50	-0.50482655
115	0x3e52da85	0.20591171
116	0xbeabdfe3	-0.3356925
117	0x3d8b5104	0.06802562
118	0xbd805d14	-0.06267753
119	0xbe97875f	-0.29595467
120	0xbdb3a04c	-0.087708086
121	0xbe0aba6d	-0.13547678
122	0x3db27da3	0.087153696
123	0xbe211d7a	-0.157339
124	0xbe45edbe	-0.19328973
125	0x3e407f02	0.1879845
126	0x3e6e54c8	0.23274529
127	0x3ea84d48	0.3287146
128	0xbf8ac5c6	-1.0841606
129	0xbf81df48	-1.0146265
130	0x3b8603c0	0.0040898025
131	0xbf0e95e4	-0.55697465
132	0x3e5df429	0.21675171
133	0x3e4b1204	0.19831091
134	0xbe5c5833	-0.2151802
135	0xbe9397b9	-0.28826693
136	0x3e2018a0	0.15634394
137	0xbf658e5c	-0.8967035
138	0xbf2bc641	-0.67099386
139	0xbd02c0c0	-0.031922102
140	0xbda7d547	-0.08194976
141	0x3eafb860	0.34320354
142	0x3f821e1a	1.0165436
143	0xbf5ab493	-0.85431784
144	0xbca65051	-0.02030197
145	0xbdcb401e	-0.09924339
146	0xbf2311ed	-0.6369923
147	0x3e00fb75	0.12595923
148	0x3d864aba	0.06557222
149	0xbe32139b	-0.17390291
150	0xbd2acbef	-0.041698392
151	0xbf3424b0	-0.7036848
152	0x3de74580	0.11292553
153	0xbea63ac9	-0.32466725
154	0xbd8dee5b	-0.06930228
155	0x3e5f61bc	0.21814626
156	0xbe0342e6	-0.12818488
157	0x3dca7793	0.09886088
158	0xbe89dc70	-0.26925993
159	0xbeafd482	-0.34341818
160	0x3f1f8714	0.6231549
161	0x3ef7eb4e	0.4842171
162	0xbe9e79c9	-0.3095229
163	0x3f5d23dd	0.8638285
164	0x3f292121	0.66066176
165	0xbd999059	-0.07498235
166	0xbd93b98d	-0.072131254
167	0xbe97ff5d	-0.29687014
168	0xbee1fda9	-0.4413884
169	0x3ead0a6d	0.33797017
170	0x3f123dc6	0.5712551
171	0xbd4242d9	-0.047427032
172	0x3d6260d5	0.055268127
173	0x3e3f515b	0.18683378
174	0xbf7e71d4	-0.9939244
175	0x3f1ef84d	0.62097627
176	0x3e1c8e13	0.15288572
177	0xbe185282	-0.14875224
178	0x3cb9ac04	0.022665031
179	0x40053547	2.0813768
180	0x3f924d58	1.1429853
181	0x3deca626	0.11555128
182	0xbda8643e	-0.08222245
183	0xbf1aaa3e	-0.6041602
184	0xbdb553be	-0.08853863
185	0x3d7c2654	0.06155999
186	0x3f1c3a02	0.6102601
187	0x3e0e55a7	0.13899861
188	0x3c83f66f	0.01610872
189	0xbe47634f	-0.19471477
190	0xbfe0708b	-1.7534345
191	0x3ef0826f	0.46974513
192	0xbed1bab3	-0.40962753
193	0xbe7d6e0b	-0.2474901
194	0xbf5978d9	-0.84950024
195	0xbe0b1e02	-0.13585666
196	0x3ee57044	0.44812214
197	0x3d8c4af4	0.06850234
198	0x3e4095c4	0.18807131
199	0xbf52485e	-0.82141674
200	0xbd2b4b28	-0.04181972
201	0xbea74e53	-0.32676944
202	0x3ea92a00	0.33039856
203	0xbe123802	-0.14279178
204	0xbe588c39	-0.2114724
205	0x3d9ab87f	0.07554721
206	0xbf07a51a	-0.529863
207	0xbe41ad6a	-0.18913808
208	0xbf829d20	-1.0204201
209	0xbf4eadc6	-0.8073391
210	0x3f0155dd	0.5052164
211	0xbe9d5fae	-0.3073706
212	0x3e9707aa	0.29498035
213	0x3d6d0208	0.057863265
214	0xbd06cb54	-0.032908753
215	0x3f1bd3e4	0.60870194
216	0xbe595bc3	-0.2122641
217	0xbe856401	-0.2605286
218	0xbec1a30f	-0.37819716
219	0xbe3f3ada	-0.18674794
220	0x3d9f6d9f	0.077845804
221	0x3d6b17a0	0.057395577
222	0xbf454b0e	-0.7706765
223	0xbf86e834	-1.0539613
224	0x3ba4bd62	0.005027459
225	0x3e73fa13	0.23825864
226	0xbff241fd	-1.8926388
227	0x40017ad0	2.0231209
228	0xbc53c732	-0.01292591
229	0xbd4cc5c8	-0.049993306
230	0xbdd39854	-0.10331789
231	0xbff79bc9	-1.9344417
232	0xbf3e68fa	-0.7437893
233	0xbdab3690	-0.08360016
234	0x3f0ef0a9	0.5583597
235	0xbe577c40	-0.21043491
236	0xbe9ef627	-0.31047174
237	0x3c4464e3	0.011986944
238	0x3e2350b1	0.1594875
239	0x3eb541e5	0.35401836
240	0xbc7bdd96	-0.015372654
241	0xbd10750a	-0.035267867
242	0xbe85a566	-0.26102751
243	0x3f36de4f	0.71432966
244	0x3f84d34e	1.0376985
245	0xbd8d8d08	-0.06911665
246	0xbdc41dac	-0.09575972
247	0xbf186e67	-0.5954346
248	0xbe5bf14a	-0.21478763
249	0xbe414578	-0.18874156
250	0x3eac0721	0.3359919
251	0xbea4fdbb	-0.3222483
252	0xbeb464e0	-0.35233212
253	0x3d12e032	0.03585834
254	0xbfd3752a	-1.6520131
255	0x3cd27976	0.025692683

fc4.bias f4 [16]
0	0xbe9127d8	-0.2835071
1	0xbe2bb13c	-0.16766828
2	0x3dac5c65	0.0841606
3	0xbdce5a14	-0.10075775
4	0xbd4a0a20	-0.049326062
5	0xbe3dba01	-0.18527986
6	0xc0312c5e	-2.768333
7	0xbed1cd74	-0.4097706
8	0x3d3fbf99	0.04681358
9	0xbe1fca20	-0.15604448
10	0xbebb1571	-0.36539796
11	0xbf1618df	-0.586317
12	0xbf755602	-0.9583436
13	0x3f5c0eb0	0.8595991
14	0xbfd56190	-1.6670399
15	0xbf22d384	-0.63604

fc5.weight f4 [16, 16]
0	0xbe74955d	-0.23885103
1	0x3e37b3e7	0.17939721
2	0xbddb83ff	-0.10718536
3	0x3e6bb014	0.23016387
4	0xbd543889	-0.05181173
5	0x3de2614c	0.11053714
6	0x3fb56922	1.4172709
7	0xbda30e2f	-0.0796169
8	0xbf387846	-0.7205852
9	0x3da9b91d	0.08287261
10	0x3eaa1c34	0.33224642
11	0x3ec90c03	0.39266977
12	0x3e32107c	0.17389101
13	0xbf5be608	-0.85897875
14	0x3f23758f	0.63851255
15	0xbdac65b5	-0.084178366
16	0x3e068937	0.13138281
17	0xbdda1a98	-0.106496036
18	0xbcd29e2c	-0.025710188
19	0xbd05e824	-0.03269209
20	0xbebbd377	-0.36684772
21	0x3da8ea0e	0.082477674
22	0x401f2e88	2.487215
23	0xbf148651	-0.5801745
24	0xbe3773c7	-0.1791526
25	0xbe58f2da	-0.2118639
26	0xbe8b57f2	-0.27215534
27	0x3e503ba0	0.20335245
28	0x3da5b837	0.08091777
29	0xbe3eefd6	-0.18646178
30	0x3eec1d49	0.46116093
31	0x3de1570e	0.110029325
32	0xbd7c16a1	-0.061545018
33	0x3eafd5e9	0.34342888
34	0xbce09d8a	-0.02741887
35	0x3b4282ef	0.0029680093
36	0xbe2644f4	-0.16237241
37	0x3ccae03d	0.024765128
38	0x3fc59e4d	1.5438935
39	0xbdadd905	-0.08488659
40	0xbf19da5e	-0.60098827
41	0xbea1d616	-0.31608647
42	0x3e9f9c1f	0.31173798
43	0x3ed5ce24	0.41758835
44	0x3c682f5d	0.014171449
45	0xbe46ca79	-0.19413175
46	0x3f8e36a6	1.1110427
47	0x3eb2c052	0.34912354
48	0xbb925d16	-0.004466663
49	0xbd91bd65	-0.07116202
50	0x3e0adc7c	0.1356067
51	0x3e16d9aa	0.1473147
52	0xbe3a4d19	-0.18193473
53	0xbe03b9b2	-0.12863806
54	0x3e942c2e	0.28939956
55	0xbd920ba8	-0.071311295
56	0xbef66088	-0.48120522
57	0x3e614abb	0.22001164
58	0xbe11ce16	-0.14238772
59	0xbeaeb764	-0.3412429
60	0xbe143874	-0.1447466
61	0xbf31f704	-0.6951754
62	0xbdbfbd70	-0.09362304
63	0xbda61a62	-0.08110501
64	0xbd0305bf	-0.0319879
65	0xbe6e51f4	-0.2327345
66	0x3e544c82	0.2073231
67	0xbe1aea12	-0.15128353
68	0xbdd978e0	-0.10618758
69	0xbcf13653	-0.02944485
70	0x3f9abdbe	1.2089155
71	0x3e215ddf	0.15758465
72	0xbe6150b3	-0.2200344
73	0x3db8fd86	0.09032731
74	0x3d800c7f	0.062523834
75	0x3d4d96b2	0.050192542
76	0xbe2bb25c	-0.16767257
77	0x3e1fc22c	0.15601414
78	0x3dbc3b8e	0.09191047
79	0xbd13f4b1	-0.036122028
80	0x3d505f6b	0.050872248
81	0xbe5e60e6	-0.21716651
82	0xbe966b33	-0.29378662
83	0xbd60469d	-0.054754842
84	0xbe2977ad	-0.16549559
85	0xbe4b627c	-0.19861788
86	0xbe233a1e	-0.15940139
87	0xbdc5e494	-0.096627384
88	0xbeafa9d2	-0.3430925
89	0xbe8280a0	-0.25488758
90	0xbdb60ac4	-0.08888772
91	0xbe0d9d90	-0.13829637
92	0xbd1f1839	-0.03884146
93	0xbc4038cd	-0.011732292
94	0xbcedc1d3	-0.029023087
95	0xbcbc9aad	-0.023022974
96	0xbe9774b3	-0.29581222
97	0xbe3161a2	-0.173224
98	0x3c259baf	0.010107919
99	0xbe656a74	-0.2240389
100	0x3c7cb860	0.015424818
101	0x3e11d792	0.1424239
102	0x3d915031	0.070953734
103	0x3b2c1b80	0.0026261508
104	0xbe1c4924	-0.15262276
105	0xbc08571a	-0.008321548
106	0xbe371964	-0.1788078
107	0xbe292b15	-0.1652034
108	0xbe815c4f	-0.25265738
109	0xbe2df9a4	-0.16989762
110	0xbd80453c	-0.062632054
111	0x3c7122cb	0.014717768
112	0xbe824ef2	-0.25450855
113	0xbd1d12bf	-0.038347956
114	0xbd811634	-0.06303063
115	0xbe511bd8	-0.20420778
116	0xbe29d7e9	-0.1658627
117	0x3dcc48ac	0.099747986
118	0x40174b6c	2.3639784
119	0x3e77e7c0	0.242095
120	0xbe064e1a	-0.13115731
121	0xbe8d3fc0	-0.275877
122	0xbd04d386	-0.032428287
123	0x3d8b28a4	0.06794861
124	0x3f12b49b	0.5730683
125	0x3e2fb1e0	0.17157698
126	0x3f3bfaec	0.7342975
127	0xbdf32f47	-0.11874252
128	0x3d67064f	0.0564025
129	0xbe1efe55	-0.15526707
130	0x3da99543	0.082804225
131	0x3e4b19e6	0.19834098
132	0xbeb3a0b6	-0.3508355
133	0x3dcab989	0.09898669
134	0x40083b11	2.1286051
135	0xbf19fa63	-0.60147685
136	0xbeec2f5b	-0.4612988
137	0xbd19081d	-0.037361253
138	0xbe27d7f0	-0.16390967
139	0x3e0daac0	0.13834667
140	0x3e65ced2	0.22442177
141	0xbe6f825c	-0.23389572
142	0xb7e4b538	-2.7264105e-05
143	0x3f022e10	0.50851536
144	0xbe92030d	-0.28517953
145	0xbf829e76	-1.0204608
146	0xbd69b97b	-0.057061654
147	0x3e1cf338	0.15327156
148	0x3ebb26a9	0.36552933
149	0xbdf196dc	-0.11796352
150	0x3e7deed6	0.2479814
151	0x3e62d3a7	0.22151051
152	0x3f3ea2a3	0.74466914
153	0x3e4702cc	0.1943466
154	0xbf43399b	-0.76259774
155	0xbf000ca7	-0.50019306
156	0xbdbeb042	-0.09310962
157	0x3f3a0b1f	0.7267322
158	0xbea6dd6f	-0.32590815
159	0xbdd906df	-0.10597014
160	0x3e3b69fe	0.18302152
161	0xbe807aec	-0.25093782
162	0x3e15aa1a	0.1461567
163	0xbd3ae7b5	-0.04563113
164	0xbc8c44ef	-0.017122714
165	0xbcb105f8	-0.021609291
166	0x3fbde8c9	1.4836665
167	0xbefff6b0	-0.49992895
168	0xbe9b623c	-0.30348384
169	0xbda2e82e	-0.07954441
170	0xbe4a4ca3	-0.19755797
171	0xbe3b0b3f	-0.18266009
172	0x3df9a5ff	0.12189864
173	0xbe2c9b99	-0.16856231
174	0xbd935d8e	-0.071955785
175	0xbeb4e7fb	-0.35333237
176	0xbec5e4bb	-0.3865107
177	0xbfaa4316	-1.3301723
178	0xbccf7122	-0.0253225
179	0xbd98f878	-0.07469267
180	0xbe6114b6	-0.21980557
181	0xbe2c7f51	-0.16845442
182	0x3e42ea45	0.19034679
183	0x3ea91362	0.330226
184	0x3f039d50	0.51411915
185	0xbc7a890d	-0.0152914645
186	0xbf6ce627	-0.92538685
187	0xbf64baaa	-0.89347327
188	0xbdba403a	-0.090942815
189	0x3f983e6b	1.1894048
190	0x3e0eae48	0.1393367
191	0xbed4fef3	-0.4160076
192	0xbe42ddab	-0.19029872
193	0xbd96eff7	-0.073699884
194	0xbe1eff90	-0.15527177
195	0x3882f2d2	6.244112e-05
196	0x3e036e75	0.12835105
197	0x3d4aeb63	0.04954089
198	0x3f2b0ee0	0.6681957
199	0xbd48e729	-0.049048577
200	0xbf81898b	-1.01201
201	0xbed5fbf4	-0.41793787
202	0xbd11be99	-0.03558216
203	0xbe03871b	-0.12844507
204	0xbd191858	-0.03737673
205	0xbf47c9ed	-0.7804249
206	0x3f1909de	0.5978068
207	0xbe2669fa	-0.16251364
208	0xbd94afdd	-0.07260106
209	0xbf349f32	-0.7055541
210	0x3e0b2910	0.13589883
211	0x3e3ba65c	0.1832518
212	0x3e9c4982	0.30524832
213	0xbd82344f	-0.06357633
214	0x3f843738	1.0329351
215	0xbd219ebc	-0.03945802
216	0x3c73135c	0.014836159
217	0xbdc027e2	-0.09382607
218	0xbc9173e7	-0.017755462
219	0xbee2e531	-0.44315484
220	0x3d8375e6	0.06418972
221	0x3ed03e0b	0.40672335
222	0x3c8ec29b	0.01742678
223	0x3dc34c66	0.09536056
224	0x3e48bfd9	0.19604434
225	0x3ec0b235	0.3763596
226	0x3dcfbe65	0.10143737
227	0xbd67abb0	-0.05656022
228	0x3c189dbd	0.0093149515
229	0xbe0ba740	-0.1363802
230	0x3f83abd0	1.0286808
231	0x3e35bada	0.1774706
232	0xbf1e20d2	-0.6176883
233	0xbd90e45c	-0.07074806
234	0x3f0221be	0.50832736
235	0x3ec25005	0.37951675
236	0xbd8336e0	-0.06406951
237	0xbedeedc3	-0.43540773
238	0x3f262c4b	0.64911336
239	0x3edbe606	0.4294893
240	0xbdb82c1d	-0.08992789
241	0xbebb8e33	-0.36631927
242	0xbec7204e	-0.38891834
243	0xbbabee40	-0.0052469075
244	0xbddb9cfa	-0.107233
245	0xbe352ab0	-0.17692065
246	0xbdea680d	-0.11445627
247	0xbd71e768	-0.059058577
248	0xbe585fd7	-0.2113031
249	0x3d80c4b2	0.06287517
250	0xbd057a14	-0.032587126
251	0xbb93ea9f	-0.004514053
252	0xbd8b033f	-0.067877285
253	0x3e2eae00	0.17058563
254	0xbe42684a	-0.18985096
255	0xbda96436	-0.08271067

fc5.bias f4 [16]
0	0xbec0ae58	-0.37633014
1	0xbfd7ac60	-1.684948
2	0xbed07dcc	-0.40720975
3	0xbc3c432f	-0.011490627
4	0xbef54a21	-0.47908118
5	0xbd8db4dc	-0.06919262
6	0xbe8e5fa0	-0.2780733
7	0xc02223e0	-2.5334396
8	0xbf2ce1ae	-0.6753186
9	0xbf583f72	-0.8447181
10	0xbeaf1968	-0.3419907
11	0x3dffb10f	0.12484943
12	0xbdb3a6f2	-0.08772077
13	0xbf0055bf	-0.5013084
14	0x3ca7a567	0.020464612
15	0xbef7de74	-0.48411906

fc6.weight f4 [16, 16]
0	0xbe948e7e	-0.29014963
1	0xbe27e28d	-0.16395016
2	0x3cba3df3	0.022734618
3	0x3e06e993	0.13175039
4	0x3dd071bc	0.10177943
5	0x3d89cff8	0.0672912
6	0x3e6e6654	0.23281223
7	0xbe177f38	-0.14794624
8	0xbe5bf1fd	-0.2147903
9	0xbea192c7	-0.31557295
10	0xbdb60d10	-0.0888921
11	0xbd9ac8d7	-0.075578384
12	0x3dcd386a	0.10020526
13	0xbe86bee9	-0.26317528
14	0xbe58aa64	-0.21158749
15	0xbc1c189e	-0.009527354
16	0x3d634a63	0.055490863
17	0x3df3118a	0.1186858
18	0xbe8e9749	-0.27849796
19	0x3c8a4fb6	0.016883712
20	0xbe162e42	-0.14666083
21	0x3de4c231	0.111698516
22	0x3e6782d6	0.22608504
23	0x3e2c4054	0.16821414
24	0xbe15ed13	-0.14641218
25	0xbc95d7e0	-0.018291414
26	0xbdef2ab5	-0.116780676
27	0xbe39b443	-0.1813517
28	0xbe877437	-0.26455852
29	0xbe654a26	-0.22391567
30	0xbe1e22ae	-0.15442917
31	0xbe369d02	-0.17833331
32	0xbe5b8b66	-0.21439895
33	0xbdf06af8	-0.11739153
34	0xbd4c27d0	-0.049842656
35	0x3c0cff20	0.008605748
36	0xbd932544	-0.07184842
37	0xbe7ea990	-0.2486937
38	0xbe4e5fbc	-0.20153707
39	0xbdea8830	-0.11451757
40	0x3e0a2da2	0.1349397
41	0xbe5e1642	-0.21688178
42	0xbd45a2f0	-0.048251092
43	0xbe18500a	-0.14874282
44	0x3c9e9c17	0.019361539
45	0xbdfcffa8	-0.1235345
46	0xbd44d968	-0.048058897
47	0x3dab4890	0.083634496
48	0x3e735831	0.23764111
49	0x3ec43ad5	0.38326135
50	0x3e74a5ca	0.23891369
51	0x3e501331	0.20319821
52	0x3e276d60	0.16350317
53	0x3d0e48da	0.034737445
54	0x3d6b260c	0.05740933
55	0x3f84e961	1.0383722
56	0xbce72c57	-0.028219385
57	0xbed509b0	-0.41608953
58	0xbdc6d6dd	-0.09708951
59	0xbf825834	-1.0183167
60	0x3e04f993	0.1298583
61	0xbe198669	-0.1499268
62	0x3f0824b1	0.53180987
63	0xbb1c5f12	-0.0023860377
64	0xbe7c9288	-0.24665272
65	0xbe02cb69	-0.12772907
66	0xbdac2f7e	-0.08407496
67	0xbe6c47af	-0.2307422
68	0xbc227e97	-0.009917877
69	0x3e238ff7	0.15972887
70	0xbe7600ee	-0.24023792
71	0xbe25a6c2	-0.16176894
72	0xbbd3e418	-0.0064664
73	0x3c7f805e	0.01559457
74	0x3d66c57a	0.056340672
75	0xbeb26f41	-0.34850505
76	0x3c556518	0.013024591
77	0xbea636f2	-0.32463795
78	0xbea763e1	-0.3269339
79	0x3ddeda80	0.10881519
80	0xbdcb1c30	-0.09917486
81	0x3f47abb4	0.77996373
82	0x3cc132ac	0.023583733
83	0x3e0a0e87	0.13482104
84	0x3ebecfd7	0.37267944
85	0xbd714c14	-0.058910444
86	0xbe3e600b	-0.18591325
87	0x3fd6a558	1.6769209
88	0x3fcfb1d0	1.6226139
89	0x3c2cfb0d	0.010557902
90	0xbcbdbc54	-0.02316109
91	0xbefff2a6	-0.49989814
92	0xbf03d152	-0.5149127
93	0x3e088e21	0.13335468
94	0xbd8b7b7d	-0.06810663
95	0x3af697e1	0.0018813574
96	0x3d0a4532	0.033757396
97	0x3e189154	0.14899188
98	0xbe8d7bf7	-0.2763364
99	0xbea1f305	-0.31630722
100	0x3d7cdd14	0.061734274
101	0xbcb8403a	-0.022491563
102	0x3e109e01	0.14122774
103	0x3f64e01c	0.89404464
104	0x3e155381	0.14582635
105	0xbe089672	-0.1333864
106	0x3e7a4f12	0.24444225
107	0xbddb2544	-0.10700467
108	0xbeb7c9ac	-0.3589605
109	0xbea11d55	-0.3146769
110	0x3d924d6f	0.071436755
111	0x3e111188	0.14166844
112	0xbc9c5c2e	-0.019086923
113	0x3ddb1d92	0.106989995
114	0xbead05fc	-0.33793628
115	0xbe2c7d88	-0.16844761
116	0xbd8c2c4c	-0.068443865
117	0xbe624ab2	-0.22098807
118	0xbe2e34d1	-0.17012335
119	0x3f1c8dcc	0.61153865
120	0xbe7745b6	-0.24147686
121	0x3f8103ae	1.0079248
122	0x3de882f6	0.11353104
123	0x3e9e8aba	0.30965215
124	0xbe9735e7	-0.29533312
125	0x3e1696eb	0.14706008
126	0x3d0e9163	0.03480662
127	0x3bb22102	0.0054360637
128	0xbe7dbd9e	-0.24779364
129	0x3e0d9056	0.13824591
130	0xbe162036	-0.14660725
131	0xbd872a80	-0.06599903
132	0xbe68f30a	-0.22748962
133	0xbe78397e	-0.24240682
134	0xbd36c7a8	-0.044624
135	0x3c0f9600	0.00876379
136	0x3e68238c	0.2266981
137	0x3daba9a8	0.08381969
138	0x3e3cc2d0	0.1843369
139	0xbe74f72c	-0.23922414
140	0x3d1a57f9	0.037681554
141	0xbdc2e9c1	-0.09517241
142	0xbe4793c4	-0.19489962
143	0xbd837218	-0.06418246
144	0x3d725d90	0.05917126
145	0x3b9698a6	0.004595834
146	0xbe1c5c0e	-0.15269491
147	0x3c2b7f17	0.010467312
148	0xbe7db91f	-0.2477765
149	0x3e283a8a	0.16428581
150	0x3e274be4	0.16337544
151	0xbe40d753	-0.1883214
152	0xbd073f1f	-0.03301918
153	0x3e143662	0.1447387
154	0x3d0d88a3	0.034554135
155	0xbe3509bb	-0.17679493
156	0xbea7b5f8	-0.3275602
157	0xbda6cf80	-0.08145046
158	0xbe589606	-0.2115098
159	0x3cb95dc0	0.022627711
160	0xbe9668da	-0.2937687
161	0xbce9e805	-0.028553018
162	0xbdb593d9	-0.0886609
163	0xbdb29a04	-0.087207824
164	0xbe2797e5	-0.16366537
165	0xbde75104	-0.112947494
166	0x3df30518	0.11866206
167	0x3e802bff	0.25033566
168	0xbe4cc90a	-0.19998565
169	0x3f90b6a2	1.1305735
170	0xbd234e8d	-0.039869834
171	0x3f7f7641	0.99789816
172	0xbeb809fd	-0.3594512
173	0x3e8a5cfb	0.27024063
174	0xbf37e7dd	-0.7183817
175	0xbe8345d0	-0.256392
176	0xbeef4d07	-0.46738455
177	0xbe532e24	-0.2062307
178	0xbf05c114	-0.5224774
179	0x3dc40a65	0.09572295
180	0xbec00ceb	-0.37509856
181	0xbd72e56b	-0.05930082
182	0xbe1b7949	-0.15182985
183	0x3ebd2df6	0.36949128
184	0xbe2f1101	-0.1709633
185	0xbe632d2a	-0.22185197
186	0x3d46139c	0.048358545
187	0xbfbb6e4c	-1.4643035
188	0x3dbe18cb	0.09282073
189	0xbeb7ef77	-0.35924885
190	0x3da46c27	0.08028441
191	0x3e3ab4a8	0.18232977
192	0xbe0fe1f7	-0.14051042
193	0x3e9adf55	0.30248514
194	0xbd04f4c9	-0.032460008
195	0xbe2a6d23	-0.16643195
196	0xbea6eb26	-0.3260128
197	0x3e3916e8	0.18075144
198	0x3c91d477	0.017801506
199	0x3fa14d6f	1.2601756
200	0x3e6897b5	0.22714122
201	0xbe4ad1bb	-0.19806568
202	0xbd8d56c5	-0.069013156
203	0xbf083ba3	-0.53216
204	0xbe64f643	-0.22359566
205	0xbdbd12e0	-0.09232116
206	0x3e7d5774	0.24740392
207	0x3ef9bc2e	0.48776382
208	0x3e83c652	0.25737244
209	0x3eea9d17	0.45822975
210	0x3ef6d099	0.48206022
211	0xbe448cc6	-0.19194326
212	0x3e0a1a6f	0.13486646
213	0x3c272830	0.010202453
214	0xbe1f2ea4	-0.15545136
215	0x3fb6e590	1.4288807
216	0x3e9eb0e4	0.30994332
217	0xbe73ac02	-0.23796085
218	0xbd889524	-0.06669071
219	0xbec8e21c	-0.39235008
220	0xbc4d9386	-0.012547379
221	0x3cca7ad9	0.024716781
222	0x3e8b3752	0.27190644
223	0x3e866926	0.26252097
224	0xbf1137c3	-0.5672571
225	0xbebf8e9e	-0.37413496
226	0xbdf39391	-0.118933804
227	0xbde38fea	-0.11111434
228	0xbe907a48	-0.28218293
229	0x3df72b73	0.12068834
230	0xbdc65640	-0.0968442
231	0x3d193135	0.037400443
232	0xbdae9a06	-0.085254714
233	0x3f9b7f74	1.2148271
234	0xbce3f209	-0.027825372
235	0x3f32b661	0.6980954
236	0xbeea4147	-0.45752928
237	0x3e4a049e	0.19728324
238	0xbf3afab7	-0.7303881
239	0xbd32e7ab	-0.043677967
240	0xbd723ad9	-0.059138153
241	0xbe02b9d0	-0.12766194
242	0xbe3b1a9f	-0.18271874
243	0xbdf3fbf1	-0.119132884
244	0x3df6d9fe	0.120532975
245	0xbe4209ad	-0.18949004
246	0x3e28fb0c	0.16502017
247	0x3d377968	0.044793516
248	0x3da70183	0.08154585
249	0xbe6faa8a	-0.23404899
250	0xbcbfe01f	-0.023422299
251	0xbd057ea1	-0.032591466
252	0xbec5a152	-0.3859964
253	0xbc79c913	-0.015245694
254	0xbe868907	-0.2627642
255	0x3ddb3ab8	0.10704559

fc6.bias f4 [16]
0	0xbead4781	-0.33843616
1	0xbafc589c	-0.0019252482
2	0xbea404b2	-0.32034832
3	0x3dce1aff	0.10063743
4	0xbcc20cf7	-0.023687823
5	0xbf358c94	-0.7091763
6	0xbe7c94ca	-0.24666134
7	0xbf3a9ef3	-0.7289879
8	0xbec99ef5	-0.39379087
9	0xbeb984fd	-0.36234275
10	0xbe792e5e	-0.24334094
11	0x3dd61bfb	0.104545556
12	0xbe42c22e	-0.19019386
13	0xbe12af04	-0.14324576
14	0xbfb26771	-1.3937818
15	0xbdcea49b	-0.1008999

fc7.weight f4 [16, 16]
0	0x3e0b8027	0.13623105
1	0xbd19b3e0	-0.037525058
2	0xbe41a1d8	-0.18909395
3	0xbe6eae80	-0.23308754
4	0xbe2742db	-0.16334097
5	0x3d96eaf9	0.07369036
6	0xbe8d7be7	-0.27633592
7	0x3da1e76c	0.07905468
8	0x3e0adc58	0.13560617
9	0xbe27da2a	-0.16391817
10	0x3f5b5da9	0.8568979
11	0x3e1f5d55	0.15562947
12	0xbee79b22	-0.45235544
13	0xbe77eea3	-0.24212126
14	0x3f85cf19	1.0453826
15	0x3e338f65	0.1753517
16	0xbd895929	-0.06706459
17	0x3e30479c	0.17214817
18	0x3dc9706e	0.098358974
19	0xbebbf569	-0.3671067
20	0xbd217b37	-0.039424147
21	0xbd8c3d28	-0.06847602
22	0xbe86e72d	-0.26348248
23	0xbee3083a	-0.44342214
24	0x3dad0574	0.08448306
25	0xbc8cdcbe	-0.017195102
26	0x3e94c130	0.2905364
27	0x3eb9ae63	0.3626586
28	0xbc7f9078	-0.015598409
29	0xbf32b833	-0.69812316
30	0x3fd5550b	1.6666578
31	0xbe4e2701	-0.20132066
32	0x3d0b6f4e	0.034041695
33	0xbe6e50e6	-0.23273048
34	0xbe3a408a	-0.18188682
35	0xbef61758	-0.48064685
36	0x3b54bb7d	0.0032460385
37	0xbdf06e37	-0.11739772
38	0x3c1d5b32	0.009604262
39	0x3db4c661	0.088269
40	0x3de00421	0.109382875
41	0xbd408785	-0.04700424
42	0x3f11c6e4	0.5694411
43	0xbf073d61	-0.5282803
44	0xbe880ed2	-0.26573807
45	0x3d7fa410	0.06241232
46	0x3f9b28e2	1.2121851
47	0xbce82510	-0.028337985
48	0xbe6f98ab	-0.23398082
49	0x3d2058a0	0.03914702
50	0x3e431d7e	0.19054219
51	0xbe0a7ff4	-0.13525373
52	0xbe826d9d	-0.25474253
53	0xbeaa49bc	-0.3325938
54	0xbd8ac273	-0.067753695
55	0xbc2b32ca	-0.010449121
56	0xbd845038	-0.06460613
57	0xbdc4f088	-0.0961619
58	0xbd9ead84	-0.07747939
59	0xbd381c88	-0.044949085
60	0xbdd702af	-0.10498559
61	0xbbff0cec	-0.007783523
62	0x3d80bd7c	0.06286141
63	0x3c8786f3	0.016543841
64	0xbdd8316a	-0.105563
65	0x3e23b640	0.15987492
66	0xbc0df180	-0.008663535
67	0xbd0effa8	-0.03491178
68	0x3bd30db6	0.0064408435
69	0x3db6f0da	0.089326575
70	0xbe9374cc	-0.28800046
71	0x3e0c3cc6	0.13695058
72	0x3cdb8030	0.026794523
73	0xbd66117e	-0.056169026
74	0x3d6f3100	0.05839634
75	0xbdd557a4	-0.10417107
76	0xba4fd7d9	-0.0007928587
77	0xbcf9ffa4	-0.030517407
78	0xbe310833	-0.17288284
79	0xbdcf6932	-0.10127486
80	0xbd6b3d7d	-0.057431687
81	0x3e29fa56	0.16599402
82	0x3e0e6a42	0.13907722
83	0xbfc985e1	-1.5743982
84	0x3ca6529e	0.020303067
85	0xbe2e9c10	-0.1705172
86	0xbeaf6ecf	-0.34264228
87	0x3f9462fa	1.1592705
88	0xbe169f8d	-0.14709301
89	0xbd89825f	-0.067143194
90	0x3f08fb83	0.53508776
91	0xbf4bba1f	-0.79580873
92	0xbf850b9b	-1.0394167
93	0xbf892dbf	-1.0717086
94	0x3fb3bbd2	1.4041693
95	0xbd8ba91a	-0.06819363
96	0xbc0d2885	-0.008615618
97	0xbd9323c8	-0.07184559
98	0x3e016336	0.12635502
99	0x3e8db8a8	0.27679944
100	0xbd48d2a8	-0.049029022
101	0x3ee72a48	0.45149446
102	0x3c14925a	0.009068096
103	0xbd1df9fb	-0.038568478
104	0xbdfe0525	-0.12403325
105	0x3dcf4d16	0.10122125
106	0x3f8a7bd6	1.0819042
107	0xbba7edd3	-0.0051247864
108	0x3d90b6b8	0.07066101
109	0x3ea374ba	0.31924993
110	0x3c873447	0.01650442
111	0x3ca7afaf	0.020469515
112	0x3ca94cd0	0.02066651
113	0x3e90c4e4	0.28275216
114	0xbe0f31e2	-0.13983873
115	0xbec66cab	-0.38754782
116	0xbd9098aa	-0.07060368
117	0x3aa7f628	0.0012814449
118	0xbd5797b6	-0.052634917
119	0x3e75d166	0.2400566
120	0x3d6c9f27	0.057768967
121	0xbec863b3	-0.39138564
122	0x3ee8d91f	0.4547815
123	0xbd2ae491	-0.041721884
124	0xbe30e397	-0.17274319
125	0xbdd076cb	-0.10178908
126	0x3f872520	1.0558205
127	0x3e1fc498	0.15602338
128	0xbe9f3692	-0.3109632
129	0x3cd7c9dc	0.026341371
130	0x3e1722d2	0.14759377
131	0x3d4b6e8b	0.04966597
132	0x3e2d5c4f	0.16929744
133	0x3d624cd5	0.055249054
134	0xbe0fb149	-0.14032473
135	0xbe2d9e84	-0.16955
136	0x3d64b638	0.05583784
137	0xbce2af9b	-0.027671626
138	0x3eae41f6	0.340347
139	0xbe2240f7	-0.15845095
140	0xbd1306b1	-0.035895053
141	0xbd438b81	-0.047740463
142	0x3ed9b52c	0.42521036
143	0x3daf7a4e	0.0856825
144	0xbc2b6f65	-0.01046357
145	0x3c8eb470	0.017420024
146	0x3ddf6b9c	0.10909197
147	0xbe15fd6b	-0.14647453
148	0x3e07bc51	0.13255431
149	0x3e24185b	0.16024916
150	0xbe42591e	-0.18979308
151	0xbd9c5421	-0.07633234
152	0x3e5a5014	0.2131961
153	0xbd02e77e	-0.03195905
154	0xbe58e50e	-0.21181127
155	0xbe56eebe	-0.2098951
156	0x3c7a4b97	0.015276811
157	0x3d1c7acc	0.038203046
158	0xbd846308	-0.06464201
159	0xbe3f6a59	-0.18692912
160	0xbdb66c04	-0.08907321
161	0xbe574126	-0.21020946
162	0x3e479cea	0.19493452
163	0x3e0e5e02	0.13903049
164	0x3deca85c	0.115555495
165	0xbe65a246	-0.22425184
166	0xbe107fe4	-0.14111286
167	0xbe2645a4	-0.16237503
168	0x3d943348	0.072363436
169	0x3e03856e	0.12843868
170	0x3d5ea198	0.054353327
171	0xbd0e82db	-0.034792762
172	0x3e0744d4	0.1320985
173	0xbe8c244c	-0.27371442
174	0xbe191c5c	-0.14952224
175	0x3e696018	0.22790563
176	0xbe8679d4	-0.26264822
177	0xbd916354	-0.070990235
178	0x3d80a654	0.062817246
179	0xbe7edb46	-0.24888334
180	0xbe80b19b	-0.25135502
181	0x3e00df2b	0.12585132
182	0xbe6edbc0	-0.23326015
183	0xbe8c378b	-0.27386126
184	0x3e468bbe	0.19389245
185	0x3e3745c4	0.17897707
186	0xbd89f94c	-0.06737003
187	0xbeecca8c	-0.4624828
188	0xbcf10e9b	-0.02942591
189	0x3d0647e7	0.032783415
190	0x3e3b415e	0.18286654
191	0xbcbddaf4	-0.023175694
192	0x3d9aab18	0.07552165
193	0xbe439878	-0.19101131
194	0xbe1e828a	-0.15479484
195	0xbd882471	-0.06647576
196	0x3e44c68b	0.19216363
197	0xbe49b836	-0.19699177
198	0xbdbbf2c4	-0.09177163
199	0xbf007857	-0.50183624
200	0x3e439b96	0.1910232
201	0x3d75f2b1	0.0600459
202	0xbe375930	-0.17905116
203	0xbe168968	-0.14700854
204	0xbe1fa77b	-0.15591232
205	0x3c35beb3	0.0110928295
206	0xbd69babb	-0.057062846
207	0x3de6dc1e	0.11272453
208	0x3d32c7d0	0.043647587
209	0xbc2b7d40	-0.010466874
210	0xbda9b56c	-0.082865566
211	0xbe53293a	-0.20621195
212	0xbdfd5088	-0.12368876
213	0xbc0f0ac0	-0.00873059
214	0x3ce97dc0	0.028502345
215	0xbe1c667a	-0.15273467
216	0xbdbfa644	-0.093578845
217	0x3cd0bc50	0.02548042
218	0xbb3c9180	-0.0028773248
219	0xbb965f40	-0.0045889914
220	0xbe274a14	-0.16336852
221	0xbda6fd64	-0.08153799
222	0xbe667ee6	-0.22509345
223	0xbd9ad8fc	-0.07560918
224	0xbd0f40e0	-0.03497398
225	0x3cdca3f0	0.02693364
226	0xbe7bd52c	-0.24593037
227	0xbcc3bedc	-0.02389472
228	0xbc5d6e60	-0.013515085
229	0x3c8a706f	0.016899316
230	0xbe86ba58	-0.26314044
231	0xbe6cddf1	-0.23131539
232	0x3e4a9a74	0.19785482
233	0x3c001d60	0.007819504
234	0xbdc33270	-0.095311046
235	0xbd64c080	-0.055847645
236	0xbcfbd55c	-0.030741386
237	0xbea2cfb6	-0.31799096
238	0xbd8717f9	-0.06596369
239	0xbe0dfede	-0.13866755
240	0xbe5584fe	-0.20851514
241	0xbe10a774	-0.14126378
242	0x3d21b078	0.039474934
243	0x3d122381	0.03567839
244	0xbd757de0	-0.059934497
245	0xbc276d08	-0.010218866
246	0xbcead0c0	-0.028663993
247	0xbd44117b	-0.047868233
248	0xbe55d440	-0.20881748
249	0x3ea0c1a5	0.3139774
250	0xbdb8ba61	-0.09019924
251	0xbeb08c31	-0.34481958
252	0xbe558ee3	-0.20855288
253	0xbe1ea447	-0.15492354
254	0x3e0bcba3	0.136519
255	0xbdf1bc6a	-0.11803515

fc7.bias f4 [16]
0	0xbd9dce35	-0.077053465
1	0x3ecce648	0.4001944
2	0xbf91df21	-1.1396219
3	0xbe7854c4	-0.24251086
4	0xbe36d284	-0.17853743
5	0x3f5e2413	0.86773795
6	0xbe95144f	-0.29117057
7	0x3fbd1780	1.4772797
8	0xbf2875bb	-0.6580464
9	0xbf346f51	-0.70482355
10	0xbec1c8ac	-0.37848413
11	0xbee0da13	-0.43916377
12	0xbe3c4587	-0.18385898
13	0xbc0711c0	-0.008243978
14	0xbd82b0e6	-0.06381397
15	0xbeb2bb07	-0.34908316
