data/results/1731776228.pth (torch, 14114 bytes, 16 tensors)

fc1.weight f4 [16, 32]
00000000: 7a5c 443e afea 04bf c00e 893f 9fe4 f43e
00000010: 3647 1f3f 5a46 df3d d348 a73e daf5 1cbe
00000020: df33 b6bf 8b94 a53e 5702 12bf 5306 883f
00000030: 402d 123f 47d2 d53e 97ac 2fbf eea1 34bf
00000040: 5e5f 89be 0ea5 893f a8a8 e63d 2a5c a73e
00000050: b33f a93e ace7 413f cb3e 533f f181 e2bc
00000060: 7ef9 c8be f3c8 94bc c40b a3be dcfc 213e
00000070: a15a 7e3d b7bc 1cbe 686b b83d 6c80 913e
00000080: bd50 8a3d 3163 fa3d 793e 52bf fc0f 163f
00000090: fd1f 4fbf 660f 71bf 05c4 993f 9c0e 90be
000000a0: 7670 cc3e 760e 173f a1e3 64be 2d7d c7bf
000000b0: c88a 133f c35c 133f dc34 aa3f fa61 6a3e
000000c0: 2cbb d6be 2f7a 583c 0df3 5cbf b1f4 763f
000000d0: 9ea9 eebd 4465 fcbd c201 32bf 10da 92bf
000000e0: 71e7 7dbe c48c 5abe 853e c1be ccea aebe
000000f0: e281 a63e b43c e83d d85e f9be 27e3 453f
00000100: 166b 8d3d 113e 95be b85a 8bbe 63c8 7ec0
00000110: cc29 11bf 83e5 f0be 8faa 0e3e 7147 cebe
00000120: 9d5f 383e c336 4fbb 42e7 36be efd1 1abf
00000130: 6227 473e f7c5 0bbf e61c e73e 545e 2f3f
00000140: a4df f33e 573a 48bc 7d5f c8be 4fd5 e4be
00000150: ce2a 83bf dbb0 ce3e d4d0 483e 377c 753f
00000160: a51b 2fbf 8cfa 9dbe 8d5d d8bc d485 9e3d
00000170: aa38 34bf c60b 9dbe 0607 533e 27ff 813f
00000180: a8f0 733e 6339 06c0 ad92 f93d 4a3f 3c3f
00000190: 648b 2f3e 41fd 103f dfd8 293c 218a febe
000001a0: b63a 653e 3d97 08bf 1299 71be 3888 84bf
000001b0: 88eb b7bd dabb 29bf b3b9 4e3f 6b3d 7d3c
000001c0: f376 873e 99fb e13e 65d4 163f 1ba3 073f
000001d0: 5398 4c3e d762 953e a49e 45bf a69e 453e
000001e0: f734 83bd 25a8 e8be bdfa adbe 2a38 bc3e
000001f0: ba05 77be 06ec cc3e 839f 21bf ead0 63bf
00000200: fce2 8d3c 9b5e d9bd 5258 883f 5e35 3cbe
00000210: 6918 063f d5bd b8bd 8c9c acbd e52d b63e
00000220: 4723 133f d06d dbbe 2212 3dbe 8d92 253f
00000230: 4acb e3be afc9 533f 775e 37bf d606 12bf
00000240: fdce 033f efa6 723e a27b 81bf 9dca 803f
00000250: a4fb a9be d5ec 15bf 3ae7 8dbf b8d3 4a3f
00000260: 6a1b 973f fc68 31be 1a2e 37bf fa9f 9cbf
00000270: a011 6b3f 7aea 383e bdd5 c2be 0e80 3f3f
00000280: cea6 8a3d ef1f 99be 0380 c1be 9e72 d13f
00000290: 79f3 13bf bfbd 45be 0ee5 86bf 5c7d adbe
000002a0: a3b3 a43f 6b49 033f 5268 61be 7700 9ebf
000002b0: 3c01 b2be 6a90 823e 7b75 a6be 99fc 67be
000002c0: 6204 443e 706f 43bf 4127 2f3f 6e8f 8a3f
000002d0: 2003 0f3e c953 7f3f 2b00 a53c f7b3 ccbe
000002e0: 6962 383e 774d 41be 87b9 60bf ddbe 293f
000002f0: b19b b03e 1fee 64bf 6f88 a63d be86 6bbf
00000300: fb89 8cbd 73c8 2b3e 5818 903e 1038 ae3d
00000310: 0e78 373f 9b7d 9e3e 5023 a13f 1f28 213f
00000320: bbfd d1bf b367 95be 1afa 03be f35c 943f
00000330: 124b 4c3f 441d d8be c2d9 213e 33dd 963e
00000340: 080a 193e 8c49 7cbf ebad 36be 8279 373f
00000350: 3a3e 8f3f 8564 843e 9cba ebbf 973c e4be
00000360: 08d6 5b3f f2ef 213d 5e90 0f3e d3ba 163f
00000370: a36c ebbd 5c48 43be 2225 03bf d65e 013d
00000380: e936 373e 48a5 e23d 7171 93c0 97bb 29bf
00000390: c2d2 d1bd cfcf 6fbd b876 b9be 2ed4 bfbe
000003a0: 386b 5bbf 411b 683d ea8d 18bf 0e5a c73e
000003b0: d23f de3c 0998 693f a49e b3bd b9c7 85bd
000003c0: 6aae ac3e 4654 37be 2700 dc3e 61cf 7cbe
000003d0: 9289 a1be 03a4 b1be bfa5 2dbf 95fd 383f
000003e0: e516 993f 0893 acbd 985f 93be 3dda 503e
000003f0: c0a9 2a3f 246e 5dbf 729c 5ebe 7240 143e
0.19175902 -0.519206 1.0707626 0.47830674 0.62218034 0.1090209 0.32672748 -0.1532816
-1.423458 0.32339892 -0.5703482 1.062693 0.57100296 0.4176199 -0.68622726 -0.70559585
-0.26830572 1.0753496 0.112626374 0.32687503 0.3305641 0.7574413 0.8251769 -0.027649852
-0.39252847 -0.018162226 -0.31844914 0.15819114 0.06209815 -0.15306364 0.09004861 0.2841829
0.06753681 0.122259505 -0.82126576 0.5861814 -0.80908185 -0.9416412 1.2012945 -0.28136146
0.3992955 0.5900644 -0.22352459 -1.5585076 0.5763364 0.5756342 1.3297381 0.22888938
-0.41939676 0.013212725 -0.86308366 0.9646712 -0.11653446 -0.123240024 -0.6953393 -1.1472797
-0.24795319 -0.2134276 -0.3774301 -0.3416351 0.32520968 0.11339703 -0.48705173 0.7729973
0.06905191 -0.29148915 -0.2721765 -3.9809806 -0.567044 -0.47050104 0.1393225 -0.4028888
0.18005224 -0.0031618334 -0.17861655 -0.60476583 0.19448617 -0.54598945 0.45139235 0.6850331
0.47631562 -0.012220941 -0.39135352 -0.44693992 -1.0247438 0.40369305 0.19610912 0.9589266
-0.6840156 -0.30855215 -0.026411796 0.077403694 -0.7039896 -0.30673045 0.20608148 1.0155991
0.23822272 -2.0972526 0.12186179 0.7353407 0.17143017 0.56636435 0.0103666475 -0.4971476
0.22385678 -0.5335577 -0.23593548 -1.0354071 -0.08980471 -0.66302264 0.80752105 0.015456538
0.2645794 0.44137266 0.5891784 0.52983254 0.19979982 0.2917697 -0.7719519 0.19298801
-0.064065866 -0.45440784 -0.3398036 0.367616 -0.24123278 0.40023822 -0.6313402 -0.8899065
0.017320149 -0.10613748 1.0651953 -0.18379733 0.52380997 -0.090205826 -0.084282964 0.3558189
0.57475704 -0.42857218 -0.18463948 0.64676744 -0.44491035 0.8272962 -0.71628517 -0.5704168
0.51487714 0.23696493 -1.0115855 1.0061833 -0.331998 -0.585645 -1.108619 0.7922931
1.1805241 -0.17325205 -0.7155472 -1.2236321 0.9182377 0.18058196 -0.38053694 0.7480477
0.06770097 -0.29907176 -0.37792978 1.6363103 -0.57793385 -0.19310664 -1.0538652 -0.33884704
1.2867321 0.512839 -0.22012451 -1.2343892 -0.34766567 0.25500804 -0.32511505 -0.22654952
0.19142297 -0.76341915 0.6841927 1.0825021 0.13966036 0.9973722 0.020141682 -0.39981052
0.1800629 -0.18877207 -0.8778309 0.6630686 0.34493783 -0.89425844 0.081314914 -0.92002475
-0.06862255 0.16775684 0.28143573 0.08506787 0.71667564 0.30955204 1.2588902 0.62951845
-1.6405557 -0.2918068 -0.12888375 1.1590866 0.7980205 -0.42209828 0.15805724 0.29465637
0.14945233 -0.98549724 -0.17839782 0.7166978 1.1190865 0.2585794 -1.8416324 -0.44577476
0.8587346 0.03953547 0.14019915 0.5887882 -0.1149533 -0.19070572 -0.51228535 0.031584583
0.1789204 0.11066681 -4.607598 -0.66301864 -0.10245277 -0.05854779 -0.36223388 -0.37466568
-0.8571048 0.056666616 -0.59591544 0.38935894 0.027130041 0.9124761 -0.08770493 -0.06532235
0.33726817 -0.17903242 0.42968866 -0.24688484 -0.3155027 -0.34695444 -0.67831033 0.72261935
1.1960112 -0.084264815 -0.2878387 0.20395751 0.6666527 -0.86496186 -0.21739367 0.14477709

fc1.bias f4 [16]
00000000: 3cbf 41bf 450a a6bf 243b 97be 862a 8ebe
00000010: f539 b7bf 43fa 86bf d177 acbf ccc4 15bf
00000020: 23a6 7e3d 2254 9c3e c05e 67be caa8 e13c
00000030: b676 1cbf 4a79 b3be b71f 53be 95d1 77bf
-0.75682425 -1.2971884 -0.29537308 -0.27766818 -1.4314562 -1.0545124 -1.3474065 -0.58503413
0.06217016 0.30532938 -0.22594738 0.027546305 -0.6111864 -0.35053474 -0.20617567 -0.9680417

fc2.weight f4 [16, 16]
00000000: 0dad db3e 55ce febe 9062 473f db4b 97be
00000010: f2af e0be 1644 d6bf 557f 1fbf ca61 e23e
00000020: fa20 bbbf d187 55be 6cab da3d f9c6 85bf
00000030: d63e 1e3f a1f7 0d3f 13ff ae3d d63e a6bd
00000040: 9588 7a3f 63fa 693d 4b89 f6bd 1567 223e
00000050: 9813 3e3e ae95 26be b8ab 143d 2945 3dbe
00000060: 19f7 a6bf fbe1 9fbd 6827 b43e 47c5 573f
00000070: 54dd 33c0 5203 203e b2c8 e73e fc08 e73d
00000080: 77f1 86bf f720 c73e 4545 fabf 6db0 97be
00000090: b9b7 1ac0 cbf4 6a3e 6b48 ff3e 3d32 3a3e
000000a0: 2171 eebe 6260 993e b7dd e1be 4d79 abbe
000000b0: 1199 7b3f 0028 123e 1e39 fbbd f834 2e3f
000000c0: 93e0 a6be 39fa 94be 63f0 56bc f512 78be
000000d0: 92f5 33bd 5b6a 84be f5e8 ddbe 2684 42be
000000e0: d8d9 21bd a1cb 02be dcbf 40be 10be 0fbe
000000f0: 3b26 73be ca09 f2bc 4714 19be 3095 5ebe
00000100: 8c24 2cbf f3d1 7e3f 09d7 1e3f acac be3e
00000110: 35ce 2cc0 6539 58bf ffd6 2f3e 7bed 8bbf
00000120: ba86 a63d 782a 26c0 65ee 73bf a79f d8bf
00000130: acff cbbe 1e2d 6a3f 470f cfbf f1af afbe
00000140: 9ff6 793e 3dbb 49be 3838 c7bd 1d60 b13e
00000150: 292c a7bc f4a1 833e 8e86 b7bf adcf 9f3f
00000160: 227f 5abf 34e6 36bf a53b 8f3e 4ae6 a2be
00000170: e8d7 2d3e 07a6 cf3e 8e18 e4be 46f3 8e3f
00000180: d895 793e 67c5 b0be e903 fe3d 23cb 903f
00000190: 08a0 433f 9c98 823d 7b54 febe f803 8abf
000001a0: 66dc 013e 82ea 0e3f 242a 873e 21fa cb3e
000001b0: 2193 4c3e fb71 873e d795 483f 75f8 cc3e
000001c0: 5eda 4bbe 7cdd c73e 0789 203f f4bc 7f3e
000001d0: 7e77 9abe 39fb 7a3e af03 3f3f 52ed 3dbf
000001e0: 3049 07be 507a e9bc cfa1 0f3f bb8a 50be
000001f0: 7cb4 56bf 5781 a5bf 49fd bbbf 5749 923f
00000200: c166 88be f1b4 58bf 5f1c 3cbf 99b6 a5be
00000210: df63 9e3d d9e1 50be b36d 03c0 a7ce c23e
00000220: 513b 213f 079b f73e 519c 07c0 ad6b 4c3f
00000230: 87bc 04bf 06bb a23e 69bc 58bf 713e 683f
00000240: 89a1 203f 5151 b53c 0876 0ebf fcc4 c23d
00000250: d8f3 0cc0 d88d 19bf 3872 6f3e adb4 c63e
00000260: e47b fbbd f39b af3e cc87 273e 7469 18bf
00000270: 2253 bebd 821b fdbf 6ea9 9bbd 3c19 44c0
00000280: 9347 72bf 16e0 d0bf a75e 523f b87b 60bd
00000290: 7be9 133f 3b85 c4bf 5700 24bd 0778 f03e
000002a0: f6ab eabd 61c4 99bf 1329 103f 31a1 d23e
000002b0: 94b0 e63c 9ec6 393b c861 953e d10b 4ebe
000002c0: 09cb ca3d 5f52 263f f70f e53e 7bed f13e
000002d0: fdb4 ca3e fdb4 74bf 2a57 9e3d f81d 963e
000002e0: ba07 b0be 11ba 8c3c fcad 2dbf 4a8b 12bf
000002f0: 0040 6d3f e9e0 65bf c87b 25bf 1567 cd3e
00000300: 9066 e3bc 9932 793e 6703 febe d460 50be
00000310: c624 173d 13b9 8abd 6efe b5be f6e3 09bf
00000320: 5a32 71be 5bc3 efbe e6a6 efbe c9d1 b6be
00000330: ee4a 9ebe f32a 27bd 0b6c 1ebe 7164 e3be
00000340: 61d8 a9be e2e8 c8bf 5a08 a2bf b28f 8a3d
00000350: 1ab6 04bf 2e6f 6f3f ebea 1b3f 9437 b03c
00000360: 0823 4ec0 ea20 87be 7e17 99be 971e 98be
00000370: 9185 eebe 9df1 813f 4e11 393f 4956 c63e
00000380: d15f 9bbd 7581 693f 98be cebf 1de0 833d
00000390: 03c2 333f bd27 a2bf 8014 703f 08de 3a3f
000003a0: 607b 273e fba3 223e 499e 93bd 32fb dcbd
000003b0: 9ac0 b1be 7016 aebf b532 c23e 06df ddbe
000003c0: d5f1 4cbf c151 ee3e 4c07 14bf 33a8 d33d
000003d0: f2df d23e ef91 293f b415 0bbf 29b8 b93e
000003e0: 50c8 31bf 4270 e2bf d49d 93bf 3cb7 bebf
000003f0: 18fa 84bf e1d7 603f bd62 5e3c 6759 5d3f
0.42905465 -0.49766794 0.7788477 -0.2955006 -0.43884236 -1.6739528 -0.6230367 0.44215232
-1.4619439 -0.20852591 0.106772274 -1.0451347 0.6181463 0.55455977 0.08544745 -0.08117454
0.9786466 0.057123553 -0.12037905 0.15859635 0.18562162 -0.16268036 0.036296576 -0.18483414
-1.3044158 -0.07806774 0.35186315 0.84285396 -2.8103838 0.15626267 0.45270306 0.112810105
-1.0542439 0.38892338 -1.9552389 -0.2962679 -2.4174635 0.22944944 0.49859938 0.18183227
-0.46570686 0.29956347 -0.44114468 -0.33490983 0.98280436 0.14273071 -0.122667536 0.68049574
-0.32593212 -0.29097155 -0.013118836 -0.24225982 -0.043935366 -0.25862393 -0.43341795 -0.18995723
-0.039514393 -0.12772991 -0.18823189 -0.14037347 -0.23745053 -0.029545683 -0.14949141 -0.21736598
-0.67243266 0.9953911 0.6204687 0.37241113 -2.7000859 -0.8446258 0.17171858 -1.0931848
0.08131166 -2.596342 -0.95285636 -1.6923722 -0.398435 0.91475093 -1.6176537 -0.3431392
0.24410485 -0.19700332 -0.0972752 0.3464364 -0.0204068 0.25709498 -1.4337938 1.2485253
-0.8535024 -0.7144501 0.27975193 -0.31816322 0.16976893 0.40556356 -0.44549984 1.1167991
0.24373567 -0.34525606 0.124030896 1.1311992 0.76416063 0.06376764 -0.49673828 -1.0782461
0.12681732 0.5582658 0.26399338 0.3983927 0.19978 0.26454148 0.7835364 0.40033308
-0.19907519 0.39036167 0.6270909 0.24974424 -0.3016929 0.24509896 0.74614996 -0.7419025
-0.13211513 -0.028500706 0.56106275 -0.20365421 -0.8386915 -1.2930096 -1.4686671 1.1428632
-0.26640895 -0.84651095 -0.7348079 -0.32365873 0.07733893 -0.20398654 -2.0535705 0.38048288
0.62981135 0.48360464 -2.1189158 0.798518 -0.5185017 0.31783313 -0.8466249 0.9072028
0.62746483 0.022133501 -0.5564885 0.09510228 -2.202383 -0.5998206 0.23383415 0.3880972
-0.1227949 0.34298667 0.16360396 -0.5953591 -0.092932 -1.977402 -0.076006755 -3.0640402
-0.94640464 -1.6318386 0.8217568 -0.054805487 0.5777814 -1.5353159 -0.040039387 0.46966574
-0.1145858 -1.2013055 0.56312674 0.41138604 0.02816037 0.0028347145 0.29176164 -0.20121695
0.09902007 0.6496944 0.44738743 0.47251496 0.39591208 -0.95588666 0.07731469 0.2931974
-0.34380895 0.017178567 -0.67843604 -0.5724379 0.9267578 -0.8979631 -0.64642 0.40117708
-0.027758867 0.24335708 -0.4961197 -0.20349437 0.036900304 -0.06773581 -0.35545677 -0.53863466
-0.23554364 -0.46828732 -0.4680702 -0.35706928 -0.30916542 -0.040812444 -0.15470903 -0.44412568
-0.33172897 -1.569607 -1.2658799 0.06765689 -0.51840365 0.9352902 0.6090533 0.021510877
-3.2208881 -0.263923 -0.29900736 -0.29710838 -0.46586278 1.015186 0.7229203 0.38737705
-0.07586635 0.9121316 -1.6151915 0.064392306 0.70217913 -1.2668377 0.9378128 0.7299504
0.16355658 0.15882866 -0.07207925 -0.10790099 -0.34717256 -1.3600597 0.3792931 -0.43334216
-0.80056506 0.46546748 -0.57823634 0.10334816 0.41186482 0.662383 -0.5432999 0.36273316
-0.6944628 -1.7690508 -1.153254 -1.4899669 -1.0388823 0.87829405 0.013573346 0.8646454

fc2.bias f4 [16]
00000000: 7b6c e73d 7e9a c03e 72b9 7f3f c70f 0abf
00000010: 22d0 a8bf 861b 483f ba90 3abf e1ac 5b3d
00000020: 3156 833e 1ef2 c33f 06a2 903c 7a90 903f
00000030: af5d 06bf ba97 16bf e874 cdbe c062 2e3e
0.11299988 0.37617868 0.9989234 -0.53930324 -1.3188517 0.78167 -0.72877085 0.053631667
0.25651696 1.5308263 0.017655384 1.1294091 -0.524867 -0.58825266 -0.40128255 0.17029858

fc3.weight f4 [16, 16]
00000000: 4599 0f3e 35ea 9bbe adb2 b73e 9cd5 2b3d
00000010: ce28 403f 887f 243f b104 60bc 505b 16bf
00000020: 7f0d 3c3f a833 da3d c06d 413f 4f47 323f
00000030: b6bc 7e3e c8ed 30be 17da 0fbf 98d6 0640
00000040: 484e b23f b9fb 1cbf 9f2d 4bbe 6bd2 b53d
00000050: c0cd 153f f6ae 18bd 1256 58be 347a 083f
00000060: a91d 293f 4928 753f f57a 673f db21 94bd
00000070: 2762 233c 77e0 503f a11a 783d ec75 bf3f
00000080: e9df 2c3d 9f42 0c3e bbaf c9bf 62d2 10bd
00000090: c89f 01c0 b4b0 ddbe cabb 013f b040 b0bd
000000a0: 2291 50be 5df3 a4bf 2df7 fcbb 1c32 ba3e
000000b0: fea8 16bf 6f75 cabf 3697 e53d 4416 99bf
000000c0: 89e1 a73e d2b9 ed3d 060b bbbf 4835 6f3d
000000d0: 1421 ec3f 475c 16be bb13 85be 0ec5 6c3e
000000e0: 4776 4bbf 0466 ef3f 8d2e aa3f b6ce 713d
000000f0: 3c38 903d 74b6 3dbe da13 16bf af22 253f
00000100: cc06 a0bf 4efa 9a3e ffd6 09bf 3173 1e3e
00000110: 1265 adbe 2539 0ac0 f48b c03e f6a7 d63e
00000120: d51d 00c0 a38e b43b 96a1 013e eb49 233f
00000130: 42ea 4d3d 181c 07c0 cb84 b13e 618b 1abf
00000140: b9df 683f 11cb 063f 6ea7 99bf 76e6 193b
00000150: 6eec 34c0 6b54 e5be 9454 f2bd 70b3 283f
00000160: 9f18 a6bf 53bd 5bbf 615e 1cbf e1c5 25be
00000170: aed2 e7bd 9d2b 11bf 3d94 303f d275 28c0
00000180: aa06 703f 8ca8 b7bf 2bd6 2bbd 0c54 723e
00000190: 9e6d afbf 4ad1 c73d dbd3 ba3e 42e8 4bbe
000001a0: 9cbb 913f d1f6 9ebf 4cf5 043f dca2 1cbf
000001b0: a807 fe3e 421f 2cc0 032e 5bbe 8d7e 073c
000001c0: cb49 5fbd d9a8 ddbe 23e7 463f 7b3d 66bd
000001d0: 2c33 bd3f a892 7f3e b9e9 bcbf ad4b 85bf
000001e0: 4126 663f 3097 a43f efd4 c03e e0f3 24bd
000001f0: 34fe 113e 7a47 f2bf 0d93 bbbf 086c 05bd
00000200: e07b 1cbe 480d 8cbe 40f2 bdbe 24fa fc3d
00000210: 2cde 923d f6e8 84be 3119 55be 9062 c3bd
00000220: b112 f7bd cc94 afbe 01dd acbe 272c 32bd
00000230: c459 f8bd 6eae 75bc a837 54be ac3f 7dbe
00000240: 1137 0abe 313c 1cbf 7a30 22bf fee9 233e
00000250: 91dd 433f 7a44 243f 32ad 2d3f 30b2 1cbe
00000260: 9094 9439 297a 4a3f 3e64 82bf 06d0 5dbe
00000270: 20fd 0cbf 6da2 423f 0e2b debf ab1b 4ebe
00000280: c1cf de3e 716e 3b3f 9296 2ebf 5c77 e73a
00000290: b2f5 15c0 d562 f73d d2c4 82be 308c 673e
000002a0: ff1f fbbe f988 0eba 1b7e 2cbf 5699 953e
000002b0: 9130 a9be 4eec cabf ff76 6cbe ea9f 1cc0
000002c0: e1b6 e43e 7703 4cbf d64a a9bf 98ac c1bd
000002d0: 8a5c bd3f d56c 3dbe aba5 70be 8139 a2bf
000002e0: 240a 97bf 95ba b73f f2ae d1be 52bc 003f
000002f0: c6e7 5cbe 6ee3 53c0 48e9 37bf 6021 6e3f
00000300: 433c 953f 42c6 00bf d1fd 3a3f 69d7 0e3e
00000310: 333d 5bbf 75ab 133f b055 d63b 7a06 e6bd
00000320: 8e51 3f3e 04b2 663f b37b 183f dcbf 983d
00000330: 6adf a8bd 124b 993e 2b91 9dbe 8a9e bf3e
00000340: 936f 8ebe 0104 c93e 66bd 053e 7b4e f9bd
00000350: 7f1a be3e e530 533f 96a4 4abf 4062 ebbe
00000360: f697 603f 633f 793f 5a27 52be 719a fa3c
00000370: 2738 1ebe a180 573f 41e0 d5be 3ca1 2e3f
00000380: 286e 4bbf b473 d5bf 4a88 19bf 73fe 8e3e
00000390: c541 d33f 7fa7 db3e e7fb d13e f7c8 573f
000003a0: e138 003f e9a4 ebbf 500c 8dbf 2c10 4ac0
000003b0: 4a81 97be d435 a6be 8200 1abf a2ed 293c
000003c0: 3025 fdbe 1239 fb3e 1618 15bf 8ca1 1e3e
000003d0: 1e22 2d3f aa45 563e 2eb9 91bf 2cde a8bf
000003e0: b975 16c0 a628 26c0 589e fdbe 6dda 9cbf
000003f0: 12d8 553d 348e 07c0 2802 783f f89a ebbe
0.14023311 -0.30452123 0.35878506 0.04195176 0.75062263 0.642571 -0.0136729935 -0.5873308
0.73458093 0.10654384 0.7555809 0.6964006 0.24876675 -0.17278206 -0.56192154 2.1068478
1.393014 -0.613216 -0.19841622 0.08878025 0.58517075 -0.03727623 -0.21126583 0.5331147
0.6606088 0.95764595 0.9042199 -0.0723302 0.009972132 0.81592506 0.06057227 1.4957862
0.042205725 0.13697289 -1.5756754 -0.035356887 -2.0253773 -0.43298876 0.5067717 -0.08606088
-0.20367864 -1.2886769 -0.0077198953 0.36366355 -0.5885161 -1.5817088 0.11210482 -1.195992
0.32789257 0.11607708 -1.4612739 0.058400422 1.8447595 -0.14683639 -0.25991616 0.23122045
-0.7947735 1.8703008 1.3295456 0.059035026 0.07041976 -0.18526632 -0.5862404 0.6450605
-1.2502074 0.30269092 -0.53843683 0.1547363 -0.33866173 -2.1597378 0.37606776 0.4192502
-2.0018208 0.0055101677 0.12659296 0.63784665 0.050272234 -2.1110897 0.34671625 -0.60368925
0.90966374 0.52653605 -1.200422 0.0023483313 -2.8269305 -0.44790968 -0.11832538 0.658988
-1.2976264 -0.8583576 -0.6108151 -0.16188766 -0.11319481 -0.56707174 0.68976194 -2.6321912
0.9376017 -1.4348311 -0.041952293 0.23664874 -1.3705328 0.097567156 0.36489758 -0.19912818
1.1385379 -1.2419072 0.51936793 -0.61186004 0.49615216 -2.6894078 -0.21404271 0.008269918
-0.054513734 -0.43292883 0.77696437 -0.056210976 1.4781241 0.24958289 -1.4758826 -1.041372
0.8990212 1.2858639 0.37662455 -0.04027164 0.14257127 -1.8928063 -1.4654251 -0.03257373
-0.1528163 -0.27353883 -0.37098885 0.12352398 0.07171282 -0.25958985 -0.20810391 -0.09540284
-0.12064112 -0.3429321 -0.33762363 -0.04349914 -0.121264964 -0.014995201 -0.20724356 -0.2473132
-0.13497569 -0.61029345 -0.6335522 0.1600723 0.7650996 0.64166987 0.678424 -0.15302348
0.00028339447 0.7909265 -1.0186841 -0.21661386 -0.5507374 0.7602909 -1.7356889 -0.20127742
0.4351788 0.73215395 -0.681985 0.0017659473 -2.343121 0.120793976 -0.25540787 0.22612071
-0.4904785 -0.00054372806 -0.6737992 0.2921855 -0.33044866 -1.5853364 -0.23092268 -2.4472604
0.44670776 -0.79692787 -1.3225963 -0.09456748 1.4793866 -0.18498547 -0.23500697 -1.2673799
-1.179997 1.4353815 -0.40953785 0.50287354 -0.2157279 -3.3107562 -0.71840334 0.93019676
1.1659015 -0.5030252 0.73043543 0.1394936 -0.8564026 0.576835 0.0065409765 -0.11231704
0.18683454 0.9011538 0.5956375 0.07458469 -0.08245738 0.29940087 -0.30774817 0.37425643
-0.278195 0.39260867 0.13060531 -0.12173172 0.3712959 0.8249648 -0.7915739 -0.45973396
0.87731874 0.97362345 -0.20522824 0.030591222 -0.15451108 0.8418065 -0.41772655 0.68214774
-0.7946496 -1.6675935 -0.59973586 0.27928504 1.6504446 0.42901227 0.410125 0.84291023
0.5008679 -1.8409702 -1.1019382 -3.157237 -0.29590827 -0.32462943 -0.60157025 0.0103715975
-0.49442434 0.4906698 -0.5823988 0.15491313 0.67630184 0.20925012 -1.1384637 -1.3192801
-2.3509352 -2.596231 -0.4953487 -1.2254158 0.052208014 -2.1180544 0.9687829 -0.4601667

fc3.bias f4 [16]
00000000: 15a5 09bf a3b2 753e e168 173f 718f dc3d
00000010: d361 933e b29d 143f 3206 ae3c 079c 2a3f
00000020: d887 13bf 8383 b5bf 23b9 cd3e 42f5 3b3f
00000030: a656 80be a6b5 27bf 7411 1abf 19c5 a43e
-0.5376752 0.23993926 0.5914441 0.10769547 0.2878557 0.58053124 0.021243189 0.6664433
-0.57629156 -1.4180759 0.4018031 0.7342111 -0.25066108 -0.6551155 -0.6018288 0.32181624

fc4.weight f4 [16, 16]
00000000: c375 91be a3c1 ccbf b22c 4fbf 46d0 89be
00000010: ffbb 0dbf 2e67 a23e 2261 02be 70cc 45be
00000020: 8a64 50be 7b63 37bd a909 04bf 59c7 963d
00000030: c17e eebe b9f4 09bf a5bf 44be 03fa 5dbe
00000040: 43e6 4a3c 9c86 a2bd 39f2 a5be 6de6 dcbd
00000050: 06ae 06be 77a6 95bd 25cb aebb fca4 67bd
00000060: 4071 023e c6c4 b2bd fb13 a3be 6508 a8bd
00000070: 857e b3be 5ff6 3bbe 34a5 82be e029 ccbd
00000080: cdce 08bf fc60 71be f308 71be 3fbd c9bd
00000090: a846 06bd 9dea b6bd 053f 26bc af3e f8bd
000000a0: 2c33 bbbd 57b6 1ebc f000 3bbe 7250 02bf
000000b0: 7fd5 c1be 65ef abbe f959 cdbe 47ea 84be
000000c0: 4f97 88bf b5bb 8fbf 00e9 193f 3326 a3bf
000000d0: 4aaf 2e3f 644f 143f 7928 52bf 61d0 0f3f
000000e0: ee3c ffbd 6fb0 2fbe 702c 5d3e 8342 17bc
000000f0: ceb5 ebbe d465 a6bf bfa0 2dbf f6c5 7e3f
00000100: c0ba 2cbe 6d5e 4abe ac03 18be e113 55be
00000110: d0cf 1f3d c9c8 a3be 706a 933d 9d9c 99be
00000120: d8de 0bbe 7786 65be 59bf 56be d49f c1bd
00000130: 6e8a 60be 0a2c 90be ed4b a4be ef6c a3bd
00000140: a984 91bf 70bc 07bf 9819 b53e c02e b5bf
00000150: 5bd6 7c3f ee86 ca3e ae5c 76be 5123 703f
00000160: 9158 94bc 03e1 ccbe c6dc 333e 7e81 8d3f
00000170: 415f 143e 3103 cabf 9bb0 3abe 713a 6abe
00000180: fd66 59bd cefe 6fbe aaae a1be 025a cebd
00000190: 678a c03c acc9 8bbe 98a6 f1bd 40a0 5dbe
000001a0: a849 093d b47e 9bbe 79ee fbbd 22c2 34bc
000001b0: 7d58 3fbe 2d6a e6bd dd46 75be 755a 203d
000001c0: 7862 3cbf cfdf 1b3f 1e85 30bf b36a 003f
000001d0: be81 da3e f8cf cebf f97a 73bf 686b 373e
000001e0: 84fd eebc 3581 a83e e1c0 33be 3aea a2bb
000001f0: b3cc adbd 5a6a 8b3e d643 c9bf 55bb df3c
00000200: 7ed7 babe 0fa4 66bd b10c c43e ca98 85be
00000210: 0c87 a83f 5277 06bf bc9d fa3e feac abbe
00000220: 8073 273e f1be 063f 09be 27be 1868 8ebf
00000230: 9636 0abf 0df4 7dbf 78d8 ad3f 8c01 a1bd
00000240: 22d7 58be 969f a6be b86f 8fbe 0732 26bf
00000250: 6e94 2dbe 7b4f b4be 47bf bf3d 1a9a 463d
00000260: e47a d53d 949f 74bd 462f b6be 5022 5f3c
00000270: 179e 4cbe 776d d3bd 6944 593b a3d7 f93d
00000280: 41d0 52bf 7974 5abf f1b0 273f 4b51 21c0
00000290: 1132 cc3e bf40 f33e e600 aabf 6f9a 713f
000002a0: f9b4 ee3c 3c97 0bbf 2f85 3a3e f07d 0dbd
000002b0: 2454 cc3e aaef 00c0 903f 3bbf 711b f03e
000002c0: 0753 7ebf 978b a0be fded 0bbf 49f6 f03e
000002d0: a346 8c3f cf8b 0bbf f4b5 bcbf 11dc 343f
000002e0: 8594 793c 838f fc3e 4731 afbe 8384 65be
000002f0: e0a9 52bf 5824 ec3d c142 a03f 1080 503f
00000300: 7e7c 31bf c1c2 6cbf 44ca e63e ad53 49bf
00000310: a7b3 3f3f 935b 083f b819 91be be11 243f
00000320: 57da 15bc 1e3a b5bc 481e 8abe 92cf ec3d
00000330: acd3 05bf 2563 5cbf 3f57 52bf 2cc9 e13e
00000340: ef29 d73e c5a5 de3e 954d 07bf ed58 54be
00000350: 0d3f e3be 86c7 9dbf 22c7 363f b613 3540
00000360: 032e aa3d 8087 68be dd7d 63bf fece 0140
00000370: fc47 5a3e 7747 833e dd3d 73bf cb3c b3bf
00000380: c3a6 8f3e dabf 293f 7725 bebe c854 a13e
00000390: 0f75 54bd 557c 5c3f 9bbf e8be ba25 1f40
000003a0: cc1e f73e d2c4 4dbf 0e9a 353d b32c d93f
000003b0: 3d3d a6be 4aa9 dc3e 7296 13be f957 12c0
000003c0: de30 653c 1204 b63d e725 ef3e 3e85 163f
000003d0: b1cb 343f 0465 d53e db07 6bbf c58e afbe
000003e0: a991 2f3e bd71 883f b21a 493f c79e 9ebf
000003f0: 9637 493e bbc3 543d 12ba 663f 14a3 d03f
-0.28410158 -1.5996593 -0.80927575 -0.26916713 -0.55364984 0.31719345 -0.12732366 -0.19316268
-0.20350853 -0.044772606 -0.5157724 0.07362241 -0.4658108 -0.5388904 -0.19213732 -0.21677403
0.012384 -0.07935831 -0.32411364 -0.10786138 -0.13152322 -0.07307141 -0.0053342753 -0.056553826
0.12738514 -0.08728938 -0.3185118 -0.08204726 -0.35057464 -0.18355702 -0.25516665 -0.099689245
-0.5344055 -0.23572153 -0.2353857 -0.09850549 -0.032782227 -0.08931468 -0.010146861 -0.12121331
-0.0914062 -0.009687028 -0.18262076 -0.50904 -0.37858197 -0.3358108 -0.40107706 -0.2595999
-1.0671176 -1.1229159 0.60121155 -1.2746032 0.6823622 0.5793364 -0.82093006 0.56177336
-0.12462793 -0.17157148 0.21598983 -0.009232166 -0.46037143 -1.2999825 -0.67823404 0.99520814
-0.16868114 -0.19762583 -0.1484515 -0.20808364 0.039016545 -0.31989124 0.07198036 -0.300023
-0.13659227 -0.22414576 -0.20971431 -0.09454313 -0.21927807 -0.281586 -0.32089177 -0.07979762
-1.136861 -0.5302191 0.3537109 -1.4154892 0.9876458 0.39556068 -0.24058792 0.9380389
-0.018108638 -0.4001542 0.17564687 1.1055143 0.14489461 -1.5782224 -0.18231432 -0.22873856
-0.053076733 -0.23437044 -0.3157857 -0.100757614 0.023503495 -0.273023 -0.11799353 -0.21643162
0.03351751 -0.30370104 -0.123013444 -0.011032613 -0.186861 -0.1125072 -0.23952813 0.039148767
-0.7358775 0.6088838 -0.6895312 0.5016281 0.4267711 -1.6157217 -0.95109516 0.17912066
-0.02917362 0.32911077 -0.17554046 -0.0049717696 -0.08486309 0.27229577 -1.5723827 0.027311007
-0.36492532 -0.056308802 0.38290933 -0.2609313 1.3166213 -0.5252582 0.48948467 -0.3353042
0.16352654 0.52635103 -0.16381086 -1.1125517 -0.5398954 -0.99200517 1.3581686 -0.07861623
-0.21175817 -0.3254363 -0.28014922 -0.64920086 -0.16951153 -0.3521689 0.09362655 0.048486806
0.1042383 -0.059722498 -0.35582942 0.013619021 -0.19982181 -0.10323613 0.0033152348 0.121993326
-0.8234902 -0.85333973 0.65504366 -2.5205867 0.39881948 0.47510335 -1.3281524 0.9437627
0.029139029 -0.5452764 0.18214868 -0.03454393 0.39907944 -2.014628 -0.73143864 0.46895936
-0.9934544 -0.313565 -0.54660016 0.470629 1.0959057 -0.54510206 -1.4743028 0.70648295
0.015233164 0.4932824 -0.34217283 -0.2241383 -0.8229046 0.115303695 1.2520372 0.8144541
-0.69330585 -0.9248467 0.4507619 -0.78643304 0.748835 0.5326473 -0.28339934 0.6408957
-0.009146295 -0.022122439 -0.26976228 0.115630284 -0.5227611 -0.8608878 -0.82164377 0.44098794
0.4202418 0.43485847 -0.52852756 -0.20737047 -0.4438404 -1.2326515 0.713976 2.829328
0.08309557 -0.22707939 -0.8886393 2.0282588 0.21316522 0.2564046 -0.9501627 -1.4002928
0.28056917 0.6630837 -0.37137958 0.31509995 -0.05186945 0.86127216 -0.45458683 2.4866776
0.48265684 -0.8037845 0.04433637 1.6966766 -0.32468596 0.43097907 -0.14412859 -2.2866194
0.013988702 0.08887495 0.46708605 0.5879706 0.7062331 0.4167863 -0.9180886 -0.34288612
0.17145409 1.065971 0.7855636 -1.2392205 0.1965011 0.051944476 0.9012767 1.6299767

fc4.bias f4 [16]
00000000: e3a2 95be e698 10be 9b92 14bc a1d9 df3e
00000010: 0fd8 8ebe 174b 31be 3ecb f0be d9d0 4dbf
00000020: aba7 64bf 1a03 25bf 1193 16bf b08b 363f
00000030: 8e96 a73f 9367 443e 5b70 88be 5ae3 1dbf
-0.29225835 -0.14120826 -0.009068157 0.43720725 -0.27899215 -0.17313801 -0.4703006 -0.803968
-0.8931834 -0.6445786 -0.58818156 0.71306896 1.3092821 0.19180135 -0.2664822 -0.61675036

fc5.weight f4 [16, 16]
00000000: 55bc 173e b204 6e3a deb1 e73d 73a9 db3e
00000010: 2113 b5be 8e8a d63e 8d97 8dbd 4a6d af3e
00000020: dc8f 58bf 90b7 373e c024 893f 2046 38be
00000030: 9739 dd3e ec47 60bf b885 5ebf 0c9e 2abf
00000040: c5ee fe3d 9a0b 0d3e 9b64 803d 8a14 7a3f
00000050: 1d86 773d 40e8 88be 8b85 f3bd 9ea6 ed3e
00000060: cb1d aabf 835b d63e a2d7 e2bd 5f73 27c0
00000070: ebc4 0fc0 4557 133f 9dd7 96be 3d59 99bf
00000080: 887e db3d e28d ce3d e3e4 1cbe f782 fcbd
00000090: fc38 0e3e 6601 edbe d63d c0bb 609c 5f3e
000000a0: d5a1 2abe fc81 4ebe f190 283e 52a4 34be
000000b0: 9009 903c b591 e5be c7df aebd 179f 21bf
000000c0: 8644 70bd 5897 eabd 2d31 d03d 1094 6a3f
000000d0: e32e 713d 7d46 8e3e b04a e73c 6fa4 323f
000000e0: dd64 1f3f 70d0 cd3e 390b 0f3f f3a2 2c3f
000000f0: 1bb4 553f af35 d1be 9d8a 15bf 2102 543e
00000100: 8a4b 5f3e e8a1 78bd 4a7a 5f3e 4063 05be
00000110: 4cf1 6abe 97db aebe 400a 5d3e 602e fa3d
00000120: 243f 28be c8a3 273d 9820 9ebd b8ba 4cbe
00000130: 0e20 f3bb 0646 69be 921a 2ebe b5a0 cabe
00000140: 21e6 85be d429 9abc 721d 8bbe f18d 193f
00000150: 273b 073e 27bc b83e e8a9 5f3e c147 67bf
00000160: 1a3e 863e a7c4 c3bd ccbb b63f 612f 173f
00000170: 0c61 603e e40c 8dbf f88e c8bf 09cf 053e
00000180: 82d9 6c3e 185b 553e 7ef1 42be 986b 68bd
00000190: 5816 5bbd 0cb8 6dbe 121a 66be 3057 193d
000001a0: d8ef c0bd 46b9 363e 509b c8bd e0fe 33bc
000001b0: b07a afbd 80be 89be 82e3 18bd 3af4 61be
000001c0: d852 d5be 654c 74be 0c67 4e3d aa4a 053f
000001d0: 2a1e 83be 3d6c dabd a967 c8bb c40f eebe
000001e0: 905d 1cbf a762 00bf 3fbe e43e 0692 2a3f
000001f0: fc20 6b3f 1217 2cbf 0373 0ebf 2b80 b03d
00000200: 080f e8bd 0e64 933d 97f4 b4bd 7229 f9be
00000210: 7bc1 d93c 804d 90bf 3fea 53be 9e55 253e
00000220: c425 c4be 2997 e23d f656 f2bd 19e8 573e
00000230: a01a 8fbf 39ba 293f 721c 983e 96b0 4bbf
00000240: 27df 7e3e 6c2a ddbc 4abd 0bbd e8c6 09be
00000250: 213e 5a3e 1de6 c5be 303d 7e3d 1dcb 2bbe
00000260: cad3 66be 3675 133d ab69 b0bd 70e6 e6bd
00000270: 4d94 083d 6c28 fcbd 7cf0 5bbe 9022 85be
00000280: 9e8c 82bd 1531 5bbe 4e7c 263e 663e 51be
00000290: 2d3d 38be cf0d e9bd 45d2 40be 4c26 033e
000002a0: 9db2 0abe 5894 f53d 826c 393c 2aad 1cbe
000002b0: ab03 96bd 5449 2ebe 1ff8 1ebd ecf9 aebe
000002c0: f854 2f3e 7ced e73d baf8 0e3e f716 b03d
000002d0: 63e9 6dbc 194b 37be d0c7 27be c7f8 7fbe
000002e0: 835d 3cbe 0146 e23d e56a 1e3e 7def 69bd
000002f0: 7e09 87be eb04 b0be c2b7 46bd 5f88 bdbe
00000300: a209 233e b0f2 c03c 56fa 0c3e f876 89bc
00000310: 04f2 5abd 2df9 09be c816 1dbd 4801 54be
00000320: 9413 79be a52c bb3d 12be 12be 1241 ae3d
00000330: cd32 203d a719 e1ba a0fd 96bd fee0 f2bd
00000340: 6de8 c4bd 7ae4 d7bd 30c2 113e 3ba7 5c3f
00000350: c705 61bc 1aa8 e2bf 1159 a33e ece9 7ebf
00000360: d526 5dbf 7721 603c b029 92bf d14e 7dbf
00000370: bdb6 86bf 0727 373e 20a0 183f 06bd 84be
00000380: 5a2e 15be 9da1 1cbe 0dc3 6cbe 1ae4 6abe
00000390: 6cc2 303e 899d 36bf 83b8 b33d a10d 2bbe
000003a0: c569 9bbf 139e 423e a938 93be 8a5a 23bf
000003b0: cc36 00c0 d4ea 9d3e 30a4 723e 9ea0 6ebf
000003c0: fab1 9a3d a1e2 fcbb 057c 903e 8f5e 3b3f
000003d0: 2e5e 27be 1fc3 4b3f 999f 19be e656 673f
000003e0: b96b 02bf ca19 92be a8a0 ad3f 6010 2abf
000003f0: c547 5e3e 819e 6dbf 7fd8 3bbf 0d09 92be
0.14817937 0.0009079679 0.11313222 0.42902717 -0.35366157 0.41902584 -0.06913672 0.34263068
-0.8459451 0.17941117 1.071434 -0.179955 0.43208 -0.87609744 -0.8692279 -0.6664741
0.124478854 0.13773957 0.06269189 0.9768759 0.060430635 -0.26739693 -0.11890706 0.4641618
-1.3290342 0.41866693 -0.11076285 -2.6164167 -2.246394 0.5755504 -0.29461375 -1.1980358
0.10717493 0.10085656 -0.15321688 -0.12329667 0.13888925 -0.4629013 -0.0058667464 0.21836996
-0.16663297 -0.20166773 0.16461541 -0.17640808 0.017582685 -0.44837728 -0.08538776 -0.63133377
-0.0586591 -0.11454648 0.101656295 0.91632175 0.058882605 0.27788153 0.028233856 0.69782156
0.6226328 0.40198088 0.558765 0.6743614 0.83477944 -0.4086127 -0.5841463 0.20703937
0.2180616 -0.06070128 0.21823993 -0.13026142 -0.2294361 -0.3415191 0.21585941 0.122158766
-0.16430336 0.04092768 -0.077210605 -0.19993103 -0.0074195927 -0.22780618 -0.17002323 -0.39575735
-0.26152137 -0.018818773 -0.27170902 0.5998221 0.13206159 0.3608105 0.21842158 -0.9034386
0.26219255 -0.09558993 1.4276061 0.5905667 0.2191202 -1.1019559 -1.5668631 0.13067259
0.23129848 0.20835531 -0.19037434 -0.056743234 -0.053488106 -0.2321474 -0.22470883 0.037436664
-0.094207466 0.17844114 -0.097952485 -0.01098606 -0.08568323 -0.26903152 -0.037326343 -0.22065821
-0.41664767 -0.23857267 0.050391242 0.52067053 -0.2560895 -0.10665176 -0.006115873 -0.46496403
-0.61080265 -0.5015053 0.44676396 0.66629064 0.91847205 -0.672227 -0.55644244 0.08618196
-0.11330992 0.07196818 -0.08835714 -0.48664433 0.026581516 -1.1273651 -0.20694827 0.16145942
-0.38310063 0.11063988 -0.11832993 0.21084632 -1.118 0.6629978 0.29709202 -0.79566324
0.24889813 -0.026997767 -0.034116067 -0.13454783 0.21312763 -0.38652125 0.06207007 -0.167767
-0.22541729 0.036000453 -0.086139046 -0.11274421 0.033344556 -0.12312397 -0.21478456 -0.26002932
-0.06374477 -0.21405442 0.16258356 -0.2043396 -0.17992087 -0.11379587 -0.18830211 0.12807578
-0.13544698 0.11991185 0.011317374 -0.15300432 -0.07324918 -0.1702016 -0.038810845 -0.3417505
0.17122257 0.113245934 0.13962069 0.0859813 -0.014520976 -0.17899741 -0.16384816 -0.24997245
-0.18395047 0.110485084 0.15470465 -0.05711316 -0.2637443 -0.34378752 -0.04851509 -0.37018105
0.15921643 0.023553222 0.1376737 -0.016780362 -0.05345346 -0.1347396 -0.038351804 -0.20703614
-0.24323875 0.09139375 -0.14330319 0.08508505 0.039110947 -0.0017173783 -0.07372594 -0.1185932
-0.09614644 -0.10541625 0.14234233 0.86192673 -0.013734288 -1.770755 0.3190389 -0.99575686
-0.8638738 0.013679854 -1.1418972 -0.9894839 -1.0524517 0.17885982 0.5961933 -0.25925463
-0.14568463 -0.15296026 -0.23121281 -0.22938576 0.17261666 -0.7133413 0.08775427 -0.16704418
-1.2141653 0.19005613 -0.28754166 -0.63810027 -2.0033445 0.30843222 0.23695445 -0.9321383
0.075534776 -0.007717446 0.2821962 0.7319116 -0.1634452 0.79594606 -0.15002288 0.9036697
-0.5094562 -0.285353 1.3564653 -0.66431236 0.21707065 -0.9281998 -0.7337722 -0.2852253

fc5.bias f4 [16]
00000000: f766 efbe 078a 5e3f 877a c6be e6ca 203f
00000010: 8dc1 59be 24e4 abbf 13be 3ebe b1bc 563f
00000020: 2644 603f 26c2 89be bac2 b1be e296 16be
00000030: 19b7 b5be 278a dabe da76 c33d e819 ccbf
-0.46758243 0.86929363 -0.38765356 0.628096 -0.2126524 -1.3428998 -0.18627195 0.8388167
0.87603986 -0.26905936 -0.34718877 -0.14705995 -0.35491255 -0.42683527 0.095441535 -1.5945406

fc6.weight f4 [16, 16]
00000000: 5da9 913e 6efd 4fbe 62cb 0f3e 2dd8 e9bd
00000010: 8887 743d f42f 5b3f 8e87 45be bb35 c3be
00000020: 3c4e 42bf 8470 993e f262 3e3c b66f 453e
00000030: f48c 533e d00e 6d3d a823 933d 0c09 9d3f
00000040: 3d6d 143e c84c ae3d c66a 8bbe f356 4bbd
00000050: 6a76 11be 20a4 00be f8a2 7e3d 433e 05be
00000060: b51f dcbd 0130 c5bb 3088 3c3d 2a23 64be
00000070: 7e84 54be 7ed9 a9bd d3f0 fabd 74b0 74bd
00000080: b04f 8fbd dc2b b3be a1b8 cfbc e3ad bfbe
00000090: 3407 9cbd 6d45 db3d 406f c53d feeb 02be
000000a0: c434 bcbc 06e7 5e3e 5539 7f3e 6a35 16bd
000000b0: 6d64 e23d e87e dcbe d6ab 073c 0652 503e
000000c0: e463 d1bd 4c27 cfbd bc7f 083e 5040 5fbe
000000d0: 40b3 05be 7003 54bd dcae 6e3e a68a 89bc
000000e0: 0edc 24be c0fa 5b3e 609b 17bc c436 b03d
000000f0: 3840 33bd 1280 1bbe bec6 3ebe 3ada 54be
00000100: 18dd 403e 0130 1ebf a2a5 c1bd abc3 52be
00000110: 2821 cf3d 8376 55be aae8 56be 9715 33be
00000120: fdbd b6bd ab5b bcbd 9bb4 96be 37dc 92bd
00000130: c270 fc3d 5b54 0cbf 2a92 40bf a904 673e
00000140: 6968 18bd 3ab9 97be b1ec 56be 5399 46be
00000150: 4e39 5fbe 84e7 173e 90a3 923d 689a 67bd
00000160: c855 3bbf 57f6 02be 9543 293e 99e0 1dbe
00000170: a433 ccbd a9ee 85bd 5e52 3fbf 12a4 7f3e
00000180: 7651 373e 8a8a 173f d490 753e 04ae 4ebf
00000190: 2c93 6a3e bcf8 fcbd bb95 073e bcff d2bf
000001a0: 9944 1b3f 89fc a93b ca3e bcbd de6f 853e
000001b0: fa3e 333e eeea cc3b cea4 133e e8a6 65be
000001c0: 0b01 4dbe 4551 3a3f bb9e 0bbe e855 89bf
000001d0: 16cc 403e bbd4 a93d 607b 18bc 1444 22bf
000001e0: 2f1a 203e 5c1d 46bb 98d7 6f3e 8d30 96bd
000001f0: 8c4c a6bd 049a ee3e eaf2 583e 7e9d cd3c
00000200: 08cc 92be 1de9 88be dbfc a8bd 9e47 f8be
00000210: 70f4 34be e297 323e 7ea3 5a3e 0c2b c0bd
00000220: 251f 66bd 51bd 4fbe 1233 6ebe 7cbd 173e
00000230: 4814 24bd 2add d1be 6c01 f9bd 84c1 643e
00000240: 341e 9fbe 4b32 5bbe f13d f13d 13fc 9cbc
00000250: f9a9 aabd eb6b 96bd 301a 2e3d 0947 bdbe
00000260: 3ff7 9fbf e8c3 e1bc e745 a5be 36b3 7a3e
00000270: 98a4 bfbd 94fd 40be 12e2 04be 3415 2e3f
00000280: 7c86 a23e 1235 a0be 0692 d2bd 00be e83e
00000290: cd32 033e 9529 a33e c0aa ad3c 444b c93e
000002a0: cc54 063b 500f 36bc aced 793c 7e2e 88bd
000002b0: 0d13 fe3d 8862 48bf 7e2a ce3e a65a f63e
000002c0: 658f 30be 88ea 59bd 4b6d 073e f880 95be
000002d0: 402a c93d 9592 85bb eceb 0b3e eb05 b5be
000002e0: 2a0b 00be 1570 6b3d 473d 463d 54c7 d9bd
000002f0: 787a d43d b52c 24bd c486 9ebe 0ebb 1c3e
00000300: 759f f43d 5f13 573d 3e0d 883d fea6 9ebe
00000310: 38d5 60bd e1ee 23be 462d 7e3e ee8c 41bd
00000320: 9432 75be 290a 0b3e 5eed 203e f013 003d
00000330: 803b 283e b63a bfbd 94bd 9f3d 4eae 91be
00000340: 3f5d d13d 7943 babd 3851 383e f496 f3be
00000350: 00e0 453c 67e5 e2bd a4dd 3cbe c36f d3be
00000360: aa85 08bd b39f 03be ce13 d83d 86ff 4ebe
00000370: d4fd 2c3e 64aa 92bd 2489 86bd e2bb 85be
00000380: e738 493e 533b 9ebe 79f7 293e 0b9b 6dbd
00000390: d26e 9c3d 04e1 5a3e 78ac 3c3e 9cd9 853d
000003a0: 76d3 bcbf 7e42 153d b524 9f3d dd20 0fbd
000003b0: 19e0 b1bd cb87 40bf 311f 2ebf e214 233f
000003c0: 1a68 493e 529e de3d 2892 adbd 7cba b6be
000003d0: 7c26 583e fce5 1e3e 6059 68bc a9c2 7fbe
000003e0: 86f3 93be 80f3 ff3b 6077 3b3c 68a5 b53d
000003f0: 20f5 5c3c 29fc 7ebe 546f ecbc 78f5 dfbd
0.28449526 -0.2031152 0.14042428 -0.114181854 0.059699565 0.85620046 -0.19289991 -0.3812693
-0.75900626 0.29968655 0.01162027 0.19280896 0.20659238 0.057875454 0.07184535 1.2268386
0.14494796 0.085107386 -0.272299 -0.049643468 -0.14205328 -0.12562609 0.062167138 -0.13012032
-0.10748235 -0.0060176854 0.046028316 -0.22279039 -0.20753667 -0.082934365 -0.12252965 -0.05973859
-0.06997621 -0.349944 -0.025356593 -0.37437353 -0.076185614 0.10706601 0.0964036 -0.12785336
-0.02297438 0.21767816 0.24924214 -0.036672033 0.11054311 -0.43065572 0.008280715 0.2034379
-0.10224131 -0.10114917 0.13329977 -0.21801877 -0.1305666 -0.05176109 0.23308891 -0.016789746
-0.16099569 0.21482372 -0.009253353 0.08604196 -0.043762416 -0.15185574 -0.18630502 -0.20786372
0.1883434 -0.61792 -0.0945542 -0.20582454 0.10113746 -0.2084599 -0.20987192 -0.17488705
-0.08922956 -0.09197172 -0.29434666 -0.07170909 0.12326194 -0.54816216 -0.7522303 0.22560371
-0.03720895 -0.29633504 -0.20988728 -0.19394426 -0.21799204 0.1483441 0.07160103 -0.056543738
-0.73177767 -0.12789284 0.16529687 -0.15417708 -0.09970787 -0.065396614 -0.7473506 0.24964932
0.17902169 0.5919577 0.23981029 -0.80734277 0.22907704 -0.1235213 0.13240711 -1.6484294
0.60651547 0.0051875752 -0.091916636 0.2606191 0.17504492 0.0062535917 0.14418337 -0.22426951
-0.20019929 0.7278026 -0.1363477 -1.0729342 0.18827853 0.08292528 -0.009306759 -0.6338513
0.15634988 -0.0030229902 0.23422086 -0.07333479 -0.08120069 0.4660188 0.21186414 0.025099512
-0.28671288 -0.2674035 -0.08251353 -0.4849214 -0.1767137 0.17440751 0.2135143 -0.093832105
-0.056182045 -0.20287062 -0.2326167 0.14818376 -0.040058404 -0.40989047 -0.12158474 0.22339445
-0.3107773 -0.21405904 0.117793925 -0.019163167 -0.08333201 -0.073448025 0.042505443 -0.36968258
-1.2497329 -0.027559236 -0.32279894 0.24482426 -0.09357566 -0.18846732 -0.12976864 0.68001103
0.31743228 -0.3129049 -0.10281758 0.45457458 0.12812348 0.31867662 0.021199584 0.39315236
0.002049732 -0.011112049 0.015254419 -0.06649493 0.124059774 -0.78275347 0.40266794 0.48116034
-0.172422 -0.053202182 0.13225286 -0.29199958 0.09822512 -0.004076312 0.13664216 -0.35356078
-0.12504259 0.057479937 0.048398282 -0.10633722 0.103749216 -0.0400817 -0.30962193 0.1530573
0.119444765 0.052508708 0.06643151 -0.3098678 -0.05489084 -0.16009094 0.24821958 -0.04725354
-0.23945075 0.13578095 0.15715548 0.031269014 0.16428947 -0.0933737 0.07799831 -0.28453296
0.102228634 -0.09094901 0.17999732 -0.47576106 0.012077332 -0.11078911 -0.18443924 -0.41296205
-0.033330597 -0.12853889 0.105506524 -0.20214662 0.16893703 -0.07161406 -0.06569126 -0.26119906
0.19650613 -0.30904636 0.1659831 -0.05800919 0.07638325 0.21374899 0.18425167 0.06535646
-1.4752033 0.036440365 0.07770673 -0.03494345 -0.08685321 -0.75207204 -0.68016344 0.6370374
0.19668618 0.10870041 -0.08475143 -0.3568915 0.2110843 0.1551742 -0.014181465 -0.249766
-0.2889673 0.00781101 0.011442035 0.08869439 0.013486177 -0.24900879 -0.02886168 -0.10935491

fc6.bias f4 [16]
00000000: 122b e5bf 77dc b7be 26d2 aabd 01bd 48be
00000010: d70c 8dbe 1aa6 3dbd 17e7 b2bd 3152 2fbf
00000020: d9c6 79bb 156f 05be 5e2a e43e 5b50 a0be
00000030: f0f9 07be 4d93 a1be 2949 8d3e ebbd 40bd
-1.7903769 -0.3591039 -0.08340864 -0.1960335 -0.2754886 -0.046300985 -0.08735483 -0.6848479
-0.0038112907 -0.13030656 0.44563574 -0.31311306 -0.13278937 -0.31557694 0.2759488 -0.04705612

fc7.weight f4 [16, 16]
00000000: 6437 f5bd bb55 0f3d e438 21bb 665d 28be
00000010: bfa6 e9bd 08e6 febd 1e11 20bd 9a09 73bd
00000020: 13e7 d4bc 48fe 8e3d 3223 c5bd 84c0 0cbe
00000030: c306 09bd 68d8 92be 3ebf 933d 54eb f73d
00000040: 7152 3a3f ac5d 1ebd b5e7 4abe 94e7 2bbd
00000050: 8913 aa3c 9723 d6bd 6e2b d13e 04c7 98bf
00000060: 0b71 04bf bbe9 61be da3c 8b3e aac6 3dbc
00000070: 04e4 ec3d 979f ffbe 3a7d d4bd 6f45 973e
00000080: a7b8 d9bd 512c f83d 1269 15be a8c6 143e
00000090: c404 26be 9883 0ebe cd3a 83be 9d4a 8fbe
000000a0: a3c1 9c3d 9ecb 653d fba9 15be 1632 34be
000000b0: 145e 47be a0c0 9bbe 9624 2e3e 4a33 80bd
000000c0: 0777 bebc 6d15 323c 7cea 253e e87e 6dbd
000000d0: fb4f 46bf b2da 24be 13ed 5b3e 0af5 423e
000000e0: baca 40be 7b63 95bd 751a 933d 2ca6 c6bd
000000f0: bf20 ccbb 32c9 ae3d 0f93 00bf 58db 4bbe
00000100: 8828 283f 9709 febd f3c6 0bbd c620 0ebe
00000110: 1c01 11bd 4be8 bb3d 8b76 febd 2fb8 f5be
00000120: 196a 42be cc9f ff3b 914a f3be be26 44be
00000130: e6f5 08be d4e8 91be 83ca 7dbd 2e99 fbbd
00000140: 1fea 10be e3c2 34bc 2de9 cabd 20f3 1cbe
00000150: 6a4e c33d 04e1 fa3d e0eb 74bd c9d5 24be
00000160: b68e 913d d51b 02be a4a9 10be 6bb7 c8bc
00000170: e5a3 6f3c 9f3d b23d b199 8a3d e4b8 883d
00000180: 623c 953f 2bed b03d 3ce3 183e cae0 ff3d
00000190: 135f 51be 57b8 de3d ce60 e9be bc6b b5bd
000001a0: f822 49be 3424 09bf 30e5 1a3c a039 02bf
000001b0: fda5 6dbc 5af8 1dbd a254 94bd 56e0 d5bd
000001c0: 848c 543f b6cf 783e 374e c0b8 963c 64be
000001d0: 9aaf c239 3b90 ca3c 911c b5bf a7b7 6e3f
000001e0: bf0c 0e3e 9718 81bd 9c81 f13e fee4 cb3c
000001f0: fc8a 2f3e 3888 5abe 689a 893d bb5c ae3e
00000200: 538d 743d 407c f6bc 621f 72be 720a 293e
00000210: b329 95be c913 88be 189e 1fbf 347d 4fbe
00000220: 6cb4 52be fe6c e93d 25ab 91be 7ed6 a73c
00000230: ff9b 02be f803 53be 7619 b4be 58d6 7c3d
00000240: f8dd 233e 0090 fe3c fbb8 75be 2482 103e
00000250: 93f4 0f3c d84b 16be a281 93bd a11e 53be
00000260: 2547 bcbd c1f3 8fbe 77f4 8ebe a926 013c
00000270: 4b54 21bd 703d 913c b173 05be 580a 7b3e
00000280: c230 863f e035 28be e6bd 76be 96f7 a93c
00000290: 1312 233c 6165 733e 1d30 6ebe 5efe 6abf
000002a0: f712 19be f014 d6bc 4a5b 03bd 7aa2 95be
000002b0: cb27 753d e4a2 c5be 45e5 f4be cf9a 8f3d
000002c0: 9917 853d 44ab d73d ac60 99be 9846 42bd
000002d0: eee6 973d 629f 05bd e5a4 dcbc fc01 9cbe
000002e0: f808 78bd 2094 50be 47c3 fdbd f2ab 7ebe
000002f0: 8826 19be 7d00 d0be 0803 e5bd 5889 603d
00000300: 0073 acbe 8096 1e3e d28c ef3d 6448 5d3e
00000310: 1433 6cbe f46b 8e3d e407 95be 0646 57bc
00000320: 340b 00be ea92 eabe 1fb4 163d 447c 98bd
00000330: f031 823e 72c2 553e afab 95be 1ec9 59be
00000340: 72ab acbd 75de 9a3d 71a3 693e 6c2a 763e
00000350: 03aa b33d 0d35 833e 4452 3fbe e83b 793d
00000360: 0b96 513d 4b67 bebd 439f 69bd 1da4 413d
00000370: 41a3 a3bd e264 79bd 7ef6 adbd f25e e6bd
00000380: 5adb 84be 8dad 063e e9d0 90be eaf9 463e
00000390: 5eca 5a3d 2aef 09be 9d3f 9f3d 6578 41be
000003a0: 603a 67be ce7b 0dbe 9f2b 9dbd 787f 2dbd
000003b0: f056 903c 12d4 25be 5a6a d4bd 92b3 273e
000003c0: d73b 5f3e e7be 483e 5f0d 043e 9007 263e
000003d0: 4925 0abe f3ae b23d a9c4 14bf 3fe7 29bf
000003e0: c889 d53d d6f4 083c 19a8 07be 6ce2 94be
000003f0: 4b01 9c3d 5463 c4be 3cb5 a8bd da2d b1bd
-0.119734555 0.03499387 -0.002460056 -0.16441879 -0.114087574 -0.12446219 -0.039078824 -0.05933533
-0.025989091 0.06982094 -0.096258536 -0.13745314 -0.033453714 -0.2868073 0.07214211 0.12105432
0.72782046 -0.03866355 -0.19814952 -0.041968897 0.020761268 -0.10456007 0.40853447 -1.1935735
-0.5173499 -0.22061817 0.27194864 -0.01158301 0.11566928 -0.49926445 -0.103754476 0.2954516
-0.10630923 0.12117828 -0.14590862 0.14528906 -0.16212755 -0.13917387 -0.256308 -0.27986613
0.07654121 0.056102388 -0.14615624 -0.17597231 -0.19469482 -0.304204 0.17006144 -0.062597826
-0.023250116 0.010869366 0.1620273 -0.057982355 -0.7746579 -0.1609905 0.21477155 0.19038787
-0.18827334 -0.07294365 0.07182781 -0.096996635 -0.0062294896 0.08534469 -0.50224394 -0.19907892
0.65686846 -0.12404173 -0.03412528 -0.1387969 -0.03540145 0.09175166 -0.12424954 -0.47992083
-0.18985786 0.0078010317 -0.47517827 -0.19155404 -0.13375053 -0.28497946 -0.06196071 -0.12285076
-0.1415181 -0.011032793 -0.09907756 -0.1532712 0.09536441 0.122499496 -0.05979526 -0.16097178
0.07107298 -0.1270593 -0.14127213 -0.024501523 0.014626478 0.087031595 0.067675956 0.0667589
1.1659052 0.08638986 0.14930433 0.12494047 -0.20446424 0.10875004 -0.4558167 -0.08858439
-0.19642246 -0.53570867 0.009454057 -0.5086918 -0.014504907 -0.038566925 -0.07242705 -0.10443179
0.8302691 0.24297985 -9.169842e-05 -0.22288737 0.00037133397 0.024726978 -1.4149343 0.9324898
0.1387205 -0.06303518 0.47169197 0.024889465 0.17142862 -0.21341026 0.06718904 0.34055123
0.05970509 -0.030088544 -0.23644784 0.16507891 -0.29133376 -0.26577595 -0.62350607 -0.20262605
-0.20576638 0.11397742 -0.28450885 0.02048802 -0.1275482 -0.20606983 -0.35175675 0.06172785
0.16002643 0.031074524 -0.23996346 0.14112145 0.008786338 -0.1467737 -0.0720246 -0.20617153
-0.09193257 -0.28115657 -0.27920887 0.007882752 -0.03938703 0.017729491 -0.13032414 0.24515665
1.048363 -0.16426802 -0.24095878 0.020747941 0.00995304 0.23769142 -0.23260541 -0.91794384
-0.14948641 -0.02613303 -0.032069482 -0.29225522 0.059852403 -0.38600838 -0.4783117 0.07011949
0.064986415 0.10530713 -0.29956567 -0.047430605 0.07417093 -0.032622702 -0.026934097 -0.30470264
-0.06055543 -0.20369005 -0.12390762 -0.2487028 -0.14956105 -0.40625373 -0.11182219 0.05481848
-0.33681488 0.15487099 0.11696781 0.21609646 -0.2306636 0.06954184 -0.29107583 -0.0131392535
-0.12504274 -0.45815212 0.03679287 -0.07445577 0.25428724 0.20874956 -0.29232547 -0.21268126
-0.08431138 0.075619616 0.22816254 0.2403962 0.087726615 0.25626412 -0.18683726 0.060848147
0.051168483 -0.09297045 -0.05703665 0.04727565 -0.079901226 -0.060887225 -0.0849428 -0.11248578
-0.25948602 0.13152142 -0.28284386 0.19431272 0.05341565 -0.1347014 0.07775805 -0.18893583
-0.22580862 -0.13816759 -0.07674336 -0.04235789 0.01761958 -0.1619418 -0.103718475 0.16377094
0.21800171 0.19604073 0.12895726 0.16213822 -0.13490786 0.08724775 -0.5811258 -0.6636848
0.1042667 0.008359155 -0.13247718 -0.29078996 0.07617434 -0.3835703 -0.08237693 -0.086513236

fc7.bias f4 [16]
00000000: 3a81 6cbe 4c30 5c3e 1641 74bc b988 fcbe
00000010: 10f1 5bbe 1fe2 08be ae3b 02bf 81cb 21bd
00000020: 833a 7bbd 1f27 22ba 5fdf 2fbe f139 95bc
00000030: 07c2 3cbf bd59 99be 53d1 cebe 909b a2bd
-0.23096171 0.21502799 -0.014908096 -0.4932306 -0.21478677 -0.13367508 -0.50872314 -0.039500717
-0.061335098 -0.0006185639 -0.17175053 -0.018216105 -0.7373356 -0.29951277 -0.40394077 -0.079398274

fc8.weight f4 [2, 16]
00000000: c1e9 cc3d 9a85 23be ae02 c13d 7eb4 453e
00000010: c54e 603e 54f2 e33c b2f2 113c bfe5 d9be
00000020: 913e 1f3c 421f 1abe d47c 86be 5599 183d
00000030: bc93 213d fffd 5dbd 6273 433d a80b 2ebe
00000040: a35d f53d d466 f63d 186e c63d cc21 0bbe
00000050: c115 cbbd 0012 053d ba59 b63e 06b6 a83e
00000060: 0728 cd3a 9fdb 18be 8574 e9bd 4a3c 2fbd
00000070: dd16 2e3c a9f5 4ebd a2d3 19be 8db4 5cbe
0.100055225 -0.15968934 0.09424339 0.19307134 0.21905048 0.027825512 0.008907961 -0.42558095
0.009719507 -0.15050986 -0.2626711 0.037255604 0.03944753 -0.054197308 0.04771746 -0.16996634
0.119807504 0.12031332 0.096889675 -0.13587111 -0.099162586 0.03248787 0.3561533 0.32951373
0.0015652188 -0.14927529 -0.113991775 -0.042782106 0.010625568 -0.05052725 -0.15022138 -0.2155325

fc8.bias f4 [2]
00000000: 6ae2 ee3d 50cb 9e3d
0.11664279 0.077536225
