data/results/1731501265.pth (torch, 14114 bytes, 16 tensors)

fc1.weight f4 [16, 32]
000000 20 b6 99 3d 50 c7 43 be 5e 90 69 bc bb 18 f0 3e
       0.07505441 -0.19119 -0.014255611 0.46893868
000010 44 f7 fa be 82 ee ea 3e c9 c2 4c 3f 1f 26 3f 3f
       -0.49016774 0.45885092 0.7998472 0.74667543
000020 15 cc be 3e 24 c0 1b bf 4b a5 78 bf 15 a0 5f be
       0.37265077 -0.6084006 -0.9712722 -0.2183841
000030 93 78 51 3e a1 a7 02 bf 89 ff cd 3e 04 57 a7 3c
       0.20456152 -0.5103703 0.4023402 0.020427234
000040 e7 22 de 3d ac 00 c2 3d 30 a5 ab 3e 3a 41 48 bf
       0.10846501 0.094727844 0.33524466 -0.7822453
000050 aa 9c 73 3f 67 c5 f6 3d 97 4a 9f 3e 4c 76 57 3f
       0.95160925 0.1204937 0.31111595 0.8416488
000060 9a 42 19 3f 6b 63 5e be 8e ea 26 bf ae 37 a5 be
       0.5986725 -0.21717612 -0.6520165 -0.32269043
000070 46 6b 19 be bd e7 07 3f 2f 8f e8 be ec 33 3c bf
       -0.14982328 0.5308798 -0.4542174 -0.73516726
000080 66 39 bd 3d 68 bb 18 be e3 29 a2 3e 27 c1 53 bf
       0.092394635 -0.1491524 0.31672582 -0.827166
000090 d0 1a 42 3f ac 95 e7 be fe 53 2b 3f c3 6a 0d bf
       0.7582216 -0.45231378 0.66925037 -0.5524103
0000a0 89 ee f4 3d 2d 5c 81 3e 5f 30 45 3f 07 5a 1f be
       0.119595595 0.25265637 0.77026933 -0.15561686
0000b0 a7 76 6d be 60 fa ab 3e 8b d2 4a bf e8 c8 1e 3f
       -0.23189794 0.33589458 -0.79227513 0.6202531
0000c0 ad f9 17 3d 0f a6 18 3f d6 12 db 3e 9a c0 f7 3e
       0.037103344 0.59628385 0.42787808 0.4838913
0000d0 54 40 10 3f eb da 87 be f1 81 f3 3d 56 79 35 3f
       0.56348157 -0.2653421 0.11890019 0.7088827
0000e0 c8 5d aa bd ea 40 73 be f1 2e f3 be f7 66 14 bf
       -0.083186686 -0.23755231 -0.4749675 -0.5796961
0000f0 d6 da 94 be 38 76 6c 3f 8a 39 36 3d d4 d1 8b 3e
       -0.2907321 0.9236789 0.044488467 0.27308524
000100 20 63 25 bc 95 3f 1b bd 7b 2c ce be 50 ab 44 3f
       -0.010094434 -0.037902433 -0.4026831 0.768239
000110 c1 d2 08 bf ce 86 97 bf ef d1 83 bf c9 96 91 bf
       -0.53446585 -1.1838014 -1.0298442 -1.1374141
000120 54 7f da 3e ef 62 ff be b5 9d 21 bf 94 7f 1e 3d
       0.4267527 -0.49880168 -0.63131267 0.038695887
000130 47 90 2e bf 8f bc 85 3e 7a 30 1b be 0e 95 fe 3e
       -0.681889 0.2612042 -0.15155211 0.49723095
000140 83 05 2c 3e 6c 04 8f bd f2 1d 1c 3e dd c9 5a bf
       0.16798978 -0.06983265 0.15245798 -0.8546427
000150 4b 3d 5e 3f a9 ed bd be 27 3a b4 3e 45 a0 a9 3e
       0.86812276 -0.37095383 0.35200617 0.33130088
000160 c5 56 22 3e ec da a3 3d f9 3e 90 be 62 00 5b bd
       0.15853412 0.080007404 -0.28173044 -0.053467162
000170 a7 90 e9 be 5d 79 f4 3e 62 c3 c9 3e 96 f5 27 bd
       -0.45618173 0.47748843 0.39406878 -0.041005693
000180 a4 f0 cc 3d 1d 4e f1 be 47 a8 96 bd 3a 9a 5e 3e
       0.10006836 -0.47129908 -0.07356315 0.2173852
000190 90 23 12 be a7 f2 9a 3e d8 84 da 3e 85 b3 7e 3e
       -0.14271379 0.30263254 0.42679477 0.24873169
0001a0 e1 1d 3d 3f 3b 71 90 be 2a 4c 68 3f a1 8a 07 3f
       0.73873717 -0.28211388 0.9074122 0.52945906
0001b0 f2 79 52 be 80 b1 85 3e c0 89 b5 bf 71 56 94 3e
       -0.20554331 0.26111984 -1.4182663 0.289722
0001c0 b2 aa d9 bd fe 10 33 3e c2 bf 33 3f d8 f2 ad be
       -0.10628261 0.17486951 0.70214474 -0.33974338
0001d0 e4 9f 1f 3f 5d ba f3 3e 89 06 9b 3e 35 aa 82 3e
       0.6235335 0.4760312 0.30278423 0.25520483
0001e0 75 59 c7 bd 56 72 a4 3e eb 9c 2c 3e d8 46 3c 3e
       -0.097338594 0.3211848 0.16856734 0.183864
0001f0 39 72 9d 3e 16 a0 0e bf 2b b5 52 bd aa 3c d7 bd
       0.30751207 -0.5571302 -0.051442306 -0.105096176
000200 cf 15 ea bd f0 99 94 3d b5 6c a4 3f 79 de 91 bf
       -0.11429941 0.07255924 1.2845675 -1.1396018
000210 d0 3a ed bd 03 a5 34 3f cc f1 8a be 86 74 2d be
       -0.11583483 0.7056429 -0.271376 -0.16938981
000220 3e 01 00 be 54 c1 75 be a7 7a d5 be 13 a1 f6 be
       -0.12500474 -0.2399953 -0.4169514 -0.48169765
000230 f2 8f b6 3d cd 1c c5 bd a2 94 d7 be 7f 42 1f 3f
       0.08914174 -0.09624634 -0.42105585 0.6221084
000240 9e c1 09 be 47 1e 97 bf 94 de 08 3f cd 73 00 be
       -0.13452765 -1.1806115 0.5346463 -0.12544174
000250 2a a6 92 3e 35 05 a2 3e 52 40 a8 bf 14 f5 09 3d
       0.28642398 0.31644598 -1.3144629 0.03368099
000260 16 c4 30 3f c1 8b 5c be 91 28 4e bf 7e 39 96 3e
       0.69049203 -0.21537687 -0.8053065 0.29340738
000270 df ef 6a 3e 8b 90 0e bf c9 fe 22 bf aa c2 b8 3e
       0.22943066 -0.55689305 -0.6367002 0.36086017
000280 73 79 ea bc 6f 48 82 be 6f 5d b9 3b 5a 54 89 3f
       -0.028622365 -0.25445887 0.00565689 1.0728867
000290 b2 22 c0 3e aa 0e 54 bf b6 4f 9a bf 2a 01 18 bd
       0.3752647 -0.82834876 -1.2055576 -0.037110485
0002a0 fd 4a f2 be 51 75 c1 be a5 e9 9f bf f7 65 15 be
       -0.47322837 -0.37784818 -1.2493178 -0.14589678
0002b0 0c 84 74 3d d5 ea 5b bf 47 90 1d 3f 92 19 95 3e
       0.059696242 -0.859052 0.61548275 0.2912107
0002c0 40 50 5e be e3 9d 8b be d2 34 35 3d 4e f1 d3 3d
       -0.217103 -0.27268896 0.044239827 0.103487596
0002d0 68 23 04 3f 49 38 b7 be b2 09 c9 bd ed 22 e2 be
       0.51616526 -0.3578513 -0.09816302 -0.4416727
0002e0 da 31 88 be 36 92 60 3e 19 5b 7c bf 35 ae 0e be
       -0.26600534 0.21930775 -0.98576504 -0.13933642
0002f0 90 bf c1 3c 75 c3 a6 3e c5 55 8e 3e 60 12 07 3e
       0.023650914 0.32570997 0.27799812 0.13190603
000300 2d 58 20 bd b6 e6 16 be 3e 94 8b 3f 8e 8d 2d bf
       -0.03914659 -0.14736447 1.0904615 -0.6779412
000310 8b 70 51 3d 30 09 1e bf 23 8b 46 3f bc ac 2d bf
       0.05113272 -0.6173277 0.77556056 -0.67841697
000320 e7 06 bf 3e 18 bf d4 be 80 57 36 bf eb 66 f3 be
       0.37309954 -0.41552043 -0.71227264 -0.47539458
000330 54 8f c8 3e bf e9 e5 be d5 ba e0 3e 4d f6 be 3e
       0.3917185 -0.44904897 0.43892542 0.37297288
000340 7b 5d cf 3e 48 b3 a7 bd 9a 80 8b be 5d e0 00 bf
       0.40501007 -0.08188492 -0.27246553 -0.5034235
000350 a9 d4 b1 3e f1 68 70 bc d1 ca 18 3f e9 50 cc be
       0.3473256 -0.0146734575 0.59684473 -0.3990548
000360 ff f4 9c bf 26 d2 07 be 27 94 23 bf 9f 4d 95 be
       -1.2262267 -0.13263759 -0.6389794 -0.29160783
000370 26 f9 00 3e 9c 42 34 3f 43 8a b7 3e 98 12 b2 bd
       0.12595043 0.7041414 0.35847673 -0.08694953
000380 6d a9 81 3e 23 81 0c bf c8 68 1c 3f 66 88 c0 bd
       0.25324574 -0.54884547 0.61097383 -0.09401016
000390 f3 ee 6c 3e 54 ce 1d 3d 47 e9 33 be 55 9a 46 3f
       0.23138027 0.038526848 -0.17569457 0.7757924
0003a0 47 38 ae be 00 4e c3 be fd 43 9e 3e 4f 43 df 3d
       -0.3402731 -0.38145447 0.30911246 0.1090151
0003b0 7d fd bb 3e b5 7c ec 3e 3e 0d 52 bf 6c eb f7 be
       0.36716834 0.46188894 -0.82051456 -0.484218
0003c0 2e 69 6d be ef f0 74 3e 1e 4a 42 3e a2 45 a6 3f
       -0.23184654 0.23920034 0.18973586 1.299
0003d0 9a 52 86 3f 4f 32 b3 3d 11 dd c8 3e 4a bc 03 be
       1.0493958 0.0874983 0.3923116 -0.12864795
0003e0 e4 9c bd be 47 ab 1c 3e 45 cf 82 3e a6 ad 25 3d
       -0.3703376 0.15299712 0.2554876 0.040448807
0003f0 a8 56 80 be 0e ec c1 3d cb 6a 49 3d 11 5f 91 be
       -0.25066113 0.09468852 0.04917411 -0.28392842

fc1.bias f4 [16]
000000 94 42 7e bf 52 a6 f8 bd dc 0c 16 bf 1e 05 86 bf
       -0.9932034 -0.12141098 -0.5861337 -1.0470312
000010 02 75 32 3b b9 9f 45 3e 89 f6 f4 3d bf ba 1f bf
       0.0027230387 0.1929921 0.11961085 -0.62394327
000020 9f 7f 26 bf 13 6d 85 be 7f 70 2e bf cf b1 73 3d
       -0.65038484 -0.2605978 -0.68140405 0.059495743
000030 07 ab c3 be 83 5f 01 bf 4b 85 38 3e ce 42 04 be
       -0.3821642 -0.50536364 0.18019597 -0.12916109

fc2.weight f4 [16, 16]
000000 6c 83 33 3f bb c8 3f be 36 eb 90 bf 63 b6 dc 3e
       0.7012241 -0.18728916 -1.1321781 0.431079
000010 ff 2c bd 3e 69 47 17 be da 75 09 bf 93 a2 82 be
       0.36948392 -0.14773335 -0.5369545 -0.2551466
000020 4d 84 15 3f 7d 2c a3 bf 8b 1d 68 3f 5b 96 9b bd
       0.58405 -1.2747952 0.9067008 -0.075970374
000030 f7 61 b4 3e da c4 90 3e 18 45 3b bf 8e 01 07 3c
       0.3523099 0.28275186 -0.73152304 0.008240117
000040 6a 68 f5 3d c7 30 bf 3e f7 f9 57 3f 4b 14 b9 3e
       0.11982806 0.37341902 0.8436579 0.36148295
000050 c6 5c 8e bb b4 1f 8b bd 4a f5 a8 be ed 60 c5 3e
       -0.0043445555 -0.06793156 -0.3299964 0.3855051
000060 a8 e1 1f c0 10 83 3a c0 b5 d2 d0 be f1 02 03 3f
       -2.498148 -2.9142494 -0.40785757 0.51176363
000070 10 b0 b7 be 76 a6 c7 3e 1d 26 37 3e f3 58 e0 be
       -0.35876513 0.38994187 0.17885633 -0.43817863
000080 b5 e3 fd be b7 07 24 3f 53 17 83 be 82 4d 9e be
       -0.4958779 0.6407427 -0.25603732 -0.3091851
000090 2f f6 13 3f c3 84 f2 bd c1 69 e9 be 64 d4 2b 3e
       0.5779752 -0.118417285 -0.45588496 0.1678024
0000a0 76 fe 59 bf db 12 d0 3e 32 02 5a 3e b3 6a ad 3e
       -0.851539 0.40639386 0.212899 0.33870468
0000b0 a8 d2 b2 3e 24 7a 73 bf 16 2c 1c 3f cc cf ca bf
       0.34926343 -0.95108247 0.6100477 -1.5844665
0000c0 e1 39 64 3e 0a 1b 54 bc 64 c4 69 3b 6c 5c c3 be
       0.22287704 -0.0129459 0.0035670036 -0.3815645
0000d0 4f 24 f1 3b bd 7c 8d 3e 4c b2 ee 3e b8 3d d1 bd
       0.0073590646 0.2763423 0.46620405 -0.1021685
0000e0 25 f6 03 c0 62 5e 54 bf 8f 35 b7 bd 5c 1e 60 be
       -2.0618985 -0.82956517 -0.08945762 -0.21886581
0000f0 15 0c 64 3e 62 48 e2 3e 3f ef 84 3d 66 c9 92 be
       0.22270234 0.4419585 0.06490945 -0.2866928
000100 94 0f c6 3e ca 35 40 bf f1 9e e5 3e 5e 42 5c bf
       0.3868376 -0.75082076 0.44847825 -0.8603877
000110 69 a1 4e bf 20 2d ab bc d4 4f 98 be 54 eb 05 3f
       -0.8071504 -0.02089554 -0.29748404 0.5231221
000120 dd ca 85 3e 2e 40 1f 3f e0 5a 48 be 2f ef 96 be
       0.26131335 0.62207305 -0.19565916 -0.29479358
000130 fa d9 c5 bd f2 5d 0f bf 56 a9 14 3f ed 4a a2 3e
       -0.09660716 -0.56002724 0.58070886 0.3169779
000140 1b fb ad bf 0e 7f 27 3f da 25 3a bf 79 39 38 3e
       -1.3592256 0.65428245 -0.72714007 0.17990674
000150 93 6e 2d bd 9f ff 4c be 4c be dd 3e 82 9d d9 bd
       -0.04234178 -0.20019387 0.43309247 -0.10625745
000160 33 a9 9d be a3 a3 2e 3f 04 61 80 3f 47 31 54 3e
       -0.3079315 0.6821844 1.0029607 0.20721923
000170 40 08 6b be d8 1c 9e bf 51 bf dc be 7e 1d a4 3e
       -0.22952366 -1.2352552 -0.43114713 0.3205375
000180 4a f1 3b 3f 86 c2 71 bd ab f0 d6 3e 49 17 1c 3e
       0.7341505 -0.059023403 0.4198049 0.15243258
000190 25 bc 6e 3e 23 d6 38 3e 1c 9f c4 3e 2e 04 cb 3e
       0.23313959 0.18050437 0.3840264 0.39651626
0001a0 c1 20 14 bf 32 13 d0 3d 17 93 8f 3e 3f d0 07 3f
       -0.5786248 0.10159911 0.28041908 0.53052133
0001b0 53 2b a1 bd 52 82 b3 be 8f ee 08 3e c5 f0 55 bf
       -0.078695916 -0.35060364 0.13372253 -0.8357051
0001c0 33 ca 97 bf 37 8b 02 3e 07 09 58 3d 60 b3 70 3e
       -1.1858581 0.12748419 0.052742984 0.23505926
0001d0 05 81 a8 be 32 2f 0d 3f 57 68 50 3e 39 4f 34 bf
       -0.32910934 0.5515014 0.20352302 -0.70433384
0001e0 cb b0 0e 3f 18 2b d9 3d b1 43 3f 3f d6 13 86 3e
       0.55738515 0.106039226 0.74712664 0.2618701
0001f0 46 7f b3 bf da 97 5b 3e fd 98 b4 3d 22 a6 47 be
       -1.4023216 0.21444646 0.08818243 -0.19496968
000200 33 80 98 be 81 50 46 bf 20 d6 08 3f 16 6a 02 3d
       -0.29785308 -0.7746659 0.5345173 0.031839453
000210 aa 7d e1 3e be 4b e1 be 4a fe ef 3e c8 40 67 bf
       0.44041187 -0.440031 0.46873695 -0.90333223
000220 d6 bc 38 3f c7 db 1f bf 41 2a 18 3f 6f 6e ca be
       0.7216314 -0.6244473 0.59439474 -0.3953738
000230 11 e7 3c bd 69 ce fb 3e 89 6b e8 be 83 64 bb be
       -0.0461188 0.49180916 -0.45394543 -0.36600122
000240 1a bb 68 bf 37 cc 9a 3e 01 0a 45 3e a7 ef d0 3e
       -0.90910494 0.3023393 0.19242097 0.4080784
000250 21 06 a8 bf f9 4f 5d bf b0 0f 2a bf 5e f0 27 bf
       -1.312687 -0.86450154 -0.6643019 -0.65601146
000260 e8 ca 0b c0 e4 ab e1 3d 72 c8 8d be fa 66 f4 be
       -2.1842594 0.11019114 -0.2769199 -0.47734815
000270 8b c9 80 bf d9 48 92 3e 37 38 19 bf 6e d6 ed 3e
       -1.0061506 0.28571203 -0.598514 0.4645266
000280 d2 04 68 bf 7a a6 95 be 4d 3f a8 be ab a9 d0 bf
       -0.90632355 -0.29228574 -0.32860795 -1.6301779
000290 d5 f0 81 3d e8 64 34 3e 9b 70 56 3f c7 d6 36 3f
       0.06344763 0.17616618 0.8376557 0.71421474
0002a0 92 a0 1f 3f df eb 3c 3e 7c d9 8f bd 2d 96 c5 be
       0.62354386 0.18449353 -0.07023904 -0.38591138
0002b0 dc 5d 86 bf ff 0d db bf e7 52 c3 3e ea 04 66 be
       -1.0497394 -1.7113646 0.38149187 -0.22462812
0002c0 46 eb 7b be da 34 d3 3d a8 2e 54 3f bc e5 31 3f
       -0.24601468 0.10312815 0.8288369 0.6949117
0002d0 b2 54 05 3f 75 61 28 bf 07 f7 82 bf 0a a9 0f bf
       0.5208236 -0.6577371 -1.0231637 -0.5611731
0002e0 bd 90 40 bf b3 59 53 be 23 59 3f bf b3 14 f0 3d
       -0.75220853 -0.20639686 -0.74745387 0.11722698
0002f0 ae db 18 bf 05 ed 15 be c0 ba 05 be ee d4 01 c0
       -0.59710205 -0.14641197 -0.1305952 -2.0286212
000300 ad 9a 3d 3f 0d 73 f5 3e c9 e1 6f 3e bd a2 52 3f
       0.7406414 0.4793934 0.23425974 0.8227957
000310 66 64 9c bd 63 5c 1e 3f 95 7f 5e 3f 43 10 98 3e
       -0.07636337 0.6185972 0.86913425 0.29699907
000320 e5 2a 15 3e e1 6e 23 3d 8c bd 1b 3f 3f 95 3b 3d
       0.14567144 0.039900664 0.608361 0.04579663
000330 0e 72 2a 3e c5 a9 3c be 56 ab 9c bd df c0 22 bf
       0.16645071 -0.18424137 -0.07649867 -0.6357555
000340 27 18 bd 3c 90 3e ed be df 05 4f be fd 81 cb bf
       0.023082806 -0.46336794 -0.20217083 -1.5899044
000350 00 29 b2 bf 85 70 8f bf 15 93 09 3d 19 78 79 bd
       -1.3918762 -1.1206213 0.033587534 -0.06090555
000360 45 5b 15 bf 9d 96 37 bf 07 f2 2c be 16 1b 23 3f
       -0.5834239 -0.7171419 -0.16889201 0.63713205
000370 54 62 65 bc 4e f2 6f 3f cf 88 01 c0 0e e7 44 be
       -0.014000494 0.937291 -2.0239751 -0.19228765
000380 b7 d0 99 3b 0b 39 1d 3f 08 fb 69 be ad c8 81 3d
       0.00469407 0.61415166 -0.22849667 0.06337104
000390 e3 7a b6 3e 43 11 69 bf 4c c3 bd be e6 bf 13 3f
       0.3564063 -0.91041964 -0.37063062 0.5771469
0003a0 9e 04 a8 bf ba e8 d9 3e 94 18 a6 3e df 56 3d be
       -1.3126409 0.4256037 0.32440627 -0.1849017
0003b0 66 cf a1 be d4 63 37 3f 5a d4 fe bf 30 ff 19 3e
       -0.31603545 0.716367 -1.9908555 0.15038753
0003c0 57 0f 30 bf 0f cf 42 3f b8 dd 65 bc be d6 78 be
       -0.68773407 0.76097196 -0.014029913 -0.24300668
0003d0 35 4c 4f 3f d7 a6 82 bf df 22 16 3f bb eb 14 bf
       0.8097566 -1.0207165 0.5864696 -0.58172196
0003e0 4a 6a 8a bd bf 80 db bc b3 14 be 3e 05 40 1f 3e
       -0.06758554 -0.02679479 0.37125167 0.15551765
0003f0 19 47 6b bf fe 18 d3 3e 64 50 bd be 81 82 91 3e
       -0.9190536 0.41230005 -0.36975396 0.2841988

fc2.bias f4 [16]
000000 b9 25 db 3e 3d cb 8a be 45 59 0e bf 5b 4b 4d 3e
       0.42802218 -0.27108184 -0.55604964 0.20048277
000010 56 ca ec 3e 8f ab df be 23 c8 e6 be db 73 e6 be
       0.4624812 -0.43685576 -0.45074567 -0.45010266
000020 d5 e9 10 3f ae 91 83 3f 9b 27 e5 be 3b 69 07 bf
       0.566068 1.0278833 -0.4475678 -0.52894944
000030 9b c8 fb be 3a 5a 44 3f 46 f8 09 3e 78 04 e4 be
       -0.49176487 0.76700175 0.13473615 -0.4453466

fc3.weight f4 [16, 16]
000000 5e 51 12 bd e3 16 8e be 9a 99 0e be 60 51 89 bd
       -0.03572213 -0.27751836 -0.13925782 -0.06704974
000010 d8 95 ca 3d d3 aa 4a 3b 9a 21 74 3d 1b 39 4a 3c
       0.09891862 0.0030924573 0.059602357 0.012342717
000020 48 73 2b be 60 8b 42 bd 1a fe a8 be 29 56 0b 3e
       -0.16743195 -0.0474962 -0.33006364 0.13607086
000030 89 1f 1a bf 72 e0 05 3d 0f e8 b2 be 8c fb 10 be
       -0.6020437 0.03268475 -0.34942672 -0.14158458
000040 ff 89 7f bf 8a 04 df 3e 86 d6 0c be 73 96 ab be
       -0.9981994 0.4355815 -0.13753709 -0.3351322
000050 6f 06 5a bf bd bd 2c 3f fc 42 b8 3e 8e 34 2a be
       -0.85166067 0.6747702 0.35988605 -0.1662161
000060 53 81 57 bf 91 5a b5 bf 5b a8 69 3f 55 8d b1 3f
       -0.8418171 -1.4168264 0.91272515 1.3871256
000070 11 51 04 bd 21 dd 81 be 8e 40 14 3f 6c 82 e2 bc
       -0.032303873 -0.2536402 0.57911 -0.02765008
000080 fa 93 75 bf b3 4f 52 3f 96 1d f9 3e 7c 85 74 ba
       -0.9592892 0.8215286 0.48655385 -0.0009327752
000090 1b a7 7a bf eb 6d 22 be 06 65 a7 3e ba e0 90 bd
       -0.9791123 -0.15862243 0.32694262 -0.07074113
0000a0 1b 89 44 3e e7 03 1f bf e8 ba 57 bf f7 5d ca 3f
       0.19192927 -0.6211533 -0.8426957 1.5809926
0000b0 4d 7b 1e 3e 53 0f 10 3f b1 b5 5b bf 01 bf 1d bf
       0.15476723 0.5627338 -0.85824114 -0.61619574
0000c0 17 5f 85 bf 4c 9e 6e 3f 47 3f 06 3f 2c 30 35 3e
       -1.0419644 0.9321029 0.52440304 0.17694157
0000d0 8d 61 9f 3e 12 bd 37 bf b6 4a c9 be 2e 8a fc bb
       0.31129113 -0.71772873 -0.39314812 -0.007706902
0000e0 41 6c 56 3e a8 6a 81 be e7 0a 70 be a5 76 c3 be
       0.20939733 -0.25276685 -0.23441659 -0.38176456
0000f0 08 97 83 bf fa 31 fd 3e 28 5a 42 bf 6b 9b ae bd
       -1.0280466 0.49452192 -0.7591882 -0.085257374
000100 a0 4f 93 be 7d f7 95 bc 76 59 cb bc 06 ee 20 bd
       -0.28771687 -0.018306488 -0.024822932 -0.039289497
000110 7c ab 8d be 78 d0 6d be 41 46 ae be 68 75 d8 bd
       -0.27669895 -0.23224056 -0.34037974 -0.105692685
000120 2c a1 54 be 87 77 4f 3d ac 57 ab be 70 5d 62 be
       -0.20764607 0.0506511 -0.33465326 -0.22105956
000130 9b 3d bc be 71 4d b3 bd 43 40 8d be b0 30 1c be
       -0.3676575 -0.08755005 -0.2758809 -0.15252948
000140 9c 29 c1 3c a9 3b 9c bd e2 e1 1c be d0 bd f4 bd
       0.023579411 -0.07628567 -0.15320542 -0.11950266
000150 bc fa 15 be 44 86 cd 3d fd 2e 00 bd 7f fa 29 be
       -0.14646429 0.10035375 -0.03129481 -0.16599463
000160 e5 ab 45 be 8e 75 0a 3d c9 d0 c2 bd 3a 27 fd be
       -0.19303854 0.033803515 -0.09512479 -0.4944399
000170 5c 29 b2 be 74 00 86 be c4 1a 1a 3e 19 29 8d be
       -0.3479718 -0.2617222 0.15049273 -0.27570418
000180 93 06 54 3f 96 35 8b 3e e7 cc 51 3f ab a5 c1 be
       0.8282253 0.2718932 0.8195328 -0.37821707
000190 ba 34 d8 bf 80 b1 90 be f6 e2 2c 3e c4 82 d9 3c
       -1.6891091 -0.28260422 0.16883454 0.026551612
0001a0 da e7 ca 3e 27 fc 60 3e 23 6f d1 3d 8c 3d dc be
       0.39630014 0.21971188 0.10226276 -0.43015707
0001b0 bc 52 17 bf e6 3b 16 3f 84 ab 52 bf c7 de d5 bf
       -0.5911062 0.5868515 -0.8229296 -1.6708611
0001c0 a6 51 ce be f0 89 34 3d d1 c0 c1 be 54 20 c7 be
       -0.40296668 0.04407686 -0.3784242 -0.38891852
0001d0 33 51 5a be 48 84 bc be b9 19 bb be ed 6c 0f bf
       -0.21320038 -0.36819673 -0.36543062 -0.5602558
0001e0 e6 a3 d6 bd ad 40 11 be a9 d0 03 be 1a cb 3d be
       -0.1048048 -0.14184828 -0.12872566 -0.18534508
0001f0 46 cd 1a be b2 b0 3f 3d 7a 79 7c be 1d d3 9c be
       -0.15117368 0.04679937 -0.24655715 -0.30629817
000200 79 f6 9b bf 25 c1 a1 3e 28 81 46 bb 17 13 40 be
       -1.2184592 0.3159267 -0.0030289385 -0.18757282
000210 c7 52 b5 3c d2 0d f0 3e 53 99 f7 3e 9a b5 b0 be
       0.022134198 0.46885544 0.48359165 -0.3451355
000220 9b 93 24 3d 0e 90 3e bf 3d 42 bb be 90 6e 50 3f
       0.04017983 -0.7443856 -0.36573973 0.81418705
000230 a9 ac ca 3e 5a 82 d7 be 7f b4 02 bf 14 ab f7 be
       0.39584854 -0.42091638 -0.51056665 -0.4837271
000240 f2 9a 29 c0 4d cb 76 bf 60 15 e6 3e 0d 79 11 3f
       -2.650082 -0.9640396 0.44938183 0.56825334
000250 c6 68 87 be f6 a7 0f 3f 7a 9f 33 be 57 ed d2 bf
       -0.26447123 0.56115663 -0.17541304 -1.647868
000260 dd 1d 78 3e f2 86 00 3f 52 86 e0 bf f0 10 4a 3f
       0.24230142 0.5020591 -1.7540991 0.78932095
000270 13 85 79 3e 45 41 89 bd ae c0 a2 bf ed 2f d6 be
       0.2436717 -0.06701902 -1.2715051 -0.4183344
000280 a2 b5 49 bf b3 9f 6a 3d 72 7c 69 3f be 85 17 3f
       -0.78792775 0.057281207 0.91205513 0.5918845
000290 60 c6 08 bf 38 1f 82 3e 0e 4c c1 3e 51 99 7c be
       -0.53427696 0.25414443 0.37753338 -0.2466786
0002a0 8e 5c 21 3d 5e bf a0 bf 9a 1f 3e bf 3f 80 cd 3e
       0.039394908 -1.2558401 -0.7426697 0.40136907
0002b0 4d 78 03 3f 8f 01 a5 bf 70 7e bd bb 3a 0f 97 bf
       0.5135544 -1.2891101 -0.005782895 -1.1801522
0002c0 0d 34 bd 3e ea 22 c3 bf a2 60 9c bd 75 e6 72 bc
       0.36953774 -1.524503 -0.07635619 -0.014825453
0002d0 59 9e 04 3f 0c bd 05 c0 5c 8d a6 3e b7 7a 59 bf
       0.5180412 -2.0896635 0.32529724 -0.84952873
0002e0 39 ba 2d 3e 9e 0d 83 3f 2e 8e a0 3e 7f 36 90 bf
       0.1696557 1.0238531 0.31358474 -1.1266631
0002f0 b1 0f 4b bf 41 b5 49 bf 79 b5 97 3e 69 b3 47 3f
       -0.7932082 -0.78792197 0.2963064 0.78008133
000300 3c 1e 83 3e 84 99 85 3e 6f d1 36 be 6a 9d 0e bf
       0.25609004 0.26093686 -0.1785333 -0.55708945
000310 72 fc ac bf 32 a4 00 bf 91 0b 9c 3e 4a 04 87 bf
       -1.351454 -0.5025054 0.30477574 -1.0548184
000320 d7 6b 96 bd c1 88 9a be 34 85 d5 bd 0c 19 10 3f
       -0.073447876 -0.3018246 -0.10425797 0.5628822
000330 0d 1b d8 bf a7 e5 f2 be 7c 49 94 bf 28 e0 26 3f
       -1.6883255 -0.47440836 -1.1584926 0.65185785
000340 0f 3d 0e 3e 22 bf cd 3e b7 ae b2 bf d3 dd 79 bf
       0.1389048 0.40184885 -1.3959569 -0.976041
000350 bf 73 46 3e a3 03 1c be bd fa 51 3e 84 f4 4d bf
       0.19380091 -0.15235762 0.20505805 -0.80451226
000360 29 81 05 bf d4 3c b5 bc 87 c8 a1 be ce 83 23 bf
       -0.5215021 -0.022123732 -0.31598303 -0.63872993
000370 a8 4b b5 bf 40 df 53 3f ef 65 61 bf d2 cd c3 3e
       -1.4163713 0.8276253 -0.88046163 0.38242966
000380 14 a4 5d 3e fd 85 8a 3d 76 58 b6 3e 0e 9b 12 3e
       0.21644622 0.067638375 0.35614365 0.14316961
000390 67 2c c7 3d 70 d9 02 3f 8b 20 78 be 77 92 1e bf
       0.09725266 0.51113033 -0.24231164 -0.6194224
0003a0 c7 8f 7b 3f 1f 2d 94 3f 8c d8 0d 3e 0b 9d 8a bf
       0.9826626 1.157627 0.13852137 -1.0829176
0003b0 1f 58 09 bf dc 56 fb be 77 55 b7 3e 8c df 2e 3f
       -0.5365009 -0.49089706 0.35807392 0.68309855
0003c0 57 d9 b2 3e 07 28 48 3c 14 b1 83 bf 86 44 0b 3f
       0.34931442 0.0122165745 -1.0288415 0.54401433
0003d0 eb 50 0d 3e 64 65 0e be d6 6d f4 bd b4 3d 6d 3e
       0.13800399 -0.13905865 -0.11935012 0.23168069
0003e0 9b 31 17 3f bc 16 fb 3f 80 1e 1f 3d 25 6a 15 bf
       0.59060067 1.9616313 0.038847446 -0.5836509
0003f0 e7 11 ef 3d a3 fd 9a bf 06 d3 7e 3f 89 76 2c 3f
       0.116733365 -1.2108654 0.99540746 0.6736837

fc3.bias f4 [16]
000000 76 22 12 bf c1 95 12 bf 00 2d 90 3e c0 b2 6d bf
       -0.57083833 -0.57259756 0.28159332 -0.92850876
000010 eb de ae be 55 ad 49 bf 5d 68 07 bd c3 be ee be
       -0.34154448 -0.7878011 -0.033058513 -0.46629915
000020 78 6f fa bc 6b 1c f8 3d b4 7c 8c be ae 87 58 3e
       -0.03057073 0.12114795 -0.2743889 0.21145508
000030 fc c4 bf be 20 5f 24 be d6 2e b6 be 61 50 29 3f
       -0.37454975 -0.16051912 -0.35582608 0.66138273

fc4.weight f4 [16, 16]
000000 48 db 85 3d 58 79 51 be ca be b2 be 9c 77 5f be
       0.06535965 -0.20456445 -0.34911186 -0.21822971
000010 7a b5 78 3e ac b9 ab 3d 27 a9 aa 3b 38 e2 62 be
       0.24287978 0.083850235 0.005208153 -0.22156608
000020 33 d3 fa bd 68 cb ae 3b 90 e4 ea bc 82 10 0b bd
       -0.12247314 0.0053343065 -0.02867344 -0.03395129
000030 1c d4 74 3d 28 86 dc bd 13 5c bd be 53 40 70 be
       0.059772596 -0.10767776 -0.3698431 -0.23462038
000040 98 82 b9 bd 07 9d 9d 3e 60 39 0c bf 20 73 2d bf
       -0.09058112 0.30783865 -0.5477505 -0.6775379
000050 08 b8 72 be b4 02 9a 3e 5b 06 b6 bf d2 0f b8 bd
       -0.23703015 0.30080187 -1.422069 -0.089873925
000060 1e 95 e6 3e 64 d8 2d 3f 71 f7 42 3f d1 ba 62 be
       0.45035642 0.6790831 0.76158816 -0.22141577
000070 f6 f4 15 3f 22 4a 28 3f 87 1f 9c bf 79 23 00 bf
       0.58576906 0.6573812 -1.2197121 -0.50054127
000080 87 e8 cb 3d 51 75 8c 3e 01 d8 fd 3e 23 93 ee be
       0.099564604 0.27433255 0.4957886 -0.4659663
000090 bc ae 7b 3e c9 66 a5 3d 6b c8 a2 bf 17 f5 af 3d
       0.24578375 0.08076245 -1.2717413 0.08591669
0000a0 8e 6d 0d 3f 56 ca d3 3f 27 2d c1 3e c6 ba fc bd
       0.5524529 1.6546123 0.3772976 -0.12340312
0000b0 fd e2 4f bf 5c b9 65 bf be a5 bc be 49 a9 b5 bd
       -0.8120573 -0.8973596 -0.368452 -0.08870179
0000c0 90 76 c4 3c 88 06 c5 be d9 f4 96 be 5e 66 d5 bd
       0.023982316 -0.38481545 -0.2948368 -0.104199156
0000d0 ab da 30 3e 11 0f c1 be 68 09 3a bf 7a 15 88 bd
       0.17270915 -0.37706807 -0.726706 -0.06644721
0000e0 b3 3e dd bd 4e 49 7e bf a7 22 77 bd 82 1c 0b 3f
       -0.108029746 -0.99330604 -0.06033578 0.54340374
0000f0 b7 aa 36 3f e7 7d 57 3f 2a 2d 6a 3f 20 81 96 3e
       0.7135424 0.84176487 0.91475165 0.2939539
000100 45 08 d3 3e 9a 34 04 bf bf 0e 44 3c d8 0b 42 be
       0.41217247 -0.51642764 0.011966406 -0.1894983
000110 34 57 aa 3d d5 b7 71 be 2b 5f 4f bf 1c 66 af bd
       0.08317414 -0.23605283 -0.8100459 -0.08564398
000120 87 65 2e 3e 27 aa b0 bf df cf 41 be 9a 0c fb 3e
       0.17030917 -1.3801926 -0.18926953 0.49033052
000130 12 6d c7 3f 2c aa e2 3e 6a 8c 04 be f0 e9 fe 3e
       1.5580161 0.44270456 -0.12944189 0.49787855
000140 00 42 3e 3e d0 35 fc 3e c2 fd 9a 3e 01 e5 59 be
       0.18579865 0.49259806 0.30271727 -0.21278764
000150 74 a8 9a 3e 0e d1 0e bd 58 9e 89 3e 29 c7 4f 3e
       0.30206645 -0.03486734 0.2687862 0.20290817
000160 43 21 6e 3e c4 93 88 3f e4 6e 13 bd 7b b2 90 3e
       0.23254876 1.0670094 -0.035994425 0.2826117
000170 f9 a2 3e be 59 52 2d bf 87 47 b1 be ed e9 7d bf
       -0.18616857 -0.6770378 -0.34624884 -0.9918507
000180 54 49 0a 3f a7 38 d8 3e 13 fb 17 be 08 15 d1 be
       0.5401814 0.42230722 -0.14841871 -0.40836358
000190 bc b4 ce bd 98 30 b8 3e d1 c9 a0 bf b3 a6 ce 3c
       -0.10093066 0.35974574 -1.256159 0.025225973
0001a0 ac 4b 13 3e 13 97 2f bf 07 7e 22 be 06 4f d4 3e
       0.14384335 -0.68589896 -0.15868388 0.4146654
0001b0 96 c7 5f 3f 3b d5 53 bf a6 48 8b 3d ca 7b 20 be
       0.8741392 -0.8274724 0.06800966 -0.15672222
0001c0 4c af 0c be e8 ad 82 bf e3 66 91 bf 9f fe 24 3d
       -0.13738745 -1.0209322 -1.1359524 0.040281888
0001d0 77 d6 af 3d 86 2f a2 bd 36 f9 0f bf ff 0a 0a 3e
       0.08585828 -0.079192206 -0.5623964 0.13480757
0001e0 f7 db 8a 3e d4 ec 88 bf 11 7d 1a bf e8 97 1a 3f
       0.27120945 -1.0697274 -0.60347086 0.6038804
0001f0 3d 72 45 3f 53 b5 2d 3f 03 ac 9c bd 9d 80 01 3e
       0.7712744 0.67854804 -0.07649996 0.12646718
000200 80 76 85 3e 11 d7 e3 3e fd 06 e6 3e d0 20 b6 3e
       0.2606697 0.4450002 0.44927207 0.3557191
000210 fa 0b 74 3e fb cc ce 3d 33 0d 34 3f c8 b5 68 bd
       0.23832694 0.10097691 0.7033264 -0.056813985
000220 ea 49 3e 3e 9b d8 ae 3f 57 d7 66 3e 78 f2 3d bf
       0.18582883 1.3659853 0.22543083 -0.741981
000230 25 fe 21 bf 2b aa 74 bf 4d bc 33 bf f3 ad 71 be
       -0.6327842 -0.95572156 -0.702092 -0.23601513
000240 5a a4 3f be be f4 a1 bf 49 78 cd 3e 88 0a 17 3f
       -0.18715039 -1.2652814 0.40130833 0.59000444
000250 89 52 81 3e 63 70 a1 3e cd e7 d4 3e a7 1d ae 3e
       0.25258282 0.31531057 0.415831 0.34006998
000260 49 cb 84 be 56 ea 36 bf a3 e1 c5 3d ba 84 d7 bf
       -0.25936344 -0.7145132 0.096621774 -1.683738
000270 28 e6 de be 3a c3 2e 3f 4e 27 47 3f 56 3f 16 bf
       -0.4353497 0.6826664 0.7779435 -0.5869039
000280 2e 50 33 bd f5 42 8c 3e 47 e5 79 3d 3b c7 16 3f
       -0.043777637 0.27394834 0.06100967 0.5889775
000290 5e be 3f 3d 99 ce 2b bb 97 ee d5 bf fd 05 2e bd
       0.046812408 -0.002621567 -1.6713437 -0.04248618
0002a0 dc 48 1e bd 71 66 03 3f ac be 65 3f 9c 48 a9 3e
       -0.038643703 0.5132819 0.8974407 0.3306321
0002b0 d8 9f 0f be a4 bb 0d 3f 5a 8c b2 bf 70 ba 2b bf
       -0.1402582 0.5536444 -1.3949082 -0.67081356
0002c0 63 fc e3 bd f4 4d d0 3e bf b3 b9 bd 15 98 2f be
       -0.11132123 0.40684474 -0.09067487 -0.17147858
0002d0 b6 21 9a 3c c2 af f8 3d 3b 94 42 3c 32 f6 d5 3d
       0.018814903 0.12142898 0.011876161 0.10447349
0002e0 75 dc 3e be ed f6 3a bf 10 35 f1 be 1c 1d c3 3d
       -0.18638785 -0.7303303 -0.47110796 0.095270365
0002f0 91 b8 5e 3e 5f 66 17 bf bf 05 5c 3e 02 26 b3 bf
       0.21750094 -0.5914058 0.21486567 -1.3995974
000300 b8 17 2d be 9c 6d ef bf 8b e4 b7 bf f7 e6 98 bf
       -0.16903579 -1.8705325 -1.4366621 -1.1945485
000310 82 9c 19 bd 73 1c c8 3d 0a c6 de be bd 54 8c bd
       -0.037502773 0.09771051 -0.43510467 -0.068521
000320 a7 1a 68 bf 07 15 b8 bf 49 16 b0 bf db 15 7c 3f
       -0.9066567 -1.4381417 -1.3756801 0.9847085
000330 be b0 9b 3f d5 94 dc bd 23 d6 d2 3e 9c b1 0e 3f
       1.2163312 -0.10770575 0.41178998 0.5573976
000340 d0 bf a8 3c 72 15 08 be 28 16 9c be 5d d5 c8 bd
       0.020599276 -0.1328943 -0.30485654 -0.09806321
000350 88 80 09 be f0 d9 e2 3d 4f 3e 4b be 40 9f 4b 3c
       -0.13427937 0.110767245 -0.19847988 0.012428105
000360 8e 05 14 be db e1 a5 bd d9 83 85 bd a3 ef a4 be
       -0.14455244 -0.08099719 -0.065192886 -0.32214078
000370 75 8d e9 bd f0 50 11 3d d5 38 c4 be d6 b8 07 be
       -0.11403934 0.03547758 -0.3832461 -0.13254103
000380 84 89 27 3d 7f af 68 be 11 5b 94 3d a6 d8 07 be
       0.04090263 -0.22723196 0.07243932 -0.13266239
000390 04 e7 b1 bd a4 10 c7 bd d9 03 0b 3d 58 78 77 be
       -0.08686641 -0.09719971 0.033939216 -0.24167001
0003a0 74 d7 10 be 5b 63 cc be 8d 8f 3b be 40 ab a2 3d
       -0.14144689 -0.39919552 -0.18316479 0.079428196
0003b0 31 02 86 bd a4 6a 83 be 7a 40 33 be bb 7a 60 be
       -0.06543387 -0.25667298 -0.17505065 -0.21921818
0003c0 de dc e8 3e 47 ed 5d 3e 23 e0 86 be 53 de 24 bf
       0.45481008 0.21672545 -0.26342878 -0.6440174
0003d0 09 6c 5c 3d 6b 8d 41 3e 9a af cb 3e 36 c4 86 3c
       0.053813968 0.18901603 0.3978241 0.016450983
0003e0 83 ac 1b 3e e7 5e 52 3e 41 f2 30 be a1 4a 05 3f
       0.15202527 0.20544015 -0.17279913 0.52067
0003f0 ea f4 00 3f 45 f9 43 bf 25 da b2 be b9 d1 c2 bf
       0.5037371 -0.7655223 -0.34932056 -1.5220252

fc4.bias f4 [16]
000000 73 5e 0f bf 08 68 da be 0f a1 64 bd 92 11 eb 3e
       -0.56003493 -0.42657495 -0.05581766 0.45911843
000010 4d 09 97 3e 20 f7 6b be f4 a0 88 bf a1 53 54 3e
       0.29499283 -0.2304349 -1.0674119 0.20735027
000020 d8 69 89 3c 40 b1 43 be 72 11 d9 be 92 62 6d be
       0.016774103 -0.19110584 -0.42396122 -0.23182133
000030 46 56 be bd 29 3c 1a bf ee db 99 be 8f 44 37 3e
       -0.09293799 -0.6024805 -0.30050606 0.17897247

fc5.weight f4 [16, 16]
000000 48 db 40 bd 4c 91 82 bd 8c f5 73 be c8 e9 aa be
       -0.047084123 -0.063753694 -0.23824137 -0.33381486
000010 ae 41 9b be a5 e1 3c be 45 1d 6c bc df 7b f4 3c
       -0.30323547 -0.18445452 -0.014411275 0.029844223
000020 d0 7f b9 be d5 1e 00 3d 53 52 65 3a a8 c3 43 be
       -0.36230326 0.031279404 0.0008747924 -0.19117606
000030 24 d5 f3 3c 78 ff ef bd be 56 6e be 0e 68 2e be
       0.02976472 -0.11718649 -0.23275277 -0.17031881
000040 1e 8c 6e 3e c6 7e 06 3f ce 65 84 be 12 5e 0d be
       0.23295638 0.5253719 -0.2585892 -0.13805416
000050 c8 e1 fb 3d 32 44 19 be c8 69 9d bc 8e c8 b6 bd
       0.12298924 -0.1496742 -0.01921548 -0.089249715
000060 b4 23 3a bd f3 1e 1e 3e 65 0f 82 3f 17 33 17 be
       -0.045444205 0.15441494 1.0160948 -0.14765583
000070 91 3d 40 bf 1e 76 d4 bd 45 20 98 bd 75 31 ed be
       -0.7509394 -0.103740916 -0.0742803 -0.46326795
000080 5a 45 5c 3e 7d f5 d4 be 7b 08 15 bf 11 e5 40 bf
       0.2151083 -0.41593543 -0.58216065 -0.7534953
000090 81 82 3c bf 41 01 3a 3d 58 49 02 bf 70 a4 a2 be
       -0.73636633 0.045411352 -0.50893164 -0.3176608
0000a0 07 d8 f4 3e 1c 9e 99 bf b0 37 17 bf 29 da b9 be
       0.47821066 -1.2001376 -0.5906935 -0.36299255
0000b0 51 62 cd be d0 01 88 3c 2e 0b b1 be 12 7c 22 be
       -0.40114072 0.016602427 -0.34578842 -0.15867642
0000c0 93 c9 4b be fc 13 53 3e 63 a2 e8 bb 70 42 0a be
       -0.19901113 0.20613092 -0.007099436 -0.13501906
0000d0 7a 30 0c 3f 05 3b 03 3e c0 8b 0f bf f7 63 07 3f
       0.5476147 0.12815483 -0.56072617 0.5288691
0000e0 17 44 84 be 5e 7e d7 be cf 86 36 3e 26 61 ef be
       -0.25833198 -0.42088598 0.17824863 -0.46753806
0000f0 a4 81 24 3f 91 be 5f be 3b fd 86 be a3 04 9a bd
       0.64260316 -0.21850039 -0.26365075 -0.07520416
000100 13 68 fa 3d ea 2b 34 bf e3 c4 d9 be 53 0f 0e bd
       0.12226882 -0.7037951 -0.42533025 -0.034682583
000110 88 27 c0 3e df e5 69 bc eb 5e f9 bd ed 1b b8 3e
       0.3753016 -0.014275997 -0.12176307 0.35958806
000120 a6 e5 0a 3e 5e 49 ac bd be 85 62 bf 72 46 9d bd
       0.13564166 -0.08412431 -0.88485324 -0.07679452
000130 d9 d3 99 3f 7e 03 35 bb 05 55 4a 3e b9 13 f1 bd
       1.2017776 -0.002762049 0.19758995 -0.1177134
000140 41 f2 6d 3e 39 88 13 3f 4e 43 64 3e a2 e9 a9 bf
       0.23236944 0.57629734 0.222913 -1.3274424
000150 49 ce ab bf cb 86 89 3e d6 7c c9 bf 51 bd 8b bf
       -1.3422328 0.2686065 -1.5741222 -1.091715
000160 67 ab 64 bd 43 20 f5 be 87 1a 8f 3f 9e 37 9e 3b
       -0.055827525 -0.47876176 1.117997 0.0048284074
000170 99 39 93 be 58 88 cc bd 26 e8 58 be 8f 26 4a bf
       -0.2875488 -0.09986943 -0.21182308 -0.78965086
000180 e2 c1 82 be ff a4 8c bc 1d f5 a2 be 4e b7 80 bf
       -0.25538546 -0.01716852 -0.31827632 -1.005594
000190 40 2f 3f bf 8b 4b 63 3e 2a 15 02 bf 65 2c 29 be
       -0.7468147 0.22196786 -0.50813544 -0.16520841
0001a0 61 14 c5 3e 0d 17 77 bf d0 a5 49 3f 3d 8b 94 bf
       0.3849211 -0.9651955 0.78768635 -1.1604992
0001b0 d1 47 37 bf 44 10 8c bd ba f8 b4 bd 11 f6 49 be
       -0.7159396 -0.0683904 -0.08836503 -0.19722773
0001c0 12 31 19 be 52 3b 53 bd 56 6b c8 3e e9 c9 b9 be
       -0.14960125 -0.051570244 0.3914439 -0.36286858
0001d0 a2 53 8a bd d1 0d 00 3f 22 84 f8 3e 48 53 a9 be
       -0.06754233 0.5002108 0.4853831 -0.3307135
0001e0 8a ce f9 3e 72 0d 85 be 9a f1 e5 3e b6 b6 f8 3e
       0.4879039 -0.2598682 0.4491089 0.48576897
0001f0 69 56 29 3e cf 94 21 3e 98 10 3d be 81 3f fb 3e
       0.16536869 0.15779422 -0.18463361 0.49071887
000200 8d 22 5f be 2b e7 00 3f 8b bd a9 bf 59 26 ab 3e
       -0.21790524 0.50352734 -1.3260969 0.33427694
000210 1b 62 e8 3d 02 2e 88 bf 9a 4b ae 3e ac 4d 9c 3e
       0.11346837 -1.063904 0.34042054 0.3052801
000220 b1 c4 c1 bf dc 82 2d bf c9 4f 96 be 5e f4 b7 be
       -1.513815 -0.677778 -0.29357746 -0.35928625
000230 fd 21 13 3f 9b ec 13 3e 32 bc 84 bc 38 00 fc be
       0.57473737 0.14445727 -0.01620302 -0.49218917
000240 58 70 5e bd 2b e8 09 bd b5 0b a4 bc 7f a7 5a be
       -0.054306358 -0.03366868 -0.020025114 -0.21352957
000250 cb 92 db bc 1c 43 ba bd ff ec 9c be ed a9 66 bd
       -0.026803395 -0.09094831 -0.30649564 -0.056314398
000260 3a 3b 21 be 7a 42 ef bd ba 05 25 bf b7 66 1f 3d
       -0.1574525 -0.11682601 -0.64461863 0.038916316
000270 8d fc a9 be c0 77 6d bc ac 71 7c be a2 9d 32 bd
       -0.33200493 -0.014493883 -0.24652737 -0.04360736
000280 d9 56 78 be 10 0f 57 be 19 d6 42 3d 2c 38 c5 be
       -0.2425188 -0.2100184 0.04756746 -0.38519418
000290 a3 3b 2a be b9 4b 99 be 14 ae bd 3d 36 2c 30 be
       -0.16624312 -0.29940584 0.092617184 -0.17204365
0002a0 ad f6 2e be dd d3 63 bd c2 a5 a3 be b2 4c 86 3d
       -0.17086287 -0.05562197 -0.319624 0.06557597
0002b0 f1 31 3f be 70 84 37 be 58 68 1a be 3c f8 9e be
       -0.18671395 -0.17921615 -0.15078866 -0.31048763
0002c0 b8 5a f6 bd 85 19 5d 3d 40 36 a3 be 04 04 34 be
       -0.12029022 0.053979415 -0.31877327 -0.17579657
0002d0 84 95 1d be 05 8c d8 be a5 8c d3 bc 56 ac c2 3d
       -0.15389067 -0.42294326 -0.0258239 0.09505527
0002e0 9e 20 74 bd 87 ce f9 bd 30 ab 84 be b7 0d 6b be
       -0.05960142 -0.12197595 -0.25911856 -0.2295445
0002f0 d4 39 7b bd f2 73 25 be 38 41 8c bc 31 83 93 be
       -0.061334446 -0.16157511 -0.017120942 -0.2881103
000300 68 5b 11 be 75 65 81 be 7b b8 09 be 75 06 d3 be
       -0.14195025 -0.25272718 -0.1344928 -0.41215864
000310 1f ba c2 bd 80 43 4a be 58 5e aa bb a7 f1 22 3d
       -0.09508156 -0.19752312 -0.005199235 0.03978124
000320 48 11 4a be 12 7c 17 be 05 c3 93 bd ae db 1d 3d
       -0.19733155 -0.14793423 -0.072149314 0.03853958
000330 34 46 28 be 08 50 fb bd 80 de 71 3c 11 be 87 3e
       -0.1643303 -0.12271124 0.014762521 0.26512197
000340 9e d3 ea bd 46 ec 9a bf 59 7a eb bd 07 90 d9 3c
       -0.11466144 -1.2103355 -0.11497945 0.026557935
000350 c0 96 50 bd dd 46 40 3e 6a 7d 9c 3e c5 ac 96 3e
       -0.050925016 0.18777032 0.30564433 0.29428688
000360 ac 94 90 3d 74 b2 93 3e 82 11 4d bf f7 89 fe be
       0.07059607 0.28847086 -0.8010484 -0.49714634
000370 02 3b df be 71 b2 52 bd 3e bf 1c 3e fb 9e d4 3e
       -0.43599707 -0.051439706 0.15307328 0.41527542
000380 00 e3 45 3d 81 86 74 bd 06 74 2c be 85 2c f6 bd
       0.048312187 -0.059698585 -0.16841134 -0.1202021
000390 71 16 84 be 68 6f 7d be 89 96 ae bd 66 bd 8d be
       -0.2579837 -0.2474953 -0.08524806 -0.27683562
0003a0 9a 97 35 be 4e 27 5a be f2 78 3b be 85 0b a2 3d
       -0.17733613 -0.21304056 -0.18307856 0.079123534
0003b0 96 0d 98 bc e8 ea 8f 3d be 08 3f be 14 a7 05 bd
       -0.018561166 0.07027227 -0.18655679 -0.03263004
0003c0 ab 0e 9a 3e 4b 3c 60 3f 78 10 a0 3e c4 3e 24 bf
       0.30089316 0.87592 0.31262565 -0.6415827
0003d0 55 db e3 be 02 3d 87 bd f8 75 75 bf c2 21 90 be
       -0.44503275 -0.06603433 -0.9588313 -0.28150755
0003e0 d3 80 e9 3e 0f d1 fc be 84 c6 6b 3f ed f9 fd be
       0.45606098 -0.4937825 0.92099786 -0.4960474
0003f0 7f 9d 6e be 19 5a 26 3e 47 12 e6 bd 7d 7a 77 3e
       -0.23302267 0.16245307 -0.11233955 0.2416782

fc5.bias f4 [16]
000000 c5 ab e2 be 0f ef 4c be 1a 60 75 3e 22 ea 83 be
       -0.44271675 -0.20013069 0.23962441 -0.25764567
000010 ba 78 f2 3e 57 ab 1f bf a3 07 e5 3e 76 bf 86 3d
       0.47357732 -0.6237082 0.4473239 0.06579487
000020 06 1d 77 bd aa 48 6f be 33 31 2a be de db 54 be
       -0.060330413 -0.23367563 -0.1662033 -0.20786998
000030 04 64 b2 be d9 06 2b bf a7 cb 68 be 28 15 8a 3e
       -0.3484193 -0.66807324 -0.22733937 0.26969266

fc6.weight f4 [16, 16]
000000 64 9b 29 3e 7a a6 f3 be 64 e3 22 39 2c 60 a5 3e
       0.16563183 -0.4758795 0.00015534234 0.32299936
000010 9a ca 06 3f a7 b4 ad bd 15 77 c9 be c5 d2 f9 be
       0.52652895 -0.08481722 -0.39348665 -0.48793617
000020 6b 3c 67 3e be e0 1b 3e a1 eb 76 be 5d f6 08 bd
       0.22581641 0.15222451 -0.24113323 -0.033438075
000030 2e 05 4e 3d 2c 7e 3b 3c 77 5f dc bd 25 9b 91 be
       0.05029791 0.011443656 -0.10760396 -0.28438678
000040 30 f5 25 bd 3c a6 2e be d2 3a 66 bc 8a eb 21 be
       -0.040517032 -0.17055601 -0.01405211 -0.15812507
000050 4f 82 a1 be e6 af 4d be da 2a 6d 3d 23 24 55 be
       -0.3154473 -0.20086631 0.057902195 -0.20814566
000060 16 19 2b 3d 80 ae 05 be 60 13 46 bc 0a ee 16 3e
       0.04177197 -0.13054848 -0.01208958 0.14739242
000070 80 e0 87 bb d3 6e 9d be 64 8d fe bd cf 40 34 be
       -0.0041466355 -0.30748615 -0.12429312 -0.17602848
000080 b9 99 43 bd 7a 8d 14 3e 96 31 ca be 31 c2 2d be
       -0.047754023 0.14507094 -0.39490956 -0.1696861
000090 7b 84 54 bf c0 4f 73 3f 20 86 83 3e aa e3 e6 bd
       -0.8301465 0.95043564 0.25688267 -0.11273892
0000a0 96 97 6e be 82 81 81 be 79 70 0f be 65 44 cc bd
       -0.23300013 -0.2529412 -0.14007749 -0.09973983
0000b0 aa a7 2e bd bb 75 c4 be 21 eb a3 bc 7a 26 df 3d
       -0.042640366 -0.3837107 -0.02000958 0.10896011
0000c0 54 8e 31 3e 47 2d e9 bd ed 35 b4 be 11 fe c1 be
       0.1733945 -0.11385589 -0.35197392 -0.3788915
0000d0 81 99 c4 3c 5c 6e b5 3d ca 20 7b bd b5 39 0e bd
       0.023998978 0.0885894 -0.061310567 -0.034723002
0000e0 a5 1a cd be 80 f1 95 3d 40 3a 5e be 07 cd 0b 3e
       -0.4005939 0.07321453 -0.21701908 0.1365243
0000f0 c0 ed e1 3b 8b d1 0a bf ca 75 0e 3e 06 09 7f be
       0.006894797 -0.5422599 0.1391212 -0.24905786
000100 32 52 36 3e 7b 19 46 bd 1d ea 0f bf 51 85 14 3d
       0.17804793 -0.048364144 -0.56216604 0.036259953
000110 50 95 62 bd c9 15 0f 3f 4d bc 44 3e 71 a9 b8 3c
       -0.055318177 0.55892617 0.19212456 0.022541733
000120 c4 8f 53 be c5 c9 81 3d 35 62 d8 bd 15 8b a5 be
       -0.20660311 0.063373126 -0.105656065 -0.32332674
000130 ce c2 50 be aa 33 fe 3d 9e 76 0b be 31 5b 3a be
       -0.20386812 0.12412198 -0.13619468 -0.1819885
000140 3b 82 30 3e a0 c8 25 bd 4c d1 ae 3d 55 d5 11 be
       0.17237179 -0.040474534 0.08536014 -0.14241536
000150 40 a7 4b bc a0 e9 35 3c c0 63 0d bc b4 ac e4 bd
       -0.012430012 0.011103064 -0.008629739 -0.11165753
000160 f2 31 df be 1a 07 66 be 66 4b 38 be 71 af 5a bd
       -0.43592793 -0.22463647 -0.17997512 -0.05338997
000170 52 a9 38 3e f8 0a 7c bd 12 59 6c be 16 02 4e be
       0.1803334 -0.061533898 -0.23080853 -0.20117983
000180 e0 20 1e be 9a 18 03 3c e9 7b bf be bf e8 21 3f
       -0.15442228 0.008001471 -0.37399223 0.6324577
000190 53 8d 8c bf 59 bd 7b 3f 9b 6c 88 3c 04 8f 8f bb
       -1.0980629 0.98335797 0.01665335 -0.0043810625
0001a0 aa 00 55 3e a7 6a 04 3e ef 6a 52 be 64 bf ed bc
       0.20801035 0.1293131 -0.20548604 -0.029021926
0001b0 f2 16 17 be 5b 07 d5 be 57 9b 53 3d 35 23 40 3e
       -0.14754847 -0.41607174 0.051661815 0.1876343
0001c0 a1 79 23 3d 43 3a ba bd a2 4c 11 bf a7 ec 64 be
       0.039910916 -0.09093144 -0.5675756 -0.223559
0001d0 6d d8 ab be ad e8 eb 3e 1c fa 5c be fc 79 85 bd
       -0.33563557 0.46075955 -0.21579784 -0.06517407
0001e0 c1 ae 1d 3d 26 26 38 3e ea 0c bd bd ed 8c 5f bd
       0.038496736 0.17983302 -0.09230979 -0.054577757
0001f0 0a 32 90 be 0a 01 ff be 81 22 3b 3e 17 87 13 bd
       -0.28163177 -0.4980548 0.18274881 -0.036017504
000200 32 4c 02 be 22 f8 20 bc df 66 8a 3f 87 c6 d4 bd
       -0.12724379 -0.0098247845 1.0812644 -0.103894286
000210 a1 da 9f be e7 98 4f 3e a1 78 e6 3e 39 eb c2 bd
       -0.31221488 0.20273171 0.45013908 -0.095175214
000220 64 e0 65 bd 0c ef 25 be e5 bd 88 3c 4c 1e f5 bd
       -0.0561222 -0.1620447 0.016692111 -0.11968669
000230 91 35 25 be 6e 79 a4 bc e6 29 87 be 71 ed d9 bd
       -0.16133715 -0.020077433 -0.26399153 -0.106409915
000240 04 e0 3c be 91 1f 5f be 69 85 03 bf 7c cd 85 be
       -0.1844483 -0.21789385 -0.5137544 -0.26133335
000250 bb bb 10 bf dc a8 4f 3f 84 46 fa bd 11 31 22 be
       -0.56536454 0.81117034 -0.12220481 -0.1583903
000260 2f 94 fb 3e 66 15 87 3e db 02 d2 bd c8 db 83 3e
       0.49136493 0.26383513 -0.10254451 0.25753617
000270 50 9a d5 bc bd f0 46 3e 68 aa 38 3e 9d 26 58 3e
       -0.026074558 0.19427772 0.18033755 0.2110848
000280 f2 60 21 3e ab 93 e1 be e8 d8 fd 3d c3 52 89 3b
       0.15759638 -0.44057974 0.12394887 0.004190774
000290 a4 da fe be ac c6 06 bf a2 15 2e bd 3a e2 73 be
       -0.49776185 -0.526469 -0.0425011 -0.23816767
0002a0 65 e6 5e be a7 d2 b6 bc 38 69 96 3d 01 e3 c3 bd
       -0.21767576 -0.022317244 0.07344288 -0.09564782
0002b0 a4 74 0c 3e 99 bf 2b be cf 77 40 be 5a 65 18 be
       0.1371637 -0.16772307 -0.18795703 -0.14882413
0002c0 a4 ad 38 bd 21 d3 47 be 92 ec 25 3f d8 6e 39 bd
       -0.04508747 -0.19514133 0.648141 -0.045271724
0002d0 6d 77 32 3e c5 84 08 3f 99 94 57 3f 79 5a ad 3e
       0.1742837 0.5332759 0.8421112 0.33858088
0002e0 29 3e 5d bf 94 a3 33 bc 8e ee 8c bc 41 dd a8 3c
       -0.86422974 -0.010964293 -0.017203595 0.020613315
0002f0 af 59 6b be 67 6e 11 3d 28 cb 07 3e 6a 69 02 3f
       -0.2298343 0.03550568 0.13261092 0.509421
000300 60 73 e9 3d a8 af 0f be 48 7b fe bd 2b 85 07 bd
       0.11398959 -0.14031851 -0.12425858 -0.033085983
000310 29 e5 7c be 16 24 56 3e ee 54 30 be 42 ef ca be
       -0.24696793 0.20912203 -0.17219898 -0.39635664
000320 08 24 54 be 00 dc 27 3d 0c 72 2f 3e 96 ce 06 3e
       -0.2071687 0.040981293 0.17133349 0.13164744
000330 98 81 23 be 22 85 09 be f0 9d 9b bd 46 3f 52 be
       -0.15967405 -0.13429692 -0.075984836 -0.2053195
000340 79 bc 1f 3e fc ed 4f be 90 ed 6c bd ae 30 5e be
       0.1559924 -0.20305628 -0.057843745 -0.21698257
000350 84 bd e2 3c 9a dd 64 3e a8 50 28 bd 3e c3 35 be
       0.027678259 0.2235016 -0.041092545 -0.1775026
000360 f2 3a f6 bd d2 2d 75 3e aa a7 55 3e be a3 82 3e
       -0.12022962 0.2394326 0.2086474 0.2551555
000370 10 7d f1 3d 31 c3 cc bd 2c e2 4f 3e c0 38 81 bc
       0.11791432 -0.09998167 0.20301121 -0.01577413
000380 d2 3c 16 be 29 08 79 3e 79 0f 15 3f 36 da c7 bd
       -0.14671639 0.24319519 0.58226734 -0.09758417
000390 db 6e b7 be ac b7 46 3f a8 a8 37 3f ae 61 41 be
       -0.35826764 0.7762401 0.71741724 -0.18884918
0003a0 0c c6 27 be 1f bf 34 3e e3 a8 80 3e 78 52 b7 3c
       -0.16384143 0.17651032 0.2512885 0.022378191
0003b0 7d 46 4d 3d 0a 68 ec be 92 92 86 be 0d 25 cc 3e
       0.05011605 -0.46173126 -0.262837 0.39872018
0003c0 11 e5 68 be 3f c2 dc bd f7 68 5c bd 46 a8 ba be
       -0.22743632 -0.10779237 -0.05381104 -0.36456507
0003d0 b3 61 0c bf 8c f9 10 be 4c bb 83 3d 2b 94 c8 bd
       -0.5483658 -0.14157695 0.064322084 -0.09793886
0003e0 29 ed 09 3e dd 26 5f 3e d2 d1 fa bd 8c ba 2d be
       0.13469376 0.21792169 -0.12247051 -0.16965693
0003f0 32 61 4d be 71 e4 18 3e 8f 2e 39 3e 05 da 5f bd
       -0.20056608 0.14930893 0.18084167 -0.05465128

fc6.bias f4 [16]
000000 8f 34 22 3e 5f c6 d0 be b2 f5 6c bf f6 aa 38 be
       0.15840362 -0.40776345 -0.925624 -0.18033966
000010 8d 87 30 bf 57 8e aa be 37 b0 25 bf d5 e0 aa be
       -0.68956834 -0.33311722 -0.6472201 -0.33374658
000020 85 b4 b9 bd a4 64 17 bf cc 29 f4 bb 46 a8 68 3e
       -0.090676345 -0.5913794 -0.0074512716 0.22720441
000030 e2 7b 89 be 58 cd 93 be 4b 3b f0 3c 98 06 20 be
       -0.26852328 -0.28867602 0.029325148 -0.15627515
