data/results/1731775802.pth (torch, 7588 bytes, 8 tensors)

fc1.weight f4 [16, 32]
000000 52 c8 13 bd ae 04 2d bd 44 d3 a5 c0 74 56 1f be
       -0.036079712 -0.04224079 -5.1820393 -0.15560323
000010 1f f7 a5 be 77 0e c2 be 65 95 6a bf e2 41 89 be
       -0.324151 -0.3790166 -0.9163421 -0.26808077
000020 77 82 01 bf c1 3d d0 be 72 d7 b7 3e 04 43 de be
       -0.505897 -0.40672114 0.3590656 -0.43410504
000030 1b 1e 44 bf 0b 99 4a 3e b9 f2 ea 3d c2 5a 20 3e
       -0.7660844 0.19784944 0.11472077 0.15659621
000040 ca cf fc 3d 6d 57 70 3f 2c 7a bf bd 6a 6e 2a 3f
       0.1234432 0.938834 -0.09349474 0.6657473
000050 d7 1a 7d bf 5a ad c2 3e 67 a9 37 3e 68 5d 51 3e
       -0.9886908 0.38022882 0.17935716 0.20445788
000060 f8 1e 2d bf e0 e8 5e be 26 43 10 be 6d bb a8 bd
       -0.6762538 -0.21768522 -0.14088115 -0.08238874
000070 3a e2 48 3e e4 54 ac be 5f 1f cf 3e 31 54 ae 3d
       0.19617549 -0.33658516 0.40453622 0.08512152
000080 2f e7 88 3d 6b 47 69 bd 01 c3 b6 3e 3c 6b aa 3f
       0.0668472 -0.056952875 0.3569565 1.3313975
000090 3e e3 61 3f 1b c6 8e bf ec 28 51 3f 66 e9 3f be
       0.8823737 -1.1154207 0.81703067 -0.18741378
0000a0 af a4 62 3f b9 bc 35 bf 3d 65 09 be 3c dd 50 be
       0.8853254 -0.7099109 -0.13417526 -0.20396894
0000b0 12 6b 7a be b4 ec 5d 3e c5 a3 8b 3f 51 29 bf bf
       -0.24454907 0.21672326 1.0909353 -1.4934484
0000c0 83 65 1d 3f da 0b a5 bf 89 28 19 3f 54 ec 0f bd
       0.6148302 -1.2894242 0.59827477 -0.03513749
0000d0 6c 15 a9 bf 33 63 b5 bf 93 9f 7b be cb 46 9c be
       -1.3209662 -1.4170898 -0.24572591 -0.3052276
0000e0 8a b0 07 bf d8 69 d9 be 10 ed ea be 66 7b aa 3e
       -0.5300375 -0.42463565 -0.4588399 0.3329727
0000f0 3a 0d 90 3e 7f 4e 6e be 50 83 cb be b6 bb 8a 3e
       0.2813509 -0.23272131 -0.3974862 0.27096337
000100 19 ab 6f 3e 61 ab 16 c0 66 db 52 3f 28 95 36 be
       0.23405112 -2.3542101 0.82366025 -0.17830336
000110 61 16 58 bc 92 64 5f bf df c0 71 3f ca e5 43 3d
       -0.013188929 -0.87262833 0.9443492 0.047826566
000120 3b 40 c9 3e e7 e2 96 3d d0 29 b7 be aa e4 3a 3e
       0.39306816 0.07367497 -0.35774088 0.18251291
000130 f8 15 1d bf 7f b8 d2 3d 9a a2 29 bf 3d 33 a0 be
       -0.61361647 0.10289096 -0.66263735 -0.31289092
000140 ac 4b 95 be 1c 42 95 bd d7 a2 84 be b6 92 22 3f
       -0.29159296 -0.07288 -0.25905487 0.63505113
000150 74 e1 e7 3d 15 3a 9b 3e 82 ff 9c 3e f2 0f dd 3e
       0.11322299 0.3031775 0.30663687 0.43176228
000160 e0 2e cb be a4 04 84 be 53 c2 e8 bd 44 6a 48 3f
       -0.396842 -0.2578479 -0.113651894 0.7828715
000170 a4 e1 5a be a0 b3 e4 be 7e 4e c0 3e 63 a2 91 be
       -0.21375138 -0.44668293 0.37559885 -0.28444204
000180 b9 b2 d9 bd b2 31 07 bf c7 56 3e 3f a9 e5 51 3f
       -0.10629792 -0.52810204 0.7435116 0.8199106
000190 d1 23 b3 be 13 0b 4a bf 28 19 95 3e aa 66 bc bd
       -0.34988263 -0.7892315 0.29120755 -0.09199269
0001a0 6c 6c a8 3f 2b df b7 be f4 e5 99 3e ac fb da be
       1.3158088 -0.3591245 0.30058253 -0.42770135
0001b0 d3 2c 15 3d fa f2 bf be 16 16 0e 3f f3 f4 8a 3f
       0.0364197 -0.37490064 0.5550245 1.0856003
0001c0 12 21 da be cc 04 e5 3d 4b 46 22 3e eb 62 2a 3e
       -0.42603356 0.111825556 0.15847127 0.16639297
0001d0 37 49 7f bf b7 60 07 3f be 67 eb be 29 1f 98 3e
       -0.9972109 0.5288195 -0.45977587 0.29711273
0001e0 af 47 cb be 17 52 af 3e 2d e0 9f 3e ed a5 b1 bf
       -0.39703128 0.34242317 0.3122572 -1.3878762
0001f0 75 4f 26 3f a1 0d cc 3e 16 01 f2 3e 77 7e 9b 3d
       0.6496499 0.39854148 0.47266454 0.07592481
000200 a8 94 b5 3d ae 8e 02 bd 4f ce 9e be 34 61 55 c0
       0.088662446 -0.03187435 -0.31016776 -3.3340578
000210 96 f1 8a be a3 46 01 3e b9 27 8d 3f 4b 79 09 be
       -0.2713744 0.12624602 1.1027747 -0.13425176
000220 f3 7b 70 3e d7 d0 d1 be ab 7a 31 3f 35 f0 a9 be
       0.23484783 -0.40979645 0.693278 -0.33191076
000230 49 0f 44 3e 36 e6 95 3e bf f5 85 3e fd 01 16 3e
       0.19146456 0.292772 0.26164052 0.14649196
000240 35 d7 dd 3e 98 88 a3 3d 07 31 81 be c3 cb 14 3f
       0.43328252 0.079850376 -0.25232717 0.58123416
000250 e5 b8 c3 3e cc bd 42 be 62 d0 f8 3e 16 5a 89 3f
       0.38227 -0.19017714 0.48596483 1.0730617
000260 82 d1 85 3e 42 54 8f be f9 fc b2 3e 8b ef 6d be
       0.26136404 -0.2799397 0.34958628 -0.2323591
000270 f6 e6 b3 3d 86 14 36 bf 07 9c 4d 3f 37 aa 3a bd
       0.08784287 -0.71125066 0.80316204 -0.045572486
000280 dd ce 15 bc 80 31 21 be 4c 4d 90 bf 82 95 6b bf
       -0.009143558 -0.15741539 -1.1273589 -0.92025006
000290 87 78 b2 bf 55 bc 52 3f 9b 35 27 bf 39 7d 1f bf
       -1.3943032 0.8231862 -0.6531617 -0.6230045
0002a0 66 63 1a bf d9 11 1d be 20 14 74 3e ab ac 45 bf
       -0.6030792 -0.1533884 0.23835802 -0.77216595
0002b0 df 96 83 3e 95 22 1a be 69 c9 9c bf 1c 0c 1a 3f
       0.25701043 -0.15052254 -1.2248966 0.6017473
0002c0 3f db 64 bf ae c7 15 bf 15 58 05 3f e7 fa b7 be
       -0.89397043 -0.5850781 0.5208753 -0.3593361
0002d0 d1 72 4c 3f fc c3 1c 3e 90 5a a6 be 97 74 89 be
       0.79862696 0.15309137 -0.3249097 -0.26846763
0002e0 80 62 05 3f 89 0d 4f 3f bb d3 86 be b4 1c b2 be
       0.52103424 0.8088003 -0.26333413 -0.34787524
0002f0 f2 88 73 3d 38 ca 0a 3f 65 1d 79 bf db 21 b0 bd
       0.059456773 0.5421481 -0.9731048 -0.086002074
000300 7d ee 3f 3c 09 37 0b bf 32 d0 7d be c1 9b 73 3e
       0.011714575 -0.5438085 -0.24786451 0.23789884
000310 cc 4c e8 3e 0e b7 15 3f 10 94 b4 bd 60 34 2d 3e
       0.4537109 0.58482444 -0.08817303 0.1691451
000320 af 6a b1 be 58 5e d2 be 09 2d 01 be 66 95 35 3d
       -0.34651706 -0.41087604 -0.12614836 0.04433193
000330 d9 c8 0a 3f 5b 8c 3d 3e 48 c9 e6 3e ad 95 1e 3e
       0.5421272 0.18510573 0.4507544 0.15486784
000340 08 e4 28 bf 06 c3 c7 3f 50 d3 9f 3b 93 4f 8c 3e
       -0.6597295 1.5606391 0.0048774853 0.2740446
000350 54 33 4a 3f 48 7c 8f be f3 0a fc bf 1f a3 29 3f
       0.7898457 -0.28024507 -1.9690841 0.6626453
000360 25 1d a1 be 67 67 41 be 27 a7 17 be 8e ad 3a be
       -0.31467548 -0.18887101 -0.14809857 -0.18230268
000370 88 f3 09 be 2b f6 88 3e 67 d9 5b be a1 06 71 3f
       -0.13471806 0.2675031 -0.21469651 0.9415074
000380 fe 39 47 3d 5d d5 d8 bc 37 a7 26 c0 08 ed 97 be
       0.04863929 -0.026468927 -2.603956 -0.29673028
000390 8e 76 a4 3e 98 d9 0d bf b9 d9 e4 be 21 18 bd 3f
       0.321217 -0.55410147 -0.4469736 1.4772989
0003a0 26 38 9c 3f 59 aa 05 3e 78 13 ba be 18 19 8e 3f
       1.2204635 0.13053264 -0.36342978 1.1101408
0003b0 a2 39 b7 be 6f dc 16 3e 17 6b a0 bd c9 da bc 3e
       -0.35786158 0.14732526 -0.07832926 0.3688567
0003c0 6b 34 14 3f 36 e4 35 3f 7b 54 83 be 31 49 20 3e
       0.57892483 0.7105135 -0.2565039 0.1565292
0003d0 6b 28 98 3f 64 22 c8 3e 87 78 90 3e 41 da 61 bf
       1.1887335 0.39088738 0.28216955 -0.88223654
0003e0 ce d3 01 bf f6 d0 db bd 79 41 fe 3d 81 fa 39 3f
       -0.50713813 -0.107332155 0.12414832 0.72647864
0003f0 de 30 e0 be 57 4d 51 be 41 78 98 be 96 34 33 be
       -0.43787283 -0.20439659 -0.29779246 -0.17500529

fc1.bias f4 [16]
000000 fc fd f8 bd 8f 9d 68 be d5 63 2a 3d 19 ec 9f bf
       -0.12157819 -0.22716354 0.041599113 -1.2493926
000010 21 c7 3b bf 41 7a 96 3e ea 89 42 bf 79 08 57 bf
       -0.7335072 0.29390147 -0.7599169 -0.83997303
000020 4c 05 f3 bd ac e3 80 bf 51 a4 aa bf 66 b5 36 3d
       -0.11866245 -1.006948 -1.3331395 0.04460659
000030 80 49 5d bf 09 4b 0f be 38 86 0e bf e2 ec 8b 3e
       -0.8644028 -0.13993467 -0.5567355 0.27329165

fc2.weight f4 [16, 16]
000000 78 14 59 bd fc 68 12 3f 11 d3 70 3f 61 65 d3 3e
       -0.052998036 0.57191443 0.9407206 0.41288283
000010 3f e6 1e c0 b9 af c4 bd b4 ac fe 3d 05 47 16 3d
       -2.482803 -0.09603829 0.12435284 0.036688823
000020 27 9a a2 be 7b 00 32 3d 04 b6 2e 3f 49 0c e1 3e
       -0.31758234 0.04345749 0.68246484 0.43954685
000030 81 45 0c bf 47 8f bd bd c9 a2 66 3f 25 b1 ef bb
       -0.54793555 -0.092558436 0.9009214 -0.0073148184
000040 26 a8 4e bf 6e c0 d5 3e 57 e2 ca 3e e6 4b 3c be
       -0.80725324 0.41748375 0.3962581 -0.18388328
000050 30 4e 87 3d ec d4 4f be fa 68 7d bf 8f 40 d5 3d
       0.0660671 -0.20296067 -0.98988307 0.10412704
000060 1d 59 95 3f 4f fb 4b 3e 79 c5 13 3f 22 32 69 3f
       1.166782 0.19920085 0.57723194 0.9109212
000070 6a 07 9d 3e 9c 0f a3 be 19 50 8a bd b4 59 50 bf
       0.3066972 -0.31847847 -0.06753559 -0.81386876
000080 5f 4c 5d 3f 5e f0 1a 3f fb f1 78 3e 02 1a 55 3e
       0.8644466 0.6052302 0.24311058 0.20810702
000090 c8 7d 23 bf fa 43 b1 be 75 b1 28 be e2 90 0d 3e
       -0.638638 -0.34622175 -0.16473944 0.138248
0000a0 6e 17 c0 3d 69 65 96 3d 07 e5 95 3e b9 97 30 3f
       0.09379469 0.07343561 0.29276296 0.6898151
0000b0 70 3b 01 c0 72 5b ce 3e 00 9e 89 b9 5a 2f 83 bf
       -2.0192528 0.40304142 -0.00026248395 -1.0248826
0000c0 dd df 89 3f cc 09 fd bf e0 8e e4 3b 5e 92 75 bf
       1.0771443 -1.9768615 0.00697504 -0.95926464
0000d0 62 a1 9f be 90 3c 85 3e cd fd 5e bf 25 f8 91 bd
       -0.31177813 0.26022768 -0.8710602 -0.07127408
0000e0 23 ec c9 3e 98 4b c6 be f4 2f f6 bd 00 2b a4 3f
       0.3943797 -0.38729548 -0.12020865 1.2825623
0000f0 aa 82 c1 be e6 e4 17 bd 87 92 55 3e e5 60 2f 3d
       -0.37795 -0.03708353 0.20856677 0.042817015
000100 59 76 24 3f f6 b0 91 3f 81 c8 8b 3e e8 fb 9e bf
       0.64243084 1.1382129 0.2730141 -1.2420626
000110 28 62 da 3e 67 14 fe 3e 3b 27 21 be f8 37 80 bf
       0.42653012 0.4962494 -0.15737621 -1.001708
000120 5e b9 47 bf b9 56 f6 be ff 66 ac be 84 f9 21 bf
       -0.7801722 -0.4811304 -0.3367233 -0.63271356
000130 53 b7 58 be 36 91 3d bf c8 8b 1d 3f 5a 93 8b bf
       -0.21163683 -0.740497 0.61541414 -1.0904343
000140 b3 9d 46 3f df 05 a8 bf ba c6 57 bf f6 f1 64 3f
       0.7758438 -1.3126792 -0.8428761 0.89431703
000150 cc 5b 25 bd 56 9e 80 3d 33 79 67 bf 81 f5 0a 3f
       -0.040370747 0.062802 -0.9041931 0.5428086
000160 4f a3 11 3f ec a6 0c bf 3e 79 ae be cc 4a bc bd
       0.56889814 -0.549422 -0.34076875 -0.09193954
000170 fe 35 4f 3e dd f5 7d be 5a f0 e9 be 07 0d b6 bd
       0.2023544 -0.2480082 -0.45691186 -0.088892035
000180 43 e3 8e bf 59 16 a8 3e 34 77 55 3d e7 f1 15 3f
       -1.1163105 0.3282955 0.052115634 0.5857224
000190 6d 2d 10 3f c0 8b 48 be 14 c3 a6 3e a1 d2 01 bf
       0.56319314 -0.1958456 0.32570708 -0.5071202
0001a0 80 cd d5 bf 9e e7 30 3f a7 e0 ba 3e 7a 3f 35 3f
       -1.6703339 0.6910342 0.3649952 0.7079998
0001b0 87 f4 f4 3e 39 58 65 3d 97 fd 35 3f c0 ce fc 3d
       0.4784281 0.05599234 0.7109007 0.12344122
0001c0 c4 be 2e 3f 77 a5 5b 3f 9a 5c 96 bc 0c 06 b9 be
       0.68259835 0.85799354 -0.018354703 -0.36137426
0001d0 1e 30 84 be d7 55 84 bf 37 84 63 3e 29 cb 04 3f
       -0.2581796 -1.0338696 0.22218405 0.518725
0001e0 9e be 3b 3f 00 00 5f be 12 1f c2 be 63 f3 a7 be
       0.73337734 -0.21777344 -0.3791433 -0.32802877
0001f0 36 ec 2e 3f 8b e5 f9 bf c9 88 34 3e c6 8d e8 be
       0.6832918 -1.9523176 0.17630304 -0.45420665
000200 38 94 3e be f0 14 38 3f b2 42 3d be 53 fb f9 3c
       -0.18611228 0.7190695 -0.18482473 0.030515349
000210 6d 13 78 3f 43 1d 2a 3d 36 3b 14 bf d6 2a 6d bf
       0.9690464 0.041531812 -0.5790285 -0.9264349
000220 31 7f fa 3d 7b 76 b3 bf 4b b3 e1 be f6 d7 2f 3f
       0.12231291 -1.4020532 -0.44082102 0.68688905
000230 d3 66 1d 3f 52 c7 0e 3f 06 ba a4 be 4d ba f3 be
       0.6148502 0.5577289 -0.32173175 -0.47603074
000240 a4 6c 91 bf 4e 85 a6 3e 72 04 44 be 95 23 6a 3f
       -1.136128 0.32523578 -0.19142321 0.91460544
000250 5e e3 14 bf b1 b0 41 c0 b5 ee a7 bd 26 7a e3 bf
       -0.58159435 -3.0264094 -0.08199827 -1.7771652
000260 0c 79 35 be a4 f2 54 3f 86 57 19 3f 10 99 3b 3f
       -0.17721957 0.8318274 0.59899175 0.7328043
000270 b6 7f e0 3e 2d b0 ac be f0 8b f2 3e ce 8d 3d 3d
       0.43847436 -0.3372816 0.4737239 0.046277814
000280 a2 86 9c be 29 29 eb 3c 45 44 2f 3d 7c d2 1e be
       -0.30571467 0.02870615 0.042789716 -0.15509981
000290 1d 78 b3 3e 08 4f 1e c0 4b 40 04 be c6 22 0b c0
       0.35052577 -2.4735737 -0.12915151 -2.1739974
0002a0 4b 24 c3 bf e1 5c af 3d 8c e9 37 3f 36 e6 64 3e
       -1.5245451 0.08562637 0.7184074 0.22353444
0002b0 2e 0c cc 3e e0 7f 6d 3e f9 1d 8f 3f 40 73 8d be
       0.39853042 0.23193312 1.1181022 -0.2762699
0002c0 9d cf 02 bf 59 6d 34 be ab d0 2a 3e e6 8a b2 3c
       -0.5109804 -0.17619838 0.16681163 0.021794748
0002d0 5f b3 03 bf 86 19 b6 bd c1 1d 0d 3f 73 89 d2 bf
       -0.51445574 -0.08891587 0.55123526 -1.6448196
0002e0 0a 90 37 3f a8 84 1f 3f 37 87 83 bf bd 6c 32 3f
       0.7170416 0.6231179 -1.0275639 0.6969717
0002f0 57 8d eb be c8 91 92 3e 69 ab ab 3e f0 68 c1 3e
       -0.4600627 0.28626847 0.33529213 0.37775373
000300 df c8 36 3e de 02 0a c0 7a e9 bb bd e6 22 9f bf
       0.17850064 -2.156425 -0.091753915 -1.2432525
000310 fa f5 5f bf 17 af 81 3e 83 f1 64 3f 15 1f 9e 3d
       -0.87484705 0.25328895 0.8943102 0.07720772
000320 4c 77 1f bf e4 a9 09 bf ae 64 5a 3f a9 1a 59 be
       -0.6229141 -0.5377486 0.85309875 -0.21201576
000330 ee cd d3 bd 6b 6c ce bf 53 cf 31 bf 83 0b ca 3e
       -0.10342012 -1.6126837 -0.69456977 0.39461908
000340 1d 9e cb 3e ee 9f 17 bf 61 13 0d 3f 36 1c 64 bd
       0.39769068 -0.5922841 0.55107695 -0.055690967
000350 43 85 05 be be 76 48 3e 5b 2f 79 bd e8 fc ac 3e
       -0.13039117 0.19576547 -0.060836177 0.33786702
000360 19 2e 37 3e e3 e6 6c 3d 27 b6 bc bf 7e af 7c 3d
       0.17888679 0.05783738 -1.4743088 0.0616908
000370 3c fb 4c 3e 81 48 d2 bf b8 10 f0 3e ca ec e8 3e
       0.20017713 -1.6428376 0.46887755 0.45493156
000380 67 5e 51 bf 85 0b 7a be 89 38 89 3d 10 8f af bf
       -0.8178467 -0.24418457 0.06700236 -1.3715534
000390 e2 74 36 3f 37 dd 4d bf a7 85 ab bf b9 52 9c 3e
       0.712721 -0.8041567 -1.3400162 0.30531862
0003a0 e5 a8 7d 3e 7e 10 83 3f af f3 53 bf 13 65 cc 3d
       0.2477146 1.0239408 -0.82793707 0.09980216
0003b0 bb 08 39 3f 43 27 9e bf 2c 34 08 3f 7f 5c 93 bf
       0.72278947 -1.2355732 0.5320461 -1.1512603
0003c0 03 f5 82 3f 6b 66 b1 bf 46 d1 b9 3e 68 0a 1a bf
       1.0231022 -1.385938 0.36292475 -0.6017213
0003d0 b8 c3 c9 be 16 f7 13 3e 8d 71 ef bd b1 08 1a 3f
       -0.39407134 0.14449725 -0.1169158 0.6016951
0003e0 0a 65 e9 3e 38 63 13 3f 0d 69 92 bd 7e 33 87 be
       0.455849 0.5757327 -0.07148943 -0.26406473
0003f0 48 11 03 c0 b5 30 9d be fc ce 40 3f 33 c3 cc bf
       -2.0479298 -0.30701223 0.75315833 -1.599707

fc2.bias f4 [16]
000000 fe e3 bf be 64 95 1d bf 42 2f 23 3e 25 6d 5f bf
       -0.37478632 -0.61556077 0.15935996 -0.87275916
000010 e4 d1 3f be 73 77 18 bf bd 59 0e bf f0 96 0b 3d
       -0.1873241 -0.59557265 -0.5560568 0.034079492
000020 a6 94 dd be 0b ab d0 bd ae b3 12 3f ee 31 0e be
       -0.43277472 -0.10188874 0.5730542 -0.13886234
000030 9e e1 42 3f c1 08 f5 be c3 71 c3 3e 90 fe 90 be
       0.76125515 -0.4785824 0.3817273 -0.28319216

fc3.weight f4 [16, 16]
000000 b1 24 e1 3d 1d 1b d7 3e 3e ff 0b 3f fb 50 37 c0
       0.109933265 0.42012873 0.54686344 -2.8643177
000010 ce f6 0a bf 17 71 73 be 0e c2 66 be 16 02 1d bf
       -0.54282844 -0.23773609 -0.22534963 -0.6133131
000020 32 3e 91 3d f7 a0 a1 bf 0f 46 5d 3e 68 ca d9 bd
       0.07091941 -1.2627248 0.21608756 -0.10634309
000030 7d f3 c1 3e 28 a8 05 bf ee b1 1c c0 0b eb ba be
       0.3788108 -0.5220971 -2.44836 -0.3650745
000040 17 15 8d bf da 1e 3b 3e 74 de 95 bf 7d 91 64 be
       -1.1022061 0.18273488 -1.1708512 -0.22321124
000050 8e 56 6b 3f 95 a7 9f 3e 53 dc ab be 27 fd 9d be
       0.91928947 0.31182542 -0.33566532 -0.30857202
000060 33 12 4c 3e ff f5 83 3f dc 8f 57 3f f1 a9 2d bf
       0.19928817 1.0309447 0.84203887 -0.67837435
000070 b1 8e b4 3d f2 76 d2 3e fc 5b b5 3e 7c 26 bf bf
       0.08816279 0.41106373 0.3542174 -1.493362
000080 fa 99 16 3f 32 79 1f 3e 5b 9c f3 3e da df 9c be
       0.588287 0.15573576 0.47580227 -0.30639535
000090 f5 80 d8 bc 90 a7 99 bf ba a3 0c be e2 22 46 bf
       -0.026428679 -1.2004261 -0.13734332 -0.77396977
0000a0 f8 c2 00 bf 79 0f eb bf 6e d1 d6 bf 55 64 97 3e
       -0.502975 -1.8364097 -1.6782663 0.29568735
0000b0 dd db 29 3e 93 5f 05 bf b5 cd 71 3f ff 0e 22 3c
       0.16587777 -0.5209896 0.9445451 0.009891271
0000c0 c4 1a 2e bf 07 72 80 be 39 88 86 be 49 04 72 3f
       -0.6800959 -0.25086996 -0.26275805 0.9453779
0000d0 39 70 84 3e 70 6d 09 be ed bd c3 bf e0 4e bf 3e
       0.2586687 -0.13420653 -1.5292336 0.37364864
0000e0 d9 ef 14 3d 1d 5d 33 3f 95 b0 61 be 34 d4 05 c0
       0.03636155 0.70063955 -0.22040017 -2.0910769
0000f0 99 9a 4a c0 57 26 42 be 02 05 88 3e 31 08 87 be
       -3.165686 -0.18959938 0.2656632 -0.26373437
000100 98 2d 8d 3e 39 e6 66 3e fc e9 82 3d 73 6e 61 3d
       0.27573848 0.2254876 0.06392285 0.055036973
000110 46 27 15 3f b5 ad df be 1e ff b9 bb 82 bd d0 3d
       0.5826305 -0.43687215 -0.0056761643 0.10192396
000120 58 b7 24 be c2 dc 26 3f 00 1b 0c be 86 31 77 3e
       -0.16085565 0.651806 -0.13682175 0.24139985
000130 c4 d0 81 bf cf ec ee 3e f1 b3 f4 bf 51 c1 2f 3f
       -1.0141835 0.46665046 -1.9117414 0.6865435
000140 4a e0 9b bf d3 28 70 3e 40 f3 aa be f9 65 f0 3d
       -1.2177823 0.23453073 -0.3338871 0.117382
000150 31 3f d1 be 9b 82 05 c0 fe 1e bc bf 71 62 cc bd
       -0.40868524 -2.0860965 -1.4696958 -0.09979714
000160 98 f6 93 3d c2 22 c6 bd c5 3e 8c bf 17 5c 00 bf
       0.072247684 -0.09674598 -1.0956656 -0.5014052
000170 49 49 9d bf 88 f1 9b 3c 18 53 6e bf ee a8 77 3f
       -1.228799 0.01903607 -0.9309554 0.9674214
000180 2c a0 78 3e 0e c5 00 c0 11 0a 94 be c3 d6 1f 3e
       0.2427985 -2.0120273 -0.2891393 0.15609269
000190 4d 2e 53 3f 63 33 15 be 7d da 31 3e 28 31 ef bd
       0.82492524 -0.14570384 0.17368503 -0.11679298
0001a0 ed 9f 7d bc bc b7 76 bf 03 34 db be 4d 10 c5 ba
       -0.015480024 -0.96374106 -0.4281312 -0.0015034765
0001b0 65 97 99 3e 44 60 09 3f d8 4f fc 3d 02 28 95 be
       0.29998317 0.53662515 0.123199165 -0.29132086
0001c0 f9 b6 11 bf 1f 1a ad bf fb c4 c3 bd bb 27 c6 bf
       -0.5691982 -1.3523597 -0.095590554 -1.5480875
0001d0 73 c0 a4 bc 50 e1 66 3e 9e ee b8 be 4b 48 c9 3e
       -0.020111298 0.22546887 -0.3611955 0.39312968
0001e0 16 bc c6 be de fe 47 bf da c7 bd bf 7d a9 b7 bd
       -0.38815373 -0.7812327 -1.4826615 -0.08967874
0001f0 3b 9c d3 bf 1a 10 29 be 30 c4 21 3f 0c 05 51 be
       -1.6532053 -0.16510049 0.63189983 -0.20412081
000200 b2 a6 d2 be 11 45 00 3c f2 8f 01 be d0 9b 57 bb
       -0.41142803 0.007828967 -0.12652567 -0.0032899268
000210 3d 81 e3 bb e1 97 07 bf c7 3f 11 3d 79 37 1c be
       -0.0069428966 -0.52966124 0.035461213 -0.15255536
000220 64 25 15 be 3e e7 6c bd 03 fd a6 bc 15 2c b3 bd
       -0.14565045 -0.057837717 -0.020384317 -0.08748642
000230 e2 c4 25 bf 37 2b 93 be 2b 6a d6 bd 3d e6 08 be
       -0.64753544 -0.28743908 -0.10469469 -0.13369079
000240 7f e1 cc 3e 25 53 77 3a ec b6 f1 be 51 5b 15 bf
       0.4001579 0.0009434692 -0.4720987 -0.5834246
000250 b0 90 c0 bc 75 8f bd be 3a 65 70 3e bc c4 a4 3e
       -0.023506492 -0.37023512 0.23476115 0.32181346
000260 fd 45 5c bf 8a 91 00 3f 5c 1d 03 3f 32 78 cf bd
       -0.86044294 0.50222075 0.51216674 -0.10130347
000270 35 17 b2 3e ae 39 6c be 24 e8 8d 3e 39 18 0d bf
       0.3478333 -0.23068878 0.27716172 -0.55115086
000280 37 f7 6a bd b2 c8 53 3e dd be 22 bf d0 bf 6f be
       -0.05736467 0.20682028 -0.63572484 -0.23413014
000290 f3 2f c0 bf d7 c4 23 3e 35 aa 5d 3d 2b 6e ec bf
       -1.5014633 0.15993057 0.0541174 -1.847112
0002a0 30 b8 50 be c6 0e 01 3f 52 15 3a 3f 5a fc 85 be
       -0.20382762 0.5041317 0.7268878 -0.2616909
0002b0 0d 03 68 bf f4 e0 3a 3f e8 7d d6 bf cd 41 21 c0
       -0.90629655 0.729995 -1.6757174 -2.5196412
0002c0 56 23 09 3e a9 1a 16 be fe fd 9b 3e ef f2 a4 bf
       0.13392386 -0.14658608 0.30467218 -1.2886637
0002d0 93 38 ef bf 3c 19 fe bf 3d 61 05 be eb e2 bb bf
       -1.868914 -1.9851451 -0.13025375 -1.4678625
0002e0 66 f6 5a bf 2e c5 c3 3f 06 64 a3 3f f8 3e 73 3e
       -0.85532224 1.529455 1.27649 0.2375449
0002f0 e5 14 06 bf f5 e2 78 3e 2d ea 88 bf 53 7a bf bf
       -0.5237563 0.24305327 -1.0696465 -1.4959205
000300 f8 f5 4f bf a0 7f 50 be 9f 74 dc be 2f 1d b3 3e
       -0.81234694 -0.20361185 -0.43057725 0.34983203
000310 84 a6 4b bd cb c0 49 bf 34 07 42 bf 38 cf 33 be
       -0.04971935 -0.78809804 -0.7579224 -0.17559516
000320 6d f0 64 3e 45 7f 82 3f 36 72 8d 3e c9 c1 82 bf
       0.2235734 1.019509 0.276262 -1.0215389
000330 2f bb 62 3f 4e ac 12 3e d6 76 3d 3e 74 79 3f 3e
       0.8856687 0.14323542 0.18502364 0.18698674
000340 76 46 6a 3d 90 5e 24 3d 86 69 39 3f ef ae 23 bf
       0.057196103 0.040129244 0.7242664 -0.639388
000350 7a e9 33 c0 cf e3 89 bf 22 e4 4a 3e a6 6f 48 be
       -2.8111253 -1.0772647 0.19813588 -0.1957384
000360 fb 1b 0a c0 95 6d 49 3f ef 04 1e 3f 4f b0 f1 3e
       -2.1579578 0.78682834 0.6172628 0.47204825
000370 f3 07 e0 bf 1f 11 78 be 87 a1 06 c0 11 1e 8b 3e
       -1.7502426 -0.24225281 -2.1036088 0.27171376
000380 4f a8 aa bf aa 07 b1 be d0 f4 a8 bf e3 61 93 bf
       -1.3332614 -0.3457616 -1.3199711 -1.1514248
000390 ad 40 b1 3e c8 78 8a 3e 46 3f 4b 3f 4c c2 1e bf
       0.34619656 0.27045274 0.7939342 -0.62015224
0003a0 fa 31 d1 3e 42 69 9b bd 97 bf 85 be d1 02 bd bf
       0.40858442 -0.07588436 -0.26122734 -1.4766484
0003b0 87 fe a4 3d b6 07 5a 3e 06 98 51 be 7b f7 03 be
       0.0805636 0.21292004 -0.20468149 -0.12887375
0003c0 4e d6 ea 3e 36 9f 55 be 27 28 37 be d0 37 b9 bf
       0.45866627 -0.20861515 -0.1788641 -1.4470158
0003d0 60 d9 92 bd d2 70 13 bf 5f a0 61 3f b8 30 69 bf
       -0.07170367 -0.57594025 0.8813533 -0.91089964
0003e0 07 b5 3d be 98 29 15 3f f6 9b 4b 3f 81 f2 33 3e
       -0.18526088 0.5826659 0.7953485 0.17572977
0003f0 39 9d c4 3d d9 58 af be 56 e0 2b be a1 56 0d c0
       0.096003 -0.34247473 -0.16784796 -2.2084124

fc3.bias f4 [16]
000000 54 b1 b2 3d b3 f5 d2 be 04 f8 1b 3f 29 d9 83 3f
       0.08725229 -0.4120308 0.60925317 1.0300647
000010 74 b6 4b be a8 85 36 bf 21 18 b1 3e c4 cd c0 3f
       -0.19893819 -0.71297693 0.3458872 1.5062795
000020 91 40 2c bf 2a 1c 42 bf 5d 02 ab 3f fa e6 0f bf
       -0.6728602 -0.75824225 1.3360096 -0.5621182
000030 c9 fe 42 be 8a 1c b9 bd 7e 0b 74 bf a8 da b0 bc
       -0.19042505 -0.090386465 -0.95330036 -0.021588638

fc4.weight f4 [2, 16]
000000 44 48 2c be 80 5f 36 3e 28 34 0c be 5d fe c9 3d
       -0.16824442 0.17809868 -0.13691771 0.09862969
000010 6e 59 82 be b3 3d 9c be 56 22 b1 3c a2 f0 c9 3e
       -0.25458854 -0.30515823 0.021622818 0.394414
000020 ea c8 d0 bc 61 2d 81 bd 4c 7f c7 be 79 e8 c0 bf
       -0.025486428 -0.063074835 -0.38964307 -1.5070945
000030 f8 93 c2 bc 7d 92 05 bf c4 bc d3 3e 47 83 f1 bd
       -0.023752198 -0.5217665 0.41354954 -0.11792617
000040 3c 48 c7 3d 68 38 45 bd d2 27 f6 3d 61 10 64 be
       0.097305745 -0.048149496 0.12019314 -0.22271873
000050 df fe d0 bd f7 f9 37 3e 77 76 4d be 2c 9e 14 be
       -0.10204863 0.17966448 -0.20064722 -0.14513463
000060 bf ff 2c 3c 19 4c bd 3d 65 c4 93 3d 18 4a af 3f
       0.0105590215 0.0924303 0.07215194 1.3694487
000070 2d d0 8b be b1 c8 19 3f dc 1f 52 be 9c 4b 74 3e
       -0.27307263 0.60071856 -0.20519966 0.23856968

fc4.bias f4 [2]
000000 48 bd 5a 3e e4 3e 0c be
       0.21361268 -0.13695866
