data/results/1731775073.pth (torch, 7588 bytes, 8 tensors)

fc1.weight f4 [16, 32]
000000 8a 39 48 3e 77 79 8d bf bb 27 a9 3e ba fb e1 3e
       0.195532 -1.1052693 0.33038124 0.44137365
000010 cc 09 6f bc 47 91 c8 be 1e 68 e0 3e ce d9 31 bf
       -0.014589738 -0.39173338 0.43829435 -0.6947297
000020 0b f7 11 3f df 3b 45 bf f3 4a 33 bf a7 f0 12 3f
       0.5701758 -0.7704448 -0.7003624 0.57398456
000030 f3 a4 c9 bd 09 e6 2f bd e0 fd 54 bf 51 f0 05 bf
       -0.09845915 -0.042943988 -0.8319988 -0.5231982
000040 cc 07 99 bc 1e bd a5 3d 7f 76 13 bf 56 22 0d 3f
       -0.018680476 0.08092712 -0.57602686 0.5513052
000050 fc cc 96 3d dd 9f 10 3f da 3c 50 3e df 35 a6 3c
       0.073633164 0.5649393 0.20335713 0.02028936
000060 4e ed 3d bf 56 7b 15 3e c2 2c 1c bf 2c 5b 41 3e
       -0.74190223 0.1459783 -0.61005795 0.18882436
000070 49 fe 75 be 2a 0b ab be 15 86 db 3e b5 6c 54 3e
       -0.24022783 -0.33406955 0.42875734 0.20744593
000080 3f 4e 3d 3d 7a 26 9e 3d 45 3e 6a c0 5e 9a e6 3d
       0.0462172 0.077221826 -3.6600506 0.11259912
000090 f8 54 1a be d4 9b 98 3d 42 dc f1 be c2 be 42 be
       -0.15071476 0.07451597 -0.47238356 -0.19018081
0000a0 42 d8 b7 bd ba b4 36 bb 23 ed d0 3d c9 e7 cb 3e
       -0.08976795 -0.0027878718 0.1020148 0.39825276
0000b0 d0 50 58 be 2e 55 2a be 1f 6e bb be aa 23 37 3f
       -0.21124578 -0.16634056 -0.36607453 0.71538794
0000c0 57 52 ad 3e 8a bb a7 3d 96 69 40 3e 71 62 f6 3c
       0.33851883 0.08190067 0.18790278 0.030076237
0000d0 9b c8 cd be 9f 0e e1 3e 25 46 ad be 08 4e f4 3e
       -0.40192112 0.43956468 -0.3384258 0.47715783
0000e0 34 ce d8 3e 6f b0 ca 3e fd da 83 3e 8d 6b 6a 3d
       0.4234482 0.39587733 0.25753012 0.057231475
0000f0 8a 1d 88 3e 92 90 15 bf 03 d5 b5 3e 92 13 2a 3e
       0.26585037 -0.5842372 0.35514078 0.16609028
000100 96 20 74 bb ba 1c 33 3d 4b 43 b5 3e 14 fd 34 be
       -0.0037250868 0.043728568 0.35402903 -0.17674667
000110 56 6c a5 3e fd 77 2b bf 45 12 ab 3e 80 2e 8e 3e
       0.32309216 -0.6697996 0.33412376 0.27769852
000120 65 65 a7 3d 2c 51 77 be b4 71 b0 be 1b b2 4f 3f
       0.08173636 -0.24152058 -0.3446175 0.8113114
000130 85 82 96 3c 91 58 d9 be bf 78 54 bf 0f 30 ab be
       0.018372783 -0.42450383 -0.82996744 -0.33435103
000140 7c 42 04 bf c0 25 19 b7 9e 07 a9 3e b5 65 52 3f
       -0.5166395 -9.1283e-06 0.33013624 0.8218644
000150 ba cc 16 3e 62 a3 96 3e 0a 65 04 3d 7a 86 6b 3e
       0.14726534 0.29421526 0.03232292 0.23000517
000160 fd 01 8d 3e b3 71 3d be 2e 7e da be dc 98 3b bf
       0.2754058 -0.18500404 -0.42674392 -0.7328012
000170 67 d6 3a 3f 22 6b 76 3e 39 06 24 be 84 06 16 bd
       0.729834 0.24064305 -0.16017999 -0.036627308
000180 ea c8 df 3c c3 85 53 be cc 41 2f 3f 37 17 cd 3e
       0.027317483 -0.20656495 0.68459773 0.40056774
000190 f6 31 73 bf 00 4b 86 be 8f f2 bf 3f 21 17 3d bd
       -0.9499811 -0.26229095 1.4995898 -0.046164636
0001a0 05 0c b2 bf 53 1f d7 be 64 22 e9 bc 6d 1a 2d 3f
       -1.3909918 -0.42016086 -0.028458782 0.6761845
0001b0 9a fb 89 be 92 1e 4f 3e af 55 51 3f f3 41 21 be
       -0.2694977 0.20226505 0.8177137 -0.15747814
0001c0 02 42 bb be 0f 03 a9 be 04 a6 03 3f 40 36 1a bf
       -0.36573797 -0.33010146 0.51425195 -0.6023903
0001d0 a8 81 50 bf ac 81 52 3e f8 6f 54 3d ab 0e 20 bf
       -0.8144784 0.20557278 0.051864594 -0.6252238
0001e0 27 b4 1a 3e 92 e4 b0 be 51 c3 5b 3e 43 91 7a be
       0.15107785 -0.34549385 0.21461226 -0.24469475
0001f0 55 69 71 be 99 81 ce 3e 3e 8c 10 be 43 96 fd 3d
       -0.23575337 0.4033325 -0.14115998 0.12382176
000200 ff ad c9 bd 80 25 be bc e8 d8 98 bf 51 ea f6 be
       -0.0984764 -0.02321124 -1.1941195 -0.48225644
000210 13 79 9f be 38 b5 d4 3c 8b 28 a0 3c 1b 6f 88 3e
       -0.3114706 0.025965318 0.019550582 0.26647267
000220 a4 43 b3 3f 36 a5 1b bf d0 24 cd 3d fc d0 fa 3e
       1.4005017 -0.60798967 0.10016787 0.48987567
000230 b7 7c 01 3f 25 cd 3f 3f 41 a9 a9 3e f4 81 b2 be
       0.50580925 0.749224 0.33136943 -0.3486477
000240 fe 76 43 3e e9 ca 47 3e d3 68 86 3e c7 e9 35 3e
       0.1908836 0.19510998 0.2625185 0.1776496
000250 27 fe 07 3f 57 16 ef 3e 54 14 ba 3e 06 34 d4 be
       0.5312218 0.4669673 0.36343634 -0.4144594
000260 b8 4e 3a 3f 36 e8 78 be fc 6f af 3e ca 93 c6 be
       0.72776365 -0.24307331 0.34265125 -0.3878463
000270 08 97 c0 be 1d 81 3c 3f 34 ed 9a 3e 47 01 e3 3d
       -0.37615228 0.7363451 0.30259097 0.11084228
000280 16 97 4e 3d 87 fe 8e bd 4f 76 91 3f a6 9a a4 bf
       0.050437056 -0.06982141 1.136423 -1.2859695
000290 18 9d f2 3e de 57 f4 3e 32 da 71 be 45 b3 96 be
       0.47385478 0.47723287 -0.23618391 -0.29433647
0002a0 06 60 0c 3f 17 13 17 3e 53 8b 7c bd dd a7 36 bf
       0.5483402 0.14753376 -0.061656307 -0.7134989
0002b0 e2 12 93 3e cb 92 08 3e 7a 0f 02 bf a1 55 21 3e
       0.28725344 0.13337247 -0.50804865 0.15755321
0002c0 e8 3b 0b 3e 50 56 9d bd f7 dd 6f be 18 63 02 bf
       0.13597071 -0.076824784 -0.23424517 -0.50932455
0002d0 01 3e a3 bd 2f d8 e5 3e 5e 2c dd be 16 90 a0 3f
       -0.07970811 0.44891497 -0.43197912 1.2543972
0002e0 cc 77 dc 3e 4c 58 9f 3c 10 9e 1c 3e 0d e0 fc be
       0.43060148 0.019451283 0.15294671 -0.49389687
0002f0 b6 8d fd 3d 8c a4 df 3e fa 5b dc 3e 0e 30 64 3e
       0.12380545 0.43680227 0.43038923 0.22283956
000300 a8 04 a0 3e b9 38 ac be e2 d3 47 be 74 0d 45 bf
       0.31253552 -0.33637026 -0.1951442 -0.7697365
000310 4f fc d4 be f3 85 f8 be ec 50 23 3f f2 ec 05 bf
       -0.41598746 -0.48539695 0.6379535 -0.52314675
000320 e4 bf 22 3f 90 14 dd 3d e4 84 ca be 02 da cc 3d
       0.6357405 0.107949376 -0.39554513 0.10002519
000330 8a fd 50 be 07 f8 64 3e 95 c1 36 bd e2 ec 06 bf
       -0.20409217 0.2236024 -0.044618208 -0.52705204
000340 0a 57 d4 be 21 06 24 be 19 ee f9 be 43 ee 56 be
       -0.41472656 -0.16017963 -0.48814467 -0.20989327
000350 48 20 a2 be ea f4 00 be 66 6c f4 be 15 21 98 be
       -0.31665254 -0.12593427 -0.4773895 -0.2971274
000360 48 96 0a bf 46 04 6a be d2 98 ea 3d 76 00 f0 3e
       -0.5413556 -0.22853193 0.114549294 0.46875352
000370 8c 3f d2 bd 84 69 28 bf e5 fc 55 3e 93 a1 8d be
       -0.10266027 -0.65786004 0.20897253 -0.27662334
000380 68 4a 64 ba 1c 8a 9b 3d 1f 4c 46 c0 6f 1d d4 be
       -0.0008708597 0.07594702 -3.098396 -0.41428706
000390 4b 90 00 bf d9 06 99 3d ca e1 89 be b8 d9 bb 3d
       -0.50220174 0.07472009 -0.26930076 0.09172386
0003a0 18 ff 78 be 2b 11 88 be 7a 0f 78 3d 58 3b 38 bf
       -0.2431606 -0.26575598 0.060561635 -0.7196555
0003b0 e6 53 30 3d a9 02 af be ba 29 87 be ed 1c ac bc
       0.04304876 -0.34181717 -0.26399022 -0.021009887
0003c0 b9 b3 da be 9a 5c c7 be 8f a9 4d be 0e 01 b6 3e
       -0.42715243 -0.38937837 -0.20084213 0.3554768
0003d0 47 b2 04 bf 87 2b e5 be fd 9e 18 3e 8c 13 0d 3e
       -0.5183453 -0.4475977 0.14904399 0.13776988
0003e0 3b bb 10 3f 0e 13 0d 3d 08 db c8 3d f4 04 05 bf
       0.5653569 0.034442 0.09807402 -0.5196068
0003f0 81 ef 5d 3c 8c 1c 54 3e 2d 56 90 3e 14 b1 93 3e
       0.013545872 0.20714015 0.28190747 0.28846037

fc1.bias f4 [16]
000000 fd 3f 10 3f 29 bb 95 bd fb c5 da be e9 69 75 bf
       0.5634764 -0.073110886 -0.42729172 -0.9586473
000010 e7 ae 04 bf cf 5f ce be 69 92 3a 3e a6 d7 d8 be
       -0.5182938 -0.4030747 0.18219914 -0.42352027
000020 93 5b 33 3f e5 2e 43 bf 63 3c 31 3a 4f b5 c6 be
       0.70061606 -0.7624343 0.00067610125 -0.38810202
000030 22 4c 50 bf 14 ca 39 bf 9c 36 73 bf 4f aa 04 bf
       -0.8136617 -0.7257397 -0.950052 -0.5182237

fc2.weight f4 [16, 16]
000000 d4 9a 6a bf 5a 70 cb 3e 4e 69 ed bc c9 d1 ba 3e
       -0.916425 0.39734155 -0.028980877 0.36488178
000010 ca 9c 06 3f bf 84 50 be 19 7d eb 3e 84 12 b4 3e
       0.5258299 -0.20363139 0.4599388 0.35170376
000020 77 01 42 3d 87 10 a1 3e 7c 40 d4 3e 3e 60 02 3e
       0.04736468 0.31457922 0.41455448 0.12732026
000030 aa 57 83 3e a6 19 85 3e 70 39 a1 be 8d 34 27 3e
       0.2565282 0.2599613 -0.31489134 0.1632864
000040 fb 6f c2 3e bf 4e 73 bf fb 02 49 3e d6 fd bc 3e
       0.3797606 -0.9504203 0.19630043 0.3691241
000050 4e 4f 3e bf 1b f2 b6 bf 76 ac ef 3e fc 47 ef bf
       -0.7433976 -1.4292635 0.46811265 -1.8693843
000060 80 9b 8a bd 2c 48 a7 3e 66 66 58 3e 30 1f d7 3d
       -0.067679405 0.3267225 0.21132812 0.105039954
000070 ad 99 9e bf 41 26 2f 3e 4b ea 05 bf af 73 d5 3e
       -1.2390648 0.17104436 -0.5231063 0.41689822
000080 3c 3f d5 be 37 46 b1 bf 5f 3c 52 3e 80 48 27 bf
       -0.41649806 -1.3849553 0.20530842 -0.65345
000090 44 4a ab 3e 42 39 f6 3e 63 01 ab 3e 75 9b c3 bc
       0.33455098 0.4809056 0.33399495 -0.023877839
0000a0 ca 0e ca 3e 24 ee 47 be ec 68 6a be 4a 93 83 be
       0.39464408 -0.19524437 -0.22891587 -0.2569831
0000b0 2c ae a2 3e e2 0b 5a bf a4 90 59 bf 0e 0c 39 3f
       0.31773508 -0.8517438 -0.8498633 0.7228402
0000c0 be 81 e2 be 51 39 9d bf 46 c4 39 3f d0 84 01 bf
       -0.4423961 -1.2283117 0.72565114 -0.5059328
0000d0 50 3c c0 bf be 95 97 bf c1 82 93 3e b1 f8 d8 be
       -1.5018406 -1.1842573 0.28810695 -0.42377236
0000e0 43 d9 43 3e 3b 9c 24 bf e5 bf c7 3e be 4a c8 bd
       0.19125848 -0.6430089 0.3901359 -0.09779881
0000f0 39 4e 31 bf e3 d8 0b 3f b2 67 1f be 0e 17 4c 3f
       -0.69259983 0.5462782 -0.155669 0.7972268
000100 7a e1 43 be f6 ca 41 be 65 94 d4 3e 2d 1c 4d 3f
       -0.19128981 -0.1892508 0.41519466 0.8012112
000110 b4 56 97 be ba 32 09 3e 69 38 1d be f0 e5 84 be
       -0.29558337 0.13398257 -0.1535355 -0.25956678
000120 76 00 25 c0 8a 6e 68 3e b5 5f c1 3e 07 84 9b bf
       -2.5781531 0.22698417 0.3776833 -1.2149667
000130 cb 74 4f 3e a5 76 01 be 8f da a4 bf 2c 3e da bf
       0.20259397 -0.12642916 -1.2879199 -1.7050223
000140 54 e0 be bd 20 61 1d c0 8f 6a 99 bf fa b8 de 3e
       -0.09320131 -2.459053 -1.1985644 0.435005
000150 95 29 92 be 51 af 0d 3e d3 f6 0f 3f 0f e2 f9 be
       -0.2854735 0.13836409 0.56236 -0.48805282
000160 f7 d3 b1 bf a2 83 e2 bf 3b 09 88 be 01 1c c1 3b
       -1.3892812 -1.7696421 -0.26569542 0.005893231
000170 5f 29 26 3f f9 7d 69 3e c8 f6 0b bf c9 c4 9d bd
       0.6490688 0.22801961 -0.54673433 -0.077035494
000180 23 7a ba bd 59 7b 4c bf e8 f7 e5 3e a3 23 40 bf
       -0.09105327 -0.79875714 0.449157 -0.7505438
000190 7b 5e 2b bf bc b5 32 bf dd d3 02 be e6 9c 30 bf
       -0.6694104 -0.69808555 -0.12776132 -0.6898941
0001a0 12 ab b2 3d 1e d7 0b 3f 9e 86 5d bd 3b bb 4f 3f
       0.08724035 0.5462512 -0.05408346 0.81145066
0001b0 86 43 3b 3d 77 1d 11 bf 46 2f 48 3f 8e ba a6 3e
       0.045718692 -0.56685585 0.78197134 0.32564205
0001c0 4d b9 2a bd 6b 68 6e 3e 70 04 9e be a3 35 1f bf
       -0.041680623 0.2328202 -0.3086276 -0.6219122
0001d0 42 a0 d8 be bc e3 12 bd 4f b9 13 3e dc 89 1b 3f
       -0.42309767 -0.035861716 0.14426158 0.6075723
0001e0 91 28 11 3e 7e 2d ad 3d 7f b1 9e bf ac 08 85 3e
       0.14175631 0.084559426 -1.2397918 0.2598318
0001f0 45 ac c3 3e 9d aa ac bf 09 52 00 3f 7b 53 c8 be
       0.3821737 -1.3489567 0.50125176 -0.3912619
000200 8a bd 24 3e 74 6f 06 3f ee 8b 29 bf 45 ea 62 be
       0.16087928 0.52513814 -0.6622914 -0.22159679
000210 88 15 b7 bf 60 22 83 be c6 19 01 3f d7 a9 f6 3e
       -1.4303446 -0.25612164 0.5042995 0.48176453
000220 f6 79 ea bf 01 d8 49 be 3f 0f d8 3a 45 00 aa be
       -1.831847 -0.19711305 0.0016484036 -0.3320333
000230 f8 2c ae be 24 98 2d be d5 07 a6 3e 2c c4 66 bf
       -0.34018683 -0.16952568 0.3242785 -0.90143085
000240 55 a8 b1 3e d5 fe 29 be dc fd 21 3f 03 c1 02 3f
       0.3469874 -0.16601117 0.63277984 0.5107576
000250 72 20 c0 bf 37 3d eb bf 46 11 f0 3d 99 73 33 3e
       -1.5009902 -1.8378056 0.11722045 0.17524566
000260 6d e5 78 3e 1e 98 de be 06 c1 f6 be e7 6a 77 3e
       0.24306269 -0.4347543 -0.4819414 0.24161874
000270 dd 38 48 3e 66 dd b1 3d 7a 9c a5 be 1c 20 32 3e
       0.19552942 0.086848065 -0.32345945 0.17395061
000280 84 cf e1 be 9b 38 c6 be b1 5e 77 3e e4 b3 ce bf
       -0.44103634 -0.38715062 0.24157216 -1.6148648
000290 67 3d fa 3d 12 58 e5 3e 1c ed cb bd 30 3c e6 3e
       0.12218743 0.44793755 -0.099573344 0.44967794
0002a0 46 aa e4 3d f5 74 0c 3f cf bc 18 c0 07 6f d1 3e
       0.111652896 0.5486596 -2.386524 0.4090502
0002b0 ef 18 94 be 7d 3e a4 3c af f2 0f 3f 00 45 00 3e
       -0.28925273 0.020049328 0.5622968 0.12526321
0002c0 2e b0 0c bf 15 62 ff be 9a a9 f0 3d 57 df 97 3d
       -0.5495633 -0.49879518 0.11751099 0.074156456
0002d0 ba 34 41 bf cc 38 7d bb 7f 23 0e bf 67 8b 68 3e
       -0.7547108 -0.003863859 -0.5552291 0.22709428
0002e0 4f a0 1b 3e 1a 26 2e 3f 03 28 f8 3e 3e 40 a7 bf
       0.15197872 0.6802689 0.48468027 -1.306648
0002f0 1e e4 a0 3e 2e d1 9a bf b2 ec 12 3e bd e2 ac 3e
       0.3142404 -1.2095087 0.14348105 0.33766738
000300 c5 e7 0a bf a5 4b 94 bf 61 98 3a be bc 0a 99 be
       -0.542599 -1.1585585 -0.1822219 -0.29891002
000310 e4 72 3f be 1c 20 02 bf 38 68 c3 3e b1 98 c3 3e
       -0.18696171 -0.50830245 0.3816545 0.38202432
000320 4a 44 b9 bf 28 80 ef 3d e9 db ba bd 31 84 f2 3e
       -1.4473965 0.11694366 -0.09123976 0.4736648
000330 40 45 db bf cf 35 c6 3e 8d ad 1b 3e 4f dd 14 3f
       -1.7130508 0.38712928 0.15202923 0.5815019
000340 83 c5 fd bb 8b 03 a3 bd 70 17 fe bd 9b d2 01 be
       -0.0077444925 -0.0795966 -0.12406814 -0.12677996
000350 5d da 69 bc ba 38 98 be eb 2a d1 3c c7 62 03 be
       -0.014273253 -0.2973078 0.02553316 -0.1283065
000360 c4 f4 ee bd 0d b4 e8 bd f8 e7 81 be 3b 4c 54 be
       -0.11667779 -0.11362467 -0.2537229 -0.20732205
000370 e7 3c a7 bd 56 1b 15 3e 9d 33 49 be a8 97 37 be
       -0.08165913 0.14561209 -0.19648595 -0.17928946
000380 b0 93 0e 3e 01 74 6b 3b bc e8 b0 bf 92 58 0b bf
       0.13923526 0.0035927298 -1.3821025 -0.5443202
000390 ba 9e 86 bf 03 52 26 3f 86 e3 83 be d3 e8 06 bf
       -1.051719 0.6496889 -0.25759524 -0.5269901
0003a0 f3 1b 2a bf 0e 44 1c bf fe 91 59 3c dc 17 d1 3e
       -0.664489 -0.61041343 0.013279436 0.40838516
0003b0 2a 2a 23 bf d4 99 0e bf a5 5b 44 bf 3a 6f 87 be
       -0.6373621 -0.55703473 -0.7670234 -0.26452047
0003c0 9e ed 88 3e ef f9 06 bf 34 67 7e 3e 38 09 81 3d
       0.26743788 -0.5272512 0.24844056 0.063005865
0003d0 48 32 04 be a8 c6 9f bf ef 5b 04 3f 40 7b a8 be
       -0.12909806 -1.24825 0.5170278 -0.32906532
0003e0 ee 76 1e be 61 5e 38 3d 53 b6 10 3f 97 d6 35 3e
       -0.15475056 0.04501188 0.56528205 0.17757641
0003f0 66 84 38 be 6c f0 0d bd d8 2b 91 be 3a 9e 1d 3f
       -0.18019256 -0.034653112 -0.28353763 0.6156956

fc2.bias f4 [16]
000000 4d ef fb bd 65 14 4f be 6f ac cc be c2 ef c7 3c
       -0.123015024 -0.20222624 -0.39975306 0.024406318
000010 59 32 3f 3c 8b 4a 63 bf 50 01 44 bf 6d 03 13 3f
       0.011669719 -0.8878562 -0.765645 0.574271
000020 ef 6f da 3d 08 2a aa be c1 2e 16 3e 98 52 99 3e
       0.10665881 -0.33235192 0.14666273 0.29945827
000030 70 0c 44 3f be 33 b7 be 3d 90 72 3d fc 11 b1 bd
       0.7658148 -0.35781664 0.059219588 -0.08646008

fc3.weight f4 [16, 16]
000000 58 dc 83 bf 00 06 fa 3d 4d 9c 5e bd eb 68 fa 3e
       -1.0301619 0.12208176 -0.05434828 0.4890817
000010 cf ae 4d 3e 57 63 5d bf 82 1b 25 3f cf 05 38 be
       0.20086215 -0.86479706 0.644951 -0.17970966
000020 9d dc 31 3f 97 ca 86 bf 45 fc 7e bd c5 a7 26 3e
       0.69477254 -1.0530576 -0.0622523 0.16274936
000030 9f cb 4b 3f 92 69 88 3d c6 63 bb bc e5 2e 89 3e
       0.79607576 0.06660761 -0.022874724 0.2679359
000040 b6 77 3f be 96 82 09 be 7d 58 5c be 6d a2 35 be
       -0.1869801 -0.13428721 -0.2151813 -0.17737742
000050 0a 7a 9d be 22 c5 a8 bd 1f 1e aa be eb 10 3d be
       -0.3075717 -0.08240725 -0.33226106 -0.18463485
000060 cd d5 b3 bd 40 b5 85 bd 63 a4 e8 be 95 06 6d bd
       -0.08781014 -0.06528711 -0.45437917 -0.057867605
000070 3f d5 3e 3e 64 fb de 3d 06 25 24 be 28 ce ad bd
       0.18636034 0.10887793 -0.16029748 -0.08486587
000080 81 64 44 be cd f4 21 bd f2 69 19 be 4f c4 c9 bd
       -0.19178964 -0.0395401 -0.14981821 -0.09851896
000090 84 52 33 be 6b 61 f1 bd 3b e5 48 3c 81 60 61 be
       -0.17511946 -0.11786159 0.012261684 -0.2200947
0000a0 48 de 7d bd ee 16 60 3d 78 79 d7 bd 58 62 54 bd
       -0.061979562 0.054709367 -0.10521215 -0.0518516
0000b0 9a e9 6d 3d 80 dd 04 3e 80 d7 7d bc 82 ea 57 3a
       0.058084108 0.1297512 -0.015493274 0.00082365435
0000c0 0c 85 95 3e bf 66 20 3b 71 44 78 be 63 a9 ae 3e
       0.2920307 0.0024475304 -0.24244858 0.34113607
0000d0 64 03 78 bd f3 6e 61 bf ac 40 fd bf 6a b9 0c 3f
       -0.06055011 -0.8805992 -1.9785361 0.5497042
0000e0 eb f2 20 3f 7a 56 c0 be ed 18 c9 3e f2 ff 5f 3e
       0.62870663 -0.37565976 0.3927683 0.21874979
0000f0 b9 0a 62 be c4 6e a9 3b 3b e5 4d bf 4a cb b0 3c
       -0.22074403 0.005170675 -0.804279 0.02158131
000100 86 fe 34 bd fc c5 1f bf 76 ca 50 3f 7f eb 21 bf
       -0.044188045 -0.62411475 0.8155893 -0.63249964
000110 16 31 8d bf 02 2d a4 be 70 d8 e3 3e ff 90 fd 3d
       -1.1030605 -0.32065588 0.44501066 0.123811714
000120 2e 71 ae bf d3 db 53 be 61 db 39 3e 1c e2 32 bf
       -1.362829 -0.20689325 0.18150093 -0.69876266
000130 33 04 f4 3e 6a 25 21 bd 99 c2 de 3d 2c c0 be 3e
       0.47659454 -0.03934232 0.1087696 0.3725599
000140 68 0d da be 37 95 33 bf df 6c 17 3e 5d 58 0a bd
       -0.42588353 -0.7014956 0.14787625 -0.033775676
000150 02 9d 22 3f ad 7d be 3f 65 3c da bf 06 eb cc bf
       0.63520825 1.4882103 -1.7049681 -1.6009223
000160 06 29 fa 3e 01 28 5a 3c 10 37 8c be 94 ad e9 bf
       0.48859423 0.013315202 -0.2738576 -1.8256097
000170 3e 49 64 be 9d ac 66 be 12 65 de bb 91 8f ae be
       -0.22293565 -0.22526784 -0.006786951 -0.34093907
000180 53 22 50 be 6b 03 25 3f db a3 a7 3d 3b 20 3c 3f
       -0.20325594 0.6445834 0.0818555 0.7348668
000190 bf 77 d1 be 8d 7d 76 bd 13 fd e7 3e 0b 18 2f bf
       -0.40911672 -0.06017833 0.45310268 -0.6839606
0001a0 8b ac 44 3e 2b 59 ac 3d 99 53 00 3f 3c 0f 4e be
       0.19206445 0.08415445 0.5012756 -0.20122999
0001b0 f1 bd 80 3f 15 91 36 3c bb 5c 0c 3f fd 50 d9 bd
       1.0057966 0.011142989 0.54828995 -0.106111504
0001c0 7e 85 3d bf 09 33 8c bf 16 c3 2c be c8 e0 78 bf
       -0.7403182 -1.0953075 -0.16871294 -0.9721799
0001d0 de d4 d4 be b9 88 e7 3e 0a c7 09 be 17 33 01 bf
       -0.41568655 0.452215 -0.13454834 -0.5046858
0001e0 f4 b6 27 3f 75 32 17 3f 3e 23 e3 bf ec e1 26 3d
       0.6551354 0.59061366 -1.774513 0.0407428
0001f0 a9 d7 ca 3e 17 ea 02 be 8f 1f a4 3c 1f 3a 7b 3d
       0.3961766 -0.1278461 0.02003458 0.061334725
000200 1c 09 81 bd f9 68 a1 be 01 5e 33 3e 2c 0f 9a 3f
       -0.063005656 -0.315254 0.17516328 1.203588
000210 d8 d5 41 3f 7d 02 0b 40 08 59 31 3f bc a3 7f bc
       0.75716925 2.1720269 0.69276476 -0.015603002
000220 01 65 dc 3e 99 78 a8 3d 75 3c ff bf 03 32 ea be
       0.4304581 0.08226127 -1.9940325 -0.4574128
000230 00 4c 9a 3f c5 f1 97 3c ad 8c a5 3e 94 36 c9 be
       1.2054443 0.018547902 0.3233389 -0.39299452
000240 0b f8 cd 3d 85 ec 2b 3f bf 5f 14 3f 48 a0 e6 3d
       0.10057076 0.67157775 0.57958597 0.1126104
000250 eb b8 1c 3f 52 e0 49 3f 42 bd a6 3e 56 97 d7 3d
       0.6121966 0.7885791 0.32566267 0.10526912
000260 ce f7 5a 3e b4 6e 21 3f 7b f5 3c bf 3a d8 d1 be
       0.21383592 0.63059545 -0.73812073 -0.4098528
000270 dd 59 7b 3f 57 87 46 bd c8 0e 8b 3e eb 62 e2 3e
       0.98183995 -0.048468914 0.27159715 0.44216093
000280 53 8c a0 bf a2 3e b7 be 16 e9 7b be 08 0b f5 3d
       -1.2542824 -0.35789973 -0.24600634 0.11964995
000290 1c b4 16 bf 6a 38 ac 3f ff 53 36 bf 4e f0 ad be
       -0.58868575 1.3454716 -0.7122192 -0.339724
0002a0 b4 6e 3f bf f3 d0 f9 be 58 17 0d be 88 fa 1a bf
       -0.74778295 -0.48792228 -0.13778436 -0.6053853
0002b0 9d 8f 90 3f 12 90 6c 3e 4a 99 d6 be f9 88 0f be
       1.1293827 0.23101833 -0.41913825 -0.14017095
0002c0 80 aa 0b bc f3 19 fa 3e 40 ba 40 3f b9 75 c9 3d
       -0.008524537 0.48847923 0.75284195 0.09836907
0002d0 a6 c4 c6 bc 24 d1 32 3f dd ca 4a 3e 19 cf f8 3c
       -0.024263691 0.69850373 0.19803949 0.03037219
0002e0 c1 bf 67 3e 30 33 14 3f 88 b9 c1 be 83 3f 9c 3c
       0.22631742 0.57890606 -0.37836862 0.019073253
0002f0 7f 3a 2b 3f 80 c2 d3 bd 9c f6 c7 3e fb e9 05 3f
       0.6688613 -0.10339832 0.39055336 0.5231015
000300 88 19 74 bf 65 15 ce 3e 06 2c a9 3e 60 e6 2f 3f
       -0.9535146 0.40250698 0.330414 0.687109
000310 eb 62 a5 be 98 8b 65 bf c8 3a 51 3f e8 ef 65 be
       -0.3230203 -0.8966613 0.8173032 -0.22454798
000320 66 38 02 3f ab bb 8e be 73 a6 c8 bf 20 5a 7a be
       0.5086731 -0.27877554 -1.5675796 -0.24448442
000330 4c 1b d2 3f ff 3d 70 3e 2c 98 3b 3f 25 dd ae 3e
       1.641458 0.2346115 0.7327907 0.34153095
000340 34 c7 62 bd 7c b4 b0 be 26 bd 93 be eb 73 f4 bd
       -0.055365756 -0.345127 -0.28855246 -0.11936172
000350 4b 07 02 bf 52 4a 84 be 8d 3c 92 be 1b 69 bf be
       -0.5079238 -0.25837952 -0.28561822 -0.37384877
000360 8d a4 ac be ad 26 71 bd 39 3b 16 bf 63 ed 4b bf
       -0.33719292 -0.058874775 -0.58684117 -0.796591
000370 39 a2 ec be 35 25 25 bc 91 76 23 3f 1a ba 6f bf
       -0.46217516 -0.010079672 0.6385279 -0.93643343
000380 37 dc 16 be 4f 60 b0 bd 72 f1 ae 3b ec 6c cf 3d
       -0.14732443 -0.086121194 0.005338841 0.10128197
000390 3a bc 0f be 4a e5 17 be f0 ad ed bd a0 8c ef bd
       -0.14036646 -0.1483356 -0.116054416 -0.11696744
0003a0 06 0f 91 3c 0a e7 4a be 3d 6e 10 be 4d 30 25 be
       0.017707359 -0.19814697 -0.14104553 -0.16131707
0003b0 d6 e2 93 be 34 c6 99 3d c6 ba 8d 3d 91 8e 8a 3c
       -0.28884 0.07508507 0.0692039 0.016913684
0003c0 36 cc 76 bf 4e a2 07 be 53 46 cd 3e f9 6c 94 bf
       -0.9640535 -0.13245508 0.40092716 -1.1595756
0003d0 a9 7a cf 3e c2 a8 ae 3f 50 c5 4d 3f 74 3a 02 3e
       0.4052327 1.3645251 0.803792 0.1271761
0003e0 13 08 52 bf 84 35 85 3e 82 e7 15 bf db d0 8a be
       -0.8204357 0.26017392 -0.5855638 -0.2711247
0003f0 d2 35 69 3e 53 dc d4 bd 7b 84 a3 bf 4d 93 d4 3e
       0.22774437 -0.10393586 -1.2774805 0.41518632

fc3.bias f4 [16]
000000 45 bc 10 bf 51 b2 6b be 2b 63 89 be 34 fd 64 3e
       -0.56537277 -0.23017241 -0.26833472 0.22362214
000010 89 72 83 bf 4a 84 15 3f 6f f7 8b 3e e4 32 42 bf
       -1.0269328 0.5840498 0.27337214 -0.758589
000020 e3 3e fd be 91 e0 96 3e 3d da 3e be b5 c0 03 3e
       -0.4946204 0.29468206 -0.18637939 0.1286648
000030 d5 4b 36 bf 15 bb 3a bd 9b 28 51 be 00 8c d7 be
       -0.7120946 -0.04558857 -0.20425646 -0.42099

fc4.weight f4 [2, 16]
000000 e8 16 77 be d3 f8 74 3e d0 44 02 3e 83 19 58 3e
       -0.24129832 0.23923044 0.12721562 0.21103482
000010 34 b0 06 3f 95 56 c4 be e1 5e 39 be 91 78 7f 3f
       0.52612615 -0.38347307 -0.181026 0.99793345
000020 fc b0 46 bf 07 4e d5 be 63 7b ff 3e 29 dd eb bd
       -0.77613807 -0.41661093 0.49898824 -0.11516792
000030 4e c1 a3 bf 2c 9a 35 3e 0c f7 ae bd 6d 29 9a 3d
       -1.2793367 0.17734593 -0.08543214 0.075274326
000040 29 25 b3 3e a5 19 14 be ee e7 b7 3c 10 74 b1 be
       0.34989288 -0.14462908 0.02244946 -0.3465886
000050 6d 75 b6 be 9f ef 3c 3f 6c cf 16 3e c8 48 52 bf
       -0.35636464 0.7380313 0.14727563 -0.82142305
000060 76 54 0b 3f 1b 0a 00 3e 25 42 ff be df 47 46 3e
       0.5442575 0.12503855 -0.49855152 0.19363354
000070 ff 47 90 3f b7 81 a7 be 4b e6 fc bd 6c b6 f2 be
       1.1271971 -0.32716152 -0.123486124 -0.47404802

fc4.bias f4 [2]
000000 31 d6 06 3e a9 cf 91 bc
       0.13167645 -0.017799215
