data/results/1731781689.pth (torch, 7844 bytes, 8 tensors)

fc1.weight f4 [16, 36]
000000 62 43 54 bb f7 f4 eb 3c 42 64 cd bd 43 20 11 be
       -0.0032388796 0.028803332 -0.10028888 -0.14172463
000010 ad 57 5a 3d 2a a6 2c be 5e 4c a7 3e 1a 41 a5 3d
       0.05330627 -0.16860262 0.3267545 0.08069058
000020 f8 32 1a 3f f5 1f 8a bf 77 fc 15 bf 92 b8 2d be
       0.6023402 -1.0791003 -0.58588356 -0.16964939
000030 af 80 16 be 19 d4 c3 3e 6e 30 d4 be 1e b4 47 bf
       -0.14697526 0.38247755 -0.414432 -0.7800921
000040 2a 98 45 bf 94 22 ae be 6f fc 9e be d0 09 84 3f
       -0.7718531 -0.34010756 -0.31051967 1.0315495
000050 5b fd 01 3e a6 55 2f bf 21 c5 95 be af 08 36 be
       0.12694304 -0.68490064 -0.2925196 -0.1777675
000060 c2 53 10 bf 33 f3 43 be cd e6 a0 3e d3 fa 72 bc
       -0.56377804 -0.19135742 0.31426087 -0.014830309
000070 e8 f0 da 3d 49 25 9c 3d 0c 91 11 be df 2f 27 3f
       0.106904805 0.07624299 -0.14215487 0.6530742
000080 bf b9 04 bf d8 ea 0d bf 4f 2a 4a be 88 2f 0c 3f
       -0.51845926 -0.5543647 -0.19742702 0.54760027
000090 32 ac b2 3d 26 3b 7e be e3 29 91 bc d4 8f 0e 3e
       0.0872425 -0.24827251 -0.017720168 0.13922054
0000a0 60 f9 8a 3d 63 27 80 3c 0f 7b 34 bf ba 33 97 bf
       0.06785846 0.015643781 -0.7050027 -1.1812661
0000b0 f2 b7 ab 3e 4a fd 88 bd 9e 7c 94 3e 57 69 23 be
       0.33538777 -0.06688936 0.29001325 -0.15958153
0000c0 4b 54 84 bf af 33 06 bf 5c 0d 15 3e 3d e1 c2 3d
       -1.0338224 -0.5242261 0.14555877 0.09515617
0000d0 b9 50 2b 3f e2 1c 32 3e 73 51 03 3f 58 e6 bd be
       0.6692005 0.1739383 0.51296157 -0.370898
0000e0 2a 46 8c be e7 08 47 bf d1 48 c1 3b 6f 72 ef 3e
       -0.2739728 -0.7774796 0.005898573 0.46766993
0000f0 d6 77 f4 3e 1e 2c b5 3d 3d da 00 bf a4 0a a4 be
       0.47747678 0.08846305 -0.50333005 -0.32039368
000100 9a e6 2e 3e fe ee 22 be 4f d0 08 bf 45 b7 aa 3e
       0.17080155 -0.15911481 -0.53442854 0.3334295
000110 e2 e1 17 bf 55 69 10 be 51 31 57 be 6f 38 17 3f
       -0.59329045 -0.14102681 -0.21014906 0.59070486
000120 a1 8c e5 bc ab d8 82 bb a6 58 e0 3e 7d f2 a9 bd
       -0.028021159 -0.003993114 0.43817633 -0.08298204
000130 b5 18 94 bd c9 f1 fc be a3 a2 c4 be a7 36 09 3e
       -0.07231275 -0.49403217 -0.38405332 0.13399754
000140 f8 13 06 be c2 43 c9 bd 7b 67 79 3e d6 89 e8 3e
       -0.13093555 -0.09827377 0.24355881 0.4541766
000150 43 e4 18 3f 62 3f 8f 3d 3c 20 bd bd c4 72 c5 be
       0.597233 0.06994511 -0.09234664 -0.38564122
000160 f6 98 6c bd a6 e0 10 3e f4 14 72 bf 42 81 85 3e
       -0.057763062 0.14148197 -0.9456322 0.26075178
000170 47 5d 46 be 0b b3 e3 be ad 3c e7 be 5c db 91 be
       -0.1937152 -0.44472536 -0.4516348 -0.2848767
000180 5a 59 4c 3f 02 e7 51 3f ba 8e cd 3c 78 e7 55 bf
       0.7982384 0.81993115 0.025092471 -0.8355632
000190 e2 24 35 3e 10 c7 96 be 25 83 31 3e d4 5e f1 be
       0.17689851 -0.29448748 0.17335184 -0.4714266
0001a0 32 ce 01 3f 85 f8 bd 3e 07 0c f5 bd 14 5a d0 3d
       0.50705254 0.37103668 -0.11965185 0.10173431
0001b0 6a 8f 7f 3e 30 6e 27 3e 13 07 29 3f 6e 35 14 3e
       0.24957052 0.16350627 0.6602642 0.14473507
0001c0 35 e2 ad bc 56 d8 10 40 e7 f8 e4 3d 1a 51 3a be
       -0.021226028 2.263204 0.11180287 -0.18195
0001d0 a0 73 1a 3d a5 d9 65 3e f7 46 ae 3e aa 5a 6d be
       0.037707925 0.22446306 0.34038517 -0.23179117
0001e0 92 9a 3f 3d db bd 91 3d 26 fc ef bd cc ab 3e 3e
       0.04677827 0.0711629 -0.117180154 0.18620223
0001f0 80 f8 a6 be 8c 8d ad be f4 02 e0 3e 0f 6e f7 bd
       -0.32611465 -0.33897054 0.43752253 -0.12081539
000200 88 54 00 bf 69 85 42 be 35 a0 96 be 9d fe 56 3f
       -0.50128984 -0.18996204 -0.29419103 0.8398226
000210 f0 be 65 be 96 40 6c bf 71 68 40 3e f4 d3 01 bf
       -0.22436118 -0.9228605 0.18789841 -0.5071404
000220 d3 87 7f bd 81 45 f1 3d e8 bc 36 3e e1 05 05 3f
       -0.06238539 0.11780835 0.178455 0.51962095
000230 da 50 e3 bd de 7f 0d bf f5 8d e8 3d 84 5b 53 be
       -0.110994056 -0.55273235 0.11355201 -0.20640379
000240 a0 ab 88 bd f9 04 85 be f3 20 40 3e 19 e0 ce 3c
       -0.0667336 -0.25980356 0.18762569 0.025253342
000250 f3 41 2e 3c 11 0c 2a 3f 75 ac 53 be 15 08 fd bd
       0.010635841 0.6642466 -0.20671256 -0.12355057
000260 cb dc 80 3d 92 2b b4 3e 12 5e 1c 3f 90 eb 7f be
       0.06292113 0.35189492 0.6108104 -0.24992204
000270 18 4b a7 3f 0c f5 b1 be 36 f5 5a 3d f6 0e 44 bf
       1.3069792 -0.34757268 0.053456508 -0.7658533
000280 f7 c6 d5 be 7a 92 35 bf 1a 04 28 3f 8e d5 a4 3e
       -0.4175336 -0.7092663 0.6563126 0.3219418
000290 b8 8a 06 3e 17 e1 d8 3e eb 34 68 3d 37 38 6c be
       0.13138855 0.4235923 0.05669109 -0.2306832
0002a0 22 67 0d bf 2e ed 9f 3e 4d e3 13 bf 1e 96 b1 3e
       -0.55235493 0.3123564 -0.5776871 0.34684843
0002b0 74 10 85 3e 1b 0a b7 bd 09 3c 23 bf be 90 86 3b
       0.25989115 -0.08937474 -0.6376348 0.00410661
0002c0 13 35 05 be 9f a8 cb 3d d3 69 17 be c5 b9 9a bd
       -0.13008527 0.09944271 -0.14786462 -0.07554964
0002d0 17 ad 66 3e 25 7f 15 3e fb 9b fa 3e 91 3e 26 3d
       0.22526966 0.14599283 0.4894713 0.04058701
0002e0 0c e8 e6 bd 1f 6b ff 3f 39 ad c1 bb ec 84 93 3e
       -0.11274728 1.9954566 -0.0059105423 0.2881235
0002f0 7f 20 5f bd 92 80 e4 3e be 5b 39 be 85 03 14 3e
       -0.05447435 0.4462934 -0.18101403 0.14454468
000300 bb 42 56 bd 21 86 b6 3c e9 ed 0b 3e 7a c2 d4 be
       -0.052309733 0.022280755 0.13664974 -0.41554624
000310 fc 50 be bd 80 b9 39 3e 38 6f 60 be 4d 9f c5 3e
       -0.0929279 0.18137169 -0.21917427 0.385981
000320 5c 2c ca 3d 02 6f e1 3e 7e de aa 3d 84 ab 3e be
       0.09871742 0.44030005 0.08343218 -0.18620116
000330 69 19 5c 3f 51 19 21 3f af ae 06 bf 24 03 df 3e
       0.8597627 0.62929255 -0.52610296 0.43557084
000340 69 62 1a bf 49 fe aa bd 59 83 79 3d 65 6e c7 3e
       -0.6030641 -0.08349282 0.06091628 0.38951412
000350 d4 2d f7 3d ae 8f ee bd 7c 31 9f 3d 7f 65 6f bf
       0.12069288 -0.116484985 0.0777311 -0.93514246
000360 52 dd a4 3d ab 99 b5 bd f5 4a f0 3e d6 81 b5 3c
       0.08050026 -0.088672005 0.46932188 0.022156637
000370 10 81 07 bd 90 14 6e be 01 e4 42 be 7d eb 0a c0
       -0.033082068 -0.23250031 -0.19032289 -2.170623
000380 c2 41 42 be 98 fd 03 3f 66 0b 05 be 86 65 81 ba
       -0.18970397 0.5155883 -0.1299263 -0.0009872175
000390 42 92 bd be 0b 20 03 bf 57 42 c6 3e d0 94 3b bf
       -0.37025648 -0.5122077 0.38722488 -0.73273945
0003a0 43 5d 6f 3e a3 33 f7 bd 69 08 38 be 80 fa a1 3e
       0.2337542 -0.12070396 -0.17971958 0.3163643
0003b0 47 ca bc be f4 0f 80 bf b5 07 eb 3e e4 8e a1 3b
       -0.36873075 -1.0004869 0.45904317 0.004930364
0003c0 5c d9 5c 3e 65 d7 04 bf 57 14 0c 3e 9c c7 a1 3c
       0.21567291 -0.51891166 0.13679634 0.019748501
0003d0 9c 4e af 3e 65 c5 6f 3e 7a d3 6a 3e dd 7b 3d bd
       0.34239662 0.23415144 0.22932234 -0.046260703
0003e0 b8 88 3d 3c c4 45 e0 3e d2 be b8 3e 70 16 0e be
       0.011568241 0.43803227 0.36083084 -0.13875747
0003f0 c0 2c 06 bc 57 e5 2b 3d f1 8e 83 3e af 52 58 bd
       -0.00818938 0.041966762 0.25694993 -0.05281323

fc1.bias f4 [16]
000000 a8 52 8c 3e b8 38 2f bf 90 25 d0 bd 77 cc ac 3e
       0.27406812 -0.6844592 -0.101634145 0.33749744
000010 b4 1d 13 bf 55 3a 8f be ca 2b b2 bf fe 68 a8 be
       -0.574672 -0.2797419 -1.3919613 -0.32892603
000020 b3 94 07 bf f7 2a df 3e 8e 96 a2 3e 3c f2 13 bf
       -0.5296127 0.43587467 0.3175549 -0.57791495
000030 d0 b9 fa bc 45 57 97 3e 09 0e b9 bf 41 75 a7 be
       -0.03060618 0.2955877 -1.4457408 -0.32706645

fc2.weight f4 [16, 16]
000000 73 e9 c1 3d e8 2e ec 3e 36 b8 21 bf 20 50 fd bd
       0.09468355 0.46129537 -0.6317171 -0.12368798
000010 64 f9 1d 3f b4 cf a6 be ad b1 44 3f 67 a1 a2 bf
       0.61708665 -0.3258034 0.7683361 -1.2705506
000020 e4 a9 d6 be 99 ef be 3d 13 3f 0e 3c 0b d9 9e be
       -0.4192649 0.093230434 0.00868203 -0.31024966
000030 e2 bb b5 3e 88 8f db 3e b9 ab a8 3e 5f 5f b6 3d
       0.35494906 0.42882943 0.32943514 0.08904909
000040 2b 78 80 bd bd 86 ee 3e 3f 16 3f 3e 98 3a e1 be
       -0.0627292 0.46587172 0.1866083 -0.43990016
000050 56 dd 69 bf 8a 07 2b bf 32 7b c7 be 3d 68 80 be
       -0.91353357 -0.6680838 -0.38961178 -0.25079527
000060 ec c5 be 3e 1e b3 d7 bf 48 bf c2 3e ae 2d 09 be
       0.37260377 -1.6851537 0.3803656 -0.13396332
000070 54 97 c1 3c 7f 94 5f be ec 38 8e bf 48 11 f7 3e
       0.02363173 -0.2183399 -1.1111121 0.48255372
000080 b3 6c 00 c0 3f 3b 5c 3f ec 9d a6 3e 36 71 a4 be
       -2.0066345 0.860279 0.3254236 -0.32117623
000090 d5 e6 ab 3e 64 e4 24 be b7 51 ae bf c0 fb 9d bd
       0.33574548 -0.16102749 -1.3618687 -0.07714033
0000a0 9f 51 ad 3e e0 83 34 3f 24 28 7f 3e 25 82 72 3e
       0.33851334 0.70513725 0.24917656 0.23682459
0000b0 2a 0f bf bf 98 ed af be fb ec d9 be 7a a5 71 bf
       -1.4926503 -0.34360957 -0.42563614 -0.9439312
0000c0 05 02 cd 3d ac 88 57 bf a6 d6 80 3e 6c 0b 5b 3e
       0.10010151 -0.8419292 0.25163764 0.21391076
0000d0 1b 56 7d 3e 23 a0 81 be 67 13 47 bf 7d e3 b4 bf
       0.24739878 -0.25317487 -0.7776398 -1.4131924
0000e0 a7 cf ae bf 28 cf 8b 3d 54 8b ba 3e 9e 51 17 3f
       -1.365712 0.06826621 0.36434424 0.5910891
0000f0 6c f7 3f 3e 71 0f f8 3d 10 bb e7 3e 14 fb b2 3e
       0.18746728 0.1211232 0.45259905 0.34957182
000100 dd 4e df 3e 0b 24 a8 bf 32 09 2c be 26 bf b7 be
       0.43614855 -1.3136 -0.16800383 -0.35888022
000110 da 71 96 bf da 49 d6 3d bb dc 0f 3e d3 67 01 3e
       -1.1753495 0.10463305 0.14049046 0.12637262
000120 29 db ae 3e b5 e1 0e be a6 18 41 3e bc 63 89 3e
       0.3415158 -0.13953288 0.18857059 0.26833904
000130 ca 01 b7 be 37 35 b0 bf 0a 50 4b bf d3 a5 29 3e
       -0.35743552 -1.376624 -0.79419005 0.16567163
000140 a3 33 d0 bd 86 31 5c 3e f8 af 28 be 14 42 8a 3f
       -0.10166099 0.21503267 -0.16473377 1.0801415
000150 d9 3e d0 bd c0 9f 44 3f 69 5b f8 3c 06 2a 16 be
       -0.10168237 0.7680626 0.030317025 -0.14664468
000160 46 89 a2 be e5 c2 94 3e 6b 5a 75 3f 91 b3 27 3f
       -0.31745356 0.29054943 0.9584109 0.6550837
000170 8b e5 c7 3d 3e ec d7 3e 45 cf 9a 3e 7f 1e 90 be
       0.09760579 0.42172426 0.3023626 -0.28148267
000180 07 d7 99 bf 03 63 c3 3d bf 85 f3 be 74 75 2a bf
       -1.2018746 0.09540369 -0.47562978 -0.6658547
000190 44 e5 e0 3d 27 61 41 3c dd 35 b6 bf c5 27 e1 bf
       0.10981229 0.011802948 -1.4235188 -1.7590262
0001a0 79 bd 03 bf f3 ea b1 3e dc c4 9e be 94 c6 82 3e
       -0.5146099 0.34749565 -0.31009567 0.25542128
0001b0 13 d3 aa 3e 3c ff 55 3d 31 c7 eb bd 05 db eb 3e
       0.33364162 0.052245364 -0.11512602 0.46065536
0001c0 73 34 de 3e 3a c6 37 3d 87 d6 e6 be af 78 ed 3e
       0.4339939 0.044866778 -0.45085546 0.46381137
0001d0 a1 7c 9a bf ed 81 d9 be 1e a4 3f 3f 16 e6 19 3e
       -1.2069284 -0.42481938 0.748598 0.15029177
0001e0 e8 58 a2 3d a0 0b 4b bf 84 0e 6d bf 70 33 88 bf
       0.07927114 -0.79314613 -0.92600274 -1.0640697
0001f0 ad 9c 9e be 5f 38 91 3e bc 81 37 3f ac 9c 4e 3e
       -0.3097891 0.2836332 0.71682334 0.20176953
000200 7e 37 0d 3b d3 c5 53 3e 5e 30 fb be be 4e b5 be
       0.0021547968 0.20680933 -0.4906034 -0.35411638
000210 a0 e4 3d 3f 18 18 24 bf 59 ab d1 3e ce 7b 3a bf
       0.7417698 -0.64099264 0.4095104 -0.7284516
000220 5b 47 3a 3e 4b 68 9c bd 5d a4 52 3e 17 a3 11 bf
       0.18191282 -0.0763708 0.20570512 -0.5688948
000230 f3 77 2c 3f 94 ad ca be a2 3e 25 3f fd 5d fc bf
       0.6737053 -0.39585555 0.64548695 -1.9716183
000240 0e d0 12 be cc 2f 5f 3f 50 3b 93 bf a4 2c 9d bc
       -0.14337179 0.8718231 -1.1502476 -0.019186325
000250 8c 8b db bb 2a 76 16 3e 88 90 93 bf ea 5b 7c 3c
       -0.006699985 0.14693514 -1.1528482 0.015402773
000260 9e 90 51 bf dd 31 2d 3e 32 5b a5 3d 8c d0 d0 bc
       -0.81861293 0.16913553 0.08074035 -0.025490068
000270 8f a0 1a be 31 fa 00 3f cb 09 3f 3c f7 0c 3c c0
       -0.1510031 0.5038176 0.01166005 -2.9382913
000280 79 18 f9 3e 90 b6 0c 3f 17 5e 02 3d b5 eb fc bd
       0.48651484 0.5496607 0.031828012 -0.12349645
000290 b1 9c c1 3e 61 bf 5c bd ce b4 e7 bf f2 fa 0f bf
       0.3781486 -0.05389345 -1.8102052 -0.5624229
0002a0 33 7b c8 be 30 98 58 3c ab 69 03 bf ea b9 a7 bc
       -0.39156494 0.013219878 -0.5133311 -0.020474393
0002b0 37 86 14 be 21 45 31 3f d4 41 86 3e 18 bb 25 bf
       -0.14504324 0.6924611 0.26222098 -0.6473861
0002c0 46 67 ab 3e a5 e2 82 3d 27 d0 28 3f 1c 04 5f 3d
       0.3347723 0.06390885 0.65942615 0.05444728
0002d0 fd 0b 78 be 84 b6 a2 be 57 98 01 3d c2 7e 7a 3e
       -0.24223323 -0.31779873 0.031639423 0.24462417
0002e0 15 e9 59 3f 21 d7 93 3d 25 68 b0 3d 86 eb 28 bf
       0.8512128 0.07218767 0.08613614 -0.6598438
0002f0 ef d4 e4 bd be 08 d4 3e 94 35 6d bf c1 06 04 3f
       -0.11173426 0.4141292 -0.9265988 0.51572806
000300 be 66 b1 be b5 3e 5a be 02 fb 29 be 78 54 43 3f
       -0.346487 -0.21312983 -0.16599658 0.76300764
000310 96 a3 ca 3d 61 c5 06 3f c0 dc aa b7 22 be 52 3d
       0.09894483 0.52644926 -2.0368374e-05 0.051450856
000320 8e 78 68 3d ee e6 b6 3e 06 d0 04 3c e5 f5 be 3e
       0.056755595 0.3572306 0.008106237 0.37296978
000330 d3 f2 17 3f 2f c2 37 3e 50 67 b7 bd 6e 2b 81 be
       0.59354895 0.17945169 -0.08955252 -0.25228447
000340 c0 f2 0d 3f e9 85 37 3d fa ee 25 3f ca bc 22 bd
       0.5544853 0.04480544 0.64817774 -0.039730825
000350 ff 7c 67 bd 1c c8 05 bf 0d a9 0e 3f da 2a e7 3e
       -0.05651569 -0.5225847 0.557267 0.4514988
000360 9d fe 16 3f 93 8c 38 3d 53 aa ce be 46 2b ab be
       0.5898226 0.045055937 -0.40364322 -0.33431453
000370 ff 5e 99 bd 30 01 f3 bd b3 b9 0c 3e 11 c5 e0 3e
       -0.07488822 -0.11865461 0.13742714 0.4390035
000380 aa 3a 68 be 56 8d d2 3e 4a 3b 4d 3d 99 3c b4 3d
       -0.22678629 0.41123456 0.05010537 0.088006206
000390 d4 7b 24 3f b3 57 31 3e f4 e3 aa 3e 4c 65 5e be
       0.64251447 0.17318611 0.3337704 -0.21718329
0003a0 d4 89 91 bd df 97 0d c0 d7 b0 9a be 5b 10 71 ba
       -0.07106367 -2.2123945 -0.30213043 -0.00091958576
0003b0 10 e7 fb be 1d b2 87 bf 88 73 96 bf 9d 53 cd 3e
       -0.49199724 -1.0601231 -1.1754007 0.40102854
0003c0 ce 4a 04 3f e3 66 2e 3d 93 f4 41 3f 3d 94 34 be
       0.5167664 0.04257859 0.75763816 -0.17634673
0003d0 60 7f 69 be 0c 7c 93 be 5d ec 0e 3f c9 99 ff 3b
       -0.22802496 -0.28805578 0.5582941 0.007800315
0003e0 0f 33 9e 3d 88 0f f6 3e d5 18 22 bf c7 45 0c bc
       0.077245824 0.48058724 -0.6331914 -0.008561558
0003f0 b1 30 1a 3e 94 1c 70 be 56 f1 89 bf b8 cd fe 3e
       0.15057637 -0.23448402 -1.0776775 0.49766326

fc2.bias f4 [16]
000000 6f 47 9f 3d 86 c8 36 3e 06 73 bf be a6 49 fd be
       0.07777297 0.17849931 -0.37392443 -0.49470252
000010 0b c6 80 3f 67 9f 57 3d e1 d4 3f 3e 95 e5 62 bf
       1.0060438 0.052642252 0.1873355 -0.88631564
000020 1e e1 01 3f 6c b0 a6 bb 74 4d b1 be b5 97 c4 3b
       0.50734127 -0.005086949 -0.34629405 0.00599953
000030 1a 01 0e 3e 6f 36 24 3f 08 48 27 3e 5a f9 f1 bd
       0.13867608 0.6414556 0.16336071 -0.11815138

fc3.weight f4 [16, 16]
000000 1d 56 c3 be 5c 6e 55 3f 2c a4 6a bf 87 af 8d 3d
       -0.38151637 0.8337152 -0.91656756 0.06918245
000010 cc 8a 20 3f 3a e9 2c be dd 53 06 be 95 1e 37 3f
       0.6271179 -0.16885844 -0.13117929 0.7153104
000020 11 cb 0c bf f4 73 8e be 8b 74 ad be 33 9a 94 3e
       -0.54997355 -0.2782284 -0.33877978 0.29023895
000030 e7 53 c3 3d e6 4c 1f 3e 74 d4 58 3f 36 0c ab 3e
       0.095374875 0.15556678 0.8469918 0.33407754
000040 e7 86 a2 3e dc c7 ad be bf a8 ff 3e 1e a1 cb 3e
       0.31743547 -0.33941543 0.4993343 0.3977136
000050 df 4a 93 be fc a1 12 3f 76 dd 50 3f 24 e8 4c bf
       -0.2876806 0.5727842 0.8158792 -0.8004172
000060 b8 2c 00 3f a5 81 31 3f 13 52 e4 3e dc 6e 61 bd
       0.50068235 0.69338447 0.44593868 -0.055037364
000070 6d b5 97 3e 0c df 8a be e0 e2 bb be 36 05 2f be
       0.29630604 -0.27123296 -0.3669653 -0.17091832
000080 30 7c 2d be 72 6d 25 bc ae 09 be bd 9c 74 b6 be
       -0.16941905 -0.010096895 -0.0927919 -0.3563584
000090 d8 a1 1f bf 19 c2 2f 3d 35 1c 0d bf f3 4a d5 3c
       -0.6235633 0.042909715 -0.55121166 0.026036715
0000a0 17 35 dc bc 60 d6 39 3e 2d ee 8d bd 8d 72 4a be
       -0.026880784 0.18148184 -0.06930194 -0.1977026
0000b0 f4 77 a2 be e1 d0 67 be 70 de 9e be 11 50 9e be
       -0.31732142 -0.22638275 -0.3102908 -0.3092046
0000c0 0c 14 2c bf 0d a7 ca be c2 6f b7 bf c8 8e 0f bf
       -0.6721809 -0.39580575 -1.4330981 -0.5607724
0000d0 8c c3 36 3f ac 92 c4 be 76 01 58 be 78 18 c5 3e
       0.7139213 -0.38393152 -0.21094307 0.3849523
0000e0 67 92 38 bf 72 d1 0c bf b8 75 a6 be cf e0 6d 3d
       -0.7209839 -0.5500709 -0.32511687 0.058075722
0000f0 fb fb 50 be 29 fc 0f be ce c6 5c 3f 2f cc 96 bc
       -0.20408623 -0.14061035 0.8624085 -0.01840791
000100 2a 81 7b bf 76 f4 8f bf 9a 0e 23 3f c8 c8 82 bf
       -0.98243964 -1.1246479 0.63694155 -1.0217524
000110 de c4 bd bf 24 09 d7 be 69 ab c2 bf b4 61 4c bf
       -1.4825704 -0.4199916 -1.520856 -0.79836583
000120 8b bf 05 3f 7f 7a 63 be 55 d0 b7 3e 5e be 97 be
       0.52245396 -0.22214697 0.35901132 -0.29637426
000130 04 34 31 be 66 6a f4 bd ed 6e f0 3e a5 99 e1 be
       -0.17304999 -0.119343564 0.4695963 -0.44062534
000140 92 94 45 bc 71 d4 6b be a4 6c 58 bd e2 cf 5d be
       -0.012059348 -0.23030259 -0.052837983 -0.21661332
000150 79 de 86 3d bc 45 2b bd 68 37 df be d0 c0 74 be
       0.06585402 -0.04181455 -0.4359696 -0.23901677
000160 4e 20 bd be 0f 43 05 3e f1 94 09 bd 2e 0e 14 bf
       -0.3693871 0.13013862 -0.033589307 -0.57834136
000170 2d 8a 8b be 41 e3 cf be af 8c 8f bd ce ff 3b be
       -0.27253857 -0.40603068 -0.07009255 -0.183593
000180 3d 3c 5d bd c3 ee 69 3d a7 96 f1 3e f1 e6 d3 be
       -0.054012526 0.057112467 0.4718525 -0.41387132
000190 33 f6 05 bf 00 14 49 3d ce af 9c be 01 93 11 bf
       -0.52328795 0.04909134 -0.30602878 -0.56864935
0001a0 ce 56 c4 3e 83 90 e2 be 8a 0d ba bd b9 2b b0 be
       0.38347477 -0.4425088 -0.090846136 -0.34408358
0001b0 99 8f fc bd 3a 26 2e bf fa 26 98 bd c0 ed 15 bf
       -0.123320766 -0.6802708 -0.07429309 -0.585659
0001c0 17 4e 83 3e 6f 20 51 bf 8b c7 d8 3e af b1 ca 3e
       0.25645515 -0.81690115 0.4233974 0.39588687
0001d0 f4 3f 87 be b2 a1 05 be 42 61 09 3f f1 2d 88 bd
       -0.2641598 -0.13049963 0.5366403 -0.06649388
0001e0 7c 15 70 3e 8f 03 39 3f 09 2c 59 3e 60 6c a6 be
       0.23445696 0.72271055 0.21208204 -0.3250456
0001f0 e2 36 0c bc 1b f8 94 be 32 5b ab be d1 f2 ec 3b
       -0.008558007 -0.2909554 -0.33468014 0.0072310944
000200 7a 40 d0 3e 59 80 a5 bf fc fb 12 3f 75 06 d5 3e
       0.40674192 -1.2929794 0.5741575 0.4160649
000210 1a 35 0c bf 1e 20 a6 3e 4c 4c 10 3f 67 f1 fa be
       -0.54768527 0.32446378 0.5636642 -0.490123
000220 fd 9a 56 3e fd 33 52 3f b0 53 2d 3f d4 f3 31 bf
       0.20957561 0.8211058 0.6770582 -0.6951268
000230 1a f9 29 3d 29 e0 8b bf d1 cd 2a bf d7 65 fa bd
       0.041497327 -1.0927783 -0.667203 -0.12226456
000240 a8 88 66 3d 3f fb d6 be bb a3 aa 3e 58 e3 bb 3e
       0.05628267 -0.4198856 0.3332804 0.36696887
000250 e4 f1 1f bf f1 1f 3f be 2e b2 f3 3d eb 09 68 be
       -0.6247847 -0.18664528 0.118992195 -0.22660033
000260 fe 4b 9b 3e 79 31 11 3f 65 d4 cb 3e 8a 8a b0 be
       0.30331415 0.56716114 0.39810482 -0.34480697
000270 14 02 12 3e 50 7a 14 be 35 c7 df bd 8a 5c 62 be
       0.14258605 -0.14499784 -0.109266676 -0.22105613
000280 dd 06 af 3d 10 cf 49 bf d8 bc 44 bf 85 8d 79 bf
       0.08546231 -0.7883158 -0.7685065 -0.97481567
000290 6e bf 49 3e af 41 19 bf 29 ff 15 bf b4 2d bf bb
       0.19701931 -0.5986585 -0.5859247 -0.0058343057
0002a0 df f1 26 3f 40 00 a4 bd 1d 26 e2 be 77 14 ec be
       0.65212816 -0.0800786 -0.44169703 -0.46109363
0002b0 e7 2f 03 bf 01 da 0b 3d 15 e3 df 3e 91 f7 8d 3e
       -0.5124497 0.03414345 0.43727937 0.2772794
0002c0 ff d4 08 bf 93 26 52 bf 6f c9 45 3f 0c 8c 3a bf
       -0.53450006 -0.8209011 0.7726049 -0.72869945
0002d0 a0 32 ca 3e fd 4a e5 3d 6a 3c 2c bf fa f4 9d be
       0.3949175 0.111959435 -0.67279685 -0.30850965
0002e0 24 b8 6e bf 51 41 0d 3f e3 00 b4 3d ae 01 2c bf
       -0.93249726 0.5517779 0.08789232 -0.67190063
0002f0 e6 58 48 be 61 a6 80 bf cb 3a 34 3e 73 9f 10 bf
       -0.19565162 -1.0050775 0.17600553 -0.564933
000300 7e 3c dd 3e 24 3e 63 bf a0 c5 08 be 35 9f 63 3f
       0.43210214 -0.88766694 -0.13356638 0.88914806
000310 2f 89 99 bf 28 e3 0f bf bb 8e af be 5f dc 93 be
       -1.199499 -0.5620599 -0.34288582 -0.28879067
000320 6a 5b b6 bd cc 9d eb 3e fa 20 98 3e cf a6 08 be
       -0.089041546 0.46018827 0.2971266 -0.13344882
000330 13 87 35 bf ab f8 ed be 28 2d 1d bf 40 40 b3 3e
       -0.7090923 -0.4647878 -0.6139703 0.35009956
000340 57 a9 a1 bf c6 57 b4 be aa b8 88 3f 5f b3 99 bd
       -1.2629803 -0.35223216 1.0681355 -0.075049154
000350 71 3c 45 bf e3 27 85 bc f8 de ea be dc 20 7a bf
       -0.7704535 -0.016254371 -0.45873237 -0.9770639
000360 b2 2c 20 3f 3a 39 51 3f 97 88 49 3f 18 d4 90 bf
       0.625682 0.81727946 0.78724045 -1.1314726
000370 2b f1 c6 3e 3f e8 9e bd 46 4a 5b bf 9a 97 ac bf
       0.38855872 -0.07759141 -0.8566021 -1.3483765
000380 31 f2 56 bf 7d 3a d0 3d 8e 56 52 3f 8e 72 10 3e
       -0.83963305 0.10167406 0.8216332 0.14106199
000390 ad 59 a6 bf da a5 b5 3d 7f b6 d0 3e d8 58 86 bf
       -1.2996117 0.08869524 0.40764233 -1.0495863
0003a0 d6 6c cf 3e 65 ef 92 3f 9b fa 1f bd 99 7f 75 bf
       0.40512723 1.1479307 -0.039057355 -0.95897824
0003b0 e4 47 58 3e 78 66 c8 be 06 56 73 bf 59 61 d5 bf
       0.21121174 -0.39140677 -0.95053136 -1.6670333
0003c0 fd 80 0a bf 3b 54 ae 3e 3f 0c 79 bf 2a fd 54 bf
       -0.5410307 0.34048638 -0.9728431 -0.831988
0003d0 c6 0a 6d 3f 14 ed 78 bf ce f0 9f bf 07 29 d9 3f
       0.92594564 -0.9723675 -1.2495363 1.6965646
0003e0 dd 35 6e bf 9f 66 78 bf aa 35 86 bf e0 aa 5e 3e
       -0.9305094 -0.9703159 -1.0485127 0.21744871
0003f0 47 d9 ff be f7 b0 b1 3e 7c 07 19 3f 1b 6c bb 3e
       -0.49970457 0.34705326 0.59777045 0.36605915

fc3.bias f4 [16]
000000 08 de 67 3e 77 54 be 3d cf 9e b1 be 55 8d b6 3e
       0.22643292 0.09293454 -0.34691474 0.35654703
000010 b5 33 89 be ba 4f d6 bd 2f 97 f7 be 44 02 54 bc
       -0.26797262 -0.104644254 -0.4835753 -0.012939993
000020 b2 ad a9 bf 6f ef c7 3d 58 72 de 3e ce e1 bb bc
       -1.3256133 0.09762465 0.43446612 -0.02293482
000030 4f 71 68 bf 26 00 81 3e ab 3f c2 be 78 23 d9 bd
       -0.90797895 0.25195426 -0.379392 -0.10602468

fc4.weight f4 [2, 16]
000000 59 15 65 3e c5 bc 71 be 28 44 9b be cf a1 a7 3e
       0.22371425 -0.23607166 -0.30325437 0.32740638
000010 e4 e7 4c be 34 b7 80 3e ff 39 31 be ff d5 44 be
       -0.20010334 0.25139773 -0.1730728 -0.19222258
000020 09 4e 58 bf f7 b7 e9 bc 06 42 05 3f ab 5a 3b be
       -0.8449407 -0.028530104 0.5205387 -0.18296306
000030 6a 58 1c bf 09 50 c5 be b1 ef 67 bf 27 d0 6a 3f
       -0.6107241 -0.38537624 -0.90600115 0.91723865
000040 85 07 3d bd af d2 5b 3e 6f a4 41 3d 66 37 ff be
       -0.04614975 0.21467088 0.047275957 -0.49846953
000050 8e a2 18 3f 30 20 e5 3d 7a 57 0f bc 67 18 c7 bc
       0.5962304 0.1118778 -0.008748883 -0.024303628
000060 e1 92 4b 3f 2b 8a a5 3d f1 d7 01 bf 14 2a c1 3e
       0.79520994 0.08082994 -0.50720125 0.37727416
000070 d9 8a 28 3f 63 2c 7f 3d 0e 38 36 3f 57 82 3e bf
       0.65836865 0.06229819 0.7117928 -0.7441763

fc4.bias f4 [2]
000000 d0 0f 98 3e 13 77 83 be
       0.29699564 -0.25676784
