data/results/1731512497.pth (torch, 7588 bytes, 8 tensors)

fc1.weight f4 [16, 32]
000000 6b 62 c7 3d 1b 75 1a 3e c0 f8 83 c0 f3 40 c7 3e
       0.097355686 0.15083735 -4.124115 0.3891674
000010 b7 b6 1a 3f 6d 1a f1 3e 64 17 20 3f f5 12 29 3f
       0.6043505 0.47090474 0.6253569 0.6604455
000020 85 3c 6e be bf 2c 97 3d d9 df 1f bf 06 b4 c2 be
       -0.23265274 0.073815815 -0.6245094 -0.38027972
000030 dd bc 31 bf 92 6d 3d 3f 2b c8 4a 3f 8a aa 22 bf
       -0.6942881 0.73995316 0.7921168 -0.6354147
000040 0e 12 c3 3e 6f d0 d0 be ae 91 8b 3e 0a 29 98 3c
       0.38099712 -0.40784022 0.27259582 0.018574256
000050 83 22 ea bd 68 83 cc 3d 65 d6 96 bf 59 ba 06 bf
       -0.11432364 0.09986001 -1.1784178 -0.52628094
000060 ab c3 95 be 3e c2 9e 3e c8 47 8e be b5 2b 09 bd
       -0.29250845 0.3100757 -0.2778914 -0.033488948
000070 2b 5c 47 3e 31 00 aa bc 80 c3 95 3e ef 59 03 bf
       0.19468753 -0.020752044 0.29250717 -0.513091
000080 12 b0 f7 3d 5c e9 5b be 99 32 c0 3f e8 14 08 3d
       0.120941296 -0.21475738 1.5015441 0.033223063
000090 6e 8c 07 be 79 66 12 3f aa 28 d6 3e 5f 9d b0 be
       -0.13237163 0.5718761 0.418279 -0.34495065
0000a0 f7 5d b2 be 8d 0b 74 bf 63 ca 8d bf e7 e2 1f bf
       -0.34837314 -0.95330125 -1.1077389 -0.624556
0000b0 d2 43 d0 bd 06 a6 7c bf b3 eb 14 be 4f 88 7b 3e
       -0.10169186 -0.9869083 -0.14543037 0.24563716
0000c0 d7 86 8a be 2d 06 9e bf c1 7e 3f 3f bb eb a3 be
       -0.27056 -1.2345635 0.74802786 -0.32015786
0000d0 d7 a1 80 3f 1c 58 e8 3e 98 79 bb 3c d3 fe cc be
       1.004939 0.45379722 0.022885129 -0.40038165
0000e0 55 e2 65 3f 7f e4 bd be ea 10 a8 bf 8d c1 1c 3f
       0.8979848 -0.3708839 -1.3130162 0.61232835
0000f0 ce 28 9e be 4c 1e 93 3e 68 11 26 bf a4 80 56 bf
       -0.30890507 0.28734052 -0.6487031 -0.8379004
000100 7f 98 14 3b c7 c1 b8 bd 46 a7 80 be 3e 9a 80 be
       0.0022673903 -0.09021335 -0.2512762 -0.25117677
000110 ce 81 2e be f6 c2 a6 bf 64 53 73 3f a4 56 b3 3e
       -0.17041704 -1.3028247 0.9504912 0.3502704
000120 cf 8c 0a 3e 94 25 72 be 94 e2 4e bf 7e ee 02 bf
       0.13530277 -0.23647147 -0.8081448 -0.5114516
000130 14 06 8a 3f 7a 76 14 bf 46 50 40 be 99 c9 76 be
       1.0783105 -0.5799328 -0.18780622 -0.24100341
000140 e9 34 43 be da 25 40 bf f5 30 25 3f e6 7d 94 3f
       -0.19063152 -0.75057757 0.6452783 1.1600921
000150 e9 91 be 3f 42 d8 d3 bd c4 d7 0a 3f 41 b0 84 bf
       1.4888278 -0.10343982 0.5423548 -1.0366288
000160 20 22 36 bf 05 b9 08 3e 33 7d 63 be 83 d9 26 bf
       -0.7114582 0.1335183 -0.22215728 -0.65175647
000170 39 57 40 bd 06 2d 27 3f 0d db 49 3f fd 19 0b 3d
       -0.046958182 0.65303075 0.7884987 0.03396033
000180 23 ee cc bd 7e 59 20 be f8 97 ef 3e 90 3d 27 3f
       -0.100063585 -0.15659139 0.4679563 0.6532831
000190 d6 f9 13 3f d0 c1 48 3f 30 a6 59 be ce 54 57 3e
       0.57803094 0.78420734 -0.21254802 0.21028444
0001a0 ab e2 8b be 89 12 3b bf 93 69 fb 3e fb bc 09 bf
       -0.2732137 -0.7307516 0.49103984 -0.53803986
0001b0 a4 83 33 bf 81 8d fb 3e 56 f5 9c bf 39 36 af be
       -0.7012274 0.49131396 -1.226237 -0.34221056
0001c0 25 8f de bd 88 df 51 bf d6 d0 21 3f cd c6 6b bf
       -0.108671464 -0.81981707 0.63209283 -0.9210022
0001d0 b0 08 57 3f 3d 1d 20 bf ab 1f 31 3f 24 91 15 be
       0.8399763 -0.62544614 0.69188946 -0.14606148
0001e0 74 4f 1c bc b9 28 7a be 35 e1 ff be 81 2b 55 bf
       -0.0095404275 -0.24429597 -0.49976507 -0.83269507
0001f0 a5 a9 6b 3f 8a b6 33 bf fe 1f 87 be 89 35 6f 3f
       0.9205573 -0.7020041 -0.26391596 0.93441063
000200 52 5d 3d bd d9 cf c4 be 42 15 07 3e ab 60 26 be
       -0.046231575 -0.38439825 0.13191703 -0.16247813
000210 86 12 04 bf c6 5e cd be 57 e0 1c bf bf 60 d5 3e
       -0.51590765 -0.4011137 -0.61279815 0.41675374
000220 d4 50 2b 3f 52 53 42 be f3 7a 7e bf 76 5a f4 be
       0.6692021 -0.18977097 -0.99406356 -0.47725266
000230 dc 03 0e bf 1c 65 ad be df d4 d7 3f 82 c9 c4 bd
       -0.5547464 -0.33866203 1.6861838 -0.09608747
000240 14 23 f6 3d 1a ed e9 bd ec 53 5d bf 7f f0 4f bf
       0.12018409 -0.11422177 -0.8645618 -0.8122634
000250 c1 f7 7c 3f ad ae ac be 9f 34 0b 3f 1c e4 18 bf
       0.9881554 -0.33727017 0.5437717 -0.5972307
000260 8c 2a 95 be f1 b8 93 3e 9e 23 45 be 2c d4 9c 3d
       -0.29134023 0.28852037 -0.19251868 0.07657656
000270 b1 aa 60 3e 9a 3c 6e 3e 2a 47 e0 be 70 4a 3b be
       0.21940114 0.23265305 -0.43804294 -0.18290114
000280 1f f1 ad 3d b4 29 29 be 3e 8b a3 3f 57 4e 90 3f
       0.08493256 -0.16519815 1.2776868 1.1273907
000290 8c a3 49 3f bf f5 66 bf 9e 50 91 bf f8 b5 be bf
       0.7876518 -0.9021873 -1.1352727 -1.4899282
0002a0 fb 88 55 bf 2d ee 14 bf 76 44 d3 be 22 b9 b1 be
       -0.8341214 -0.5817593 -0.4126317 -0.34711558
0002b0 cd 5d 31 be 47 70 1e bd b1 33 c3 be 84 45 d1 be
       -0.17320938 -0.038681295 -0.38125375 -0.4087335
0002c0 8d dd f3 be 18 2a e4 3e 2d 2a 83 bf 14 96 d7 3d
       -0.47629967 0.44563365 -1.0247246 0.10526672
0002d0 97 65 25 3e 54 2e 37 bd e0 e1 44 bf be ec f9 be
       0.16152035 -0.044721916 -0.7690716 -0.48813432
0002e0 d1 a5 b1 3e 7a 4c cd be eb 1a 95 be 74 8d 31 be
       0.3469682 -0.4009741 -0.291221 -0.17339116
0002f0 ee d1 dc 3e 04 79 3e be 52 84 5a bf ac c0 a0 3e
       0.43128914 -0.18600851 -0.85358155 0.31396997
000300 fd ed 32 be 5d fc 59 bf 14 1a 32 bf a9 a9 c4 3a
       -0.17473598 -0.851507 -0.6957104 0.0015004176
000310 09 fa 0f 3f 71 ac f9 be 64 b1 10 3f b1 71 5d 3e
       0.562409 -0.48764375 0.56520677 0.21625401
000320 91 05 38 3f bd a7 5a bd 23 0f 28 3f ee 81 ba be
       0.71883494 -0.053382624 0.65648097 -0.36427253
000330 3b d4 7a 3e 35 1f b5 3d 74 e9 a3 3f be 27 94 3e
       0.24495022 0.08843843 1.2805619 0.2893657
000340 aa 1f da 3e 78 bb 3e bf c2 6d 15 bf 05 1b 0e 3f
       0.42602283 -0.74504805 -0.583706 0.5550998
000350 d7 87 41 3f 3a 68 12 be 16 3c 2f be 98 c1 b9 3e
       0.755979 -0.14297572 -0.17112765 0.36280513
000360 68 38 8c bf bb 8f 02 3f 47 51 6a bf 6d 14 13 3e
       -1.0954714 0.51000565 -0.9153027 0.1436326
000370 06 25 d5 3e 77 a6 9e be b1 23 ab be 71 11 7c 3e
       0.4162981 -0.30986378 -0.33425668 0.24616028
000380 da 90 c0 3d 61 f6 b1 be 0a 6b fb 3f b0 c9 4e 3e
       0.09402628 -0.34758285 1.9642041 0.20194125
000390 c5 88 ef be a5 fb cf 3e f0 9c 8c bf 98 e7 ad 3e
       -0.46784034 0.40621677 -1.0985394 0.33965755
0003a0 18 d2 74 bd ab f6 08 bf 1a da 2a bf e2 ac d8 bd
       -0.059770674 -0.53501385 -0.66739047 -0.1057985
0003b0 22 70 94 be d6 c0 5b bf c6 c8 e8 3e a1 89 b7 3c
       -0.289918 -0.8584112 0.45465678 0.022404494
0003c0 5c 9b 57 be c5 4c cf 3e 22 9a 2c bf 49 f8 f1 3c
       -0.21055359 0.40488258 -0.6742269 0.029537337
0003d0 f3 81 23 3f bd a2 54 be 80 eb 44 3d b4 98 8c be
       0.6387016 -0.20765205 0.048076153 -0.27460253
0003e0 1e 41 a6 3f e9 6e 35 be a1 42 50 be c1 2d 28 bf
       1.2988622 -0.1771809 -0.20337917 -0.65694815
0003f0 6d 14 c9 be 83 00 ef 3e 56 21 44 bf 50 ff 58 3f
       -0.39273396 0.46680078 -0.76613367 0.84764576

fc1.bias f4 [16]
000000 76 95 8c be 0d 08 93 3e bc 4b 1c bf 1f 2d 5b bf
       -0.2745778 0.2871708 -0.6105306 -0.85615724
000010 08 4d 64 bf a6 d3 bd 3d 0e af a8 bf e3 ce 7f bd
       -0.8918004 0.09268884 -1.3178422 -0.062453162
000020 28 7e 7b bf 18 ca a2 bf 85 4b ba bf 9e 81 02 bf
       -0.98239374 -1.2717924 -1.4554297 -0.5097903
000030 c9 e2 2c bf 8a bc 9e bf 11 fd c3 be 25 8a f5 be
       -0.67533547 -1.2401288 -0.38279012 -0.47956958

fc2.weight f4 [16, 16]
000000 a8 cc 11 bf 50 45 50 3e 62 fe ae be 89 5c ed 3e
       -0.56952906 0.2033894 -0.34178454 0.4635966
000010 7f 01 27 c0 6b 4e 1f be 71 a0 79 3f b0 5d 19 3d
       -2.6094663 -0.15557258 0.9751044 0.037442863
000020 72 24 31 3f c4 20 f4 3e b6 13 eb bf 52 f6 01 3f
       0.69196236 0.47681248 -1.836539 0.5076648
000030 2a 75 b6 bf dc ac 47 bf 5c dd 89 3f 45 70 b1 bf
       -1.4254506 -0.7799814 1.0770679 -1.3862387
000040 9a 1c 03 bf 7a 3a e7 3e e9 4d 54 3f f3 d2 e1 be
       -0.5121552 0.45161802 0.8293138 -0.44106254
000050 62 b3 20 3f 2c d7 2f bf 84 67 10 3f 28 c6 95 3d
       0.62773716 -0.686877 0.5640795 0.07313186
000060 3a d8 af 3e 09 cf 6a 3d f0 f1 4f bf 54 8c 00 be
       0.34344655 0.05732635 -0.8122854 -0.12553531
000070 44 34 f7 3e 26 26 0f bf 46 a6 57 be 08 bb 8a 3e
       0.48282063 -0.55917585 -0.21059522 0.2709582
000080 0d 3e c9 be 2e 7b 3a 3f d6 73 55 3f f8 c1 9f bf
       -0.39305153 0.7284421 0.83379877 -1.248107
000090 5a 24 80 bf ec 82 bf bf e5 01 46 3e da 3d 7d bd
       -1.0011094 -1.4961829 0.1933666 -0.061826564
0000a0 7d 75 be 3d 73 dc e9 3e 24 5f cb 3e 87 b8 af 3d
       0.09299753 0.45676002 0.39721024 0.08580118
0000b0 2f f6 84 3c d7 67 c6 3e db 63 ca 3e 35 28 f6 3e
       0.01623067 0.387511 0.3952931 0.4807755
0000c0 fd 96 d2 bd 8c 85 3a 3f aa 75 01 bf 38 9f c5 3e
       -0.10282705 0.72860026 -0.50570166 0.38598037
0000d0 36 70 85 3c de 4b 0e 3f 55 02 b1 bf 09 11 55 3d
       0.016288858 0.55584514 -1.3828837 0.0520182
0000e0 ba 9e 95 3e 81 fb 11 bf d8 95 2d 3f 5b 64 bb bd
       0.2922266 -0.5702439 0.6780677 -0.09150001
0000f0 2e 1f ab bf 8b 09 6d be 78 91 19 c0 b6 5e 1c c0
       -1.336889 -0.23148172 -2.3995037 -2.4432807
000100 4d 61 3e bd 87 6d 1d bf 60 55 9c bf 56 0a 97 3f
       -0.046479512 -0.6149525 -1.2213554 1.1800029
000110 d7 3d 77 3e 8e ed 0d bf 16 5b 55 bf 11 c1 6e bf
       0.24144684 -0.55440605 -0.8334211 -0.93263346
000120 0d 9e 78 3d 42 f3 6b be 8e 50 6d 3f fa dc 88 bf
       0.060697604 -0.23042014 0.9270104 -1.0692437
000130 25 36 1c 3f bc c5 7b 3f 0c b6 eb be 07 51 bc be
       0.6102012 0.98348594 -0.46037328 -0.3678057
000140 b8 a8 fe bf 56 59 14 3f a4 fc f1 3e 9f 9d d0 3e
       -1.9895239 0.57948816 0.47263062 0.40745255
000150 5f 71 97 3e ed c6 96 3d 2e fd a2 bd 57 82 29 bf
       0.29578683 0.07362161 -0.079584464 -0.6621451
000160 4c 5e 09 3f 83 94 12 3e fd f1 d7 bf 69 85 13 3e
       0.5365951 0.14314465 -1.6870724 0.1440636
000170 89 db 07 c0 3c ba 49 c0 e2 db fe 3e 68 bd 28 3f
       -2.1227744 -3.1519918 0.49777132 0.6591401
000180 05 0f 88 bf 16 11 f0 3e 2d 23 e3 bf d9 31 2c bf
       -1.0629584 0.46888036 -1.774511 -0.6726356
000190 93 60 0b 3b 57 0f 22 3f c9 21 f5 be 0a 96 8e 3d
       0.002126728 0.63304657 -0.4787734 0.069622114
0001a0 5e f6 14 bf fb 9f 72 bf dc 2c f5 bd 2e e3 2f bf
       -0.58188426 -0.9477536 -0.11971447 -0.68706024
0001b0 7b fc 3b 3f 9a 39 7d bf 58 5d 54 3f af cf 9f bd
       0.7343213 -0.9891602 0.8295493 -0.078032844
0001c0 32 e8 bb bd e6 78 71 3f d1 b5 15 3f 7c 20 a2 3e
       -0.09175147 0.943251 0.58480555 0.3166541
0001d0 91 9a 1a be 7b 58 6d 3e 85 df e9 be d5 7d ea be
       -0.15098025 0.23178284 -0.45678344 -0.45799127
0001e0 5b b0 37 3f 44 11 e7 be c6 1c 7a 3e e2 19 1b bf
       0.7175347 -0.4513036 0.24425039 -0.6058637
0001f0 47 41 80 bc 9e 0c 1f bf 48 7c 61 bd 1f 35 44 bd
       -0.015656127 -0.6212863 -0.055050164 -0.047902223
000200 c1 7e ab bf 34 69 1c 3c 5c 50 18 be 1f bf 34 3f
       -1.3398057 0.009546567 -0.14874405 0.7060413
000210 f1 0c 17 3f bb 4c 3b bf 20 e5 00 bf 60 32 f1 be
       0.5900412 -0.73163956 -0.50349617 -0.47108746
000220 8d be a6 3e 4f 07 f6 bd bb cc be bd cb b9 86 3e
       0.32567254 -0.12013113 -0.09316393 0.26313624
000230 7f 76 3a bf 5c 6b 48 c0 0e a2 fc bf 7b 79 9c 3f
       -0.7283706 -3.1315527 -1.9736955 1.2224573
000240 1f 38 0e c0 ff 8c 45 3f eb d5 37 3e 81 42 45 bf
       -2.2221754 0.7716827 0.17952697 -0.770546
000250 21 67 ff 3c 3d fd ea 3e f3 3f 22 be f6 89 b7 bd
       0.031177105 0.4589633 -0.15844707 -0.08961861
000260 67 8f e9 bf 4c 85 4c 3e 51 fb 43 bf 6a b9 1e bc
       -1.8246888 0.19972724 -0.76555353 -0.009687761
000270 57 7e 10 3e af 8d 53 3e dc 4d 8c 3e 62 3d 02 3f
       0.14110695 0.20659517 0.27403152 0.5087491
000280 41 f0 04 bf 7e ba 04 3f a5 10 42 be 9f b2 88 3e
       -0.519291 0.51847064 -0.18951662 0.26698777
000290 cc ba a8 3f 25 1e 95 be 86 e9 85 3e 44 22 1e 3f
       1.3182006 -0.2912456 0.26154727 0.61771035
0002a0 9e fc 34 3f 88 1e 1d be fe ad e7 bf e7 cc b5 be
       0.70697963 -0.15343678 -1.8099973 -0.3550789
0002b0 7e e7 f5 be a4 cb 66 3e e2 33 e5 bd d4 b5 5b be
       -0.48028177 0.2253862 -0.111915365 -0.2145608
0002c0 07 3d be be 63 35 cf bf 8e ef ee be e9 ab 69 bf
       -0.37155935 -1.6188167 -0.4666714 -0.9127794
0002d0 9c 31 52 3f 1b 1f 02 c0 91 17 0c 3f e2 fc 1f 3f
       0.8210695 -2.0331485 0.5472346 0.62495244
0002e0 55 3d 9a 3f cd b2 64 bf c5 d6 ae be 86 e4 75 bc
       1.2049967 -0.8933533 -0.3414823 -0.0150080975
0002f0 1f 41 1f 3f cc 1d 65 bf d9 d3 19 3f b0 58 4a 3c
       0.6220874 -0.8949859 0.6008888 0.012350246
000300 35 27 90 3e 27 d1 06 3f 3f d5 be be 8d b6 25 bc
       0.28154913 0.5266289 -0.3727207 -0.010114324
000310 5c ce 2c 3f 78 fa 51 bf 1d 39 73 bf 96 f5 d5 bf
       0.6750238 -0.8202281 -0.9500902 -1.6715572
000320 e8 73 59 3f 7c f5 4b bf e1 50 95 be a0 5c 0b be
       0.84942484 -0.79671454 -0.29163268 -0.13609552
000330 ac 7d 36 3f 5e f8 c4 3e 90 10 0a 3e ed 5e 51 be
       0.7128551 0.3847074 0.1348288 -0.20446368
000340 74 35 eb be 95 17 68 3e 64 2b 35 3f 08 31 0c 3f
       -0.4593922 0.22665246 0.70769334 0.54762316
000350 76 97 a1 3e bd a3 8f bd bc 16 8d bd 9a 83 bd be
       0.31560868 -0.070136525 -0.06889102 -0.37014467
000360 5b 32 74 3e 99 cb 37 3e 03 07 06 c0 c2 ad 37 3f
       0.23847334 0.1794876 -2.094178 0.7174951
000370 ab ec 69 be 70 fd a9 bf 7e c9 61 3f 98 f4 d1 3e
       -0.22844188 -1.3280468 0.8819808 0.41006923
000380 95 2b c9 3d 7b 1a 9d 3e 2c 58 2c bd cf 9f 17 3f
       0.09822766 0.30684265 -0.042076275 0.59228224
000390 49 5e f5 3e eb 52 89 3c cd 8a cd 3e 47 ad 0f 3e
       0.47923496 0.016763171 0.4014496 0.14030944
0003a0 54 79 93 be 41 19 cb 3e 1d 8b 84 bf 83 5d 83 be
       -0.28803504 0.39667705 -1.0354954 -0.2565728
0003b0 ef 2c e3 be c0 4b 46 c0 a3 55 8c 3f 8f b0 79 bf
       -0.4437022 -3.0983734 1.0963634 -0.9753503
0003c0 9a a5 1d c0 e3 47 2e bf ab 13 0a 3f 72 1f 42 3e
       -2.4632325 -0.6807844 0.5393626 0.18957308
0003d0 79 f7 93 bf 8d da 0e bf ed ad 9e 3e b3 96 84 bf
       -1.1559898 -0.5580223 0.3099207 -1.035849
0003e0 68 e7 33 be 4d 16 72 be eb f2 a6 be aa 99 c1 bf
       -0.17568743 -0.2364132 -0.32607207 -1.512502
0003f0 2c 48 51 3f d9 f2 18 c0 d8 7b 21 3f da 5a 0b 3f
       0.8175075 -2.3898222 0.63079596 0.54435503

fc2.bias f4 [16]
000000 85 3c 9f be 9f c2 19 3f 34 f4 67 be 7e a3 98 be
       -0.3110086 0.60062593 -0.2265175 -0.29812235
000010 e9 86 f2 3d f5 36 15 be b5 33 5b 3f 7d 5c 08 c0
       0.11842138 -0.14571746 0.85625774 -2.130645
000020 e2 64 12 bf 0b 63 c4 bf 0b 28 94 3e 7f 2c 2e be
       -0.57185185 -1.5342726 0.289368 -0.17009161
000030 34 7a 1f 3f 2f ab 8d be 83 ac b5 bf 4b b8 43 bf
       0.6229584 -0.27669665 -1.4193271 -0.76453084

fc3.weight f4 [16, 16]
000000 17 7a 32 3f 6e 9b b9 3e b2 df c4 bf 8e f4 53 be
       0.69717544 0.36251396 -1.5380766 -0.20698759
000010 74 28 1f c0 ea 89 a8 3f 5a 09 96 be bd da a1 bf
       -2.486844 1.3167088 -0.2930401 -1.2644879
000020 ab 23 02 bf bb 84 c8 3e 3c e8 50 bd 49 88 00 c0
       -0.50835675 0.39163765 -0.051002726 -2.0083182
000030 9d cd fd bd c7 7b 86 3e d7 16 87 3d 76 97 4b c0
       -0.12392733 0.2626631 0.06596153 -3.1811194
000040 f1 4b bf be 7c b7 dd be cf f2 04 bf af d7 4d be
       -0.37362626 -0.4330405 -0.51932997 -0.20101808
000050 6b 26 41 be 3a a1 c7 3c c7 1b ab be e7 58 13 bd
       -0.18862312 0.024368871 -0.3341963 -0.035973456
000060 4c 1d 8f 3d 12 92 bf bc 58 61 99 be 4d 13 44 be
       0.0698801 -0.023385081 -0.2995708 -0.19147988
000070 32 34 07 be c4 4d f3 be fa a7 84 3b 9f 27 08 be
       -0.13203505 -0.47520268 0.0040483447 -0.13296364
000080 ab d4 ed 3d d4 c3 a1 be d3 f5 d2 be 1a 66 16 be
       0.11612829 -0.31594718 -0.41203174 -0.14687386
000090 25 35 82 be 73 49 c3 be e7 22 9c be 7d 8d 15 be
       -0.2543117 -0.38141975 -0.30495378 -0.14604755
0000a0 93 9e 79 bd 03 d4 a1 be 20 4c 28 bc 8d f7 a3 be
       -0.060942244 -0.31607065 -0.010272056 -0.32024804
0000b0 0e 16 b7 bd fb 75 59 be 84 b5 6a be 38 aa 79 be
       -0.089397535 -0.21236412 -0.22920805 -0.2438134
0000c0 42 1d 3b bf b7 fa 86 bf ea 71 e7 be 91 58 21 3f
       -0.7309152 -1.0545262 -0.45204097 0.63025767
0000d0 ca 52 9c bf 39 6b c8 3f eb 8e fa 3e bb 48 4f 3f
       -1.2212765 1.5657722 0.48937163 0.8097035
0000e0 e4 87 d9 be 5a 06 bb 3d 4c 13 64 3e e6 26 1b c0
       -0.4248649 0.09132071 0.22272986 -2.4242492
0000f0 71 b2 f9 bf ed af ad 3d b3 ab 82 3e d7 fa 6f 3f
       -1.9507581 0.08480821 0.2552162 0.93742126
000100 e0 08 b3 bf ab 75 11 bf f5 6e 94 be 51 dd 78 c0
       -1.3987083 -0.5682017 -0.28990903 -3.888508
000110 30 d3 b3 3e a4 a0 ff bf f7 71 e4 bf 9a 74 f1 be
       0.3512206 -1.9970899 -1.7847279 -0.47159272
000120 4d 6a 86 3e bc 09 04 c0 75 f7 48 bf 8f 60 17 bf
       0.26252976 -2.0630941 -0.7850259 -0.5913171
000130 c8 25 77 bf 02 2c 2f bf 34 ce 0c be a0 f2 6a bf
       -0.96542025 -0.68426526 -0.13750535 -0.91776466
000140 8f 8a 6d bf c1 86 c3 3c 6e a8 a9 bc 9a b8 70 3d
       -0.9278955 0.023867967 -0.020710196 0.0587698
000150 7a 49 f1 3e 4c 17 6d 3f 20 6c 41 3e 69 c0 ee 3d
       0.4712637 0.92613673 0.18888903 0.11657793
000160 66 fb a0 bf d2 f3 66 bf 9b 39 1c 3f 90 5e a7 bc
       -1.2576721 -0.9021579 0.610254 -0.020430833
000170 e3 61 49 3f 77 c4 59 bf bc 6d 04 c0 6b 85 07 3f
       0.7866499 -0.85065407 -2.0691977 0.52937955
000180 d1 7c 89 bd cc 7a 18 be d2 e9 a3 be 44 7c d1 be
       -0.0671326 -0.14890593 -0.32014328 -0.4091512
000190 0d f1 b0 be 4d 78 ce 3d 5f d8 8e be 93 04 1a 3d
       -0.34558907 0.10081539 -0.27899453 0.03760202
0001a0 c4 89 b2 bd 1b e7 cf 3b 26 90 d2 bd dc b4 1d be
       -0.08717683 0.0063446886 -0.102814004 -0.15401024
0001b0 1f d6 d0 bd 70 5e a9 be d3 34 29 3b 84 81 3b be
       -0.1019709 -0.33079863 0.002581884 -0.18311125
0001c0 49 1a 7c 3e 36 8b 07 3f d3 cd b5 3d 4e 95 66 be
       0.24619402 0.52946794 0.088771485 -0.22517893
0001d0 c7 b2 f6 3e 1c f2 31 bf 00 49 77 3f ea 97 01 c0
       0.4818327 -0.69510055 0.96595764 -2.024897
0001e0 e3 32 84 bf 7a ef d9 bd d8 f1 a9 bf 4e ca 4e be
       -1.0328029 -0.1064138 -1.327693 -0.2019436
0001f0 12 55 9c 3e 78 e0 14 bf 6d bd c9 3e 69 87 c0 3e
       0.30533653 -0.5815501 0.39402333 0.3760331
000200 28 a2 b2 3e df 0d 7a bc af 08 35 bf f8 3a 60 3f
       0.3488934 -0.015262096 -0.70716375 0.8758998
000210 b3 f4 bb bf 2b a2 89 3f 5f 5b 33 c0 9e 27 b6 3e
       -1.4684051 1.0752615 -2.8024518 0.355771
000220 bc f6 4c bd 0e 3e 24 bc e3 5b fc 3d 80 31 14 c0
       -0.05003999 -0.010024561 0.123222135 -2.3155212
000230 2b 0f 36 bf e7 4b d8 be fe e9 cc 3e 4e f4 82 3f
       -0.71116894 -0.4224541 0.40022272 1.0230806
000240 44 91 7f be 20 2d d8 be 13 97 21 be 2e e0 fe 3d
       -0.24957758 -0.42221928 -0.15780286 0.12445103
000250 f6 53 d3 bb 8f 25 1f bc f4 ff 3b bb 8e b3 3a bd
       -0.006449218 -0.0097135445 -0.0028686495 -0.045581393
000260 db f3 66 3d 56 89 3f be 20 e3 de bd e0 01 9e be
       0.056384902 -0.18704733 -0.108831644 -0.30860806
000270 08 62 80 be 54 ef 92 be cb 67 e9 bb 18 7d 08 be
       -0.25074792 -0.28698218 -0.007122969 -0.1332897
000280 b0 e4 bc 3f 3e ac bf be de 76 d8 3d 3a 0d 0f 3f
       1.475729 -0.37436098 0.10569547 0.5587956
000290 ea 0e c1 bf 78 a9 fc bb 53 4f 88 bf c6 e0 24 3c
       -1.5082676 -0.007710632 -1.0649208 0.010063356
0002a0 46 3d 37 3f ef 01 86 3e a3 de 37 3f 95 d6 92 bf
       0.7157787 0.2617335 0.7182409 -1.1471735
0002b0 2b 14 bc be 53 4a c3 be 83 97 79 3e b4 69 89 3f
       -0.36734137 -0.38142642 0.24374203 1.0735383
0002c0 9b 51 f8 be 3e 14 30 be 88 7a 35 be 38 d9 07 be
       -0.4849976 -0.17195222 -0.17722523 -0.13266456
0002d0 bf 97 d6 bd 6d 3b bd be e1 cd 84 be ac 72 db be
       -0.10478162 -0.369594 -0.25938323 -0.42860925
0002e0 50 e9 79 be 5e fa 7b be ba 7e e6 bd b7 e7 84 bd
       -0.24405408 -0.24607226 -0.1125464 -0.064895086
0002f0 51 cb 26 3c 1e a6 8d be eb ac 2d 3b 64 81 bb be
       0.01018031 -0.276658 0.0026500772 -0.36622155
000300 08 a6 d2 3e 04 ec 6e 3e 45 a3 a5 bd 3e 91 0d 3f
       0.41142297 0.2333222 -0.08087782 0.55299747
000310 b5 bb b3 be 0e 0a 32 3f 45 ef b3 3d e5 c8 99 3e
       -0.35104147 0.6954659 0.087858714 0.30036083
000320 02 8f c3 3e 76 1e 1d c0 ed 45 da 3e 61 60 b6 bf
       0.38195044 -2.4549842 0.42631474 -1.4248163
000330 ea d1 1e 3f e4 26 87 3b 2d c4 60 be 37 de 9c 3d
       0.62039053 0.004124509 -0.21949835 0.076595716
000340 65 af b8 3e a6 f4 01 bf f9 61 40 bf df 18 e1 be
       0.36071315 -0.5076393 -0.75149494 -0.43964288
000350 4a 5a 64 bf 4f 35 2f 3f fe b9 95 bf 6b 2e 6d 3e
       -0.8920027 0.6844072 -1.1697385 0.23162238
000360 b7 99 33 bf f3 5e e8 3e 97 23 65 be e2 07 b6 bd
       -0.70156425 0.4538494 -0.22376858 -0.08888222
000370 8e 1c 8b be 0e 9c 9f be 0f 07 cf bf a1 af 87 3f
       -0.27170223 -0.31173748 -1.6174029 1.0600473
000380 ab a8 89 3f 6e 85 60 bf f6 66 c0 bf 28 84 ec bf
       1.0754598 -0.877036 -1.5031421 -1.8477831
000390 98 04 0e bd a3 4c 93 3f a0 50 44 bc 52 07 93 bf
       -0.03467235 1.1507763 -0.011982113 -1.1486609
0003a0 c0 86 cc bf 2a bc 70 bf 1e 3a 85 3e e0 71 83 be
       -1.5978622 -0.94037116 0.26020902 -0.25672817
0003b0 f5 10 1f 3e 68 1d 52 bf 7d df f2 be ac 59 b2 bd
       0.15533812 -0.8207612 -0.47436133 -0.0870851
0003c0 34 be 8f 3f f6 47 c1 be 06 a0 77 bd 34 9a 24 3f
       1.122992 -0.37750214 -0.060455345 0.64297795
0003d0 bb 3d fd be 22 bc c0 bf 99 a6 b8 3d 82 2b 50 c0
       -0.4946116 -1.5057414 0.09016151 -3.2526555
0003e0 01 e6 56 3e cf 0e 4b bf 8e 1e 8e 3e 3a ca 45 bf
       0.20986177 -0.7931947 0.27757686 -0.772617
0003f0 10 07 14 3f f7 fa 14 bf 9d 27 0b c0 64 c4 13 3f
       0.57823277 -0.5819544 -2.1742928 0.57721543

fc3.bias f4 [16]
000000 31 fc e4 bd 82 ab fc be a1 c8 e6 be 43 90 4a bf
       -0.11180914 -0.493496 -0.45074943 -0.79126376
000010 28 6e 94 3f 92 19 6c bd 03 5f 6e be aa b1 87 be
       1.1596117 -0.057641573 -0.23278432 -0.26502734
000020 63 2e df bf df ad 21 bf 2e a8 e4 3e b1 da 79 be
       -1.7436031 -0.6315593 0.4465956 -0.2439983
000030 22 1c a9 bf 5f 72 79 3f df 86 27 3f 84 e0 1a bf
       -1.321171 0.9744014 0.6544017 -0.60498834

fc4.weight f4 [2, 16]
000000 d5 e0 a0 be eb ac 00 3e 53 bc 9b 3e a4 e0 d9 be
       -0.31421533 0.12565963 0.30417117 -0.425542
000010 c1 45 b6 be 38 69 47 3e a6 65 1d bd 9f c7 d1 3d
       -0.35600093 0.19473732 -0.038427018 0.10243153
000020 99 fb 0b c0 e2 94 94 3e 30 07 6b be 16 03 55 bd
       -2.1872313 0.2901984 -0.2295196 -0.052004896
000030 64 b4 bf bd ee 9e 21 3f 77 75 e3 3e 62 c3 c7 3e
       -0.09360579 0.6313313 0.44425556 0.39016253
000040 a3 80 f6 3e b9 c4 d9 3a 1b fe 8e 3d d0 d0 44 3e
       0.48145017 0.0016614414 0.069820605 0.1922028
000050 ab fe 97 3e 5a 88 25 be 6e 72 e4 bd 99 72 4c be
       0.29686484 -0.16165295 -0.11154638 -0.1996559
000060 51 f0 f5 3f 81 02 94 bc bc 1f 6a 3e 11 e1 d1 3c
       1.9213964 -0.0180676 0.22863668 0.025620015
000070 4f 7e 39 3e 24 34 f8 be 88 52 b7 be 0c c1 b9 be
       0.18114589 -0.4847728 -0.35805154 -0.36280096

fc4.bias f4 [2]
000000 78 d8 60 3e 07 ca 02 3e
       0.21957576 0.1277238
