data/results/1731777001.pth (torch, 7588 bytes, 8 tensors)

fc1.weight f4 [16, 32]
-0.13712753 0.15248458 -2.6264977 -0.34845656 -0.18512154 -0.11548106 0.13744208 0.12691462
-0.47743738 -0.11167824 -0.08523355 0.16701667 -0.7446956 -0.592653 -0.44382712 0.15304308
-0.093738265 0.4989749 -0.14493063 -0.7758516 0.44032055 -0.08529185 -0.9262413 0.2637186
0.007063022 -0.039652374 0.47046265 0.3494322 -0.35088184 -0.52960956 -0.19458067 -0.4765848
-0.26148012 0.6531093 -2.6931243 0.013743605 -0.580692 0.20475402 -0.11328343 0.03114268
0.68741685 -0.07543117 0.28054947 -0.26231036 0.27963474 0.008807297 -0.40849987 -0.776114
-0.014654544 -0.15215607 -0.07068179 0.21128352 0.42484167 -0.21919104 -0.5481626 0.52298415
0.05641581 -0.05358932 0.14651859 0.31564057 -0.4771968 -0.07484662 0.1456004 0.1754913
0.27203003 -0.28598806 0.39433756 0.2620795 0.69493705 0.1181631 0.542984 0.16675194
-0.10516198 -0.38109756 0.15206654 -0.15365584 0.24482526 -0.4097329 0.08587581 0.702784
0.507435 0.414376 0.4617274 -0.042153046 0.57542986 0.027769875 -0.6176635 0.06313296
0.27338222 0.15999492 -0.06676888 -0.050378244 -0.07945681 -0.66785985 0.019857613 0.9586615
-0.050896104 0.47756153 0.49200815 -0.38191932 0.58740544 -0.67753637 -0.23448141 0.05057575
-0.9525084 -0.04461396 0.43857414 -0.5548856 -0.5282863 0.1251835 0.61005265 0.5042728
0.46753967 0.12791532 -0.25999868 -0.45265278 0.54554516 -0.6239702 0.04492143 0.41665375
0.51811826 0.42157784 0.08148695 0.21986799 0.059596185 0.31482083 0.18441081 -1.0127085
-0.178655 -0.13443786 -2.5583827 -0.50920236 0.42388704 0.5987815 -0.28657684 0.6865308
0.37015852 -0.077844776 0.8336614 -1.3039048 0.5545296 0.07215996 -0.13624325 0.48354912
0.95713264 -0.52215815 -0.22633953 0.42266405 -0.5464705 0.44105583 0.17134774 0.6590349
0.72213596 0.5592577 0.5514939 -0.6360067 0.2508184 0.7222077 0.30853856 -0.038244613
-0.06791851 0.3338596 -0.16670008 -0.22802868 -1.0823206 0.56455374 -1.0391409 0.70695955
-0.2480741 0.18537515 0.6317136 -0.51721156 -0.046116095 -0.028867302 -0.2945272 -0.4252614
0.27248412 -0.86697847 -0.2468522 -0.41677758 -0.18562773 0.42442495 -1.0081736 0.70950186
0.59332615 0.55515635 0.5142078 -0.7849032 -0.22831824 0.5330226 0.41791177 0.77318764
0.044631075 -0.32554474 0.7776059 -1.7376496 0.51639175 0.7998848 -1.0025237 0.26816523
-0.26699534 0.23384567 0.12318279 -0.46170902 0.6518964 -0.2713654 -0.6333023 -0.50216246
0.16401528 0.11425206 -0.5664676 -0.23404059 0.49820903 -0.022447795 -0.089159586 0.09216782
0.29756424 0.23593473 -0.044282038 -0.061595358 0.103558354 -0.37742114 0.090280384 0.0053369263
-0.07514699 0.4166288 -0.9482563 -0.010693181 0.60795945 -0.26556447 -0.28946814 0.32379606
0.007327103 -0.16391826 0.26484892 0.17902218 -0.46366176 -0.06733602 -0.17401786 0.6811296
0.46719575 -0.9901485 0.06787141 0.17984237 -0.4345923 1.1339731 -0.3505774 0.18065014
0.30492643 0.4580479 0.92111844 0.44874138 0.12816098 -0.57991713 0.29011688 -0.39362147
00000000: 296b 0cbe eb24 1c3e 8a18 28c0 e668 b2be
00000010: 8090 3dbe 5681 ecbd 9ebd 0c3e e8f5 013e
00000020: ac72 f4be 90b7 e4bd ed8e aebd 6b06 2b3e
00000030: 5fa4 3ebf 1bb8 17bf 4f3d e3be 53b7 1c3e
00000040: d9f9 bfbd a379 ff3e b268 14be 369e 46bf
00000050: b271 e13e 7ead aebd 261e 6dbf 2006 873e
00000060: ec70 e73b 876a 22bd 7be0 f03e c7e8 b23e
00000070: c9a6 b3be 7e94 07bf 2840 47be ec02 f4be
00000080: b9e0 85be 2c32 273f 265c 2cc0 dc2c 613c
00000090: 3ba8 14bf 0aab 513e 2501 e8bd ef1e ff3c
000000a0: 8dfa 2f3f a87b 9abd 2ea4 8f3e 8b4d 86be
000000b0: 492c 8f3e 7b4c 103c e526 d1be 68af 46bf
000000c0: 9d19 70bc cdce 1bbe 9dc1 90bd b55a 583e
000000d0: d984 d93e 9e73 60be 6254 0cbf 4ae2 053f
000000e0: 4414 673d 7a80 5bbd f808 163e a49b a13e
000000f0: 2453 f4be 2f49 99bd 4518 153e feb3 333e
00000100: 8547 8b3e 076d 92be 9de6 c93e 492f 863e
00000110: 65e7 313f 7fff f13d 0001 0b3f 05c1 2a3e
00000120: 2a5f d7bd 381f c3be 55b7 1b3e f557 1dbe
00000130: 79b3 7a3e 83c8 d1be a8df af3d a7e9 333f
00000140: 43e7 013f 1729 d43e 8967 ec3e aca8 2cbd
00000150: 5f4f 133f a67d e33c 321f 1ebf da4b 813d
00000160: c1f8 8b3e b5d5 233e 1fbe 88bd 6b59 4ebd
00000170: 41ba a2bd ddf8 2abf 6fac a23c d76a 753f
00000180: 6f78 50bd f282 f43e 7ee8 fb3e ee8a c3be
00000190: 3460 163f 0673 2dbf e51b 70be 8528 4f3d
000001a0: 97d7 73bf 21bd 36bd ca8c e03e fc0c 0ebf
000001b0: c53d 07bf 1a30 003e 692c 1c3f 0618 013f
000001c0: 5c61 ef3e 3cfc 023e 8c1e 85be 1bc2 e7be
000001d0: d9a8 0b3f 83bc 1fbf 89ff 373d a453 d53e
000001e0: 66a3 043f 0dd9 d73e a1e2 a63d 1325 613e
000001f0: 211b 743d 3230 a13e 30d6 3c3e 6fa0 81bf
00000200: 56f1 36be 14aa 09be 8bbc 23c0 165b 02bf
00000210: b907 d93e bf49 193f 33ba 92be 7cc0 2f3f
00000220: 6b85 bd3e 156d 9fbd d56a 553f 5ae6 a6bf
00000230: a7f5 0d3f 9ac8 933d 5a83 0bbe c093 f73e
00000240: a506 753f 28ac 05bf 8dc5 67be 6c67 d83e
00000250: 7ee5 0bbf 12d2 e13e c875 2f3e 83b6 283f
00000260: e7dd 383f 832b 0f3f b42e 0d3f 56d1 22bf
00000270: 456b 803e 9be2 383f c4f8 9d3e 62a6 1cbd
00000280: dc18 8bbd a5ef aa3e 6db3 2abe 5a80 69be
00000290: 7b89 8abf 9886 103f 9202 85bf 4dfb 343f
000002a0: 2307 7ebe fcd2 3d3e fcb7 213f fa67 04bf
000002b0: 3be4 3cbd 1f7b ecbc 45cc 96be ddbb d9be
000002c0: 0a83 8b3e 4df2 5dbf d3c6 7cbe df63 d5be
000002d0: 3215 3ebe 3a4e d93e d50b 81bf eaa1 353f
000002e0: 39e4 173f ba1e 0e3f 1fa3 033f 6bef 48bf
000002f0: 42cc 69be 2b74 083f 88f8 d53e a0ef 453f
00000300: 13cf 363d cdad a6be 2e11 473f 4d6b debf
00000310: 4032 043f 40c5 4c3f b252 80bf f44c 893e
00000320: 9db3 88be 3d75 6f3e 4247 fc3d 2065 ecbe
00000330: afe2 263f 68f0 8abe 1920 22bf b88d 00bf
00000340: 9ff3 273e fcfc e93d 0504 11bf 56a8 6fbe
00000350: 4115 ff3e 70e4 b7bc 4d99 b6bd 7bc2 bc3d
00000360: 575a 983e e098 713e 1561 35bd 6a4b 7cbd
00000370: 6716 d43d 583d c1be ece4 b83d 62e1 ae3b
00000380: aae6 99bd 5f50 d53e edc0 72bf 7432 2fbc
00000390: 3ba3 1b3f 11f8 87be 2b35 94be 99c8 a53e
000003a0: 3218 f03b 30da 27be 479a 873e 9751 373e
000003b0: 1365 edbe 78e7 89bd bd31 32be 825e 2e3f
000003c0: 4834 ef3e 5f7a 7dbf 2a00 8b3d 9928 383e
000003d0: e282 debe 0826 913f e27e b3be 5afc 383e
000003e0: 511f 9c3e 4185 ea3e 6bce 6b3f 6ec1 e53e
000003f0: a23c 033e 7375 14bf 338a 943e c188 c9be

fc1.bias f4 [16]
-0.15325701 -0.22930755 -0.12860349 -0.2727377 -0.54017496 -0.55546516 0.024089292 -0.47744235
-0.40279207 -0.3800382 -0.5172508 -0.17094235 0.14280683 -0.4562406 -0.713614 -0.42962652
00000000: 68ef 1cbe 99cf 6abe a2b0 03be 47a4 8bbe
00000010: e848 0abf f732 0ebf e856 c53c 5373 f4be
00000020: c33a cebe 5e94 c2be 8c6a 04bf 830b 2fbe
00000030: f43b 123e 5e98 e9be 68af 36bf 02f8 dbbe

fc2.weight f4 [16, 16]
0.555928 0.009387043 -0.43630284 0.26348457 -1.1291795 1.355024 0.20427893 0.5732244
-0.14505081 -1.6481531 0.2840839 0.096199796 -0.41872394 -0.97349113 -0.32828075 -0.94776946
0.91769904 -0.030279484 -0.19869286 -0.26920566 -0.3496421 0.7259097 0.3485604 0.1756639
0.58383054 -0.032644995 0.24857268 0.28808308 0.28346425 -0.30661598 0.41175944 0.6657171
-0.22966014 0.31802115 -1.1967195 0.65168625 -1.6045272 0.59431726 -0.50000507 -0.48275176
-0.31771985 -0.26707894 0.61445683 0.43459922 0.0022267876 -0.056526743 0.47118467 0.24778593
-0.21910317 -0.07401554 -0.095877826 -0.20142229 -0.2373805 -0.12280947 -0.08691533 -0.21977481
-0.04824634 -0.25878763 -0.16137777 -0.13768658 -0.09175049 0.012859538 -0.15804924 -0.2597338
-0.0075870752 -0.061504748 -0.32701036 0.6642342 0.2372123 1.1571803 0.09864257 0.1395495
0.2982788 -1.3665015 -0.48463812 -1.3914641 -0.18426748 -0.052594677 -0.30094352 0.19590509
0.06309987 0.10493118 0.3173576 0.6388294 0.6660857 -0.07417542 -0.11840004 0.020855118
-0.0014389332 -1.7259624 1.0266538 -0.6716789 -1.2025813 0.39814433 -0.3891515 0.32189122
-0.12084876 -0.21728563 -0.27954343 0.15209705 -0.550616 -0.6857204 -0.3377567 0.5225705
-0.7821954 0.53083897 0.122623235 0.7275722 0.1704289 0.012699027 -0.84801215 1.1067518
-1.0553857 0.45757124 -0.44722548 0.42151943 -0.088672265 -0.37703076 -0.53159434 -0.16950583
0.9251738 0.72564065 0.17166194 -0.35422254 0.07581081 0.26422742 0.4015485 0.2682897
-0.1796523 -0.015600819 -0.9168867 -0.39186248 -0.33264303 0.2964956 -1.4332833 -1.763097
-0.22374807 -1.2895151 -0.22190046 -1.3444732 0.02531539 -1.497122 0.37286326 0.07977935
-1.7868068 0.53492385 0.22561365 0.65547854 -0.8853227 -1.4961524 -0.7046036 0.3001639
-0.26065493 0.11809351 0.2132389 -0.57716095 -0.49570227 0.21851774 0.31700602 0.15092641
-0.21110666 -0.9645769 -0.44853228 -1.571845 -2.1752276 1.169256 0.09130125 0.5821492
0.2914549 -0.6206025 -0.59342617 -1.0779446 0.32553864 -0.27487695 -0.08401616 -0.39401284
0.18383323 0.45156717 -0.099677026 -0.07445695 -0.5557633 0.80354357 -0.27004862 0.9150522
0.3765922 -0.07779091 0.66118383 0.6445131 -1.0740061 -0.8345271 -0.106499314 0.0051494017
0.43690595 -0.49658987 -0.71175224 0.18321954 0.04935311 1.0914727 -0.084565975 0.9310568
1.0330994 -0.38685217 0.90945303 0.44701773 -0.52008235 0.45054027 0.32568598 0.2788945
0.116395414 0.82071996 -0.3657647 0.010282514 0.5656562 -0.5702261 -1.4049195 0.43076283
0.5951044 0.08733078 0.083329596 -0.14080909 -0.58509624 0.6343698 0.15129022 0.8287132
-0.2575347 0.11120959 0.14244007 -0.2986619 0.82887256 -0.7081165 -0.41807187 0.1406769
0.9212963 0.39353225 0.15682425 0.3732836 -0.4638706 1.1922575 0.17713039 0.8595429
-0.073732994 0.870694 -0.6441878 0.4410851 0.6779769 -0.1408728 0.049852304 0.3569686
0.541995 -0.39252165 0.041577276 -0.023621982 -0.3289724 -0.2310945 -0.30063933 0.11220482
00000000: 4c51 0e3f 1dcc 193c 1663 dfbe 73e7 863e
00000010: f488 90bf 6d71 ad3f 7f2e 513e d6be 123f
00000020: 3388 14be aef6 d2bf 7273 913e 6604 c53d
00000030: fc62 d6be b736 79bf 6a14 a8be 05a1 72bf
00000040: 53ee 6a3f ae0c f8bc 2476 4bbe 53d5 89be
00000050: 4a04 b3be 38d5 393f 8276 b23e 3de1 333e
00000060: eb75 153f c2b6 05bd d689 7e3e a07f 933e
00000070: 3a22 913e c5fc 9cbe 22d2 d23e 706c 2a3f
00000080: 072c 6bbe abd3 a23e 1b2e 99bf e9d4 263f
00000090: 2661 cdbf 2d25 183f 5500 00bf 3d2b f7be
000000a0: 2dac a2be 92be 88be 0b4d 1d3f ca83 de3e
000000b0: 4cef 113b 9688 67bd 1e3f f13e 98bb 7d3e
000000c0: 955c 60be 7695 97bd 985b c4bd a541 4ebe
000000d0: e013 73be 8883 fbbd aa00 b2bd a60c 61be
000000e0: f49d 45bd d07f 84be 3740 25be b6fd 0cbe
000000f0: aee7 bbbd d0b0 523c a9d7 21be d4fb 84be
00000100: 009d f8bb 67ec 7bbd e76d a7be 410b 2a3f
00000110: c8e7 723e 7c1e 943f 1e05 ca3d 10e6 0e3e
00000120: 00b8 983e 85e9 aebf 7d22 f8be 7f1b b2bf
00000130: 9db0 3cbe 846d 57bd 4515 9abe 589b 483e
00000140: 813a 813d 29e6 d63d b27c a23e 538a 233f
00000150: 9884 2a3f 48e9 97bd b87b f2bd 5ad8 aa3c
00000160: 969a bcba 56ec dcbf 6469 833f 26f3 2bbf
00000170: 2fee 99bf 93d9 cb3e de3e c7be edce a43e
00000180: 8e7f f7bd 2080 5ebe 5120 8fbe 54bf 1b3e
00000190: 2cf5 0cbf 5f8b 2fbf 72ee acbe 2ec7 053f
000001a0: f53d 48bf 10e5 073f e421 fb3d 2c42 3a3f
000001b0: ea84 2e3e 940f 503c 5317 59bf 0baa 8d3f
000001c0: e116 87bf c746 ea3e bdfa e4be 65d1 d73e
000001d0: ce99 b5bd 2d0a c1be 9116 08bf f092 2dbe
000001e0: 31d8 6c3f 96c3 393f 26c8 2f3e a85c b5be
000001f0: b342 9b3d d148 873e c497 cd3e 445d 893e
00000200: c6f6 37be 949a 7fbc 16b9 6abf 33a2 c8be
00000210: 3050 aabe 45ce 973e d475 b7bf 2aad e1bf
00000220: 371e 65be d50e a5bf e039 63be b317 acbf
00000230: 3962 cf3c b2a1 bfbf efe7 be3e 5b63 a33d
00000240: 16b6 e4bf c5f0 083f 4407 673e 71cd 273f
00000250: 82a4 62bf ec81 bfbf e760 34bf 15af 993e
00000260: 9074 85be 03db f13d 4c5b 5a3e d2c0 13bf
00000270: b0cc fdbe 1dc3 5f3e 9d4e a23e 748c 1a3e
00000280: 582c 58be 83ee 76bf 06a6 e5be 3832 c9bf
00000290: ee36 0bc0 2eaa 953f 26fc ba3d bb07 153f
000002a0: 9439 953e cedf 1ebf c7ea 17bf 17fa 89bf
000002b0: 00ad a63e acbc 8cbe aa10 acbd 0dbc c9be
000002c0: c73e 3c3e d033 e73e 7823 ccbd e37c 98bd
000002d0: 8146 0ebf 08b5 4d3f d043 8abe dc40 6a3f
000002e0: b1d0 c03e d750 9fbd 5843 293f cffe 243f
000002f0: 0879 89bf 91a3 55bf 501c dabd 50bc a83b
00000300: 23b2 df3e 0741 febe 6535 36bf e79d 3b3e
00000310: 7d26 4a3d 61b5 8b3f ed30 adbd bd59 6e3f
00000320: 9a3c 843f 7d11 c6be ead1 683f 82df e43e
00000330: 1e24 05bf 37ad e63e 50c0 a63e 43cb 8e3e
00000340: b860 ee3d b41a 523f 8345 bbbe fd77 283c
00000350: d8ce 103f 56fa 11bf 67d4 b3bf f28c dc3e
00000360: c358 183f 7bda b23d b5a8 aa3d 4230 10be
00000370: dec8 15bf 0f66 223f d3eb 1a3e 8c26 543f
00000380: 97db 83be dbc1 e33d cfdb 113e 36ea 98be
00000390: fe30 543f 1f47 35bf 840d d6be 9b0d 103e
000003a0: 13da 6b3f 0f7d c93e 8996 203e 071f bf3e
000003b0: 7380 edbe e59b 983f ab61 353e 010b 5c3f
000003c0: 5301 97bd cde5 5e3f 7ee9 24bf e8d5 e13e
000003d0: e58f 2d3f f640 10be ee31 4c3d 97c4 b63e
000003e0: 2fc0 0a3f 99f8 c8be ef4c 2a3d e382 c1bc
000003f0: 126f a8be 09a4 6cbe 66ed 99be a4cb e53d

fc2.bias f4 [16]
0.39025527 -0.6469564 0.20900095 -0.14565678 0.18856516 -0.68373734 -0.27969292 -0.34686074
0.62810844 0.4841658 0.3528652 -0.28418395 -0.67643243 -0.42326507 -0.31662285 0.7871348
00000000: 8acf c73e ef9e 25bf 5804 563e 0d27 15be
00000010: 3a17 413e 6909 2fbf e933 8fbe bb97 b1be
00000020: b7cb 203f 94e4 f73e bfaa b43e 8f80 91be
00000030: ad2a 2dbf 33b6 d8be 641c a2be ab81 493f

fc3.weight f4 [16, 16]
-0.21811546 -0.026895046 0.13964757 -0.14098452 0.123554975 0.48540315 -0.39002192 -0.09723783
0.76979184 0.096920535 0.08069122 -0.07240089 0.012950193 0.25462714 -0.011197334 -0.19534704
-0.71261203 -0.92625296 -0.84152824 -0.07351787 -0.43735573 -0.3849543 0.16705611 -0.24228738
-0.118627585 -0.42938098 -0.7061367 -0.05552842 0.87984073 0.54223394 -0.2288519 -0.17328338
0.05054364 0.32515332 -0.17069297 -0.19111203 0.48211792 0.6048701 -0.4210687 -0.30025542
1.22585 0.5108799 0.4085126 0.48462674 0.38048217 0.7054344 0.39715478 -0.06902928
0.206482 0.16314387 -0.041164886 0.0816654 0.39617893 0.8134752 -0.14145444 0.11360538
1.527119 0.36339194 0.6508769 0.18796323 0.75185597 0.75691074 0.43886012 0.26651037
0.66066647 0.035808545 0.21511406 -0.040940527 0.26304978 1.7895997 -0.08598502 -0.31358445
-1.4451656 -1.669444 -0.13420217 0.4269541 0.74761987 -0.016619932 -0.18801129 -0.19670613
-0.016504062 -0.11075973 -0.050952032 0.0012900226 0.06785042 0.5330994 -0.19894823 -0.25852212
0.73916674 -0.034524694 0.4665757 0.097778134 0.09358834 0.1732616 0.017334597 -0.10132021
-0.2334008 -0.24808869 -0.004000288 -0.08819747 -0.03843784 -0.09297833 0.025934778 -0.243518
0.12075978 -0.1313515 -0.19226146 -0.16594927 -0.13835993 -0.13348024 -0.046979476 0.05810998
-0.3856032 0.16656603 -1.6693227 -0.22186129 0.3593618 0.939275 0.36167178 -0.7123635
-0.6470434 -1.1486 0.5983 0.52849066 0.24135488 -0.79168665 -1.8880626 -0.10000216
-0.8252428 0.100621596 0.07854309 0.26816583 -0.16176464 0.6122314 -0.3588632 0.3732789
1.5097358 0.85192937 -0.95613515 -0.8007952 -0.3507386 0.76647 0.0052550156 -0.0699547
0.43062106 -0.84943277 0.02267871 -0.14496325 -0.1776784 0.040507957 0.10799495 0.61276823
-0.08804411 -1.2092228 0.9973279 -1.3080037 0.3556986 -0.5584832 0.013674207 -0.4724296
-1.1641715 0.44441146 -0.5710053 0.047581553 0.30753958 -1.0740412 -1.7139077 -0.42343268
-0.78325087 0.31023264 -0.04663773 -0.3540957 0.54671395 -0.17042407 0.52215296 -0.15445457
0.66852635 0.25691187 -1.1808445 0.2105119 -0.8435362 0.09190071 -0.30456018 0.8367543
-0.08320634 0.29440594 0.69532293 -0.64808303 -0.34465504 0.6641696 -0.021484923 -1.4994612
0.055808455 -0.50384605 0.16047534 -0.06322932 -0.6683051 -0.25392008 -0.25326702 0.5056936
0.7793049 -1.2075851 -0.4068664 0.030341165 0.03640619 0.014400279 0.15720415 -0.15154894
0.22331794 0.45294002 0.24688882 -0.09273239 0.28066438 0.9275042 -0.19218564 -0.031327087
1.4686818 0.39899215 0.5900161 0.4288904 0.8473332 0.49425536 0.63181 0.43459442
0.011742695 -0.16653126 -0.0529006 -0.2791983 0.0948837 -0.20828898 -0.08452272 0.092002295
-0.1094879 -0.2309165 0.019997247 0.073830344 -0.20137143 0.06033156 -0.30477405 -0.18445097
-0.27452126 0.20361474 -0.01057097 -0.16131946 0.42630157 0.89642096 -0.89960617 -0.18216021
1.160198 0.29697627 -0.049468365 0.13464223 0.5815462 0.47306892 0.06958044 -0.10761328
00000000: a959 5fbe 0053 dcbc c6ff 0e3e 3f5e 10be
00000010: 640a fd3d c386 f83e f4b0 c7be a124 c7bd
00000020: 1411 453f 467e c63d 7041 a53d eb46 94bd
00000030: 0c2d 543c 7d5e 823e 0675 37bc 0e09 48be
00000040: be6d 36bf ea1e 6dbf 656e 57bf 8990 96bd
00000050: 17ed dfbe bb18 c5be c210 2b3e 2f1a 78be
00000060: 05f3 f2bd d3d7 dbbe 60c5 34bf c571 63bd
00000070: 3e3d 613f d8cf 0a3f 2758 6abe 3371 31be
00000080: d906 4f3d 7f7a a63e 23ca 2ebe dfb2 43be
00000090: 29d8 f63e c4d8 1a3f 5196 d7be 14bb 99be
000000a0: a7e8 9c3f 06c9 023f 9028 d13e ff20 f83e
000000b0: 8fce c23e 5997 343f df57 cb3e 395f 8dbd
000000c0: 0470 533e 300f 273e 839c 28bd 3040 a73d
000000d0: f7d7 ca3e e93f 503f 6fd9 10be f0a9 e83d
000000e0: a378 c33f 820e ba3e de9f 263f 6f79 403e
000000f0: a279 403f e7c4 413f 46b2 e03e 0c74 883e
00000100: 7021 293f fbab 123d dc46 5c3e 41b1 27bd
00000110: 76ae 863e 9a11 e53f ea18 b0bd 248e a0be
00000120: 30fb b8bf 57b0 d5bf 4b6c 09be ba99 da3e
00000130: 0464 3f3f 8626 88bc 0886 40be 556d 49be
00000140: 8733 87bc ffd5 e2bd 14b3 50bd fa15 a93a
00000150: 29f5 8a3d 3479 083f 16b9 4bbe 035d 84be
00000160: 083a 3d3f c469 0dbd 03e3 ee3e e73f c83d
00000170: 3eab bf3d 7d6b 313e 4901 8e3c f880 cfbd
00000180: 9f00 6fbe f60a 7ebe d914 83bb e0a0 b4bd
00000190: ff70 1dbd 6c6b bebd 2c75 d43c c85c 79be
000001a0: e750 f73d 0281 06be 30e0 44be 9bee 29be
000001b0: 3aae 0dbe 0baf 08be 8d6d 40bd bb04 6e3d
000001c0: c86d c5be 4990 2a3e 5eac d5bf 9b2f 63be
000001d0: 45fe b73e 5474 703f 0b2d b93e 745d 36bf
000001e0: a3a4 25bf 5305 93bf 302a 193f 2a4b 073f
000001f0: bc25 773e faab 4abf 09ac f1bf efcd ccbd
00000200: 1d43 53bf b212 ce3d 33db a03d 084d 893e
00000210: a1a5 25be 32bb 1c3f ebbc b7be 691e bf3e
00000220: 063f c13f 0b18 5a3f 46c5 74bf ea00 4dbf
00000230: 0394 b3be 6137 443f 4432 ac3b 6944 8fbd
00000240: 5d7a dc3e 6d74 59bf b4c8 b93c 3f71 14be
00000250: 54f1 35be aceb 253d 752c dd3d 61de 1c3f
00000260: 7850 b4bd d0c7 9abf e250 7f3f aa6c a7bf
00000270: 201e b63e c1f8 0ebf c809 603c 4be2 f1be
00000280: 9203 95bf e689 e33e 672d 12bf e0e4 423d
00000290: d475 9d3e 2f7a 89bf 5461 dbbf 2bcc d8be
000002a0: 2183 48bf d0d6 9e3e 3407 3fbd 084c b5be
000002b0: 72f5 0b3f a683 2ebe d1ab 053f 5729 1ebe
000002c0: 8b24 2b3f f489 833e ea25 97bf 6e90 573e
000002d0: fdf1 57bf 7036 bc3d 50ef 9bbe 8835 563f
000002e0: 1668 aabd 60bc 963e af00 323f c5e8 25bf
000002f0: a076 b0be 0507 2a3f 2601 b0bc 58ee bfbf
00000300: 6897 643d 0efc 00bf a653 243e 607e 81bd
00000310: 0b16 2bbf d001 82be 37ac 81be 2375 013f
00000320: 8780 473f 2692 9abf cb50 d0be 098e f83c
00000330: a81e 153d 26ef 6b3c 20fa 203e a52f 1bbe
00000340: 75ad 643e c1e7 e73e 6cd0 7c3e 7bea bdbd
00000350: 3eb3 8f3e ea70 6d3f 50cc 44be d550 00bd
00000360: c4fd bb3f b348 cc3e 4c0b 173f 8697 db3e
00000370: d4ea 583f 0a0f fd3e 4dbe 213f 2983 de3e
00000380: 6f64 403c 2c87 2abe 4dae 58bd 14f3 8ebe
00000390: 6352 c23d b549 55be 3f1a adbd b36b bc3d
000003a0: 313b e0bd 6075 6cbe 44d1 a33c 5d34 973d
000003b0: 5034 4ebe 3a1e 773d 580b 9cbe b7e0 3cbe
000003c0: 0d8e 8cbe 6280 503e dd31 2dbc ee30 25be
000003d0: 3344 da3e d87b 653f 974c 66bf 3588 3abe
000003e0: 5e81 943f 460d 983e 579f 4abd a7df 093e
000003f0: 36e0 143f 1736 f23e 3180 8e3d 5a64 dcbd

fc3.bias f4 [16]
-0.17211905 1.0883807 0.028798046 0.012369807 -1.2647163 -0.17177908 -0.36982846 -0.12232025
-0.540203 -0.59408647 -0.96123606 -0.6493289 -0.785379 0.03667265 -0.12806349 -0.033662446
00000000: fa3f 30be 0f50 8b3f e1e9 eb3c bbaa 4a3c
00000010: 39e2 a1bf dbe6 2fbe 285a bdbe 0a83 fabd
00000020: be4a 0abf 0d16 18bf 9113 76bf 6b3a 26bf
00000030: 990e 49bf 1036 163d 1323 03be a2e1 09bd

fc4.weight f4 [2, 16]
0.083225265 -0.6957926 0.12024453 0.3086375 1.3331385 -0.11309453 -0.09631501 0.12446231
0.32012162 0.6543864 -0.6277397 0.5029183 0.080276094 0.47357574 0.023791172 0.2414891
0.1118009 0.62870157 -0.15245423 -0.07105222 -0.934382 -0.042157505 0.02110946 -0.4981227
-0.3533619 -0.59983677 0.9615655 -0.37747324 -0.1907138 -0.087550014 0.15735583 -0.05330964
00000000: 0272 aa3d 771f 32bf c442 f63d bc05 9e3e
00000010: 48a4 aa3f 1b9e e7bd ce40 c5bd 18e6 fe3d
00000020: fbe6 a33e de85 273f 8db3 20bf 41bf 003f
00000030: cb67 a43d 8578 f23e b4e5 c23c eb48 773e
00000040: dff7 e43d 96f2 203f f61c 1cbe d483 91bd
00000050: a933 6fbf 59ad 2cbd bfed ac3c f009 ffbe
00000060: daeb b4be e78e 19bf 2829 763f 2c44 c1be
00000070: 7a4a 43be 6c4d b3bd e321 213e 365b 5abd

fc4.bias f4 [2]
-0.30989698 0.45436865
00000000: d1aa 9ebe 02a3 e83e
