data/results/1731504134.pth (torch, 7588 bytes, 8 tensors)

fc1.weight f4 [16, 32]
00000000: 358a fbbd eee4 633e 80f6 f23e 06d7 82bf
00000010: ff51 933f 1db0 26bf 88ad 8c3e 889b 5d3e
00000020: f29e c53e dc56 4ebf 0ead 833f 0d24 d23e
00000030: 6be5 203f 48f4 583f a9af 6f3f 043b 71be
00000040: 1c73 d13e 61f4 613e 8d37 bd3e 91a3 a23f
00000050: f84c 13be 1845 9c3e 2b12 aabf 57f3 403e
00000060: 4ac5 533f f138 21be 0d20 ae3e 4bdb 6b3e
00000070: 50ec 89be b72a 1abd 033e 9f3e 49c8 8bbe
00000080: a5c7 1fbe e788 aebd 3fd6 2d3f 1273 0cbf
00000090: b7ca a23f a138 9cbf 8cf8 6c3f ae82 be3e
000000a0: 0e54 063f f8be 33bf 4697 3fbf 65b2 f8be
000000b0: 600c 243f 28bf f7be dce0 13bf ab55 8c3f
000000c0: 76ba 3ebd 3bad b9bf 6112 15be 4888 7c3f
000000d0: 4fe1 6c3e e73f e8be aa01 193e 4e58 f23e
000000e0: 0483 58be 483a ab3e 0f59 363f 946c f13e
000000f0: aa64 b03e ef12 c9bf c615 ef3e 5384 ac3e
00000100: c697 c53e c049 a6bf efe8 943e 0e5c b0be
00000110: 163f 2f3f af36 6abf 580f 883e 6312 9fbf
00000120: 39fa 19bf aa4a e5bd 213a cfbe 8f07 ccbd
00000130: 4274 db3e a28e 3a3e b6e0 22bf a1d7 313e
00000140: 4442 8abe 2cb6 17bf 14a0 d6be f530 373f
00000150: 0034 a63f 2498 02bf be47 39bf 8815 89bf
00000160: 5373 13bf 0917 973e 050c 123e b612 ac3e
00000170: 5611 2dbe 12a5 d6bc d1e2 d43e f79f 80be
00000180: 3067 fc3c ebae 073d 8cb3 85bf 3dca d03e
00000190: 14cf c33e ab88 13be 92e1 173f e4fe 3bbf
000001a0: c6d8 4c3f 592c 5fbe ab3f ff3e e978 c9be
000001b0: f21a 1b3f 1d82 94be 4863 ed3e 3a42 11bf
000001c0: 98e2 333f f59c 24bf 0fbe cb3e 76df e1be
000001d0: 7a19 2fbf d94d 123f 4c51 afbe e7ec c23e
000001e0: e0a5 4a3e f6c8 20be e0e9 b93f 988e a7bf
000001f0: 6ab3 c13c f254 943f a76e 4d3e bf5e 483e
00000200: 6624 053e 5db5 233e 7007 5bbe fdf8 503e
00000210: 8909 1f3e cf5f 583f 1fb9 093f e423 3fbe
00000220: 8e3b 4ebe 3766 bc3e 5c49 973f c48b bdbe
00000230: 77ff 82bf 086a 913d 96d4 6ebf 1741 67be
00000240: 1a05 85be a7ef b23e 5c4d 103f 4c85 833e
00000250: 97e5 533f e7fe 493b 011a ba3e c366 eb3e
00000260: 3059 763e 72ec e23c 4921 9ebf ab5e 06be
00000270: d804 1ebf e33e 8dbd de98 553e 0e56 ad3f
00000280: 12e0 5fbd d56a cb3c 5c8d 653f 4c27 31be
00000290: 79da 16bd 586a 393e 9b58 ef3f 2672 7a3f
000002a0: d4ae 093f 50d6 03bf c17a c3be 6491 0d3f
000002b0: bab2 7dbe 3105 673e 1748 263f f059 35bc
000002c0: 5437 4cbe d03b 17bf 0d41 013e 0881 b4be
000002d0: 93ed 71be 8472 993b 8d61 e8be 50cb acbd
000002e0: f062 a8bf d46a 093f 9574 9dbf 083a 8cbf
000002f0: 981e a53e 01a2 393f 018a 4c3f de45 623d
00000300: 903a c13d 48a3 d0bf 5e8c 153f 1a71 923f
00000310: 6db9 2fbf 5fa5 283e 845e 5c3e 2caa e43d
00000320: dfc5 b13c f5e7 f3be 070c 043f 3f80 2bbe
00000330: 3fbf d23c a78e aabe 6f8d d43e e596 69be
00000340: f268 0d3d f68c d8bc 65af 933e 6eca 09be
00000350: e359 bd3e 6e12 2c3f df6b 4b3f a3d3 a93f
00000360: c1af 79be ff66 27be 095f 4fbe 1565 87be
00000370: 8f5f 083e 9ac5 e03e b53e b03e 734e 1bbe
00000380: 5ca6 69bd 3575 2e3e 2e6c 6ebf a08f ca3f
00000390: 8824 5bbf 1bb4 703e 464f a03f aeb4 bcbe
000003a0: ebb8 323e c20b eb3e 329e 4dbf 0a08 e9be
000003b0: 8efc 80bf 0b5c eb3e e39d 2cbe 9229 263f
000003c0: bded 9ebe 1d3b 5ebf a15d 1ebe 755f bf3e
000003d0: dc06 7e3f 587c 0dbc 97f9 163f 0670 c63e
000003e0: b35f e53e ff19 683e a1b1 c8bf acbb 36bf
000003f0: fc96 19be 92ad 1f3f 82f2 a1bd 0bf7 503f
-0.1228222 0.22255298 0.4745369 -1.022187 1.1509398 -0.6511248 0.27476144 0.21641362
0.38597828 -0.80601287 1.0287187 0.4104313 0.62850064 0.84747744 0.9362741 -0.23557669
0.40908134 0.2206588 0.36956444 1.2706167 -0.1438483 0.30521464 -1.3286794 0.18842827
0.82722914 -0.15744378 0.34008828 0.23032872 -0.26938105 -0.037638392 0.31102 -0.27301243
-0.15603502 -0.08522206 0.6790504 -0.54863083 1.2718114 -1.2204782 0.9256675 0.37209076
0.5247201 -0.7021327 -0.748402 -0.48573604 0.6408138 -0.48388028 -0.57764983 1.0963644
-0.04656454 -1.4505991 -0.14557792 0.9864545 0.23132823 -0.45361254 0.14942041 0.47332996
-0.21143728 0.33442903 0.7122964 0.4715315 0.344518 -1.5708903 0.466963 0.33694705
0.38592356 -1.2991257 0.29083964 -0.34445232 0.68455637 -0.9148969 0.26574206 -1.2427486
-0.60147434 -0.11195882 -0.40474036 -0.09962379 0.42862135 0.18218473 -0.6362413 0.17367412
-0.27003682 -0.5926235 -0.41919005 0.7155908 1.2984619 -0.510134 -0.72375095 -1.0709696
-0.57597846 0.29509762 0.14262398 0.33608025 -0.16901144 -0.026201759 0.41579297 -0.25122043
0.030810922 0.0331258 -1.0445418 0.40779296 0.38243926 -0.14407603 0.5932857 -0.7343581
0.8001827 -0.21794261 0.49853262 -0.3935006 0.6058799 -0.2900552 0.46364808 -0.5674168
0.7026763 -0.64302 0.3979344 -0.441158 -0.6839825 0.57150036 -0.34241712 0.38071367
0.19789839 -0.1570166 1.4524498 -1.3090391 0.023645122 1.1588423 0.20061742 0.19567393
0.13002166 0.15987153 -0.21389556 0.20407481 0.15530981 0.8452119 0.537981 -0.18666035
-0.20139906 0.36796734 1.1819263 -0.37020695 -1.0234212 0.07100302 -0.9329313 -0.22583424
-0.25980455 0.34948465 0.5636804 0.25687635 0.827722 0.00308221 0.36347964 0.45976838
0.2405746 0.027700637 -1.2353908 -0.1312205 -0.6172614 -0.0689676 0.20859095 1.3541887
-0.05465705 0.024831215 0.8966882 -0.17300147 -0.036829446 0.18106973 1.8698915 0.97830427
0.5378239 -0.5149889 -0.3817959 0.55299973 -0.2477521 0.22560574 0.6495375 -0.011068806
-0.19942981 -0.5907564 0.12622471 -0.35254693 -0.23625784 0.004682841 -0.45386925 -0.08437216
-1.3155193 0.5367863 -1.2301203 -1.095521 0.32249904 0.72512823 0.7989808 0.05524241
0.09434998 -1.629983 0.5841731 1.1440766 -0.6864231 0.16469334 0.2152043 0.1116527
0.021700798 -0.47637907 0.5158085 -0.16748141 0.025725959 -0.3331196 0.41514155 -0.22811468
0.03452391 -0.026434403 0.28844753 -0.13456127 0.3698264 0.6721562 0.79461473 1.3267711
-0.24383451 -0.16347884 -0.20251097 -0.26444307 0.13317703 0.43900758 0.34422842 -0.15166645
-0.05704342 0.17036898 -0.9313382 1.5825081 -0.8560262 0.23506205 1.2524192 -0.36856598
0.17453353 0.45907408 -0.8031951 -0.45513946 -1.0077074 0.4596866 -0.16857104 0.6490718
-0.31040755 -0.8680895 -0.15465404 0.37377515 0.99229217 -0.008635603 0.58974594 0.38757342
0.44799575 0.22666167 -1.5679208 -0.71380115 -0.14999002 0.6237422 -0.07907583 0.8162696

fc1.bias f4 [16]
00000000: f9cf 6fbf 4d62 9fbe 5ab0 f63d b77c 44be
00000010: e996 f2be aaf3 5fbf 7b8c adbf f7f1 23bf
00000020: 23ca 2ebf 3ae4 e1bf 3832 14bf 4cfe 70bf
00000030: c89d c3be d20d 5cbf d488 8abf 0731 79be
-0.93676716 -0.31129685 0.12045355 -0.191882 -0.4738076 -0.87481177 -1.3558496 -0.64041084
-0.68277186 -1.7647774 -0.5788913 -0.94138026 -0.38206315 -0.8595859 -1.0823007 -0.24335109

fc2.weight f4 [16, 16]
00000000: 169e 48bf 3bfb 94bf cdcf 4c3f 32a3 c93e
00000010: ed40 d3be 5657 b7bf 406a a83e 9f95 2abf
00000020: c9be 863e f431 4a3f 8be3 353d a314 72bf
00000030: 5d2c ce3e 4fb7 7e3d 4019 57c0 cd49 7dbf
00000040: 991f a33d 73ed 8e3d cab3 71bf 4cf9 c3bf
00000050: 266f b13e a384 4a3f 75d8 343f ab57 b33e
00000060: 22c9 133f 5e9a 13bf f935 a1bf 8b37 0ebf
00000070: 0bb4 06bf 5b25 a2be a99c 15bf bba5 6d3d
00000080: 9a7f bfbd 03c8 893e 6314 8bbf f6a0 8a3e
00000090: df64 f5be 8dc2 3bbe 8ad8 febe e5a8 fc3e
000000a0: 9d21 563e 79cf b73f 5fb7 8b3e 8834 573e
000000b0: bba4 27be dd5d 85be fdf6 603f 383a 3c3d
000000c0: ad06 093f 783d debf c563 77be ac80 09bf
000000d0: 7694 fb3e dbbe a33e ffbf b63c 42d4 443f
000000e0: cdf8 a6bb e100 98be ce51 003f 7d86 8d3f
000000f0: 379c 633f 30b3 403e cf81 dd3e 7387 4bbf
00000100: f16f 973e 5a4d a8be f7ac 37bc eb27 d4bf
00000110: 6b70 9c3e 0169 7bbe 100f 0b3f 9d56 ebbe
00000120: 5a9d a8bf 7bde 363e 69c5 0dc0 39d4 34bf
00000130: 5fed 6b3f be0e b83e a1d3 85bf d59a f33e
00000140: 7075 853f c2e7 08bf d422 8cbe ba11 dd3e
00000150: 7ea7 88be ab88 23be ed55 b2bf 8e0a db3e
00000160: 11d7 3a3f cd4f 783f 9854 fbbd 0e9e 713e
00000170: 0d1e 243f 9a67 143c 0ba0 5f3e d2f9 4cbf
00000180: ddcc 92be 31df f33b 364d b63e cffa 1fbf
00000190: fbf2 1c3f b55a 343e fdb7 45bf 2194 08c0
000001a0: 180f 72bf b553 4fbf 215f 0bbf 203e dabf
000001b0: 16f2 f1bd 045e 063f 6760 523f 7328 223e
000001c0: e5fd e1be 0603 1bbf 42bc 30bd 5470 b6bc
000001d0: 5760 17bf 4506 723f 2ee0 3d3e 7ea7 a53e
000001e0: e962 1f3f acda 963f 301b abbe f0c0 2fbf
000001f0: e10d 26be 77b4 c3bf b2b1 383e 5de3 78bf
00000200: 4591 0fbe a7da cfbe 93ee a3bc 2009 86be
00000210: 720b 62be 353a 9abe c44c e6bc dbe4 74be
00000220: f2af 90be 39d1 bbbe a2d4 38bd f47b 8cbe
00000230: 1a0f 06bd 98c9 5fbe 85ff b8bd ea40 e13a
00000240: 898f a03e 1193 333e b2cc 133f 5852 89be
00000250: 20a5 063e 1ccd 5abe dd71 0fbe 961d 813f
00000260: a145 d8bf dcd5 14bf 9649 2cbe b244 61be
00000270: 6489 32bf 19db 173e 6f0d e8bf 4cbc 8a3e
00000280: 95d6 7abf 4c64 c43d 3dc1 8bbe 33df 5d3e
00000290: a572 0a3f c0f9 8ebf 772f 43bf 4968 9bbe
000002a0: 0b85 48bf 3f5e 7e3f f4f1 8a3f 84a3 933e
000002b0: 0b3f c43e 6ff8 173f 3418 343c 99aa 2e3f
000002c0: d8cc f4bd e4a3 2d3d 1d95 433f 73b7 bbbf
000002d0: b0bc 6abf 9973 273f b3d7 c4be 4f81 48bf
000002e0: 1559 453e e5e3 733e 4c54 5cbf cc9e 803f
000002f0: d50d bf3e 7ce4 7c3f 5d1d 6cbe 86ce 14bf
00000300: 2101 5e3f c27c bbbf 679f e63d 4cb2 8fbf
00000310: e16c 313d 85c3 07c0 9116 0cbf 0262 93be
00000320: 1d8d 08c0 66d3 963d b203 29c0 c334 c43e
00000330: b163 77be a6f7 bcbe aaa8 8bbf a0df 1cbe
00000340: 3129 66bf 4922 68be 01e2 c43d ba0f ac3e
00000350: ecc7 9bbe 6984 643f 8412 f6be 4446 243f
00000360: f969 b2bf 9966 73be f395 eabd 30fe 8c3f
00000370: bf24 823d 8610 4ebf ac85 b73e f7ef 98bf
00000380: 41f8 d2be 5161 62bf 1fef df3e 5ee0 1cbf
00000390: cd33 11c0 7c83 21c0 df91 a33e 1904 873b
000003a0: 8dfb d83e d468 bdbf eecc d53d f289 1dbd
000003b0: 6aaf 7dbf 823e 1c3f 0b84 0fbd e2df b83e
000003c0: 29e9 fdbe 47da d3be 9f4b 953e 2ed3 553d
000003d0: 520d bbbf 29cb b13d 5823 c3be b472 81be
000003e0: 02ed 4e3f d02f 623f 78ff 5abf a30a a63f
000003f0: 3988 46be e3f5 69c0 f052 aebe c57b 903e
-0.7836622 -1.163917 0.8000458 0.3938232 -0.41260472 -1.4323528 0.32893562 -0.66634554
0.26317433 0.7898247 0.044406455 -0.9456274 0.40268221 0.062186535 -3.3609161 -0.98940736
0.07965011 0.069788836 -0.9441496 -1.5310454 0.34655112 0.7910864 0.7064279 0.35027823
0.5772878 -0.5765742 -1.2594596 -0.555535 -0.52618474 -0.31669125 -0.5844217 0.05801938
-0.0935051 0.2691041 -1.0865597 0.27075928 -0.4792852 -0.18335934 -0.4977458 0.49347606
0.2091126 1.4360191 0.2728834 0.21016133 -0.16371433 -0.26048175 0.87876874 0.04595396
0.5352581 -1.7362509 -0.24159153 -0.5371196 0.49136704 0.3198155 0.022308348 0.7688638
-0.0050955773 -0.2968817 0.50124824 1.1056668 0.8891024 0.18818355 0.432631 -0.79503554
0.29577592 -0.32871515 -0.011210672 -1.6574682 0.30554518 -0.24551775 0.5431986 -0.45964518
-1.317302 0.17858307 -2.215174 -0.70636326 0.92159075 0.35948747 -1.0455209 0.47579065
1.0426464 -0.53478634 -0.27370322 0.43177587 -0.26690286 -0.15970103 -1.3932472 0.4278149
0.72984415 0.96996766 -0.12271994 0.2359545 0.64108354 0.009057904 0.21838395 -0.80068696
-0.28671923 0.007442378 0.35605782 -0.6249208 0.6130826 0.17612727 -0.7723387 -2.134041
-0.9455428 -0.809871 -0.5444203 -1.7050209 -0.11813752 0.52487206 0.8217835 0.15835743
-0.4413902 -0.6055149 -0.043148287 -0.02227036 -0.5913138 0.94540817 0.18542549 0.3235435
0.622603 1.1785483 -0.3341918 -0.68653774 -0.16216232 -1.5289448 0.18036535 -0.9722193
-0.1402026 -0.40596506 -0.020011222 -0.26178837 -0.22074679 -0.30122533 -0.028112777 -0.23915426
-0.28259236 -0.36683062 -0.045124657 -0.2743832 -0.032729246 -0.21854246 -0.090331115 0.0017185484
0.3135951 0.1753657 0.57734215 -0.26820636 0.13148928 -0.21367306 -0.14008279 1.0087154
-1.6896249 -0.58138824 -0.16824946 -0.21998861 -0.6974089 0.14829673 -1.81291 0.27096784
-0.97983676 0.095894426 -0.27295867 0.21667175 0.54081184 -1.1169968 -0.762443 -0.30353
-0.7832801 0.9936256 1.0855088 0.2883569 0.38329348 0.59363455 0.010992099 0.6822906
-0.11953133 0.042392626 0.76399404 -1.4665359 -0.91694164 0.65410763 -0.38445815 -0.7832231
0.19272263 0.23817404 -0.86066127 1.0048461 0.3731524 0.9878614 -0.23058076 -0.5812763
0.8672047 -1.4647448 0.11260872 -1.1226287 0.043316726 -2.1213086 -0.54721934 -0.28785712
-2.1336129 0.0736454 -2.6408505 0.38321504 -0.24159123 -0.3690769 -1.0910847 -0.15319681
-0.89906603 -0.22669329 0.09613419 0.33605748 -0.30425966 0.8926454 -0.48061 0.64169717
-1.393859 -0.23769607 -0.11454382 1.1015072 0.06354665 -0.8049396 0.3584417 -1.1948231
-0.41205028 -0.88429743 0.43737122 -0.6127986 -2.2687867 -2.5236502 0.31947228 0.0041203615
0.42379418 -1.4797616 0.10439478 -0.038461633 -0.99095786 0.6103288 -0.035038035 0.3610831
-0.4959195 -0.4137747 0.29159257 0.05220335 -1.461344 0.08681328 -0.38112903 -0.25282824
0.80830395 0.88354206 -0.85546064 1.2971996 -0.19387902 -3.6556327 -0.3404765 0.2821943

fc2.bias f4 [16]
00000000: 48dc 153d 33bf 5c3e 3c93 983c 8881 76bf
00000010: 17b3 c83e a521 03bf 37dd 2d3f ffd6 433f
00000020: 8f96 0ebe dbdd e13e 24d4 6bbe 6492 83bf
00000030: 6c2b 9a3f 2508 273e 60aa 3f3f 6711 dabe
0.03658703 0.21557312 0.018624894 -0.962914 0.39199135 -0.5122321 0.6791567 0.76499933
-0.13924621 0.44114575 -0.23030144 -1.027905 1.2044501 0.163117 0.74869347 -0.42591402

fc3.weight f4 [16, 16]
00000000: 7f98 ef3c 55eb 9f3d 8874 d0bf fa0f 5ebe
00000010: 23cc 483f bc6b b0bf 9fc6 583f 5cd1 40bf
00000020: d5bf cfba 2004 c23e 154b a2be 66ab 13bf
00000030: e6d6 fe3d 75d2 c8bf 7cce 4d3f c097 09c0
00000040: e19c 7f3f f14d 1abf d0da 31be 654e b4be
00000050: 7c50 2b3f abf8 1abe 4dd8 453f 89d8 2abf
00000060: 6319 b63e 62c3 5a3d 8331 b1bf 79cc 2fbf
00000070: ba2d abbf a675 0b3e 112f 473f 55d0 6ebd
00000080: 4f26 c33c 9deb 393f ad37 17bf f635 86be
00000090: ec23 043c f5b5 6a3e 24bd 10bf b5c7 b83d
000000a0: 8bf5 8ebe 7d60 a43e 2a57 143e b625 213f
000000b0: 479a 8a3f 072c debf 715e d0be 63ff 05c0
000000c0: b1f0 a1be 0156 9e3f 1c82 18bf 3bcb 883e
000000d0: 1de0 0d3f 7d4e 843d 5d27 38bf 65ab 7bbf
000000e0: 530e 2c3e 8040 09c0 e36b 753c 1f70 b33c
000000f0: 683a f13d 4cfb a4bd 82c3 30bd eb28 8dbf
00000100: fc06 a7be fbdd 09bf a564 8bbe d572 7bbd
00000110: d356 46bd b7bf 37bf d319 07be f7b1 42be
00000120: 3675 0a3e fa77 17bf aace 98bd 1d72 76be
00000130: 03b1 da3d 7e64 c4be f239 b2be 10e5 893d
00000140: 2582 6dbe 1310 97bf baa3 50be 4b91 d03d
00000150: 45b5 c8bf e970 8fbe eb58 5f3f 3dd4 593e
00000160: 60b8 723d df1e 08c0 1e13 d4be e029 a2bf
00000170: 7a01 c0bf f3f6 1a3f dfe8 853f e3fa f7bf
00000180: 2719 61bf 3e36 f93e bec3 23bf c6d7 91bf
00000190: 7f2c 2e3f b808 50bf 630a f53d 8b30 f9be
000001a0: 21b9 f1bc b077 73bf 86bf a93e aaa6 17bd
000001b0: d8b9 a23f a467 883c 19e2 91be ed3e 263f
000001c0: c0bb 51bf 93fa bb3e a298 fb3e 4151 b93e
000001d0: cf3e 71bf 889c 053e 5f6f 4c3d 25aa 1abf
000001e0: 3615 b0bc 5cf2 9f3d 796d bd3e cdda cabe
000001f0: e553 4f3e a61b 8bbe c6b0 7bbf 89f8 b33e
00000200: 9384 febc b5b0 2abe 7d65 c33b 5225 ecbe
00000210: abed d9bd 3b6a 8db8 1eb7 febe 1637 45be
00000220: 624c 9cbd 49f2 8dbe 6aa8 fabd a925 6dbd
00000230: 6d57 12be de74 32be 3eef 51be cf88 bcbd
00000240: 7606 09bd 5094 d7bf 8d4a 65be fd1a 38bf
00000250: df9d 4a3f be4b b2be 911f ce3e b8e5 0e3f
00000260: bf43 86be 0fd2 80be 54e0 ea3e a194 36c0
00000270: ced7 c33e 7f27 c33e 92ad 343f 6041 0abe
00000280: 786b b3be b841 a83e ba22 d63e 8e3b 1ac0
00000290: a16b 9f3f 3e71 68bd 6bde d93e adc5 543e
000002a0: 54a1 16be 3714 fe3e ee3c babf 7d20 d8be
000002b0: 7623 74bf 28a3 1cbd ac2b 903c 94c3 8bbe
000002c0: ddca 7abc 4bcb fd3e 0f09 5bbe 0609 aebf
000002d0: d314 68be 676c a6bf 6477 833f fec4 27c0
000002e0: c4c0 dfbd f315 3f3e f83f 97be c9c5 86bd
000002f0: 0dfe b63f ca55 82bf 6a45 663f fc47 3cc0
00000300: 5f8c e2bf f7b1 063f 8111 1c3f d74c c33e
00000310: defe cdbc 4ebb eebe fc48 653f d165 92bf
00000320: e15d be3d d79f 1d3f fa59 41be ab7c 353c
00000330: 112f 843f 6cf7 97bf bed9 833f e6d7 80bf
00000340: 954f 453f 0712 503e 3811 f0be 99ec b4be
00000350: 9531 1d3f 3c95 b7be 5af0 943e cb8b c3be
00000360: 45f2 96be 4046 87bf 43eb 04c0 77a4 aebf
00000370: 4a6b 8c3f 5529 a0bf 0cd8 2e3f 4568 d9be
00000380: a874 a93f 560c 25bf f1ae a23d b131 8dbf
00000390: e5fa 00bd d3e3 7bbf a779 c53e 9712 c43e
000003a0: 02af 7abe 46a9 743e c8c8 0dbf 48a0 6bbf
000003b0: 08a4 693f e93f f13e e7ec ed3e 7db1 8cbf
000003c0: 0201 06bd 6954 13be 4965 96be 8b3f cdbe
000003d0: c9a3 40be aa65 3cbe 3e4d c8bd 2b79 67be
000003e0: 4721 a03d 309b 5abe 78af eb3b cc7f 143c
000003f0: ebb1 96bc 6378 fbbd e6b0 f9bd 51ee a0be
0.02924752 0.07808558 -1.6285563 -0.21685782 0.7843649 -1.3782878 0.8467807 -0.7531946
-0.0015850017 0.37893772 -0.31697908 -0.5768341 0.124433324 -1.5689226 0.80393195 -2.149887
0.99848753 -0.6027518 -0.17368627 -0.3521606 0.66919684 -0.15133922 0.77283174 -0.66736656
0.35566244 0.053408988 -1.3843235 -0.68671376 -1.337333 0.13619098 0.7780619 -0.05830415
0.023821978 0.7262514 -0.5906933 -0.26213044 0.008065205 0.22920974 -0.56538606 0.09022466
-0.2792171 0.32104865 0.14486375 0.6294817 1.0828332 -1.7357186 -0.40697053 -2.0937126
-0.31628945 1.2369996 -0.5957353 0.26717553 0.55420095 0.06460283 -0.71935064 -0.983084
0.1680234 -2.1445618 0.0149793355 0.02190405 0.11778718 -0.080557436 -0.0431552 -1.1028112
-0.32622516 -0.5385434 -0.27225223 -0.06138881 -0.048422646 -0.7177691 -0.13193445 -0.190132
0.13521275 -0.59167445 -0.07461293 -0.24066968 0.106782936 -0.3835792 -0.34809834 0.06733143
-0.23194177 -1.180178 -0.20374957 0.101839624 -1.5680319 -0.2801583 0.87245053 0.21272369
0.059257865 -2.1268842 -0.41420835 -1.2669029 -1.5000451 0.60533065 1.0461692 -1.937344
-0.87929004 0.48674196 -0.63970554 -1.1393974 0.68036646 -0.81263304 0.11964872 -0.48669848
-0.029507222 -0.95104504 0.33153933 -0.037024178 1.2712965 0.016650982 -0.2849281 0.6493977
-0.8192711 0.3671461 0.49139887 0.36194804 -0.94236463 0.13047993 0.0499109 -0.6041587
-0.02149449 0.07809898 0.36997584 -0.39620057 0.20246847 -0.27169532 -0.9831661 0.35150555
-0.031069076 -0.16668971 0.005963026 -0.46122223 -0.10641035 -6.743191e-05 -0.49749082 -0.19259295
-0.07631756 -0.2772391 -0.12239154 -0.057897244 -0.14291163 -0.17427394 -0.2050142 -0.09205782
-0.033453427 -1.6842136 -0.2239172 -0.7191618 0.7914714 -0.34823412 0.40258458 0.55819273
-0.2622356 -0.25160262 0.45874274 -2.8528216 0.38250583 0.3811607 0.7057735 -0.13501501
-0.3504293 0.3286264 0.4182337 -2.409885 1.2454721 -0.05674862 0.42552504 0.20778532
-0.1470998 0.49624798 -1.4549844 -0.42212287 -0.9536661 -0.038241535 0.01759895 -0.27297652
-0.015307155 0.49569163 -0.21390174 -1.3596504 -0.22664194 -1.3001832 1.027081 -2.6213984
-0.10925439 0.18660717 -0.29540992 -0.06580693 1.429628 -1.0182431 0.8994967 -2.9418936
-1.7699088 0.526153 0.6096421 0.38144562 -0.025145944 -0.46627277 0.8956449 -1.1437322
0.0929525 0.6157202 -0.1888198 0.011077086 1.0326864 -1.1872382 1.0300825 -1.0065887
0.7707456 0.20319377 -0.46888137 -0.3533676 0.6140378 -0.35856044 0.29089624 -0.3819259
-0.29481712 -1.0568314 -2.0768592 -1.3643941 1.0970242 -1.2512614 0.6829841 -0.42462364
1.3238726 -0.6447195 0.07943524 -1.103079 -0.03148927 -0.9839451 0.38569376 0.38295433
-0.24480823 0.23892698 -0.5538449 -0.92041445 0.91265917 0.47119072 0.46469805 -1.0991665
-0.032715805 -0.14387669 -0.2937415 -0.40087542 -0.18812479 -0.18398157 -0.09780358 -0.22604816
0.07818847 -0.21348262 0.0071925484 0.009063672 -0.018395385 -0.12278821 -0.12191944 -0.3143182

fc3.bias f4 [16]
00000000: ab6e 86be 47ab 9c3f 2654 b8bf 8062 2abe
00000010: 0b2a 16bf 7a0c 5abf 35ab 1fbe 863f e33d
00000020: 1996 b3be 05a6 143f eeb3 2e3e ca40 51bf
00000030: 2c9f 1dbf 7fd6 6c3f 3845 26bf 25af 30be
-0.26256308 1.223977 -1.440068 -0.16639137 -0.586579 -0.8517529 -0.15592654 0.110961005
-0.35075453 0.58065826 0.17060825 -0.81739485 -0.61571 0.92514795 -0.6494937 -0.17254312

fc4.weight f4 [2, 16]
00000000: 4f75 a7be 01e1 e8be 0478 9bbe d7b9 a73d
00000010: fbda 14be 556f cf3e edd6 2ebe ecea 4b3e
00000020: eeb4 303d 8fb2 a3be e59d 26bd b625 14c0
00000030: dbb9 55be 3d99 0a3f d3e5 a5be 848d c93d
00000040: e413 033f 0864 203e 4d5e 253e e6d0 60be
00000050: 9339 97bd 6e5e cebe d136 6a3e d855 6ebd
00000060: 0293 113d 77d8 2b3d 1afb 853e 2fed 1940
00000070: 8d2c af3e 89af adbe 8b02 493e 58a7 cf3d
-0.32706687 -0.45484164 -0.30365002 0.08189743 -0.1453666 0.40514627 -0.17074175 0.19913834
0.043141298 -0.31972167 -0.040677924 -2.3148017 -0.2087168 0.54140073 -0.32401904 0.09841445
0.51202226 0.15663159 0.16149254 -0.21954688 -0.07384028 -0.4030642 0.22872473 -0.058187336
0.03554059 0.041954484 0.26168138 2.4051015 0.34213677 -0.33922985 0.19629876 0.1013934

fc4.bias f4 [2]
00000000: ccff 373d 687b b5be
0.04492168 -0.35445714
