data/results/1731776382.pth (torch, 14114 bytes, 16 tensors)

fc1.weight f4 [16, 32]
000000 a9 75 c1 3c d8 30 4b 3f 7e cb 13 3f 78 47 a2 3f
       0.023615675 0.79371405 0.5773238 1.267806
000010 01 b7 fc be 7e f1 a1 be 45 3e 8d 3f e3 43 79 be
       -0.4935837 -0.31629556 1.1034628 -0.24342303
000020 4f bb 62 bf 46 2e 23 bf 25 8c 9b 3c 8c dc 32 3f
       -0.8856706 -0.6374248 0.018987725 0.6986778
000030 eb 00 18 3f f1 ad d7 3e 79 4a 09 bf 3f b4 b4 3d
       0.593764 0.42124894 -0.5362926 0.08823442
000040 99 94 26 3d 55 42 df 3e 58 92 e4 3e 19 6a 7b 3f
       0.040669058 0.43605295 0.446429 0.9820877
000050 29 ff 80 3e a9 78 60 be 31 2c 2d be 39 88 ed be
       0.25194672 -0.21921028 -0.16911389 -0.46392992
000060 10 ac 45 3f c6 25 b7 3d 8c 10 4d bf 79 ab 61 3e
       0.7721567 0.089427516 -0.80103374 0.22038068
000070 dd 49 35 bf f9 96 9c bd 1c 7e 7a 3e d6 7f 01 3f
       -0.7081583 -0.07645983 0.2446217 0.5058569
000080 9d 57 99 bb 78 96 14 bf cd 00 06 c0 ed 16 6e 3e
       -0.004679634 -0.580421 -2.0937989 0.23250933
000090 18 38 1a 3f d4 3f 16 bf 0b 62 3e bf 42 84 2e 3f
       0.6024184 -0.58691144 -0.7436835 0.6817056
0000a0 e6 d0 9c 3e fc 28 e4 be 68 db 23 3e 5a d4 cb 3c
       0.30628127 -0.4456252 0.16001666 0.02488153
0000b0 29 32 16 3f 22 04 20 3f a0 1c 81 bf be 8b 09 be
       0.5867029 0.62506306 -1.0086861 -0.13432214
0000c0 84 d9 01 bf 39 a2 5e 3f 76 15 9a bd 02 8b 56 3e
       -0.5072253 0.8696628 -0.075236246 0.20951465
0000d0 a7 2c a9 3e 23 d4 19 bf 2e ea da be ac 1d a9 3f
       0.3304188 -0.6008932 -0.4275679 1.321218
0000e0 d0 7a 99 be b0 8f 85 be 3a d4 b2 3e 8c d6 b3 3e
       -0.2997651 -0.26086187 0.3492754 0.35124624
0000f0 01 36 46 bf 35 73 09 3f 4f 36 2b bf 52 a2 21 bf
       -0.77426153 0.53691417 -0.66879743 -0.63138306
000100 c5 65 31 be be 74 fe be 25 3b b0 3e 3b df 83 3e
       -0.17323978 -0.49698442 0.34420124 0.2575625
000110 62 bb 1b 3e d6 a5 6c bf 75 13 9f 3f 26 d5 3f 3e
       0.152082 -0.92440546 1.2427813 0.18733653
000120 6b f3 a7 3e 32 ea dc bd bc b7 b1 3e 65 1d 93 3f
       0.328029 -0.10786857 0.3471049 1.1493345
000130 23 90 18 3f de 05 71 be ba 61 eb be d4 a6 29 be
       0.59594935 -0.23537394 -0.45972997 -0.16567546
000140 e5 c0 1a 3e 91 21 93 3f 86 4a de be 44 0d 6b 3f
       0.15112646 1.1494619 -0.43416232 0.91817117
000150 28 d2 4a bf c0 a6 56 3f 24 73 28 3f c9 9a 57 3e
       -0.79226923 0.8384819 0.6580069 0.2105514
000160 4f 66 8f 3f 9b f1 c4 bd 57 ca c8 be 59 4a 2c bf
       1.1203097 -0.09616395 -0.39216873 -0.67300946
000170 33 3e 88 3f c1 6c f0 bd 8a 66 be 3d f8 79 18 be
       1.0643982 -0.11739493 0.092969015 -0.14890277
000180 65 e9 13 be 7a 1f c0 3d cc b1 71 bf 22 15 5b c0
       -0.14444502 0.09381004 -0.9441192 -3.4231648
000190 fa 82 8d be af df 77 3f e4 13 99 3f 98 bd b4 bd
       -0.2763899 0.9682569 1.1959195 -0.08825225
0001a0 eb de a9 bd 0e 3a b5 be 81 03 96 3e ef 46 a8 be
       -0.08294471 -0.35395855 0.29299548 -0.32866618
0001b0 c6 b2 4f 3e 60 4d 34 3e f6 23 e0 3e b0 1c b8 bf
       0.2028304 0.17607641 0.43777436 -1.4383755
0001c0 53 ea ad 3e c0 8e ba 3e 3c d1 1e 3d 31 94 cb 3d
       0.33967838 0.36437035 0.03877376 0.09940375
0001d0 d1 af 13 3f b4 00 fa be 68 2f b8 3e 59 09 64 3f
       0.5769015 -0.4882866 0.35973668 0.89076763
0001e0 b9 49 32 3f 5d 36 4f 3d 80 0f 49 3e f2 e7 ec be
       0.6964374 0.050588954 0.19634819 -0.4627071
0001f0 84 f5 36 be af aa 26 3f 8a c2 13 3f f4 f9 a1 3e
       -0.17867094 0.6510419 0.5771872 0.31636012
000200 df 3d 89 3d ba fc 1e be 2e e1 dc bd 13 d9 e5 be
       0.06701254 -0.15526095 -0.10785137 -0.44892177
000210 78 97 a8 3e 29 72 63 bf 84 2f 6e 3f 73 6a ad be
       0.3292806 -0.8884607 0.93041253 -0.33870277
000220 76 67 ed be 50 9b 00 bf 23 ef bc be c3 c7 be 3f
       -0.46367997 -0.5023699 -0.36901197 1.4904712
000230 95 9d e2 3e 02 da 5d 3d 1a ce 46 bf 7e e5 99 3e
       0.4426085 0.054162987 -0.77658236 0.300579
000240 ab 62 ea be 02 ae 82 3e c3 e8 70 bd c9 5b 5f 3f
       -0.45778403 0.25523382 -0.05881573 0.8724943
000250 06 79 c6 be 31 31 1c 3f f2 40 45 bf a7 e4 03 3f
       -0.3876421 0.6101256 -0.77052224 0.5152077
000260 f2 43 04 be 74 2f e8 3e 9c d7 36 bf d3 0a 8d bf
       -0.12916544 0.45348704 -0.71422744 -1.1018928
000270 b8 0f 26 3f 55 72 29 3f 51 c1 35 3d 5f e9 3f 3d
       0.64867735 0.6619008 0.044373814 0.04685342
000280 0c 66 47 bc aa 69 2d be 74 e1 ac 3e af 4b 20 3f
       -0.012170326 -0.16934839 0.33765757 0.62615484
000290 04 68 e6 be ed 41 f3 be f9 81 a1 3f dd 4f b2 bd
       -0.45001233 -0.47511235 1.261779 -0.08706639
0002a0 78 8b 3b 3f 4e d2 21 be e0 4b 58 3d dc 4e db be
       0.7325969 -0.15802881 0.052806735 -0.42833602
0002b0 c9 5f 0e 3f 2a e5 4a bd 05 14 99 3f a0 6c 13 3f
       0.55614907 -0.049534954 1.1959234 0.57587624
0002c0 57 da fa be c0 37 07 3f 7d bd 5a 3f b2 64 ce be
       -0.48994705 0.5281944 0.85445386 -0.403112
0002d0 8e e2 44 bf 3c 2a 95 3e 53 9c 72 be c8 11 53 3f
       -0.76908195 0.29133785 -0.23692445 0.8244901
0002e0 61 68 ca 3b a1 ab c3 bd 98 9e 0b bf a1 97 23 bf
       0.0061769937 -0.0955422 -0.5453887 -0.6390324
0002f0 c4 c2 b6 3e 21 e4 96 3e f6 d9 2d be 63 39 2e be
       0.3569547 0.29470924 -0.16977677 -0.17014079
000300 89 ac 0a 3d 07 87 e4 bc 9b 8d 69 c0 3b af 25 bf
       0.03385595 -0.027896417 -3.649268 -0.64720505
000310 ee 20 ca bf 9c 27 1b 3f 38 51 33 3f df 77 0a 3e
       -1.5791299 0.60607314 0.70045805 0.1352229
000320 8e 93 98 3e eb b0 41 be a9 2d a5 be e3 64 c9 3c
       0.29800075 -0.18915145 -0.32261398 0.02458424
000330 77 bc 91 3e 79 97 6e 3e 34 29 a5 3e a1 3e 17 bf
       0.284641 0.2329997 0.32257998 -0.5907994
000340 11 16 9f bf b6 21 71 3f 7c 77 83 3e 68 73 0c 3e
       -1.2428609 0.94192064 0.25677097 0.13715899
000350 b4 21 da be fd 21 02 bf 7c 6d 1d 3f 1d 17 b4 3e
       -0.42603838 -0.5083311 0.61495185 0.35173884
000360 38 56 85 3f dc c3 e3 3e 39 d1 84 be 0d 75 56 bf
       1.0416937 0.44485366 -0.25940874 -0.83772355
000370 e1 c5 01 bf 23 5f ab 3f d6 66 25 bf d0 3f 0c 3f
       -0.50692564 1.3388408 -0.6461004 0.5478487
000380 63 13 e8 bc 46 cf 25 be 37 b7 b5 bf 66 2a f8 bd
       -0.028329557 -0.1619235 -1.4196538 -0.12117462
000390 3f 4d f4 be 7f f7 a9 be 27 0b d1 bc 27 f4 1a bf
       -0.47715184 -0.33196637 -0.025518013 -0.60528797
0003a0 e0 17 a1 3f 1f 0d b5 be 37 c8 d0 be 39 91 36 3f
       1.2585411 -0.35361573 -0.40777752 0.7131534
0003b0 35 1e 70 be a0 b2 ff 3e 2f a8 ce be 5d 0f 9a 3f
       -0.23449023 0.49940968 -0.4036269 1.2035939
0003c0 75 3e 0e 3d 1d e1 60 3e d5 30 51 be 72 96 9e bf
       0.034727532 0.21960874 -0.20428784 -1.2389662
0003d0 34 18 2e 3f f9 6b 99 3f 31 95 be 3e cb 25 19 3f
       0.6800568 1.1986076 0.372232 0.5982329
0003e0 79 25 64 3f 50 98 81 be 07 74 0e 3d 41 16 2e bf
       0.8911968 -0.25311518 0.03477862 -0.68002707
0003f0 f5 54 56 3f ab e8 c8 be ad 23 27 3d b3 1f 12 3f
       0.83723384 -0.39240012 0.040805507 0.5707962

fc1.bias f4 [16]
000000 60 79 8e bf c7 0c 61 be c2 33 a3 bf 56 30 91 bf
       -1.1130791 -0.2197753 -1.275017 -1.1342876
000010 ff 71 3e bf cd 0d a9 bf 25 26 c6 be c8 1b 47 be
       -0.74392694 -1.3207337 -0.38700977 -0.19444191
000020 57 36 2b bf ba ae 20 be cf f0 13 be 4e 5f 09 bf
       -0.6687979 -0.15691653 -0.1444733 -0.5366105
000030 b5 19 a5 bf 26 78 cd be d0 fb 8b bf e5 51 99 bf
       -1.289847 -0.40130728 -1.0936222 -1.1978117

fc2.weight f4 [16, 16]
000000 68 20 a8 3e 89 cf 9e be d5 79 9f bf cb cb f4 3e
       0.32837224 -0.31017712 -1.2459055 0.47811732
000010 b0 d3 41 3e 60 58 1f 3f d6 c1 a9 3d 37 f4 e7 3d
       0.18928409 0.62244225 0.082889244 0.11325877
000020 d4 92 b9 bf c6 d4 98 3f ef ed 99 3e 0b 3e 3f be
       -1.4497933 1.1939933 0.3006434 -0.18676011
000030 f2 4a c5 3e cd 8a 08 3f c2 4c 57 3f 47 ce 2e 3f
       0.3853374 0.53336793 0.841015 0.68283504
000040 5f 00 f1 3e 25 0d de 3e 70 ee 68 bf f8 7c a1 3e
       0.47070596 0.43369403 -0.90988827 0.31540656
000050 6b 93 46 3f 60 cf 57 3f 9d 9b 27 3d 19 63 ca bf
       0.7756869 0.84300804 0.04091989 -1.5811492
000060 36 be ab be 05 80 cf 3e 0f 9f fc 3e 86 94 4e c0
       -0.33543557 0.4052736 0.49340102 -3.2278152
000070 f0 26 1d be f9 f3 49 bf 91 6a 66 bb 9c 4b 46 be
       -0.15346885 -0.788879 -0.0035158733 -0.1936478
000080 e8 fa 28 bf 3b d9 06 3e db ef c2 be 62 7e f7 3f
       -0.6600785 0.13168804 -0.3807362 1.9335444
000090 57 f5 60 3f 69 88 c1 3c 19 5c 3b be 9f 52 a2 3d
       0.8787436 0.023624616 -0.18296851 0.07925915
0000a0 45 08 1d 3f df 4a 4d 3e 24 b5 00 3f 67 b9 9d 3e
       0.61340743 0.20048092 0.502764 0.30805513
0000b0 eb 68 17 c0 76 5f 37 3d 08 c7 14 3f 18 de c0 be
       -2.3657787 0.044768773 0.581162 -0.37669444
0000c0 eb e2 19 bf e9 94 8e bf 0b 6d b1 bf 26 a3 88 bf
       -0.60111874 -1.1139194 -1.3861402 -1.0674789
0000d0 1d 19 84 bf 3f f6 12 3f 1b f7 8f bf 34 34 bc bd
       -1.0320164 0.5740699 -1.1247286 -0.091896445
0000e0 a2 dc 9c 3e 88 12 18 be c0 b6 2f bf da 54 f7 3c
       0.3063708 -0.14850819 -0.6863823 0.030191828
0000f0 8e 77 f1 3e 0f 87 fc bf ed e7 96 be 24 d8 ad be
       0.47161525 -1.9728717 -0.2947382 -0.33953965
000100 49 b6 0e 3e 0f b6 bc be 7c 74 33 3e bf be a4 3f
       0.13936724 -0.3685765 0.17524904 1.2870711
000110 46 51 63 bd b2 14 02 3e d7 95 47 bc 06 bc 9a be
       -0.05549743 0.12703207 -0.012181721 -0.30221575
000120 ce 00 19 3f 07 04 0e 3f fa 62 21 c0 7a 75 a3 bf
       0.5976685 0.55474895 -2.521666 -1.2770226
000130 dd 92 86 3e 8c d9 31 bf f1 ab c1 be f5 e6 39 bf
       0.26283923 -0.69472575 -0.37826493 -0.7261804
000140 8f 24 0d 3e c9 a6 06 be ab 5a 15 3e b5 e6 1e c0
       0.13783477 -0.13149561 0.14585368 -2.4828312
000150 6a bb 9a 3f 86 38 22 c0 f4 63 4d c0 2d 33 49 bf
       1.2088444 -2.5347 -3.2092257 -0.78593713
000160 9c f1 a0 bd 1f 06 fb 3e 04 c4 e6 bf 70 d5 26 3c
       -0.07858583 0.49028108 -1.8028569 0.010182723
000170 0a 54 8b bf 96 39 54 bf 33 ab ed 3c 82 fc 97 3e
       -1.0885022 -0.8290037 0.029012298 0.29684836
000180 9d 9d 15 3f ed 04 7a 3f 35 45 17 bf 47 fd a6 bf
       0.58443624 0.97663766 -0.59089977 -1.3046044
000190 1a 0b b4 3e a9 46 3d bc e6 e0 22 c0 b7 de 1b 3d
       0.3516472 -0.011552491 -2.5449767 0.038054194
0001a0 1c d2 6b be 81 59 14 be 9d 1d fc bf d6 30 88 3e
       -0.23029369 -0.14487268 -1.9696537 0.2659976
0001b0 6b 71 c7 bd 81 84 da 3e 51 09 c4 bf fc 46 f1 b9
       -0.0973843 0.42679217 -1.5315343 -0.0004601999
0001c0 e8 a5 33 3f e2 66 ef be e5 cf 1d 3f bb 3a e1 3d
       0.7017503 -0.4675818 0.61645347 0.1099753
0001d0 2e 9c 75 3e 1c c4 09 3f 12 c1 d5 be c2 ff 66 3e
       0.23985359 0.53814864 -0.41748863 0.22558501
0001e0 7c 31 85 3e 21 03 2b bc 50 ee 04 3f e1 cd a0 bf
       0.26014316 -0.010437758 0.51926136 -1.2562829
0001f0 85 03 9b 3b 98 0e 42 3f 4f 03 61 bf bb a0 e2 bd
       0.004730644 0.7580352 -0.87895674 -0.11065813
000200 3d f4 1a bf f9 12 70 3f 16 b5 0b 3d 13 97 85 3f
       -0.6052893 0.9377895 0.034108244 1.0436729
000210 8a 3d 96 3c b5 ed 50 be 1d 81 fb be 22 41 19 3f
       0.018339891 -0.20403178 -0.49121943 0.5986501
000220 77 bd 14 3e c2 ca 85 be cc a0 c8 3e 56 50 5e bf
       0.145254 -0.26131254 0.39185178 -0.8684133
000230 76 7c 03 3d 1e c3 ab bf cd e3 9a bf ad a6 74 bf
       0.032101117 -1.341892 -1.2100769 -0.9556683
000240 23 74 9e bf 4b 49 89 bf 6b b3 45 be 4e 78 34 3e
       -1.2379192 -1.0725492 -0.19306724 0.17624018
000250 cd 67 77 3e 2a 02 ed be 28 f0 54 3f 0e 0e 83 3f
       0.2416069 -0.46290714 0.8317895 1.0238664
000260 7b 09 66 bf bf b0 c1 3e 6a 7e 2d 3c ba cc 40 3e
       -0.89858216 0.3783016 0.0105892215 0.18828097
000270 2f 06 0e be 63 c1 ce 3d 1f fb eb bc e7 2c e8 3e
       -0.13869546 0.10095479 -0.028806267 0.45346758
000280 d1 56 9d be 8e 85 a1 3d 67 da 44 3f ed 03 b0 bf
       -0.30730298 0.07886802 0.76895756 -1.3751198
000290 f5 85 33 bf 84 21 95 3e 18 f6 58 bf 6a f1 39 bc
       -0.7012628 0.29127133 -0.8475051 -0.0113490615
0002a0 99 8b 34 3e 6b f1 92 be df 01 1f 3f af d9 58 c0
       0.17631377 -0.28699812 0.6211223 -3.3882864
0002b0 a0 de b2 3e e9 d4 03 bf 5a 20 ce bd 66 de 8b bf
       0.34935474 -0.5149675 -0.10064764 -1.0927246
0002c0 88 4c f5 3c 7f 13 c2 bc 67 fd dc bd 6b 33 56 be
       0.02994372 -0.023690937 -0.1079052 -0.20918052
0002d0 79 9f d1 bd db d6 ab be 0c 6a 27 3d a0 38 66 bd
       -0.10235495 -0.3356236 0.04087262 -0.056206346
0002e0 dc 3d 05 bf 07 0c 62 bd 63 ac b6 be 43 65 7c bd
       -0.52047515 -0.05518725 -0.35678396 -0.06162001
0002f0 a7 fc 49 be 06 7a b3 be 09 39 e1 bd c7 ea f8 bd
       -0.19725285 -0.35054034 -0.10997207 -0.12154155
000300 f4 86 f0 3e 06 8c 42 be 80 ad f3 bf 95 6f a1 3e
       0.4697796 -0.18998727 -1.9037323 0.31530443
000310 b2 23 6e be b9 b0 75 3f 02 06 e3 3d d3 dd 9e bf
       -0.23255804 0.9597278 0.1108513 -1.2411445
000320 31 e0 cf 3e de 36 45 c0 fa 44 fa bd 1f e5 8e 3c
       0.40600732 -3.0814738 -0.122201875 0.017443238
000330 d8 0c 6a 3f c2 35 89 bf 89 e6 a3 bf 6f dd 96 3e
       0.9142585 -1.071953 -1.2804729 0.29465815
000340 a6 8e 0a bd 8d 84 be 3e 3a e9 5d 3c a0 24 25 3f
       -0.033827446 0.37210503 0.013544375 0.6450901
000350 f0 34 37 bf 28 63 92 3f e4 37 10 3f 8f 95 58 c0
       -0.7156515 1.143651 0.5633528 -3.3841283
000360 49 d0 19 3e db e5 27 3e 9d 79 eb be ec 2f 3e bf
       0.1502086 0.16396277 -0.4599122 -0.7429187
000370 97 e4 0e be 59 e0 28 3e f7 95 15 3c 03 87 0f c0
       -0.13954388 0.16491832 0.009129993 -2.2426155
000380 79 f4 a1 3e ef 1c cc 3e e8 d0 a9 3e 6b 62 25 3f
       0.3163183 0.39865825 0.33167195 0.646033
000390 6b dd 37 3f ac 30 8f bc 69 8c 06 c0 6e e1 4c 3e
       0.7182223 -0.017479263 -2.10232 0.2000787
0003a0 97 e0 1f c0 f6 79 98 bf 77 cc a2 bf 18 d2 57 bf
       -2.4980829 -1.191222 -1.2718648 -0.8430495
0003b0 17 fe 39 bf 9e 77 5d 3c 50 fa fe 3e f9 79 17 c0
       -0.72653335 0.0135172885 0.49800348 -2.3668196
0003c0 e9 0b 47 bf e6 e8 09 3f 9b 46 af bd 0b 1f 92 3f
       -0.7775255 0.53871 -0.08558389 1.1415724
0003d0 0d 2c 4f bf 0b 8c dc be 99 c7 aa 3f 0b b1 16 bf
       -0.8092659 -0.43075594 1.3342162 -0.58863896
0003e0 e0 a3 83 bf 7f 41 8b bf 0a ea b1 3d 2a 99 4f 3d
       -1.0284386 -1.0879363 0.086872175 0.050683178
0003f0 a3 d4 86 be e6 97 17 3e a8 68 f3 3e 96 34 6c bf
       -0.26334104 0.14804038 0.47540784 -0.9226774

fc2.bias f4 [16]
000000 f7 14 a8 3e a3 39 fc bf de 0d 24 bf 86 7c bd 3f
       0.32828495 -1.9705089 -0.6408366 1.4803627
000010 bd 4e 38 bd 2e 24 d3 be 98 7a 2d be 6d 36 cb bf
       -0.044996966 -0.4123854 -0.16941297 -1.5875984
000020 1f 10 74 3e 40 db 09 3f ae f2 39 3f ab 83 76 be
       0.23834275 0.53850174 0.72635925 -0.24073665
000030 7e ab f5 3e cb 07 49 3f 69 5f 73 bf 4d 2c ee be
       0.479824 0.78527516 -0.9506746 -0.46518174

fc3.weight f4 [16, 16]
000000 42 ac 50 bf d9 a3 dd bd ad c4 d6 bf 6e fc bb 3f
       -0.81512845 -0.10822267 -1.6778771 1.468641
000010 0e 87 25 bd 1a b6 06 3e e5 08 3e 3f 20 8c 29 bf
       -0.040412 0.13155404 0.7423232 -0.6622944
000020 91 7e fd bd e5 00 26 3f 11 07 1d 3f da 0e b0 3c
       -0.12377656 0.64845115 0.6133891 0.021491457
000030 8a ee ca 3e 8b c5 0d bf b8 06 8c 3e 92 66 ad bf
       0.39635116 -0.5537955 0.27348876 -1.3546927
000040 53 0d 41 3f d5 de ef be d4 93 1a 3f 64 ce 4f bf
       0.75410956 -0.46849695 0.6038182 -0.811743
000050 33 f5 88 be 44 14 4a bf df 6d 92 bd 2d 5b 98 bf
       -0.26749572 -0.7893717 -0.071498625 -1.1902825
000060 f4 6d 78 3e f5 82 fa 3e 2b 82 a8 3e d3 04 8e 3d
       0.24260694 0.48928037 0.3291181 0.06934514
000070 a2 81 29 bf 5a 70 5e 3e 96 bf 21 bf f2 b0 cd 3d
       -0.6621343 0.21722546 -0.6318296 0.10043515
000080 b3 6d 44 be 56 b6 4a 3e 64 e8 f3 be 99 68 51 3d
       -0.19182472 0.19796118 -0.47638237 0.051125143
000090 e8 5d 78 be c5 00 ca 3d c3 c9 6b be 60 53 9d be
       -0.24254572 0.09863428 -0.23026185 -0.30727673
0000a0 d8 47 89 be 64 5a 08 be f0 a5 8b bd 5d 5e ac 3d
       -0.26812625 -0.13315731 -0.068187594 0.08416436
0000b0 38 48 3f be ce 5f 58 3d c0 20 3b be a7 99 40 be
       -0.18679893 0.05282574 -0.18274212 -0.18808614
0000c0 3e 42 17 bf ba 73 22 3e d7 38 4c be 12 93 0c 3e
       -0.5908545 0.15864459 -0.19943558 0.13727978
0000d0 c9 1d fb bc e3 1e 85 be aa ae b6 bc 71 6a 04 be
       -0.030653851 -0.26000127 -0.022300083 -0.12931229
0000e0 b6 c1 93 3c 48 3a f0 bd 88 47 a3 be b9 aa 20 3e
       0.018036705 -0.11729866 -0.31890512 0.15690126
0000f0 7b fd 04 3e 3d 34 b1 bd e8 d6 43 bb 56 c7 2b be
       0.1298732 -0.08652542 -0.0029882733 -0.1677526
000100 73 85 be 3c ae 73 68 3f 5e 89 67 bf 7b 6b 32 3f
       0.023256993 0.90801513 -0.9044398 0.6969525
000110 75 92 08 3f 72 09 cd 3f bd 6f 36 3f 96 0f df 3d
       0.53348476 1.6018507 0.7126425 0.10891645
000120 81 b0 94 3c dc 7f ce bf 28 b6 3d 3f d0 09 12 be
       0.01815057 -1.613277 0.74106073 -0.14261556
000130 5a 16 19 3d a9 60 2e 3f 69 cd 56 3f 54 b1 bf be
       0.03737483 0.6811624 0.8390718 -0.37439978
000140 42 37 b9 bf 44 4f 60 3f 31 cd 19 3e f9 82 ae bf
       -1.4469988 0.8762095 0.1501968 -1.363372
000150 f9 eb 32 be 25 b9 89 3f 56 0f a5 3f 3a c0 8c bd
       -0.17472829 1.0759627 1.2895305 -0.06872602
000160 1a 44 b3 bf f5 65 37 3f 29 f7 ef 3e 99 69 46 bd
       -1.4005158 0.7163995 0.46868256 -0.04844055
000170 37 c1 82 3f 17 cd 55 3f 1b e4 a6 3f d4 ca 0b c0
       1.0215214 0.8351607 1.3038362 -2.1842546
000180 2f 1e 09 bf 62 d2 6e 3f a6 46 41 bf 2d 9f 68 3f
       -0.5356168 0.9328977 -0.75498426 0.9086788
000190 1c f5 45 3f 5e 07 b1 3f b3 75 a8 3e 44 23 c1 be
       0.7732713 1.3830373 0.32902297 -0.37722218
0001a0 69 25 2f 3f 1e 78 cc 3e 9b d8 34 3e 1d 52 10 be
       0.6841646 0.39935392 0.17660753 -0.14093824
0001b0 10 39 9a bf cc fe 41 3f 69 d3 f3 3f 74 b1 7d bf
       -1.2048664 0.75779414 1.9048892 -0.99098897
0001c0 71 2b a5 3e be a9 a5 3f 5b 89 ed be 4a f5 90 be
       0.32259706 1.2942426 -0.46393856 -0.2831214
0001d0 8b 3e 3d 3e b5 09 76 3f f9 26 54 bf 0b f5 f7 be
       0.1848089 0.9610856 -0.8287197 -0.4842914
0001e0 21 4b 63 3f e0 a2 80 be e2 3e df 3e f0 5f da 3c
       0.8878651 -0.25124264 0.43602663 0.026657075
0001f0 43 92 98 3f 1e a8 50 3f 35 83 7c be fc 7c 8c be
       1.1919636 0.81506526 -0.24659427 -0.27439106
000200 96 79 2e bd 9b b3 e0 3d 91 64 53 be 48 51 dd 3d
       -0.042596422 0.10971757 -0.20643832 0.10806519
000210 fe 0f d7 bd 92 41 a5 bd 33 d5 89 ba f1 13 40 bd
       -0.10501097 -0.08069147 -0.0010515809 -0.046894018
000220 86 03 b0 be d0 d0 ac be 05 8b 8d bd e0 79 4e 3e
       -0.34377688 -0.3375306 -0.069112815 0.20163679
000230 f3 8f 8b be 74 81 23 be df 13 2d 3d 00 34 10 be
       -0.27258262 -0.15967351 0.04225528 -0.14082336
000240 0a 98 7d bb 62 69 f9 bc 85 b3 ed be cc f2 f6 be
       -0.0038695359 -0.030445758 -0.46426025 -0.48232114
000250 16 dc 2d be 67 10 31 be 28 c8 38 3c 92 f9 9b be
       -0.16978487 -0.17291413 0.01127819 -0.30463845
000260 b3 0f b3 bd da 2b ec be ad 36 03 bf 38 b8 6d be
       -0.08743229 -0.46127206 -0.51255304 -0.23214805
000270 6b 3f 88 bc 12 e6 89 be 2d e9 50 be 83 06 49 bd
       -0.016631803 -0.26933342 -0.2040145 -0.049078476
000280 55 c3 23 bf ee 88 df 3e ea d8 b8 be 0b dc e6 3f
       -0.6396993 0.43659157 -0.36102992 1.8035902
000290 c2 88 d3 3e f8 10 7e be 52 19 7d bf 63 07 a2 3d
       0.41315275 -0.2481116 -0.9886676 0.07911565
0002a0 a5 a1 33 be 48 28 43 3e e5 23 cb 3e 66 2b bb bd
       -0.17542131 0.19058335 0.39675823 -0.09139137
0002b0 a6 36 9d 3f b0 7a 7f 3f f0 ac ba 3f 12 13 31 c0
       1.2282302 0.9979658 1.4584026 -2.766789
0002c0 be 79 20 bf cc e7 5f 3f 27 f1 b7 be 3e 7e d8 3f
       -0.62685764 0.8746307 -0.35926172 1.6913526
0002d0 21 21 4b 3f 5b 58 9e 3f 77 1f f2 3e c5 20 23 3c
       0.79347426 1.2370714 0.4728963 0.009956543
0002e0 fe de 0a 3f 55 98 34 bf 5c 8a 79 3f c2 c9 0f 3d
       0.5424651 -0.7054494 0.97476745 0.03510452
0002f0 3d cb 7f 3f f1 43 c6 be 56 4d 80 bf 47 92 c1 bf
       0.9991949 -0.3872371 -1.0023601 -1.5122765
000300 e4 58 ae be a6 c4 d8 3f 92 29 ba 3e d4 c9 63 3f
       -0.34052193 1.6935012 0.3635984 0.8897984
000310 70 00 2b 3f 38 0d 3e 3e 12 23 ea be 50 a6 57 3e
       0.6679754 0.1855973 -0.45729882 0.21059537
000320 a3 e7 7b 3f f2 ed c7 3d 17 94 0f 3f 7e b0 8d bd
       0.98400325 0.09762181 0.5608534 -0.06918429
000330 c1 af 43 3f ae 6d 08 bc e5 0a 17 3f 04 68 34 bf
       0.76440054 -0.008326931 0.59001 -0.70471215
000340 2c 5a ec be 74 e9 55 3f 87 35 a8 bf 80 f3 dc 3f
       -0.46162546 0.83559346 -1.3141335 1.726181
000350 8b b5 09 be 71 8b 9d 3f 7a 57 51 3f 3b da a8 bd
       -0.1344816 1.2308179 0.81774104 -0.08244749
000360 4c db fc be 22 60 d8 3e 3c 17 05 3f 83 37 0d 3e
       -0.4938606 0.42260844 0.5198858 0.13790707
000370 e2 9c 90 be 27 bb 7d 3d 2e f7 0c 40 c5 45 9b be
       -0.28244692 0.06194606 2.2025867 -0.30326667
000380 e3 b8 92 3d 18 41 cf be e7 ec c1 3e 98 9a 11 3f
       0.071641706 -0.4047935 0.37876055 0.56876516
000390 d6 fb b9 bf d5 a7 8e be d8 49 cb 3e 9e 54 35 c0
       -1.4529979 -0.2786242 0.39704776 -2.8332896
0003a0 cb 52 fd 3d 28 0c ab bf 48 7b 8f bf 5d 68 ca bb
       0.12369307 -1.3363085 -1.1209497 -0.006176992
0003b0 75 f3 34 bf c1 6b 02 c0 d2 f9 3e 3e 38 e0 d7 bf
       -0.70683986 -2.0378268 0.18649986 -1.6865301
0003c0 5a 32 3d be 51 f9 a0 3f ce 30 cb bd 38 9c a5 3f
       -0.18476239 1.2576085 -0.09921418 1.2938299
0003d0 42 40 d9 bf 6b 7a f7 3d dc 0e 4a bf 24 58 09 bf
       -1.6972735 0.12083896 -0.78928924 -0.53650117
0003e0 35 af e3 be 3f 85 ba 3e 48 dd ef be cf 35 4a 3c
       -0.4446961 0.36429784 -0.46848512 0.0123419305
0003f0 94 09 5a c0 f0 6f 48 bf 8e bb 9c be db 9d 1d 3f
       -3.4068346 -0.78295803 -0.30611843 0.61568993

fc3.bias f4 [16]
000000 34 02 9b 3d 56 17 5f 3f c4 30 0e bf 34 02 c0 be
       0.075687796 0.8714498 -0.5554316 -0.3750168
000010 47 aa 3b 3f 1a 59 d1 be 14 2c c8 3e 65 75 8c bf
       0.733067 -0.40888292 0.3909613 -1.0973326
000020 96 e1 f4 be 6a 1f 03 bf c5 94 d1 bd b6 2d 7d be
       -0.47828358 -0.5121981 -0.10233454 -0.24724469
000030 65 51 b1 3e e1 5c 97 be 26 1d 52 bf 54 3b 98 be
       0.34632412 -0.29563048 -0.82075727 -0.29732764

fc4.weight f4 [16, 16]
000000 dd 65 4a bd d0 03 01 c0 c5 01 9f bb 27 5e 8a bd
       -0.04941355 -2.0158577 -0.004852506 -0.067562394
000010 38 42 de 3d e2 25 53 3f d7 7a 06 be b0 d5 61 be
       0.10852474 0.8247968 -0.13132797 -0.22054172
000020 36 ac 1e 3e 90 38 9d be b6 ff 4a bd 4b 1a 8d 3f
       0.15495381 -0.30707216 -0.04956027 1.1023649
000030 d8 07 60 3d e7 33 e2 bb 97 a2 7f be 28 00 ec be
       0.05469498 -0.00690316 -0.24964367 -0.4609387
000040 a5 79 ba 3f 3d db f0 bd f2 50 5e be c6 c2 ad 3e
       1.4568373 -0.117605664 -0.21710566 0.33937663
000050 b6 47 20 3f c7 f0 9d 3f b3 ba 3a 3f 36 ce 7e 3d
       0.6260942 1.2339104 0.7294113 0.062208377
000060 c3 32 2b bd 64 1e c1 3d d3 e7 95 3e cd 4b 46 3f
       -0.041796457 0.09429625 0.2927843 0.7745941
000070 12 f4 ae 3e ca db a7 3f cd 97 93 be 6a 49 0c bf
       0.34170586 1.3113949 -0.28826752 -0.5479952
000080 7c 80 a8 be 60 38 b3 3e 95 22 82 3d 62 7e 11 be
       -0.32910526 0.35003948 0.06354252 -0.14208367
000090 05 2b 94 3e 71 d2 46 3f 0f 56 1d be 1d ab c2 bf
       0.2893907 0.7766486 -0.1536486 -1.520847
0000a0 74 0a 89 3e 9f 52 81 be c5 92 ad 3d ab d6 11 bd
       0.26765788 -0.25258347 0.0847526 -0.035605114
0000b0 80 b5 2c be a3 ec cc 3e 9c e9 90 be d3 7e dd be
       -0.16866112 0.4002429 -0.2830323 -0.43260822
0000c0 3e c8 82 3e 9e e6 03 c0 bd 57 53 be 2f f0 50 be
       0.25543398 -2.0609508 -0.20638938 -0.20404123
0000d0 6a 5c fe 3e 3f 06 d7 be d3 be b7 be 60 f2 86 3e
       0.4967988 -0.41996953 -0.35887775 0.26356792
0000e0 ab 82 19 3d 00 51 9a be 5d bf c3 3e d9 15 3f 3f
       0.03747813 -0.30139923 0.38231936 0.7464271
0000f0 b1 f5 2a 3e de 32 a1 3f eb f6 05 3f b7 82 8c bf
       0.16695286 1.2593648 0.5232989 -1.0977391
000100 20 aa 6e be 44 55 06 bf 94 2f 0a 3e 54 f4 0f be
       -0.23307085 -0.52473855 0.13494712 -0.14058048
000110 0a f4 08 bd 83 f7 68 bb f5 a0 cd be c6 57 23 be
       -0.03343586 -0.003554792 -0.40161863 -0.15951452
000120 95 c2 47 3e 24 04 55 3d 89 a1 9f be 1c eb e1 bc
       0.19507821 0.052005902 -0.3117793 -0.02757793
000130 a9 da 12 bd e5 6d a9 bd 4e 83 6b 3d bc 06 cb bd
       -0.03585306 -0.08272914 0.05749827 -0.09913394
000140 fc 43 f2 be fa 2c 6e bf 5b 2d 6a 3d e6 e4 e4 3d
       -0.47317493 -0.9303738 0.05717216 0.111764714
000150 98 fc 1b bf 1a 38 b9 bf f4 ad 20 3f 11 bf f7 bf
       -0.609323 -1.4470246 0.6276543 -1.9355184
000160 37 44 12 3e d9 7e 52 3d 98 b3 80 3f 0f f5 e2 be
       0.14283834 0.051390503 1.0054808 -0.4432759
000170 df e7 23 3e b8 41 43 bf 0d 10 a4 be 5b c9 0d 3f
       0.1600642 -0.76272154 -0.32043496 0.5538537
000180 75 35 e8 be 07 d8 55 3e 7b d3 92 bd d5 95 80 bd
       -0.45353284 0.20883189 -0.07169243 -0.06278578
000190 24 7a dd bf 67 26 a6 3f 1f 00 0c bd 54 e7 de bf
       -1.7302899 1.298047 -0.034179803 -1.7414346
0001a0 5d e0 68 bd 9b db ac bd 0a 8c c9 bf da 2b e3 3f
       -0.056854594 -0.08440324 -1.5745862 1.7747757
0001b0 a1 46 7b bf aa fd e1 be 42 a1 c6 bd 4f 92 88 bf
       -0.98154646 -0.44138843 -0.09698726 -1.066965
0001c0 f1 87 64 3e d0 2e b3 be 94 29 30 3e eb 34 4e 3d
       0.22317483 -0.34996653 0.17203361 0.050343435
0001d0 c8 69 cd 3e e5 eb 80 3f f1 67 42 3f 36 10 ac 3e
       0.40119767 1.0071989 0.7593985 0.33606118
0001e0 d7 bb f1 bb 1a 00 24 be e1 9b 2c 3f df 7c 1f 3f
       -0.0073771286 -0.16015664 0.6742535 0.62299913
0001f0 b7 a8 81 3e 2c 00 31 3f 4a d4 2a bf 24 99 be be
       0.25324032 0.6914089 -0.6673018 -0.37226212
000200 f2 7e dd be a1 35 42 3f 57 5b aa 3c 9f 5f db 3d
       -0.43260914 0.7586308 0.020795507 0.10711598
000210 65 b0 be bf e9 d6 4f 3f e9 b3 af bf da 9e ed be
       -1.4897581 0.811873 -1.3726779 -0.46410257
000220 c6 f0 12 be e3 36 28 be 15 65 a6 bf 41 26 a1 be
       -0.1434966 -0.16427188 -1.2999598 -0.31474498
000230 77 0f 0f bf bf 85 36 be 1d 1d ca bf 4d ed eb 3e
       -0.5588297 -0.17824458 -1.5790135 0.46079484
000240 db 71 42 bd 93 f4 94 be b0 45 75 3e 80 a2 68 bc
       -0.047471862 -0.29092845 0.23952365 -0.014198899
000250 7f 4f 86 bd 79 b9 b5 be 6c 9f fa bd 68 79 61 be
       -0.065581314 -0.35493067 -0.122374386 -0.22018969
000260 60 25 35 3c b0 8d 06 3d fd e6 18 be a6 d0 97 be
       0.011056274 0.032849967 -0.14931865 -0.29651374
000270 69 5e 50 be d6 6d af 3d c4 86 63 be f7 e6 14 be
       -0.20348515 0.085658714 -0.22219378 -0.14541231
000280 0e 6a 0f 3f ea 6e 08 be 83 fd 0f 3e e6 c3 f3 3c
       0.560212 -0.1332356 0.14061551 0.029756498
000290 fa 1b 6f bf 5c b3 92 bf 6c e5 fd 3e a1 58 15 3d
       -0.93402064 -1.1460986 0.49589097 0.036461476
0002a0 34 7f 28 bc f8 cc 91 be bb 63 b0 bf 17 a3 1b 3e
       -0.010284234 -0.2847669 -1.3780435 0.15198933
0002b0 4a 54 01 3e 72 bb 28 3f fd ee 04 3f 99 90 b7 3f
       0.1262981 0.6591102 0.5192717 1.4341003
0002c0 5e b5 75 3d 68 7d 27 be dc e3 75 be 32 dd 17 be
       0.05998742 -0.16356432 -0.24012703 -0.14830473
0002d0 e2 71 13 bd 2a 8c b7 be ce b7 bc be c1 79 9b be
       -0.03599728 -0.35849124 -0.36858982 -0.30366328
0002e0 80 d2 ad 3c e6 76 21 be 25 29 c8 be 3b 56 88 3c
       0.021218538 -0.15768012 -0.3909389 0.01664268
0002f0 e3 b5 7d 3c 87 47 48 be 25 4f ba 3d a4 a0 cd bd
       0.01548526 -0.19558536 0.09097127 -0.100404054
000300 66 0c 84 be 99 4a 16 c0 a7 59 42 3d f4 10 24 be
       -0.2579071 -2.348303 0.04744878 -0.16022092
000310 28 0f e5 3e b4 36 b5 3e 87 4b 01 3e 36 86 cc 3e
       0.44738126 0.35393298 0.12626468 0.39946145
000320 4d f1 78 3d 42 ef 23 3c 65 ab 83 3e 62 a2 ee 3e
       0.060776997 0.010005774 0.257167 0.46608263
000330 ca 65 f5 3d ce 87 6c 3f 1e 84 6a 3f 10 d1 3a bf
       0.11982305 0.9239472 0.91607845 -0.72975254
000340 bc 53 d8 bc ae ce f0 be 41 f4 2e 3d ee ae 1a 3e
       -0.026407115 -0.47032684 0.042713407 0.15105793
000350 d7 5e 93 3e a7 06 11 3f e9 23 9c 3e a7 93 2d 3f
       0.28783295 0.56650776 0.30496147 0.67803425
000360 a9 e3 2a 3e ab 8a 80 be 69 2e 1e 3d 94 86 ac bc
       0.16688408 -0.25105795 0.03861848 -0.021060266
000370 50 c8 91 be 9e 54 61 3f eb 1a ca be 58 3f 48 bf
       -0.2847314 0.8801974 -0.39473662 -0.78221655
000380 79 d0 13 c0 6a db 84 3e 99 a9 59 3d 2f fc 28 3e
       -2.3095992 0.2594865 0.053140257 0.1650245
000390 04 60 47 bf e7 a7 1c 3f 08 37 70 3f 4e 1d 9f bf
       -0.77880883 0.611937 0.9383397 -1.2430818
0003a0 e6 f6 16 3e 07 8e f3 3d 5e bb 3f 3f d1 49 44 3f
       0.14742622 0.11892324 0.74895275 0.76675135
0003b0 08 56 f1 bf 7f 34 a8 be 36 17 94 3e 6d 2a 78 3e
       -1.885438 -0.3285255 0.2892396 0.24234934
0003c0 4c ba fa bd d1 d2 18 be 8c 6e c2 3d 14 01 92 bd
       -0.122425646 -0.1492417 0.094937414 -0.07129112
0003d0 eb d1 6e bd 45 b5 9e be 80 b9 ec be 15 8a 49 3b
       -0.058305662 -0.30997673 -0.46235275 0.003075247
0003e0 3b 89 8b 3e 00 bf 2c 3c 8d c7 77 be e2 f1 51 bc
       0.27253136 0.010543585 -0.24197216 -0.012814017
0003f0 e6 b1 5d be 41 95 f0 bd f3 47 aa bd 88 ff 0a be
       -0.21649894 -0.11747218 -0.083145045 -0.1357404

fc4.bias f4 [16]
000000 a3 2a a9 bf a4 c4 85 be a2 5d ed 3d 07 a5 a6 bf
       -1.3216137 -0.26126587 0.11590125 -1.3019112
000010 25 d3 18 bf 98 40 a3 3e b8 9a 26 3f 68 11 14 bf
       -0.5969718 0.3188522 0.6507983 -0.5783906
000020 5a cf e8 bd 0c 7b 04 be 89 73 49 3f fa a0 bf be
       -0.11367674 -0.12937564 0.7869192 -0.37427503
000030 2c de db bf 9f 84 c5 be b9 19 d8 3e 68 fe 09 be
       -1.7177176 -0.38577744 0.42207125 -0.13475955

fc5.weight f4 [16, 16]
000000 78 f6 98 3e d0 e5 c3 3e ee a7 21 bf 0a 5c 3e 3f
       0.2987554 0.3826127 -0.63146865 0.7435919
000010 28 aa 58 bd cc 56 d4 3d e5 01 60 3e 3e 0f d5 bd
       -0.05289665 0.10368118 0.21875723 -0.10403298
000020 f8 f8 08 3d 8c 48 47 3e 84 47 b7 bf 41 29 32 3e
       0.03344056 0.19461268 -1.43187 0.1739855
000030 cd a5 7c 3f 7a ad ef 3b d3 5b 61 3f 5c 50 09 bd
       0.9869049 0.007314381 0.8803074 -0.033523902
000040 f0 e4 08 bf bd 61 cf 3e 03 6b 38 bd 72 cd 3a 3f
       -0.5347433 0.40504256 -0.04502393 0.72969735
000050 b5 54 80 be 6d 3b 9a be b6 d9 22 c0 dd 68 25 3e
       -0.25064626 -0.30123463 -2.544538 0.16153283
000060 00 5a c6 be 31 90 67 be 2e 50 b5 bf 25 69 01 be
       -0.3874054 -0.22613598 -1.4165094 -0.12637766
000070 2d e8 43 3f b4 44 9c 3e 36 e1 0a c0 28 a7 81 3d
       0.7652615 0.30521166 -2.1699958 0.06330711
000080 89 2e 1a 3f 57 ef e1 bd 29 cf 86 bf 25 92 bf 3e
       0.60227257 -0.110319786 -1.053197 0.37416187
000090 07 e4 f5 bd 7a e7 5b be 9c 29 8c bf 7b 2a 3e bc
       -0.120063834 -0.2147502 -1.0950198 -0.011606808
0000a0 bf 32 a9 be a9 1b 44 be ab 45 83 be b4 74 a5 be
       -0.3304653 -0.19151177 -0.2563909 -0.323156
0000b0 02 a4 52 3f f5 e2 92 be ad c6 0c 3c a4 e0 46 3e
       0.82281506 -0.2868878 0.00859229 0.19421631
0000c0 5c 08 58 3d 73 b7 ab bc 4d 4d b4 be 4c a7 06 3e
       0.052742347 -0.020961499 -0.35215226 0.13149756
0000d0 80 79 fc bb f2 e0 28 be 4c 85 d4 bd dd 26 c5 be
       -0.0077049136 -0.1649206 -0.10376987 -0.38506213
0000e0 31 59 75 bd 36 26 2e be 45 80 58 be 50 1f dd bd
       -0.059899513 -0.17006764 -0.21142681 -0.10796988
0000f0 6b c9 1d be 35 d6 86 be 88 d4 75 bd 98 18 d5 3d
       -0.15408866 -0.26335302 -0.06001714 0.104050815
000100 6d 42 e1 be ef 74 b0 be c4 be e7 bd df 35 cf be
       -0.4399599 -0.34464213 -0.113156825 -0.40470788
000110 20 8a ff bc e2 9a 77 3d ae d3 c2 be 7b d4 42 3a
       -0.031193793 0.060450442 -0.38052124 0.0007432175
000120 9d f8 8b be 34 ff ff 3d 06 ae 14 be 86 07 15 be
       -0.27338114 0.12499848 -0.1451951 -0.14553651
000130 5c d2 b6 bd f0 8c 20 3c b0 a8 f6 bd c0 dd c5 bb
       -0.089268416 0.009799227 -0.12043893 -0.0060383976
000140 df 05 48 bf 2a 42 af be f2 73 0d bf 3d 3e 9f be
       -0.7813396 -0.34230167 -0.55255044 -0.31102172
000150 0c af d9 3d a2 2c a6 3f 91 9d 28 3f 4e 49 8d be
       0.10629091 1.2982371 0.6586543 -0.2759499
000160 d2 80 6a be 3e 11 41 3e ac 17 8f bd 94 dd 03 bd
       -0.22900704 0.18854234 -0.06986937 -0.032193735
000170 c8 16 35 3f 35 49 a0 3e 96 60 86 3e 68 08 74 3d
       0.70737886 0.31305853 0.26245564 0.05957833
000180 39 08 0e be 36 dc ce be 42 72 84 3d 25 91 10 be
       -0.13870324 -0.40402383 0.064671054 -0.14117868
000190 e4 50 dc 3d 7b f6 08 3c 96 b4 8b bc b1 d7 0b bd
       0.10757616 0.008359547 -0.017053884 -0.034141246
0001a0 d7 46 0e be 14 8f a3 bd 78 4f 34 be f0 7b 30 3e
       -0.13894211 -0.07986274 -0.1760844 0.17234778
0001b0 a3 d0 e7 3d 2f 3c 9a be 23 47 01 be da e6 b6 3d
       0.11319091 -0.3012404 -0.12624793 0.0893075
0001c0 11 3c cd 3e a7 b0 35 3d 29 3a ad bf 31 9b fb 3e
       0.4008489 0.044357922 -1.3533374 0.4914184
0001d0 5c af 41 3e dd 5e f4 be 61 91 1c bf 86 9a 83 be
       0.1891455 -0.47728625 -0.6115933 -0.2570383
0001e0 cf d8 19 bd 64 02 5e 3d 20 14 90 be bd 28 01 be
       -0.03756028 0.0542015 -0.28140354 -0.12613197
0001f0 84 6e 4c 3f f6 7c c0 be 59 f0 e4 be f9 82 a5 bd
       0.79856133 -0.37595338 -0.4471462 -0.08081622
000200 e4 75 93 be 1b 35 7d be c2 84 e8 be 63 39 ba bd
       -0.2880088 -0.2472729 -0.45413786 -0.09092977
000210 f0 37 bb 3d 8d 8f ca be 33 a0 d8 bc 39 62 4f be
       0.091415286 -0.39562646 -0.026443576 -0.20252313
000220 34 d7 5b be d0 96 37 3d 68 16 23 bd 34 0c 78 3e
       -0.21468812 0.04482156 -0.03981629 0.24223405
000230 2e 38 7e be 95 ec c7 bd 82 3e 16 be 94 0d 07 3e
       -0.24826118 -0.09761921 -0.14672282 0.13188773
000240 40 05 22 3f ff 52 c3 3c 7a 7e a3 bf b7 81 57 3f
       0.6328926 0.023843287 -1.2772973 0.84182304
000250 a4 11 a5 bd 3b 6f de 3e 4b 48 af bf 64 24 9b be
       -0.08060005 0.43444237 -1.3693937 -0.303012
000260 bd 68 15 3f b8 ce 4a 3d c9 6c 19 bf da e1 63 be
       0.5836294 0.04951355 -0.5993162 -0.22254124
000270 95 ea 94 3f eb 11 1f 3e 9d 01 0a bf ab 70 c9 3c
       1.1634089 0.15534179 -0.5390871 0.024589857
000280 c7 a4 f1 bd 0c d6 bc 3e 00 4f 9b 3e c7 fd 98 be
       -0.11799007 0.36882055 0.3033371 -0.29881117
000290 ad 5a 97 3d da 6f 7e be 05 5e 91 3f a1 c0 ff be
       0.07390342 -0.24847355 1.1356817 -0.49951652
0002a0 2e 9a 24 3f a0 dc 32 3e 06 81 97 be 34 29 87 bd
       0.6429776 0.17466974 -0.29590625 -0.06599656
0002b0 13 31 2d 3d c7 2b 5e bf 5b 27 43 3f 34 38 1e bd
       0.04228313 -0.8678555 0.76231927 -0.03862782
0002c0 85 a9 a1 3f d4 65 f5 3c bd bd 7e bf 30 fc 68 3f
       1.2629858 0.029955782 -0.9950827 0.9100981
0002d0 ff 88 c8 3c 86 f5 00 bf 6c ba a9 bf 05 ee 9c 3e
       0.024479387 -0.5037464 -1.3260016 0.30650344
0002e0 25 82 e5 be 6d 64 9b 3d cc de 28 bf aa c5 3a be
       -0.44825855 0.07587514 -0.6596496 -0.18239465
0002f0 7b 37 be 3f 93 82 04 be d9 20 5e 3f 1a 93 ed 3c
       1.4860681 -0.12940435 0.8676887 0.029000808
000300 43 f5 d6 3e 53 21 85 bf 34 95 57 3e c7 c5 00 3f
       0.41983995 -1.0400795 0.2105301 0.50301784
000310 0a be d7 bd 2d 15 ba bf 46 a1 10 3f 0b 9a 48 be
       -0.10534294 -1.4537712 0.56496084 -0.19590013
000320 8e 12 39 3f 1a 82 f6 bc 12 8d 15 be d8 a0 74 be
       0.7229394 -0.030091334 -0.14604595 -0.23889482
000330 45 a9 a0 3f 18 44 a6 3e a5 e4 44 3f 5b d3 6c 3e
       1.2551657 0.32473826 0.76911384 0.231275
000340 50 3c b5 be 7e 77 8f 3c 6b e5 65 3e ca ff 4a 3f
       -0.35397577 0.017513033 0.22450797 0.79296553
000350 ed 24 8c be 0f 50 c7 bd 31 3f af 3d 72 72 21 be
       -0.27371922 -0.09732067 0.08556975 -0.15766314
000360 59 d6 91 bf 41 06 3b 3e 9f 5d e9 bf ab 24 bc 3d
       -1.1393539 0.18264104 -1.8231696 0.09186681
000370 94 14 05 3f a6 39 29 be 28 d0 fa 3e c1 81 c5 3d
       0.51984525 -0.16525897 0.48986936 0.09643889
000380 c4 15 b5 3e 7c 65 97 3e 42 92 f6 be 3a f2 f5 3e
       0.35368168 0.29569614 -0.4815846 0.48036367
000390 75 86 89 3d 0a 45 90 3c 15 e4 54 bf c1 2a d2 3e
       0.06715099 0.017611045 -0.83160526 0.41048244
0003a0 8a f0 44 bf a8 9f c1 bc 95 58 9b be 02 c8 b1 bd
       -0.76929533 -0.0236357 -0.3034102 -0.086807266
0003b0 31 ec f1 3e a1 30 ac 3e 0e 64 19 c0 07 11 e4 3d
       0.47250512 0.3363085 -2.3967319 0.1113606
0003c0 a5 64 80 3e 14 0d 33 3f 02 4e e4 3d bb bc 78 3f
       0.25076786 0.6994183 0.11147691 0.9716298
0003d0 cf b3 81 be 29 ce 8d bf 45 0e 91 3d 28 a8 c2 3e
       -0.25332496 -1.107854 0.070828 0.38018918
0003e0 1c 15 9d bf e2 5e 52 3d 0e 05 a8 be 31 c9 10 3c
       -1.2272067 0.05136002 -0.32816356 0.00883703
0003f0 33 be 7d 3f 0c ac 1c bd e1 6f 00 bc e3 c8 50 3d
       0.99118346 -0.038250014 -0.007839174 0.05097283

fc5.bias f4 [16]
000000 07 e2 e6 bf f8 77 38 be a2 5f 99 bf 33 e9 bf bc
       -1.8037728 -0.18014514 -1.198231 -0.023426628
000010 3a 28 76 be 6e a6 a7 3f 3b 16 97 be d7 7c 7e bf
       -0.24038783 1.3097665 -0.29509148 -0.9940924
000020 a7 4c 37 bf 3b cd 7a bf a7 65 62 bf 9c 62 d4 bf
       -0.7160134 -0.97969407 -0.8843636 -1.6592593
000030 cd 96 a2 3e a1 de ed 3d 9c 58 01 bf 41 2e eb bd
       0.31755677 0.11614729 -0.5052583 -0.114834316

fc6.weight f4 [16, 16]
000000 10 1e 1d bb 6f a9 86 bd 5e 5a 6e bd fc 36 ca bd
       -0.0023974217 -0.06575286 -0.05819165 -0.09873769
000010 4a e7 ed 3c 9c 1f ab be 53 aa ce bd 58 a9 98 bd
       0.029040951 -0.33422554 -0.100910805 -0.07454175
000020 bb 07 04 3e c5 d9 a2 be 68 8a 2e 3c 97 cf ef 3c
       0.12893574 -0.3180677 0.010653116 0.029273791
000030 5f 54 e5 bd 74 a5 ad bd 0b d6 8e 3d 14 0b ac be
       -0.11197733 -0.08478823 0.06974419 -0.33602202
000040 c0 88 52 3c b1 c3 03 bd aa 15 02 3d 02 6a 49 3e
       0.012849987 -0.032169048 0.03175894 0.19669345
000050 90 59 37 3d 92 5d a8 3c 10 53 02 bd 8c 63 d2 bd
       0.044763148 0.02055243 -0.031817496 -0.10272893
000060 04 31 a8 3d fc aa 72 be 80 48 2f 3c 48 31 65 bd
       0.08212474 -0.23698038 0.010698438 -0.0559552
000070 ae 10 5c be 46 6c 94 be 23 6b 7e be be ae 1f bc
       -0.21490738 -0.28988856 -0.24845557 -0.009746252
000080 ed bf bd 3e bc 2e 27 3e 21 4e c5 3e be a0 46 3e
       0.3706049 0.16326421 0.3853617 0.19397256
000090 80 a7 d8 bd 16 33 29 bd d0 96 d3 3c 81 22 d1 3d
       -0.10578823 -0.041308485 0.025828749 0.10211659
0000a0 14 af 2d 3e d6 32 09 3f 1f 7c ce be db b3 a5 3f
       0.16961318 0.53593194 -0.40329072 1.2945513
0000b0 3e 32 6e bf 0c 29 99 3d 0e 9f 99 3e 26 22 88 be
       -0.93045413 0.07478532 0.30004162 -0.26588553
0000c0 4d c7 1d 3f e5 be d6 3d a5 b9 73 be a0 8d 39 bc
       0.61632234 0.10485629 -0.23801287 -0.01132527
0000d0 f9 49 5e 3e 2a 95 a6 be 34 d5 8f 3d 35 69 78 be
       0.21707906 -0.32535678 0.07023087 -0.24258883
0000e0 e3 59 80 be 1b ec ef 3e d2 df 42 bf 78 0d 88 3f
       -0.25068578 0.46859822 -0.7612277 1.062911
0000f0 a9 ec ee bf ae 54 69 3e b4 06 e7 3c a4 7d 0e 3e
       -1.8665973 0.22786209 0.028201438 0.13915116
000100 66 62 24 3e c0 e1 b6 3d ba d6 f4 bb 3e dc 50 be
       0.16053161 0.08929777 -0.0074718865 -0.20396516
000110 9e d5 ff bd 86 60 0a bf 68 73 24 be 56 8c c7 bc
       -0.12491916 -0.54053533 -0.16059649 -0.02435891
000120 41 ee f9 bd 20 94 44 be 4a fc 40 bf be c9 eb 3c
       -0.122036465 -0.1919713 -0.7538496 0.028782722
000130 b4 d7 1b bf 0d f3 7b be 9d a2 98 be 51 67 a7 be
       -0.6087601 -0.24604435 -0.29811564 -0.32696012
000140 b3 ce 09 3e 1a 77 10 bf 42 ba be be a4 55 4f 3e
       0.13457756 -0.56431735 -0.37251478 0.20247513
000150 9d 5b df bd aa ab 33 3f 9d f8 f0 3b 92 e6 da be
       -0.10906146 0.70183814 0.0073538558 -0.42754036
000160 6e 8f 5c be fc 96 a0 bf 6a 2d 41 be 0b a6 73 bf
       -0.21539089 -1.2546077 -0.1886498 -0.95175236
000170 b4 f0 4c 3e b2 e6 c8 bd 57 9a e6 3e 32 9a 45 bf
       0.20013696 -0.09809627 0.45039627 -0.7718841
000180 4e 4c 3b bf f2 40 68 be ed 8a 5d bf 5c 2c 5d be
       -0.73163307 -0.22681025 -0.8654011 -0.21598953
000190 f9 d3 07 be b4 0a 14 bd ee f5 77 3e 44 6f c9 bd
       -0.13264455 -0.03614302 0.24214908 -0.09835675
0001a0 60 63 df 3d 53 b5 c8 be bd 59 e9 be ac dd a5 be
       0.10907626 -0.3920084 -0.45576277 -0.32395685
0001b0 e4 d4 31 be 87 aa 62 3e f5 94 d6 3d 82 03 a4 be
       -0.17366368 0.22135364 0.1047763 -0.32033926
0001c0 83 0c f0 3d 39 61 a7 be c1 89 d6 3b 55 65 ce 3d
       0.117211364 -0.32691363 0.0065471833 0.10077921
0001d0 0b fc a1 3c e6 e3 53 be b7 c0 4e 39 ec c1 4b 3e
       0.019773504 -0.20692405 0.00019717483 0.19898194
0001e0 c6 8b 2e 3d 94 72 15 3d 6c 69 ff be 2b d3 74 bd
       0.042613767 0.036486223 -0.49885118 -0.059771698
0001f0 19 5c 36 be a5 20 48 3e 4d b6 10 be 89 5f 2a be
       -0.1780857 0.19543703 -0.14132042 -0.16638006
000200 e6 b1 f2 3d 49 94 fe bd 59 28 83 be 35 0d 22 3d
       0.11850338 -0.12430627 -0.2561672 0.039563376
000210 63 d8 ea bd 96 99 2e bd ea 29 fc bc 4e df 86 be
       -0.11467054 -0.04262694 -0.030781705 -0.26342243
000220 1a bf 63 3e 5a 3a 1a 3f df 8a a2 be e1 2e ba 3e
       0.22240868 0.6024529 -0.31746575 0.3636389
000230 a1 c1 43 bf c2 3e ff be 17 50 f7 bd b1 1c 87 be
       -0.7646733 -0.49852568 -0.12075823 -0.26389077
000240 39 0a 8c 3e 12 d9 78 be 09 43 95 be 7e 35 9a bd
       0.2735155 -0.24301556 -0.29152706 -0.07529734
000250 e6 ee e4 bd 11 ef 1f 3f 6d 94 96 bd e9 62 36 be
       -0.11178379 0.6247416 -0.07352529 -0.17811169
000260 d0 12 4f 3e 72 bb 09 bf 9a 4c 13 3f b2 03 bd be
       0.2022202 -0.53801644 0.5753876 -0.36916882
000270 32 e5 fe 3e 96 0b 98 bf a8 76 e3 3d 31 28 50 bf
       0.49784237 -1.1878536 0.11106616 -0.8131133
000280 fe 87 19 be 10 bf e9 3d ae 29 4b be 08 44 09 3e
       -0.14993283 0.114133954 -0.19840118 0.13404858
000290 e6 d4 5f be ac d6 e9 bd 54 26 c2 bd 00 db 9e 3c
       -0.21858558 -0.114178985 -0.09479967 0.019391537
0002a0 e0 ca 0f 3e c0 6d 35 bc 9c 8f 0b be b0 3c 94 3d
       0.14042234 -0.01107353 -0.13629001 0.07238138
0002b0 3d 3d 94 be fc 33 9d 3d 88 71 73 be 9a 83 7a be
       -0.2895297 0.07675931 -0.23773777 -0.24464265
0002c0 dd 7b 91 3e af 9e 1e bd 65 2d f6 bd 00 5e a5 bd
       0.28414813 -0.03872555 -0.12020377 -0.0807457
0002d0 fa ab 81 3e c9 bc 5c bf b8 26 bb bd 4e 6c 73 bc
       0.2532652 -0.86225563 -0.091382444 -0.014857365
0002e0 67 ef 70 bd 52 9e dd 3e e2 93 ac be 1e 85 46 3f
       -0.058822062 0.4328485 -0.33706576 0.7754687
0002f0 d5 5e 77 bf 7b 3a c1 be ad 5f 38 be 98 78 d1 be
       -0.9662908 -0.3773993 -0.18005247 -0.40912318
000300 57 99 02 3f b3 7c f0 3e ad 11 18 bc ef 91 d0 3d
       0.5101523 0.46970138 -0.009281558 0.101840846
000310 b7 6e 83 bc 01 a6 a2 bf aa 4f 9b 39 e9 21 86 bb
       -0.016044004 -1.270691 0.00029623258 -0.004093398
000320 12 8b 52 3e 23 d8 0e 3c 3b 2d 1c bf 74 d9 43 3f
       0.20560864 0.008718523 -0.61006516 0.7650368
000330 00 43 e7 be 00 6b 94 3d c4 f3 d0 3e 0a 61 f2 3e
       -0.45168304 0.07246971 0.40810978 0.4733966
000340 c9 12 10 3d 25 86 53 be 67 83 b7 3d 40 9b 06 bc
       0.035174165 -0.20656641 0.0896061 -0.008215725
000350 8c 57 9b bd 8c e3 a3 bd 36 ef 30 3e cc 30 98 3b
       -0.075850576 -0.080023855 0.17278752 0.004644489
000360 04 fb 07 3e 6b 41 83 bd 10 f2 c5 be c3 cc be 3c
       0.13279349 -0.06408962 -0.38661242 0.023290997
000370 a6 80 25 be eb b3 47 be e6 2a 9f be 92 7c 47 be
       -0.16162357 -0.19502227 -0.31087416 -0.19481114
000380 b4 96 13 3f 62 09 d6 bd 3c 18 6d be 01 83 25 bd
       0.5765183 -0.104510084 -0.23153776 -0.04040814
000390 61 63 a5 3e 0e c1 b7 3d 93 bb ba bd 2f 7b b2 be
       0.32302383 0.08972369 -0.09117808 -0.34859607
0003a0 84 76 d3 bd 5c 6e e8 3e d1 f1 51 bf 2d 92 3c 3f
       -0.103253394 0.45396698 -0.8200961 0.73660547
0003b0 e5 8e 71 bf 33 ac 3d be fc d6 88 3c ac 20 de bd
       -0.94358665 -0.1852272 0.016704075 -0.108460754
0003c0 8c 4e 19 3f 18 f8 80 be aa 28 a9 3e 8f 78 9e bd
       0.5988548 -0.2518928 0.33038837 -0.077378385
0003d0 c6 2c c8 bd ed 78 ca be fe 43 3c be d5 77 cf 3e
       -0.09774165 -0.39545384 -0.18385312 0.40521112
0003e0 6c 3e 7b bc 34 55 05 3f f0 78 47 bf 04 17 b9 3f
       -0.015334707 0.52083135 -0.7791891 1.4460149
0003f0 89 37 8d bf 4c 05 82 be a1 77 22 bd 23 f9 13 bf
       -1.1032573 -0.25394666 -0.03966487 -0.5780203

fc6.bias f4 [16]
000000 97 8d b5 be f2 5e a6 be c6 f4 a1 bf dc 55 61 3c
       -0.35459587 -0.32494313 -1.2652824 0.013753381
000010 a7 a0 92 bd c4 36 68 bd 7a 43 0d bf 02 c6 e9 bd
       -0.07159548 -0.056692854 -0.55181086 -0.1141472
000020 8a e0 9a be 0c 77 30 be 6a dc 33 be c2 cc 44 bf
       -0.30249435 -0.17232913 -0.1756455 -0.76874936
000030 0d 1b 1d 3e 55 cc fb be 37 db 1f bf f5 b6 e2 bf
       0.1534235 -0.4917933 -0.6244387 -1.7712084
