data/results/1731777357.pth (torch, 14114 bytes, 16 tensors)

fc1.weight f4 [16, 32]
00000000: 0814 f4bd b6e6 843f 0398 1ec0 a965 f7bd
00000010: 6edc f93c 17f7 d0bb 2c44 abba da21 c13e
00000020: e63a d3be 2510 20bd f716 db3e b3e0 7a3d
00000030: a047 6bbd d51e f43d 7d0c 233f 8526 dabd
00000040: 1b66 613e df68 103f 34ad 663e 7f8e 993e
00000050: 2bc2 37bf abc0 8a3e 5315 863f 887a 023f
00000060: 7e64 bd3e 76f4 3c3e 57f2 ca3b e95c 333e
00000070: ffd0 d7be 88bf 733e d7f2 00be effa 763d
00000080: 08ae c1bd b09e 46be 004b 77c0 3893 5bbe
00000090: 611a 94be 9131 063e dfaf 193d a765 d63e
000000a0: 2259 d6be 0b48 0a3d cd3f 773e c8f4 40bf
000000b0: f3d7 3d3e 86a1 cbbe 2357 32bf eea1 523e
000000c0: 6338 ef3e 6ce8 20bf d529 37be 1263 133e
000000d0: f533 13be f99c d0bd 57e0 613e d4d3 053f
000000e0: 0987 e83e de31 e3ba 5a14 433e f5a2 79be
000000f0: 0ee7 c93c c149 a83d a845 bd3e 6619 5b3e
00000100: ca4b 5ebe 2132 5a3f eaec 173e c0ff 6e3e
00000110: 9e2d 353f 912e 32bf 60d9 ffbe 29d6 a43e
00000120: 99aa ba3d 2875 3bbd b1da 823e cdb1 023e
00000130: 92e5 f7be d2eb e03d 3f46 123f bcdc 31be
00000140: cc79 ba3e 11f5 283f a0de f8bd cc9e 3bbf
00000150: b1be dbbc e19d e1be 7d4d 8bbf f10a cf3e
00000160: c7b8 003f 3891 173f 8864 5c3f 1991 053f
00000170: 739c c4be 4ee8 03bf 1680 403e 20f0 903d
00000180: a0b3 083b e142 393d d089 52c0 74d9 80be
00000190: c951 ccbe 405b 043e 0625 323d c0d4 e93e
000001a0: ff03 3a3f 53de 9fbe 72cd 6f3e 41b3 203f
000001b0: 2a30 e7ba 2f2f 573e 61ac 03bf c34f 143f
000001c0: cf1d dd3e 975b 03bf 6c2e 9abe ae60 1cbf
000001d0: a0be e13e cbfb 033f 43af 5dbe 7031 4c3f
000001e0: 15ff 7f3e 4b68 093f 2fff 0e3f e848 143e
000001f0: 5ceb d5be 3d88 28bd 83be 02bd 53bf b73e
00000200: fdf4 45bd 502a b73c 348c 06c0 7f60 3bbf
00000210: 0f10 cabe 6377 8f3e 4855 273f 0793 453f
00000220: fd0d 8abe 1b80 4e3e 3cfe 403f 6856 1bbf
00000230: ffcb f7be 980b 03bf 051a 49bf 79a3 8fbe
00000240: 4de0 4e3f 5f03 ef3e 91c9 bc3d 541b 4fbf
00000250: bec8 d63e 3c5c a0be b94e 50bf 3f5a 413f
00000260: ea31 493f dbb4 983e 0412 af3e b240 753d
00000270: 46f1 483e 7f9b 02be 5bba 423e ee97 fabc
00000280: 84fa 0b3c 9e12 9fbc dead e7bf 240e 67be
00000290: d763 abbd 1837 bebe e07b 39be 28d2 003f
000002a0: 94b6 88be 8871 f63b 2cff 3d3e 146e 09be
000002b0: ac45 2cbf d9f6 94bd 611f 50bf 2941 453f
000002c0: 81d0 0a3f 54b5 b23e 99d6 25be c9da 573e
000002d0: 8f85 043f 7a6c 323f af44 24bf 872a 733e
000002e0: 3760 2b3f 0065 9f3d 725f 0c3f 24c5 fabe
000002f0: a2f8 a73e 0677 89bc a539 dd3e 8e7f 10bd
00000300: 931f adbe 9ab8 b13f ffb8 133f 6839 0a3f
00000310: 5263 0abf 9e56 0d3d afc0 9ebf 7009 033f
00000320: a2a7 40be e763 a33e 7452 f23e 1f2b 67bf
00000330: 36d8 103f ad83 4e3e 7a0b f8be 3476 d73e
00000340: c94c 4b3e 236e 703e d118 473e 848a b23d
00000350: d81e 883f a090 15b9 b626 b23e f3d7 1a3f
00000360: ec75 713e c866 093e 4e6b 033f 8b74 3d3e
00000370: d767 733e 32fc 47bf da17 70bc 4ef6 ab3e
00000380: 8d90 26be 1682 5e3d a5d1 c13e 6241 19bf
00000390: 753b 233f ce77 febe 86f5 24be 8504 7c3f
000003a0: af90 4abf 4f62 c83d 3e87 623f 68c5 21bf
000003b0: 67a2 dfbc e75f 9d3d db09 dc3e b4d7 243f
000003c0: 3976 5e3f cf41 c2be 1469 0cbd 0925 98be
000003d0: 7eef 2bbe e614 26bf e125 663f 3e82 873f
000003e0: b2a0 083f 176b 203f aad4 1c3f 9857 14be
000003f0: a4b9 563e eb0e 003e 5596 123f a22f cebe
-0.11917883 1.0382907 -2.478028 -0.12079937 0.030500617 -0.0063771117 -0.0013066581 0.3772114
-0.41255873 -0.039077897 0.42790958 0.061249446 -0.057441354 0.11919943 0.6369093 -0.10651878
0.22011606 0.5641002 0.22527009 0.29991528 -0.7178065 0.2710012 1.0475258 0.5096822
0.36990732 0.1845263 0.00619344 0.17515911 -0.4215164 0.23803532 -0.12592636 0.060297903
-0.09457022 -0.19396472 -3.8639526 -0.21442878 -0.28926376 0.13104846 0.03752124 0.4187443
-0.41864878 0.03376011 0.24145432 -0.75373507 0.1853941 -0.3977167 -0.6966421 0.20569584
0.46722707 -0.6285465 -0.17887051 0.14393261 -0.14375289 -0.1018619 0.22058235 0.5227635
0.45415524 -0.0017333587 0.19050732 -0.2437857 0.024646308 0.082171924 0.36967206 0.21396407
-0.21708599 0.8523274 0.1483647 0.23339748 0.7077273 -0.69602305 -0.4997053 0.3219464
0.0911457 -0.045766026 0.25557473 0.12763138 -0.48417336 0.10982479 0.5713844 -0.1736936
0.3642105 0.6599894 -0.12151837 -0.7328918 -0.026824327 -0.44065765 -1.0883023 0.40438035
0.5028195 0.5920596 0.860909 0.52174526 -0.3840061 -0.51526344 0.18798861 0.0707705
0.0020859018 0.045229796 -3.2896614 -0.25165904 -0.39906147 0.12925434 0.04349234 0.45670128
0.7266235 -0.31224307 0.23418215 0.6277352 -0.0017638255 0.21014093 -0.51434904 0.57934207
0.43186805 -0.5131163 -0.30113542 -0.6108502 0.44090748 0.5155608 -0.21648888 0.79762936
0.2499965 0.53674763 0.5585813 0.14480937 -0.41781127 -0.041145552 -0.031919967 0.35888156
-0.048329342 0.022359043 -2.1023073 -0.73194116 -0.39465377 0.28020772 0.65364504 0.7717747
-0.26963797 0.20166056 0.7538793 -0.6067872 -0.48397824 -0.51189566 -0.7855533 -0.28054407
0.80811006 0.4668226 0.09218133 -0.80901074 0.4195003 -0.3132037 -0.8137012 0.7552833
0.7859179 0.29825482 0.34193432 0.05987615 0.19623289 -0.1275463 0.19016401 -0.030590024
0.008543614 -0.019418057 -1.8099935 -0.22563988 -0.08368652 -0.37151408 -0.18113661 0.50320673
-0.26701796 0.007520858 0.18554372 -0.13420898 -0.6729381 -0.07273645 -0.8129788 0.7705255
0.542244 0.34903967 -0.16195144 0.21079554 0.51766294 0.6969677 -0.641673 0.23746692
0.6694369 0.07782936 0.5483314 -0.4897853 0.3280688 -0.016780388 0.43208042 -0.035277896
-0.33813152 1.3884461 0.57704157 0.53993845 -0.540578 0.034506433 -1.2402552 0.51186275
-0.18813947 0.31912157 0.47328532 -0.9030017 0.5657991 0.20167418 -0.48446256 0.4208237
0.1985351 0.23479514 0.1944306 0.08717826 1.0634413 -0.00014263624 0.3479516 0.6048576
0.2358014 0.13418114 0.5133561 0.18501489 0.2377008 -0.78119195 -0.014654124 0.33586353
-0.16266079 0.05432328 0.3785526 -0.5986539 0.637626 -0.4970078 -0.16109285 0.98444396
-0.7912702 0.09784376 0.88487613 -0.63191843 -0.02729912 0.076843075 0.4297627 0.64391637
0.86899143 -0.37940833 -0.034279898 -0.29715756 -0.16790578 -0.6487564 0.8990155 1.0586622
0.533702 0.62663406 0.61262 -0.1448654 0.20969254 0.12505691 0.5726064 -0.40270716

fc1.bias f4 [16]
00000000: 1f6b 10bd 6786 4dbe a538 80be 563f 9cbe
00000010: 1bd2 97be ca19 51be 8bf5 91be 3b9a 36bf
00000020: 6449 77be 9eb5 f8be ccb1 b1be 80e5 d4be
00000030: 47f0 6fbd f26d 2ebf 25f7 7cbf 87bc 853d
-0.03525841 -0.20070802 -0.25043216 -0.3051707 -0.29652485 -0.20419994 -0.28507647 -0.71329087
-0.2414909 -0.48576063 -0.3470596 -0.41581345 -0.058578756 -0.68136513 -0.9881461 0.06530099

fc2.weight f4 [16, 16]
00000000: 1598 3c39 e595 6d3e ba51 573f 1cfb 003f
00000010: bcb6 033f afaa de3e 49a6 9ebf 04a5 893e
00000020: 06ca 54bf 3ec0 91be c825 0b3f 5eb9 19bd
00000030: ce11 e5be 51d1 edbf b93d db3f c00f 4bbf
00000040: c930 89bd dfc3 a73d 8b4a efbd 54d7 f6bd
00000050: de7d 82be 4008 843c 3fcf 4bbe cf63 84be
00000060: 9c61 5fbc 54ae cbbd 7b86 4bbd dbba dfbd
00000070: 4be1 853d 9014 963b 2f8e ccbd ceff 8cbe
00000080: 81a3 c8be f4b6 7a3f 7e38 d6be 7f16 0fbf
00000090: 0a30 e13e 3f77 733e be78 623e b483 44bf
000000a0: 64ce dc3e 49a4 883f 381f 753f 48c4 38bf
000000b0: 75f4 98bf ef76 3fbe 1ecc 6ebc c0ba 9dbd
000000c0: 5aa7 20bf 7140 1d3e c0a0 1fbe 43c4 18bf
000000d0: c75c 923d ba07 4abb 20ba 4e3f 562e 3bbd
000000e0: f04d 31be 9753 6c3d 2fae cb3e bc54 2bbf
000000f0: 49d3 9f3d 88e9 8a3f ef28 9c3f bb80 d1be
00000100: 253e f73d 5302 f43e bef6 8a3e ac1b 5c3f
00000110: 7a28 6fbf 60db 253e 2fe8 36bf c283 ed3e
00000120: dfb5 9cbe 1342 e0bc 01d3 183f 98f8 1fbe
00000130: 654a 143f 0d52 d73f b71d 0640 df74 4abf
00000140: b74b 9d3e fb1d 163f ee5b 253f 1f5c b8be
00000150: 0d3a 5a3d b6a5 cabe c5c5 8b3f 8c34 073f
00000160: 2d7a 2bbf 8798 f1bc 600b 3b3f fe2e 03bd
00000170: 4b30 e13d 64da 5c3f 736c b73f 0282 74be
00000180: e54d 223f 3205 753f 616e 52be 5104 f23e
00000190: a609 833d f721 743d b9ea 86be 2110 ddbe
000001a0: 2430 0fbf 374a 263f 5e07 a53e a184 49bf
000001b0: ac96 bc3e 06b4 a73e f5d8 4840 7f60 66bd
000001c0: a240 8d3a f63a 843f 6ef8 e3bb 48a0 c6bf
000001d0: f1c0 fa3e 0638 143f 1572 dd3e eaed 413e
000001e0: 2946 65be 17c4 923e 4f7b 7a3e 1948 93bf
000001f0: eba2 813e 064f 833e 4336 82bf 89ac 0fbe
00000200: 27a3 efbe fde6 babe 7836 92be c02e 2e3e
00000210: 3c35 8dbe 0361 f93d 8d8e e2be ed7d d5be
00000220: a2e6 24be c676 2bbe e7a1 ddbd 2cc8 afbe
00000230: c834 99bd 9e2b 3a3e 576c 89be 2fbd c9be
00000240: 9c50 4c3e 687a 3a3e aa39 ab3e 1a06 593f
00000250: c83d f1be 588d 043f 4b04 b5be 43e4 a63f
00000260: fb10 e8bf 2016 223f 031a ed3e 5005 58bf
00000270: f82e c83e 6783 30bf 8917 f73e 5f61 15bf
00000280: 87ac d3bd 3c15 77bd 4b46 cf3a b3d7 ddbd
00000290: bfe7 dfbd 566c 4cbe b2e6 56be c93f 53bd
000002a0: 3b8d 3bbe 9a50 24be 8b51 b5ba c574 33be
000002b0: 5c21 f7bd a899 8cbe 6669 99bd 10ea 9abd
000002c0: d197 923e a5cd bcbe ab32 a5bd 2395 19c0
000002d0: d288 b7bf 44a8 21bf 1d2d 30bf 8ec4 353f
000002e0: 79d6 5c3f fd98 ef3e 6919 503f 860e bbbd
000002f0: c1b1 dcbd b0af 97bf aa68 e3bd 1c65 77be
00000300: e66e 763f 34d5 d53e 4831 83be 4209 443f
00000310: 2c32 783f 8a9c 3abc 1c89 32be 9dee 2bbc
00000320: 113f 96be 04ae a33f b18a 043f 481f 03bb
00000330: 228d 9f3e 0131 553f a462 163f 8560 ca3d
00000340: 299f 943e 57d6 223e 635c 323f 0da5 6d3d
00000350: ee46 90bf b2ee e6bf 0ec0 143f f7c1 9dbf
00000360: 1962 173f a360 b5bf f3eb 293c d92a 3cbf
00000370: 0338 c3bf e469 7b3f ee03 31be 34c6 fc3d
00000380: 80ef 1cbe 56a6 603f 946b adbe 385f c4bd
00000390: ae02 9b3e 158f ab3e fb91 103f 1f10 babe
000003a0: 5888 ad3d ab09 cabe d86f 823e 5af4 fcbf
000003b0: 7cd7 bb3c 7b2f 0b3e 899d 933d e16b 56be
000003c0: 4688 843e f526 a63f 8e82 0abe c98a cfbe
000003d0: d410 d7bd 30f9 343f e52b 1abe 6b7a 833d
000003e0: 9dfc 20bb f981 203f 0943 5b3f a278 83bf
000003f0: 9da9 a63e 32b8 9e3f dfa5 783d 0311 033e
0.00017985732 0.23201711 0.8410908 0.5038316 0.51450706 0.43489596 -1.2394496 0.2688371
-0.83120763 -0.28466982 0.54354525 -0.037530296 -0.44740146 -1.8579503 1.7128211 -0.7932091
-0.06698758 0.08191656 -0.1168414 -0.12052789 -0.25486654 0.016117215 -0.19903277 -0.25857398
-0.013634112 -0.0994536 -0.049688797 -0.10924312 0.06537112 0.004580088 -0.09988057 -0.27538913
-0.39187244 0.97935414 -0.41839975 -0.558937 0.43981963 0.23775958 0.22116372 -0.76763463
0.43126214 1.0675136 0.9575076 -0.721745 -1.1949602 -0.18697713 -0.0145750325 -0.07701635
-0.6275536 0.15356614 -0.15588665 -0.5967447 0.07146602 -0.003082736 0.80752754 -0.045698486
-0.17314887 0.057696905 0.3978133 -0.6692617 0.07803971 1.0852518 1.2199992 -0.40918526
0.120724 0.47658023 0.27141374 0.85979724 -0.9342114 0.16196966 -0.71448034 0.46389586
-0.30607507 -0.027375257 0.59696966 -0.15622175 0.5792602 1.6821915 2.0955637 -0.7908458
0.30721828 0.58639497 0.645934 -0.36007783 0.053278018 -0.39579552 1.091973 0.52814555
-0.669833 -0.029491676 0.7306423 -0.032027237 0.10995539 0.8627074 1.4329971 -0.23877719
0.6340011 0.9571105 -0.20549919 0.47268918 0.06398325 0.059602704 -0.26350954 -0.43176368
-0.5593283 0.6495699 0.32232183 -0.78718 0.36833704 0.32754534 3.138242 -0.05624437
0.0010776708 1.0330493 -0.0069571054 -1.5517664 0.48975328 0.57897985 0.432511 0.18938413
-0.22390045 0.2866523 0.24461101 -1.1506377 0.2531961 0.25646228 -1.0172809 -0.1403066
-0.46804163 -0.36504355 -0.2855718 0.17010021 -0.27579677 0.12176707 -0.44249383 -0.41697636
-0.16103604 -0.16744527 -0.10821896 -0.34332407 -0.0748077 0.18180701 -0.2684047 -0.39402148
0.19952625 0.18210757 0.33442432 0.84774935 -0.47117448 0.51778173 -0.35354838 1.303841
-1.8130182 0.6331501 0.46308908 -0.84383106 0.39098334 -0.68950504 0.48260143 -0.583517
-0.10335641 -0.060322985 0.0015813796 -0.10832157 -0.10932874 -0.19963202 -0.20986441 -0.051574502
-0.18315594 -0.16046372 -0.0013833506 -0.17525013 -0.1206691 -0.2746098 -0.07490806 -0.07564175
0.28631452 -0.36875644 -0.08066305 -2.3997276 -1.4338629 -0.6314738 -0.6881884 0.71003044
0.8626476 0.46796408 0.8128877 -0.091336295 -0.10776091 -1.185049 -0.111039475 -0.24159664
0.9626297 0.41764224 -0.25623536 0.76576626 0.96951556 -0.011389861 -0.17435116 -0.010493902
-0.2934499 1.278748 0.51774126 -0.0020007659 0.31162363 0.832779 0.58744264 0.09881691
0.2902768 0.15902077 0.6967222 0.058018733 -1.1271646 -1.8041594 0.5810555 -1.2324818
0.5913406 -1.4170116 0.010371196 -0.7350288 -1.5251468 0.9820845 -0.17286655 0.12342492
-0.15325737 0.8775381 -0.33871138 -0.09588474 0.30275482 0.335076 0.5647275 -0.36340424
0.08473271 -0.394605 0.25475955 -1.976207 0.0229299 0.13592331 0.07207782 -0.2093959
0.25885218 1.2980639 -0.13526365 -0.40535572 -0.105012566 0.7069273 -0.15055807 0.06419834
-0.0024564632 0.6269832 0.8564916 -1.0271189 0.3255128 1.2399962 0.060705062 0.12799458

fc2.bias f4 [16]
00000000: 53dd 0abf b214 4dbe 79b2 fcbd 16bc b4be
00000010: c693 a9be 99f8 6d3e 46ca 70be ae66 5fbf
00000020: dba7 d6be add9 56bf d68e d0be 5cb6 dc3b
00000030: f3f5 933e c5b4 e6be 9fc9 2b3f 28ea 85bf
-0.54243964 -0.20027426 -0.123387285 -0.35299748 -0.33120555 0.23239364 -0.23514661 -0.8726605
-0.4192494 -0.83925897 -0.40733975 0.006735606 0.28898582 -0.4505979 0.67104524 -1.0462084

fc3.weight f4 [16, 16]
00000000: b19c 0c3f 1c97 8e3d b48a e33e 2c2d 0b3f
00000010: 2605 1d3f b1bc 0d3f 0d4b b6be 1dc4 acbc
00000020: 9caf dfbd a881 0540 b08c 6a3e 70a0 2a3f
00000030: b707 d73e f319 79be 0670 8dbd 03fc 4c3f
00000040: 71a9 1f3f 1ea3 53bc 1a71 eebc 15b8 643d
00000050: 90f5 943e 5955 013f efec 713f f311 1b3f
00000060: d941 1ebe 6539 9a3f 2fa6 513e 7540 26bf
00000070: 2925 babd d95e f0bf 9396 553f d4e2 4a3f
00000080: 1e2a 8b3f 2604 84be fbec febd 1830 b1be
00000090: 13b6 3f3f 3ba1 943e f0d9 603f 1dd0 863f
000000a0: 01f6 8e3e d20b e93f 4eb1 0ebd 49a7 a5bf
000000b0: 943e 87be 8b52 8ebf 3fcc 963e d9a7 ab3f
000000c0: 6572 bfbc 7320 043d 1ad2 efbe a255 0abf
000000d0: 4e98 abbe 785e d8be 379f ccbe 388b 1e3d
000000e0: a048 91bd 2574 66be 2b74 053d 1438 3abe
000000f0: 94f6 1fbc 490f d6be a51d 19bf 7861 96be
00000100: a94d 5bbd fe3c 1ebe 6d5d 6dbe 73f8 00be
00000110: 1054 58be 5463 f93b 8feb da3d 1cc5 a9bc
00000120: 1786 993d 21f5 99be 72b8 213d 5b4b 82be
00000130: 7b92 f7be 6ecc c8bd 1474 adbe 01f2 fd3a
00000140: 2303 813f f14e 153e e5b5 eebe c1aa 5e3d
00000150: 9232 1b3f 7933 323f b51b 563e 7389 3d3f
00000160: 414e 163e 8d65 f53f b1ed 273d dd0e 71bf
00000170: 14a5 d73d 2a8a 90bf dc75 de3e fe40 8a3f
00000180: c1eb 363f 3da5 36be 4eb3 0dbf 6105 a9bd
00000190: d65e 453f 20a5 353e 6610 a53e 5ee4 1b3f
000001a0: 6db8 56be 6282 c33f 8f0e 993d dc6c 97bf
000001b0: 55fe 613e 230b 3bbf ceda 0f3f c2a4 973f
000001c0: 5389 0b3f ae3e 31be 7e03 ce3e 6b10 1e3f
000001d0: 4893 e93e 6c24 993e 5965 563e c645 87be
000001e0: 22ab 07be 1f5a c83f 284d 7b3d 129e e2be
000001f0: 1e10 303e 1d0e dbbe d024 f33e 5e8f 563f
00000200: c682 473f e59f 4fbe d1f0 c83d 58a4 f43d
00000210: 7cd2 243e 384f d33e 9175 2e3e 6471 0d3f
00000220: b5ac 203c fcb4 f23f e03e 073e 6eb7 ec3d
00000230: 0873 943e b87a f2bf c318 943d db89 a53f
00000240: 030d 1d3f d639 543e d1f5 35bf a50d d93c
00000250: 8aca 4e3e 106b ba3e be9a 413f 1ebe 7c3f
00000260: 7256 bfbc 545e 0940 d795 673e 64c6 f8be
00000270: 80a5 ad3d eb47 dcbf 0986 b03e 9f64 d63f
00000280: 24ed 2c3c 7e70 1abe 8f71 07bf 90f8 713e
00000290: 3572 e8bf 3545 2a3f b551 f1bf f52d ce3e
000002a0: c17e a83d 1b2a 663e d040 fb3d 3ca2 aebe
000002b0: b876 a93c 04fd 513e f05a 6cbf 5de8 bebf
000002c0: 650e 813f 9778 1abe 0915 3bbe ea29 313f
000002d0: 10b5 6b3f 6a49 dcbd d186 413e 5032 183f
000002e0: 868b 92bd 5674 ea3f b5e9 993c ef34 b2bf
000002f0: d39e 713d 650f 1d3f 83a3 043f e07b 223f
00000300: 8ce1 863f 45d0 46be 90aa 8abe 75a7 8a3e
00000310: 5798 2b3f 9e33 7d3e 14e6 913e c377 103e
00000320: 1dad 57bd c62b fc3f fd3b 013e 0f4f a3be
00000330: 92dd 0c3f 998c 8ebf 1b86 ce3e 6a91 903f
00000340: f64d 1cbd 87ae 0e3d a8dd 0cbe 86c1 fcbd
00000350: 5f70 963c c750 d5bd b2a9 e43d 2a36 b73d
00000360: 2994 813e b65f bbbb a62a 01be ae61 20be
00000370: 35e1 1ebe c4ab afbb e7ab 1abd a58a 7abd
00000380: 4693 493f ea96 9dbd ab1f 02be 04fb 2b3e
00000390: 11d2 443f d7f4 283f 3644 a8bb e85b 7e3e
000003a0: 3f95 17bd 540f b33f bd49 133e ff8b e53e
000003b0: 0746 eebe d333 92be 47c2 103e 0daf 243f
000003c0: 7c37 3f3f bf42 333c 8008 293f 2102 2d3e
000003d0: 45f0 3e3e 3db8 1cbe 6460 813e d431 0c3f
000003e0: 70bf 233e 91f2 1d40 7086 713e f10a 863e
000003f0: 64fe 12bf 0ff0 103f 9ff0 c73e 1a91 7e3f
0.5492659 0.069624156 0.4444176 0.543658 0.6133598 0.55366045 -0.35604134 -0.021089608
-0.10922167 2.0860386 0.2290523 0.6665106 0.41998073 -0.24326305 -0.069061324 0.8007204
0.6236792 -0.012917308 -0.029106665 0.055839617 0.290936 0.50520855 0.94502157 0.60574263
-0.15454806 1.2048765 0.2047355 -0.64942104 -0.09089119 -1.8778945 0.83432883 0.7925236
1.0872228 -0.25784415 -0.12447544 -0.34607005 0.748872 0.2902926 0.87832546 1.0532261
0.2792206 1.8206732 -0.03483706 -1.2941676 -0.2641493 -1.111894 0.29452702 1.3410598
-0.023369977 0.03225751 -0.46839982 -0.54036915 -0.33514637 -0.42259574 -0.3996522 0.038706988
-0.0709393 -0.22505243 0.03258149 -0.18185455 -0.009763379 -0.41808537 -0.5981086 -0.29371238
-0.05354086 -0.15452954 -0.2318017 -0.12594776 -0.21125817 0.007610718 0.106894605 -0.020723872
0.07496279 -0.3006983 0.03948254 -0.25448117 -0.48353943 -0.09804617 -0.33877623 0.0019374491
1.0079082 0.14580895 -0.4662315 0.054362062 0.6062404 0.6960979 0.20909007 0.74037856
0.14678289 1.9171616 0.040998165 -0.94163305 0.10529533 -1.1292164 0.43449295 1.0801084
0.7145348 -0.17836471 -0.5535172 -0.08252979 0.77097833 0.17738771 0.32239074 0.60895336
-0.2096879 1.5274165 0.0747348 -1.1830096 0.22069676 -0.7306387 0.56193244 1.1847155
0.54506415 -0.17309067 0.4023704 0.617438 0.4562018 0.299106 0.20937099 -0.2642042
-0.13248876 1.5652503 0.06135288 -0.44261223 0.17193648 -0.42784205 0.47489023 0.8381251
0.7793392 -0.20275839 0.09811557 0.119454086 0.16095918 0.41271377 0.17037036 0.55251145
0.009806802 1.8961482 0.13207579 0.11558424 0.28994012 -1.8943701 0.072312854 1.2932695
0.6134798 0.20725188 -0.7107821 0.026495764 0.2019445 0.36409807 0.7562674 0.98727596
-0.02335665 2.1463823 0.22615753 -0.4858886 0.08478832 -1.7209448 0.3447726 1.6749457
0.010554586 -0.15081975 -0.5290765 0.23629975 -1.8159853 0.6651185 -1.885306 0.40269437
0.082273014 0.22477 0.122682214 -0.3410815 0.020686492 0.20506674 -0.9232626 -1.4914662
1.0082518 -0.15085064 -0.18269743 0.6920458 0.92073154 -0.1075619 0.18899085 0.5945177
-0.07155518 1.8316753 0.018788198 -1.3922404 0.058989357 0.61351615 0.51812 0.6347027
1.0537581 -0.19415386 -0.27083254 0.27080885 0.6702933 0.24726722 0.28495848 0.14108185
-0.052655328 1.9700859 0.1262054 -0.31896254 0.5502559 -1.1136657 0.4033669 1.1294377
-0.038160287 0.03483441 -0.1375643 -0.12341599 0.01836413 -0.10415798 0.11165179 0.08945878
0.2530835 -0.0057181967 -0.12613925 -0.15662262 -0.15515597 -0.005361052 -0.037761595 -0.061167378
0.78740346 -0.076948 -0.12707393 0.16794974 0.76883036 0.65998596 -0.0051350845 0.24839747
-0.037007567 1.3989053 0.14383598 0.4483337 -0.46537802 -0.28555164 0.14136611 0.64329606
0.7469404 0.0109412065 0.66028595 0.16895343 0.18646343 -0.15304656 0.25268853 0.5476353
0.15990996 2.46793 0.2358644 0.26180223 -0.5741942 0.566163 0.39050767 0.9944016

fc3.bias f4 [16]
00000000: a25b 41bd 9928 b8bc 59f7 18bd 41b8 b2bc
00000010: 243c 28bd 2936 8a3d f132 0fbd cc8a b1bc
00000020: d762 b23b e0e6 623d 80fa a0bf 90db 7dbe
00000030: acd7 753e a23a 4bbd 8d3f d1be 1c4a 3cbf
-0.04720653 -0.022480296 -0.037345264 -0.021816375 -0.04107298 0.067486115 -0.03496069 -0.021672629
0.0054439115 0.05539596 -1.2576447 -0.24790788 0.24008054 -0.049616463 -0.40868798 -0.7355058

fc4.weight f4 [16, 16]
00000000: 5a98 76be 63a1 1c3e 8d2b 11be f135 1e3e
00000010: 2337 90bc b954 bf3d b6a6 c63d 2533 73ba
00000020: 12fc 48be 4aac 2bbe cc6d b6bd 1f30 71be
00000030: 595f 63be fe7c 113e e399 72be a648 58bd
00000040: 0d46 bdbd a298 9bbc 05e3 9ebd 008f 983d
00000050: d787 3f3e d563 ff3d 1620 573e b8a9 c4be
00000060: d63b 833d c1f7 34bd f00b c5bc c86e 69be
00000070: c011 83be da80 75be c3e1 04be 2cd7 883d
00000080: 4270 d23e 3bb6 dd3e b607 623f 3390 323e
00000090: 399a 1bbe d475 b83e d528 353f ad74 be3c
000000a0: b4ac c63e 7c13 f23e d0a0 5bbe de92 6b3f
000000b0: 5e3b 053f 6283 7d3e bfa9 d53e 9a3f 6b3f
000000c0: 3b67 0abf 7113 86be 113b cf3d 5050 0c3e
000000d0: aba4 03bd a50a d1be bdec 3cbe ceea cabe
000000e0: 0591 5abe 0062 1ebf d9ff acbc 4c47 99be
000000f0: d547 ddbe 4928 6cbe 648a 34be d52e d83c
00000100: c2b9 1ebe 95e9 28be 9e60 5bbe 4df8 5dbe
00000110: cda8 1a3e a0fc babd 434a a6be 0e4a c33d
00000120: 9d53 06be 57a6 ba3b 2ea4 11be 8cb8 e23c
00000130: e214 17be d439 97be 7409 bfbb 68ab 4cbe
00000140: eadb a63e c0d4 3cbd 2a70 9e3e 16fe efbd
00000150: 1eba 6cbd 3daf ef3d 0428 a33e 8b07 33bc
00000160: 0ed1 8abd 9e29 2a3d f04d 17bc eef1 9b3e
00000170: be18 f83d 4459 ed3c 648f 823e 98fa f63e
00000180: b04d bbbe de3e 953c af29 5abe 3c98 5abe
00000190: 6a44 4f3e da2a 18be 5266 2a3e ac9e 56be
000001a0: d9e7 45be a179 66bd 80c4 a93c 1805 aebd
000001b0: 1204 003e 7138 383e 9c7d 99be 46f7 753d
000001c0: a95a ec3e 2b93 25bf dd69 2ebf e6bd f7bd
000001d0: cfee 50be 8af6 77bd 2a8a 16be 4b58 69bd
000001e0: 80f3 d63e 6543 52bd e233 c33f 865a d8be
000001f0: 202c 283e f4b2 03be 137a dd3d 9fb6 c1bd
00000200: 847a 83be 8428 8abe a128 e1bc c4fd e2bd
00000210: 785b b7bd d4de 86bd 3f15 873e e534 94be
00000220: b373 2e3d 1ab2 80bd 68c5 78bd d3f8 81be
00000230: c6d6 07be fb56 eb3d 76f9 5d3e 737e 053e
00000240: 1b36 7c3e b431 0f3f a2f5 753f 7beb e13d
00000250: d4d2 993e 6922 1a3f 75f9 463e 3244 933e
00000260: 7588 ba3e 0d55 143f 339b ebbf dcf3 0e3f
00000270: 8a9a 133f 506d 5f3c eadf 023e 0a2e a43e
00000280: 7362 83bd 840a b3bd c1cd 76bd a3dd 023d
00000290: 89dd 57be e3ac 353e 7f83 bfbd 29ee 013e
000002a0: ae2c d3bd f262 b63d 426d 44be 4960 5ebe
000002b0: 7b2e fcbd f70e 8dbe 496f aebd b1e4 f0bd
000002c0: b8ab 7fbe c8c4 b3bd ac0a 3b3e 24c5 003e
000002d0: 7698 7bbe b072 d3bd 50e0 87bc bc17 0d3e
000002e0: 14a0 c5bd f03a 5a3d 30f3 4ebd 503d 2bbd
000002f0: 1011 7bbd ec51 043e f8ea c03d e61b 1bbe
00000300: f9f5 3fbe 2ac2 58be 4e47 1dbd 8663 2fbe
00000310: 589a 42be 42f9 fd3d c907 d73d f154 88bd
00000320: 4902 883d 2e67 b63c ba5d 17be 3fc8 2d3d
00000330: 49a4 3abe fc05 cdbd 60c0 79be afc6 59be
00000340: 3050 1c3f 8fac 9f3e 2e20 8a3f 40e7 2cbe
00000350: 336c 7ebe 4c16 9c3e 58a6 dd3e 09d8 8e3e
00000360: a1b0 993e c082 273f 0c98 f3be 3db6 463f
00000370: 77eb ec3e 9deb d53b e514 c03e 8fb4 353f
00000380: f6f4 833c c67d 3c3f 2bb2 843f f071 a3bd
00000390: 9e75 b0bd f101 023f 0e80 083f 9153 6f3d
000003a0: 15b0 9f3e 3424 673f 299e c1bf eaf8 453f
000003b0: 3ca1 053e 6db5 4a3d ce5e d23e 1f60 5f3f
000003c0: 0063 50be 472f 5f3d cc1e 9dbe b09f 73bd
000003d0: be3e 89be cd41 09bd 0a49 52be 5dab d0bc
000003e0: d028 59be 9c77 a2be bb73 ec3d 59ec 50be
000003f0: 78c3 c13c 37f7 25be b7fd 3dbe 0f74 0fbf
-0.24081555 0.15295939 -0.1417677 0.15450265 -0.017604416 0.093423314 0.09699766 -0.00092773355
-0.19627407 -0.16764942 -0.08907661 -0.23553513 -0.22204341 0.14207837 -0.23691516 -0.052803658
-0.09241877 -0.01899368 -0.07758144 0.0744915 0.18704163 0.12470213 0.21008334 -0.38410735
0.06407897 -0.04418159 -0.024053544 -0.22796166 -0.2559948 -0.23974934 -0.12976746 0.06681666
0.4110127 0.43303093 0.88293016 0.1743782 -0.1519555 0.36027396 0.7076543 0.023248995
0.38803637 0.4728049 -0.21448064 0.92020977 0.5204371 0.2475715 0.41731068 0.91893923
-0.5406377 -0.26186708 0.10118688 0.13702512 -0.03213946 -0.40828434 -0.18449683 -0.39632267
-0.21344383 -0.61868286 -0.021118091 -0.29937208 -0.43218866 -0.23062243 -0.17630917 0.026389519
-0.15500548 -0.16495354 -0.21423575 -0.2167675 0.15103455 -0.09130216 -0.32478532 0.09535609
-0.13117833 0.005696099 -0.14222786 0.02767589 -0.1475406 -0.29536307 -0.0058299843 -0.19987261
0.32589656 -0.04610133 0.3094495 -0.11718385 -0.057794683 0.11703346 0.31866467 -0.010927091
-0.06778155 0.041543595 -0.00923489 0.30458015 0.12114094 0.02897323 0.25500023 0.48238063
-0.36582708 0.018218454 -0.21304964 -0.21347135 0.20240942 -0.14860097 0.16640595 -0.20958966
-0.19326724 -0.056268338 0.020723581 -0.08497065 0.12501553 0.1799028 -0.29978645 0.06005027
0.46162918 -0.64677685 -0.68130285 -0.12096767 -0.20403598 -0.060537852 -0.14701143 -0.05696897
0.4198265 -0.051333804 1.5250208 -0.42256564 0.16423082 -0.12861234 0.108142994 -0.0945866
-0.2567941 -0.26984036 -0.027485194 -0.11083558 -0.08952993 -0.0658547 0.26383397 -0.28946605
0.042590808 -0.0628397 -0.060735136 -0.2538515 -0.13265523 0.114911996 0.21677193 0.13036518
0.24630015 0.55935216 0.9607793 0.110312425 0.30043662 0.60208756 0.19431098 0.28762966
0.36432233 0.5794228 -1.8406738 0.5584085 0.5765768 0.013636902 0.12780729 0.32066375
-0.06415262 -0.0874224 -0.060254816 0.03194965 -0.21080603 0.17741732 -0.09351253 0.12688507
-0.10311256 0.08905591 -0.19182304 -0.21716417 -0.12313553 -0.2755048 -0.0851732 -0.117623694
-0.24967849 -0.087777674 0.1826579 0.12575203 -0.24569878 -0.10324609 -0.016586453 0.13778585
-0.09649673 0.053278863 -0.05052489 -0.04180652 -0.06129557 0.12921876 0.09419817 -0.15147361
-0.18746175 -0.21167818 -0.03839808 -0.17127809 -0.1900419 0.12401058 0.10499532 -0.06656826
0.06641061 0.022265997 -0.14781848 0.042427298 -0.18226732 -0.10010907 -0.24389791 -0.21267198
0.61059856 0.3118634 1.079107 -0.1688509 -0.24845962 0.3048576 0.43290973 0.27899197
0.3001757 0.65433884 -0.4757694 0.77621824 0.46273395 0.0065283314 0.3751594 0.70978636
0.016108017 0.73629415 1.0366873 -0.07980716 -0.08616184 0.5078421 0.53320396 0.058429305
0.31189027 0.90289617 -1.5126392 0.7733294 0.13049787 0.049489427 0.41087955 0.87256044
-0.20350266 0.054488447 -0.3068756 -0.05947846 -0.2680568 -0.03351002 -0.20535675 -0.025472337
-0.21206975 -0.3173188 0.11545511 -0.2040266 0.023652777 -0.16207586 -0.18553816 -0.56036466

fc4.bias f4 [16]
00000000: 1c0b b0be 94a0 9dbe 8d23 e2bd dce2 91bc
00000010: c963 82be 5ee5 4bbd 8a95 b5be 67ce 7b3e
00000020: 7cd5 44be e7a0 d0bd acbe f2bd 1e81 6fbe
00000030: 8bc9 5dbe e74d 55be f431 7dbe 77f0 cfbe
-0.34383476 -0.30786574 -0.11041937 -0.01780837 -0.25466755 -0.04977929 -0.35465652 0.24590455
-0.19222063 -0.1018694 -0.11852774 -0.23389098 -0.21658914 -0.20830499 -0.24726087 -0.40613148

fc5.weight f4 [16, 16]
00000000: ce34 373e 6852 9dbd 1abb e6bd 8086 243d
00000010: 8419 4ebe 27c5 813c aa7f 223e 2da8 27bd
00000020: 600c 733e 4eb4 82be 222c 573e f435 efbd
00000030: 0ad8 753e 4d0e cdbd c722 9ebe 181c 4abd
00000040: 149d 863e 7580 83bd 5f92 69bd 931b 0a3e
00000050: 5e04 163e b6fd fa3c 5514 3c3e a554 15bc
00000060: c377 76bd ee37 53be b2f1 023e 4442 71be
00000070: a8dd cfbd 349f 10bd 5901 01bd a844 b3bc
00000080: e231 5dbd 81b0 ad3d 44eb 75be cb18 e13d
00000090: df8c 4abe 7b59 15be 233d dbbc 6dab 73be
000000a0: beed 51bd dccd 89bb 80e5 0f3e c87e 063e
000000b0: 3ee0 163e 770b f1bc 7c3c 59bd 67b8 403e
000000c0: 4ea7 a33d 9f56 21be 804e d1bd 2f54 bb3d
000000d0: f16d 6f3e 6efe 85be 668e 2cbe e572 23bf
000000e0: d570 87bd bc9d bbbc 8c68 643e f0dd 49be
000000f0: 2d2d af3c feee eb3d 165a 3c3e 9d16 90bd
00000100: e70f 40bd 0c16 b53d 67c8 013f 137d 81be
00000110: 5a26 993c 4181 e6bc 82ac f63d ac61 93bd
00000120: 14c2 9e3d 789e fb3e 84b3 b4bc 002e 27ba
00000130: ec34 103e 3bf7 063f 773a 023f 7576 efbd
00000140: 51bb ab3d aa2d 10be 9ebb 2f3f de71 19be
00000150: 980f 39bd a8ba 723e e899 763d 717d 2ebe
00000160: 7cdb d6bd 0fd3 c63e 825f dcbc 6270 2fbe
00000170: 3e1e e5bd b6a7 eb3e 2047 283f a9ae c43d
00000180: 6818 2cbe 8005 3b3b cef8 64be dc65 eb3d
00000190: 48d8 7abd b9f8 68bc ace6 f3bd 7a24 9bbd
000001a0: f200 6ebe 4c87 f33d 32a7 5d3e 86fe 02be
000001b0: 00ff 1bbb a517 c6be 4e21 1abe 00f7 b13d
000001c0: eb60 8abc ba52 b43b 1939 843d f914 8dbe
000001d0: 3d41 aabd 576f 2e3b e127 41bc 1ba8 a8bf
000001e0: f139 713e bb36 d7bd fc10 84bc 9cbe bc3d
000001f0: b25a 813c e3c4 3d3e d782 043f 782b 5abe
00000200: 2876 ca3c 976d 433c 3b13 f13c 1684 19bd
00000210: 673b 02be 4e88 60be d823 23bd cb60 d8be
00000220: 946a 66be e5e4 21be a364 603e d8c1 60be
00000230: 0401 cb3d b03d 9dbe 309a 4dbe 885c 02be
00000240: 787c 7cbe 2c5a d13d 9023 76be b806 55be
00000250: 3029 58bd 70a1 2ebe 5c9a 1a3e 4e89 1bbe
00000260: 70dc 7d3e e680 53be 70c1 773e 9e0a 03be
00000270: 8ce4 41be 4ea8 34be d042 22be 0060 d9bc
00000280: 907a dfbc 0487 a3bd bc18 133e be39 7abe
00000290: e074 5d3e ec30 87bd 3022 4b3d 8a1b 50be
000002a0: 90fd ea3d d886 a8bd a87a bbbd e253 36be
000002b0: 0427 713e 8049 2ebe 403f c4bb 98d6 63bd
000002c0: 2148 863e 454a 06bd 0d4f bc3e 3cb8 25be
000002d0: c289 193e ccc1 003e fb0e 9dbd 3a0b d23e
000002e0: f918 1ebe 272e 5c3e add4 b7bb 3015 323e
000002f0: 7a60 23be 32e0 ad3e beb1 a23e 64bc 52be
00000300: 10e0 713e 7aca 04be bb37 d8be b624 0dbe
00000310: f224 7cbe 1017 923b 00ea d8bc 3142 a7bd
00000320: 18fe 04be f07b 4e3e a8bf 4d3e e4c8 e83d
00000330: 647c bdbd fdf5 acbe 0043 7ebe c881 41be
00000340: 08f2 bebd cfed 53be 4c70 493e 6bea 06be
00000350: 8ac2 51bd 97b6 bebe fbba 65bd 6234 55bf
00000360: c9da 863e fc4d 773e 2b1d 8d3e 6a66 1bbe
00000370: 0e97 d6bd e74a babd 207e 813e 4714 65be
00000380: 292f 20be e2f6 d1bd caf1 a93d e98b dabd
00000390: a04d a8bd dcce 55be 8fff 1fbe dba0 23bf
000003a0: cbab 853e f4f2 173e 8f06 4dbd 746b 88bd
000003b0: aaec bd3d a3fd 183e 8575 073f f55b 863e
000003c0: e7b5 0d3e b620 6d3e a41e b6bd 97ad 673e
000003d0: e924 80be 3492 44bd 23d5 dabd da33 97be
000003e0: 0ad1 663e 2f23 02bf f509 4e3e 00bd 743b
000003f0: 3a33 563e ef36 07be 1483 babd bab2 34be
0.17891237 -0.07681733 -0.112661555 0.04016733 -0.20126921 0.01584108 0.15869012 -0.04093187
0.2373519 -0.25528187 0.21012929 -0.116802126 0.24008194 -0.10012493 -0.30885908 -0.0493432
0.26291716 -0.064209856 -0.057024356 0.13487081 0.14650103 0.030638557 0.18367131 -0.009114419
-0.060172807 -0.20626804 0.12787512 -0.23560435 -0.101496994 -0.035308078 -0.031495426 -0.021883324
-0.05400265 0.08480931 -0.24015528 0.10991057 -0.197803 -0.14584915 -0.02676255 -0.23795862
-0.05125212 -0.0042054486 0.14052391 0.131343 0.14733979 -0.029424412 -0.053036198 0.18820344
0.07990895 -0.157557 -0.10220051 0.09146916 0.23381783 -0.26170677 -0.16851196 -0.6384719
-0.06613318 -0.022902362 0.22305506 -0.19713569 0.021383846 0.115201935 0.1839374 -0.07035563
-0.046890166 0.08842096 0.50696415 -0.25290737 0.018695045 -0.028137805 0.12044622 -0.07196364
0.07751861 0.4914434 -0.022058256 -0.0006377399 0.14082688 0.52720994 0.5087046 -0.11692516
0.08385337 -0.1407992 0.68645656 -0.14984843 -0.045180887 0.23704016 0.06020537 -0.1704004
-0.10491082 0.388329 -0.02690101 -0.17132714 -0.11187409 0.4602639 0.6573353 0.09603626
-0.16806185 0.0028537214 -0.22360536 0.114940375 -0.061241418 -0.014219456 -0.119092315 -0.07575317
-0.23242548 0.1189104 0.21645811 -0.12792405 -0.0023803115 -0.38689914 -0.15051767 0.0868969
-0.016891917 0.005503026 0.06456203 -0.27555063 -0.083132245 0.0026616657 -0.011789293 -1.3176302
0.23557259 -0.10508486 -0.01612138 0.09216043 0.015790317 0.18532138 0.51762146 -0.21305645
0.024714544 0.011927984 0.029428115 -0.037479483 -0.12717973 -0.21926996 -0.039829105 -0.42261347
-0.22501594 -0.15809973 0.2191339 -0.21948946 0.09912303 -0.30711126 -0.20078349 -0.1273061
-0.24656856 0.10222277 -0.24037004 -0.20803344 -0.052773654 -0.17053771 0.15097946 -0.15189096
0.24791121 -0.2065464 0.24194884 -0.12797019 -0.1893484 -0.17642328 -0.158458 -0.026535034
-0.027280122 -0.079847366 0.14364904 -0.2443609 0.21626616 -0.06601128 0.04959315 -0.20323005
0.114741445 -0.082288444 -0.09154254 -0.17805436 0.2355004 -0.17020226 -0.0059889853 -0.055624574
0.26226905 -0.032785673 0.3677906 -0.16183561 0.14993957 0.12573928 -0.07668873 0.4102419
-0.15439214 0.2150198 -0.0056100697 0.17390895 -0.15954772 0.3396011 0.31776232 -0.20579678
0.2362063 -0.12967864 -0.4223002 -0.13783535 -0.24623469 0.0044583157 -0.026478767 -0.08166922
-0.12987554 0.20164466 0.20092642 0.11366442 -0.09252241 -0.33781424 -0.24830246 -0.18897164
-0.093235075 -0.20696186 0.19671744 -0.13175361 -0.051210918 -0.3724868 -0.05608652 -0.83283055
0.26338795 0.24150842 0.27561316 -0.15175787 -0.1047803 -0.09096318 0.25291538 -0.22371016
-0.1564299 -0.10252167 0.08298071 -0.10671217 -0.08217931 -0.20879692 -0.15624832 -0.6391732
0.2610763 0.14838773 -0.050055083 -0.0666112 0.09273656 0.14940505 0.52913696 0.26242033
0.13838921 0.2315701 -0.08892563 0.22624813 -0.2502816 -0.047990993 -0.10685184 -0.29531747
0.2254068 -0.50834936 0.20120986 0.0037344098 0.20917979 -0.13204549 -0.091070324 -0.17646304

fc5.bias f4 [16]
00000000: 1ad0 bbbe 49e6 babc ce44 8abd 5b68 36bf
00000010: 756c d23c ef0a 533d 0a4c 9bbe ba29 0bbf
00000020: 3b53 76bc f03d 59bd 3423 d5bd 0ba9 5dbe
00000030: 7b8e 08bf c4e1 46be 9c95 31bd 8c30 953d
-0.36682206 -0.022814887 -0.06751405 -0.71252984 0.025686482 0.0515241 -0.3033145 -0.54360545
-0.015034492 -0.053037584 -0.10407105 -0.21646516 -0.5334241 -0.1942206 -0.04335557 0.0728465

fc6.weight f4 [16, 16]
00000000: fae9 41be 4084 8d3c da0a 46be a46c d1bd
00000010: 1c3a 5cbe a8cf 99bd 1ae3 03be b832 f83d
00000020: fe02 2f3e 1607 0cbe a09a 613d a001 46bc
00000030: 3496 c83d f8ef 723d 0015 a03d 72af 15be
00000040: b411 75be 114a b7bd 2dea 23be 2bcb 3d3e
00000050: 1521 073e 5123 38be 9c79 a93d f11e 323d
00000060: eae8 2bbe d004 58be 4633 523e 52bf 3fbe
00000070: c094 ffbd 071e 32be b72b e23d c697 92be
00000080: 80e5 0cbd c478 2dbe 4020 a13d 202b 493e
00000090: 2ad4 5ebe e0b4 52bc e01a 43bc d498 9f3d
000000a0: c220 3abe 1edd 7bbe 4294 40be 9642 2cbe
000000b0: f04f 413e 3462 5bbe c8d6 5ebe aa3c 383e
000000c0: d8e8 41bd 401f be3c 3c29 43be 8019 413e
000000d0: 9478 6ebe 65a4 19be f069 2d3e efa5 17bd
000000e0: 9677 4cbe 6047 00bc 169f 1cbe 7fe0 52be
000000f0: 50ea 43be f3d7 3f3e 0d98 533e 2e05 5cbe
00000100: b785 f73d fea9 983e 14e3 0abd 3fe2 cb3d
00000110: 3d0e 363e 68e4 2bbe 6441 903d ea1e f7bd
00000120: 0e02 4e3d 6eff 4dbe b652 14be 749b 47bd
00000130: 004b 9d3c e4b7 283e 30c8 613d 430f f5bc
00000140: 6f4c d2bd d3ad 573b 5bc7 b6bd 0638 443e
00000150: b48c 8ebe bd87 8bbe 7fde 20be d16c 8b3e
00000160: e83b 973e c41a 0d3e 5068 fb3c 2933 68be
00000170: fbbc d2bd 42eb 1c3e 524e 49bd d977 753b
00000180: 48e2 ec3d 8dff 8dbe bd2e 65be eb61 fabe
00000190: 46ff a3bf 9d96 98bf 3258 3bbe caaf 8cbe
000001a0: 23c3 6fbd 4676 033e c8ab 66be ec28 aabf
000001b0: c2f9 bebd 3e01 0bbf 3e4a 1abf 3814 97be
000001c0: 2049 c2bc ff4e 773d d5b2 90bd b96e bdbd
000001d0: 124e 9dbe 7edd babe 2155 a23e f2df 8e3c
000001e0: 194a 95bd 44ba 68be eae0 01be 3638 213e
000001f0: 5c46 68bd 56b7 d1b9 56d8 393e 92d2 f1be
00000200: b865 743e 385e 3a3e 301c 593d 60d0 ea3d
00000210: 30c7 12be f6dd 1bbe 1866 4cbd f0de fcbd
00000220: b0c3 2b3d 80b8 70bc 40b6 6ebd ee9d 75be
00000230: 70f2 4abd a820 103e 4052 5a3e 1095 3a3e
00000240: 86ff 48be c864 733e c4af 4f3e 0a05 0cbe
00000250: 7595 9c3b c2a4 c8be 4034 833d 9a1b 9fbd
00000260: 9c54 bc3d b073 c3bd e86a f13d 67d1 c7bc
00000270: 0011 403c 4eac 15be 4e94 69be 241a 59be
00000280: e815 ff3d d5db 12be 1c84 a3bc 7c53 f23d
00000290: 8439 d83d e1ea b3bc 7a25 0f3e 90be 4a3d
000002a0: 889f 16bd 0a18 0a3e dcf8 14be 4151 9abe
000002b0: 8416 843d 71d2 8a3d 55bf e03d feb3 e13d
000002c0: a094 ddbc cb2c 4c3d d65b 913d df34 8f3e
000002d0: 0cc7 74be a2d5 9ebc 68cc 73bd 3fa4 86be
000002e0: 0660 fabd c04f 873b 3098 de3c bd8f 83be
000002f0: c852 ff3d 8086 5abe 4e14 053e ccee 863e
00000300: a822 d1bd f5c2 c8bd 0def e8bb 6718 893d
00000310: 8efb bd3e ca1a c53e f101 b93b 7249 a73e
00000320: ca6f 033e e6a3 0ebe 0c1d 4bbe 5393 393e
00000330: 4c57 023e 934f 0b3e d00d 653e 18da a6bd
00000340: 8c69 713e e1bd 843e 8525 493e 9b9e 33bc
00000350: 0136 afbe 238c 923d 8687 ef3d c5d2 043e
00000360: 6fca d6bd 9464 87bd 5896 bebd 6132 b93c
00000370: 829f 28be d0a0 4cbe a729 82be c8dd 56bc
00000380: f0e9 17bd af53 70be 8d0a 85be 0aa1 d03d
00000390: 77e5 333d 3594 07be 7833 70be 86de f4bc
000003a0: 9713 0d3d a6f5 7d3e 606d 653e 48d5 6cbe
000003b0: 98db 3d3e bae1 d63c 293d ec3a 1e29 02be
000003c0: 7fe5 c2bd 53d6 543e 51ab 1dbd a050 61be
000003d0: bde1 b4be c157 ae3b fe52 9a3e 0c0e 41bf
000003e0: 053e 573e b237 01be 40ac 95bd 0f60 0c3e
000003f0: ff8f 42bd f5c9 c6bb ded0 aebd cb57 6c3e
-0.18936911 0.017274976 -0.19340077 -0.102258 -0.21506542 -0.075103104 -0.12879601 0.12119049
0.17090985 -0.13674578 0.055079103 -0.012085348 0.09794274 0.059310883 0.078165054 -0.14617708
-0.23932534 -0.08949674 -0.160073 0.18534534 0.13196214 -0.17982222 0.08275148 0.04348654
-0.16788068 -0.21095586 0.20527372 -0.18725327 -0.12479544 -0.17394267 0.11043494 -0.2863142
-0.034398556 -0.169406 0.07867479 0.19645357 -0.21760622 -0.012860507 -0.011908263 0.077928215
-0.18176559 -0.24596068 -0.18806556 -0.16822276 0.1887815 -0.2142418 -0.2176162 0.17991892
-0.047341198 0.02320826 -0.19058698 0.18857384 -0.23288184 -0.15004118 0.16934943 -0.03702348
-0.19967493 -0.007829517 -0.15295061 -0.20593451 -0.19132352 0.18734722 0.20663472 -0.21486351
0.12086051 0.29817194 -0.033907965 0.099552624 0.17778869 -0.16786349 0.07043722 -0.12066443
0.05029493 -0.2011697 -0.14484677 -0.048732236 0.019200802 0.16476399 0.055122554 -0.029914504
-0.10268485 0.0032910004 -0.08924743 0.19161996 -0.27841723 -0.27251998 -0.15709876 0.27231458
0.29537892 0.13779742 0.030689389 -0.22675766 -0.102899514 0.15324119 -0.049146958 0.0037455468
0.11566597 -0.27734032 -0.2238111 -0.4890283 -1.2812278 -1.1920964 -0.18295363 -0.27477866
-0.058535706 0.12838086 -0.22526467 -1.3293738 -0.09324981 -0.5429877 -0.60269535 -0.29507613
-0.02371651 0.06037807 -0.070653595 -0.09249634 -0.30723625 -0.3649711 0.31705573 0.01744077
-0.07289524 -0.22727305 -0.12683454 0.15744099 -0.056707725 -0.00040000182 0.18148932 -0.47230965
0.23866928 0.18200004 0.053005397 0.114655256 -0.14333797 -0.1522139 -0.04990205 -0.123472095
0.04193467 -0.014692426 -0.058279276 -0.23986027 -0.049547613 0.14074957 0.21320438 0.18220925
-0.19628724 0.23768914 0.20281893 -0.13673797 0.004778559 -0.391882 0.0640645 -0.077689365
0.091958255 -0.0954355 0.11787969 -0.024391843 0.011722803 -0.1461651 -0.2281048 -0.21201378
0.1245535 -0.14341672 -0.019960456 0.1183233 0.10557845 -0.021962585 0.1397914 0.04949814
-0.036773235 0.13485733 -0.14548057 -0.30140117 0.06449607 0.0677842 0.10973994 0.11020659
-0.027048409 0.049847405 0.070975944 0.27970025 -0.23904055 -0.019388977 -0.05952111 -0.26297185
-0.12225346 0.00412938 0.027172178 -0.256956 0.12466961 -0.2134037 0.12996027 0.26354063
-0.10211688 -0.0980281 -0.007108575 0.066941075 0.37105983 0.38497 0.0056459834 0.32673222
0.12835613 -0.1392971 -0.19835299 0.18122606 0.12728614 0.13604574 0.2236855 -0.08147067
0.23575419 0.25926116 0.19643219 -0.010963107 -0.3422089 0.07155635 0.11695771 0.12971027
-0.1048783 -0.06610981 -0.093060195 0.02260703 -0.16467097 -0.1998322 -0.25422403 -0.0131144
-0.037088335 -0.23469423 -0.25984612 0.10186966 0.043920007 -0.1324013 -0.23457134 -0.029891264
0.03444251 0.24800739 0.22405005 -0.23128235 0.185408 0.026230682 0.0018023598 -0.12710997
-0.09516429 0.20784883 -0.03849346 -0.22003412 -0.35328475 0.0053205197 0.30141443 -0.7541206
0.21019752 -0.12618902 -0.07308245 0.13708518 -0.047500607 -0.0060665556 -0.08535932 0.23080365

fc6.bias f4 [16]
00000000: de63 4cbe 50ed 45bd 3a38 36be 5b30 efbd
00000010: 5eb8 35be 4369 f93d 41a2 423f 8763 2ebc
00000020: 1ee5 61be e132 abbe bbde 41bf 9076 fcbd
00000030: a56c 85be e5f5 07be bc08 adbb 706e 34be
-0.19959971 -0.048322022 -0.17794886 -0.11679145 -0.17746112 0.1217828 0.7602883 -0.010643846
-0.22060058 -0.33437255 -0.75730485 -0.123273015 -0.26059452 -0.13277395 -0.0052805822 -0.17620254

fc7.weight f4 [16, 16]
00000000: 0823 0fbd 2069 293c 500d 71be 845e 26be
00000010: a0b5 0a3c 46c1 d23d 0f9c 2c3c a009 8b3d
00000020: 64f5 853d 5e6a 6fbe e052 fd3c c860 13be
00000030: a06b 23be e00d 7dbd c0dc 2bbe 320a 47be
00000040: 80b1 6a3d d0f2 df3c 185c 6a3e 0e09 343e
00000050: 1148 53be 0396 183e 3a36 20ba 8003 513c
00000060: a2be 24be 00d9 dbbd 2485 f1bd 1c5b 51be
00000070: 160e 26be 9ca7 dfbd d800 11be 246d 92bd
00000080: 707d bfbc 3c78 913d 807e cabd 872e 33be
00000090: b70c 4fbe 36b8 93be 3cc1 32be a0d1 a43c
000000a0: fad1 163e a026 793c 064b 23bd 51dd 723d
000000b0: 6fed 97bc cda2 dcbd c628 2f3e e52e 03bf
000000c0: e86f 253d 165b 5f3e 644d 2a3e 04e7 78be
000000d0: 226b 05be b3e8 3fbe cba7 253e 8019 c3be
000000e0: 80a6 70bc fcf7 c9bd ba40 083e 58b2 99be
000000f0: a8f3 c7bd 04a2 17ba 396f af3d a75b 2abe
00000100: 48c0 1a3d c06e d2bc 5004 3d3e 5c0c 1b3e
00000110: 31e3 7abe 07ab d2be a642 1abe 0abd 7bbc
00000120: 4e44 4ebe e02f 79be 362b 363e 6915 6cbe
00000130: 6dce a6be c38f 333e 6115 d9bd 7979 18bd
00000140: 641f 7dbe 9450 27be 40b4 ad3c 901c 53bd
00000150: 5890 f7bd 316c 1bbe 450c 1ebf 30b5 183d
00000160: 3c7f 133e d293 083e 0478 96bd d094 c53c
00000170: 13df 53bc 24e1 07be 4c37 9c3d 16dd 8abe
00000180: 58d2 68bd dbff 6d3e e256 66be a966 8f3c
00000190: 5293 75be 842f fbbe 27f9 cabe 349f 0e3e
000001a0: f4ff 2ebe ad07 9ebd e89b c73d 2dee 553c
000001b0: f20b 5dba 8723 75be 7d0a 26be ab58 3fbe
000001c0: 2e7f 2d3e 7afe 65be 64cd c4bd 6029 a73d
000001d0: 3849 4ebe 7ea1 24be 6eaa 23be 00d3 d13c
000001e0: b0ec edbd 44bc 40be d00a dcbc 54d2 66be
000001f0: 204d 77be 2cdf 843d 9e07 36be e8c4 be3d
00000200: 5017 1ebe 47bb 43be 48c2 40be 4401 6dbe
00000210: b8ce bf3d 0904 ddbd 6980 8fbe 319a 8d3e
00000220: b03a 3bbd ee86 93bd 4efe 713e 8e51 fa3d
00000230: 21a2 8fbc 5ffb 1cbe 12d7 14be 498d 583d
00000240: 004e 41ba 7e3d 5cbe d431 93bd 7e51 783e
00000250: 2a27 223e a17a d9bb 4cc6 2fbe d8a2 ca3d
00000260: 24a6 43be 0416 2bbe 96cd 043d 39c7 3dbe
00000270: 433b bbbd 16e9 bc3d 600f b83c 330b 68be
00000280: 7087 cc3d f4fb db3d 7860 133d 90c1 983d
00000290: 90b1 03bf 1c05 97be 25ba ecbd 2b78 6cbc
000002a0: 5ce8 a73d 4218 35be 8c5b 85bc a4eb febd
000002b0: 09a7 1dbe 05c6 17bc 4dae 6c3d 0ba7 b9be
000002c0: fc54 abbd 49bc e7bc 48c7 783e 2c7a c73d
000002d0: f38f 93be 7daa e4bd 9d6e af3f 677c 8fbe
000002e0: e2c7 48be 102f 1ebe 6dc9 e63d a683 c63c
000002f0: dbf4 06bf 0b6b 2b3d b507 5ebe d285 a6be
00000300: 5ade 0dbe a06b 93bc 3c83 8f3d 2488 cebd
00000310: acd7 453e 16bd 1dbe e5a6 693d d847 05bd
00000320: 545e 2f3e 5cf1 043e ae26 3a3e a227 b7bd
00000330: ee9a 3cbe 1bdd 443e 5030 1d3e 18b6 41bd
00000340: 4a8e 26be 950a 9a3c 00be 343a 2358 433e
00000350: 5603 293a 8e12 1b3d eb16 f83d 1375 78bd
00000360: 40ab 82bd af74 17bd 353a 813d 06d5 833d
00000370: 7aee a43e 9008 91bc 6eb6 983e a5c9 163d
00000380: 381d cb3d 2807 933d f06e bbbd 8014 473c
00000390: 2051 58bc 27aa 9ebd 0822 9bbe fdac 01be
000003a0: 421f 7c3e 7474 f7bd 527c 7a3e e2c4 37be
000003b0: 8d76 69be 4c82 733e 8ef3 4fbe 28a6 863e
000003c0: 38e0 623d 2b3f b93c 1eb3 3abe 40db 7c3c
000003d0: 9eff e1bd c7ce 343e c8f8 cd3f 6328 05be
000003e0: 0c66 a13d 4279 7a3e 7982 83bd 23ec fbbd
000003f0: 2874 0abf 3184 0bbe 1ad7 433e 1066 dcbd
-0.034945518 0.010340005 -0.23540235 -0.16246992 0.008466154 0.1029077 0.010535254 0.06788945
0.06540945 -0.2338042 0.030923307 -0.14392388 -0.15959024 -0.06178081 -0.16783428 -0.19437483
0.057298183 0.027337462 0.22886693 0.17581579 -0.2063296 0.14900975 -0.0006111596 0.012757182
-0.16088346 -0.10734749 -0.11792973 -0.20444912 -0.16216311 -0.10920641 -0.14160478 -0.07149723
-0.023375243 0.07103011 -0.09887409 -0.17498218 -0.20219694 -0.2885148 -0.17456526 0.020119488
0.14728537 0.015206963 -0.03986647 0.059293095 -0.018545834 -0.10773239 0.17105398 -0.5124343
0.040389925 0.2181209 0.16631085 -0.24306875 -0.13029149 -0.18741111 0.16177289 -0.38105392
-0.014688134 -0.098617524 0.13305941 -0.30018878 -0.097632706 -0.0005784335 0.08566136 -0.16636525
0.03778103 -0.025687575 0.18458676 0.15141433 -0.24500729 -0.41146109 -0.15064487 -0.015364895
-0.20143244 -0.24334669 0.17789921 -0.23055042 -0.32579365 0.1753531 -0.10599781 -0.03722522
-0.24719006 -0.16339332 0.021204114 -0.05154091 -0.12088078 -0.1517799 -0.6173747 0.03728217
0.14404005 0.13337639 -0.0734711 0.02411881 -0.012931603 -0.13269478 0.076277345 -0.271218
-0.056841224 0.23242132 -0.2249408 0.017505007 -0.2398198 -0.4905969 -0.39643213 0.13927919
-0.17089826 -0.07716308 0.09746534 0.013057274 -0.0008432261 -0.23939334 -0.16214938 -0.18686168
0.16943046 -0.22460356 -0.09609488 0.081621885 -0.20145118 -0.1607723 -0.15982983 0.025613308
-0.1161741 -0.18821818 -0.026860625 -0.22541171 -0.24150515 0.06487879 -0.17776343 0.09314901
-0.1543858 -0.1911441 -0.18824112 -0.23145014 0.093656 -0.10791785 -0.28027657 0.276567
-0.045710266 -0.0720347 0.23632166 0.122225866 -0.017533364 -0.15330265 -0.14535168 0.052869115
-0.00073739886 -0.21507832 -0.07187238 0.24249837 0.15835252 -0.006636933 -0.17165488 0.09894341
-0.19106346 -0.16707617 0.032422625 -0.18533029 -0.09142163 0.09224145 0.022468269 -0.22660522
0.0998677 0.107414156 0.03598067 0.07458794 -0.51442814 -0.29496086 -0.11558942 -0.014432947
0.08198616 -0.17685035 -0.016279005 -0.12447289 -0.1539575 -0.00926352 0.057783414 -0.36260256
-0.08365819 -0.028288024 0.2429477 0.09740099 -0.28820762 -0.111653306 1.3705631 -0.280246
-0.19607499 -0.1544764 0.11268888 0.024232697 -0.5271737 0.04185013 -0.21682627 -0.32523972
-0.13854352 -0.017995656 0.07007453 -0.100845605 0.19320554 -0.15404162 0.05704393 -0.03253922
0.17125827 0.12982696 0.18178818 -0.08943106 -0.18418476 0.1922497 0.15350461 -0.0472928
-0.16265216 0.018803874 0.0006894767 0.1907659 0.00064473355 0.037859492 0.12113746 -0.060658526
-0.063803196 -0.036976513 0.0630993 0.06437115 0.32213193 -0.017704278 0.29826683 0.036813397
0.099176824 0.07179099 -0.09152019 0.012150884 -0.013202935 -0.07747298 -0.302994 -0.12663646
0.24621299 -0.120827585 0.24461487 -0.17946199 -0.2279913 0.23780173 -0.20307752 0.26298642
0.055389613 0.022613129 -0.1823239 0.015433133 -0.11035083 0.17657004 1.6091547 -0.13003688
0.07880792 0.24460319 -0.0642137 -0.12300899 -0.5408349 -0.13624646 0.19125023 -0.107616544

fc7.bias f4 [16]
00000000: 94e9 a6be e70f 1abe 9623 cbbe db29 acbc
00000010: 3401 c5bc fa36 34bd 4aac 01be 5659 73be
00000020: adb2 62be a12b b1bd 34e8 63be c3a0 5f3e
00000030: 0b7f 77be be6d d8be 1896 bdbc a9d3 3b3f
-0.3260008 -0.15045129 -0.39675587 -0.021016052 -0.024048425 -0.043997742 -0.1266338 -0.23764548
-0.22138472 -0.086509 -0.22256547 0.2183867 -0.24169557 -0.42271227 -0.02314286 0.7336984

fc8.weight f4 [2, 16]
00000000: 3169 d43d 5c57 d43d bbbb 8f3e dbe0 043c
00000010: d62e 6e3d f77c 273b 184c 663e 0ece 4d3e
00000020: 19b6 5abe 2a23 6e3e 205c 53be c6dc bfbe
00000030: dcdd 4fba 974e 6d3d 9a57 65be 1bdd 69bf
00000040: 2293 d7bc a64b 22be 5618 e2bc cddd 453d
00000050: 79d3 383c 4f36 7f3e b3ff 623e 4e7b 77be
00000060: 5824 73be 1a73 7a3e 834e 39be e044 763e
00000070: 68af 643e 9b11 aebe 7600 003d 8f0b 5c3f
0.10371626 0.10368225 0.28072914 0.00811025 0.058150135 0.0025556663 0.22489965 0.20098135
-0.21358527 0.23255602 -0.20640612 -0.37473124 -0.0007929483 0.057936277 -0.22396699 -0.91353005
-0.026315276 -0.1584917 -0.027599495 0.04830723 0.011280888 0.24923061 0.22167854 -0.24168131
-0.23744333 0.2445797 -0.18096356 0.24049711 0.22332537 -0.33997807 0.03125044 0.85955137

fc8.bias f4 [2]
00000000: 5a5b 883d 4beb 263e
0.06658049 0.16300695
