data/results/1731783989.pth (torch, 7844 bytes, 8 tensors)

fc1.weight f4 [16, 36]
-0.045166712 0.048787814 0.53201336 0.015663614 0.20643216 -0.7234547 -0.022608997 -0.49642217
-1.6478287 0.15610394 -0.6089164 0.26390186 0.3091926 -0.0076584877 0.15330517 -0.07829978
0.14148462 0.35079148 0.7971829 -0.48451227 -0.28155437 -0.42857048 -0.32771406 -0.089364305
0.7762642 -0.9992047 0.43041936 -0.4465128 0.36535418 -0.20108844 -0.00810068 -0.6606915
0.20150296 0.45387587 0.4367247 0.27872956 -0.27078637 0.05023125 -0.040588725 0.12490518
-0.036282264 -0.73243374 -0.12724842 -0.09475976 -0.20914747 0.59818846 -0.58897144 0.22332141
1.1201917 -0.007821821 0.1503454 -0.9968221 0.23303784 0.20902804 0.083075464 0.021316929
-0.32236966 -0.14159891 -0.38065243 0.17225097 0.25660512 0.22010396 0.58498675 -1.0670428
0.18505232 -0.26245737 0.050003324 0.06625044 -0.814905 0.31822258 -0.36304486 -0.23886521
0.00792126 -0.10477329 -0.27776358 0.036479253 -0.060192708 -0.52203196 -0.5096975 -0.2551125
-0.5949178 -0.11439234 -0.6217046 0.091068625 0.16260234 -0.20141412 0.27070674 -0.52760774
-0.4244639 0.25080693 -0.42525885 0.014051758 -0.16227333 -0.6651618 -0.09552892 0.06955961
0.6413346 1.028894 -0.49926475 -0.64716274 0.24180388 -0.31222638 0.21075767 -0.47842053
-0.18786165 0.37865654 -0.21616781 -0.20341122 0.12593406 0.24874169 -0.00046738156 -0.09104999
0.06431963 -0.6803293 -2.3786564 -0.07582783 0.85191303 -0.4614831 -0.45744267 0.061653074
0.07026886 0.37704143 0.12742355 0.10704586 -0.35284767 0.4668843 0.7943627 -0.081523255
0.35285038 0.26435226 0.3878739 0.12568872 0.5401342 0.065478384 0.08846228 0.55829465
0.02388148 -0.08382478 0.15059203 0.15272406 -0.9827012 0.11235085 0.110984534 0.29481044
0.24294583 0.10027203 0.44875655 -0.22504178 -0.5344951 -0.53411025 -0.1586461 0.14908348
0.3101227 -0.046958745 -0.24499168 0.11945438 1.317718 -0.16677442 -0.12499917 0.2869372
0.2575342 0.50486475 -0.6105491 0.15173288 0.050616454 -0.53101283 -0.23481087 -0.08526767
0.7351176 0.531455 0.11553728 1.0574706 -0.18484546 -0.13717669 -0.078691885 -0.10503201
0.2594754 -0.097357556 0.18599942 0.50576884 -0.011445238 0.38095105 0.23236845 -0.3059508
-0.41442707 -0.7951204 -1.193059 -0.39587975 0.19805834 0.20417023 -0.27507314 0.16125679
0.24629106 -0.344031 0.072018094 0.41194615 -0.4908194 0.29844767 -0.47817817 0.82296896
0.1797472 0.23256224 0.4423053 0.3938176 -0.042462166 0.65811926 0.36962134 -0.6263391
0.0043672128 0.257248 -0.045496542 0.39964026 -0.12739564 0.042038754 0.01144256 -1.0910815
0.009358407 0.16600354 0.2876837 -0.10585085 0.012878797 -0.33901983 1.0717245 -0.08009618
0.643037 0.51458436 -0.45453647 -0.040182363 -0.20774825 -0.17902869 0.06388408 0.27049458
-0.2332729 -0.03591519 0.6682671 0.53958887 -0.09486316 -0.5503407 -0.3165871 -0.26595664
-0.6816 -0.5488839 0.5086159 0.41694847 0.17140691 -0.12537147 0.34604698 -0.3374911
-0.020048024 0.37801394 0.24524103 0.02504523 0.030992847 0.0570478 0.4510154 -0.15231532
00000000: bb00 39bd bbd5 473d 0732 083f fb50 803c
00000010: f462 533e 5434 39bf 8136 b9bc 0c2b febe
00000020: 0dec d2bf b6d9 1f3e f2e1 1bbf 251e 873e
00000030: 7e4e 9e3e 0df4 fabb 08fc 1c3e a35b a0bd
00000040: 58e1 103e f19a b33e 2e14 4c3f fe11 f8be
00000050: e527 90be 976d dbbe 23ca a7be a204 b7bd
00000060: 40b9 463f e1cb 7fbf ed5f dc3e 539d e4be
00000070: b40f bb3e 21ea 4dbe b7b8 04bc 1423 29bf
00000080: cb56 4e3e 6b62 e83e 619a df3e a4b5 8e3e
00000090: 83a4 8abe 48bf 4d3d 5d40 26bd 49ce ff3d
000000a0: b69c 14bd c780 3bbf 694d 02be 6811 c2bd
000000b0: c12a 56be e122 193f d5c6 16bf 5eae 643e
000000c0: 7162 8f3f 1827 00bc 25f4 193e bc2f 7fbf
000000d0: 79a1 6e3e 720b 563e 7823 aa3d d7a0 ae3c
000000e0: a30d a5be 4eff 10be e0e4 c2be 8f62 303e
000000f0: bf61 833e ef62 613e b1c1 153f dc94 88bf
00000100: 5b7e 3d3e d060 86be 49d0 4c3d 50ae 873d
00000110: 9d9d 50bf 12ee a23e 04e1 b9be 1599 74be
00000120: 2cc8 013c 6193 d6bd 0737 8ebe 456b 153d
00000130: a18c 76bd e3a3 05bf 897b 02bf 1b9e 82be
00000140: 884c 18bf 8846 eabd 0828 1fbf 3082 ba3d
00000150: 3a81 263e 813f 4ebe 139a 8a3e 4d11 07bf
00000160: 5553 d9be c469 803e 87bb d9be 5839 663c
00000170: fb2a 26be 0b48 2abf aba4 c3bd 4575 8e3d
00000180: 812e 243f ccb2 833f a19f ffbe 75ac 25bf
00000190: 709b 773e 23dc 9fbe dcd0 573e 89f3 f4be
000001a0: ce5e 40be 45df c13e 185b 5dbe 084b 50be
000001b0: dcf4 003e 24b6 7e3e e40a f5b9 6b78 babd
000001c0: 03ba 833d 102a 2ebf e83b 18c0 9f4b 9bbd
000001d0: f916 5a3f 8347 ecbe ed35 eabe ef87 7c3d
000001e0: 1fe9 8f3d 930b c13e 527b 023e dc3a db3d
000001f0: 73a8 b4be 750b ef3e 5b5b 4b3f aaf5 a6bd
00000200: cea8 b43e 2e59 873e 6897 c63e 8bb4 003e
00000210: 3c46 0a3f 8819 863d b62b b53d 66ec 0e3f
00000220: 18a3 c33c 54ac abbd cc34 1a3e b263 1c3e
00000230: 4e92 7bbf 3418 e63d dc4b e33d 65f1 963e
00000240: cbc6 783e 6c5b cd3d 6bc3 e53e 5a71 66be
00000250: acd4 08bf 73bb 08bf 2074 22be 57a9 183e
00000260: 67c8 9e3e d057 40bd 19df 7abe 7fa4 f43d
00000270: fcaa a83f eac6 2abe 91ff ffbd 6fe9 923e
00000280: 86db 833e d13e 013f f24c 1cbf dd5f 1b3e
00000290: 3353 4f3d 75f0 07bf 4372 70be d1a0 aebd
000002a0: ab30 3c3f 6f0d 083f cf9e ec3d 325b 873f
000002b0: 2148 3dbe 0c78 0cbe 3629 a1bd 061b d7bd
000002c0: f6d9 843e 6663 c7bd a276 3e3e 117a 013f
000002d0: cf84 3bbc 040c c33e fff1 6d3e 95a5 9cbe
000002e0: c92f d4be 038d 4bbf 28b6 98bf c0b0 cabe
000002f0: cecf 4a3e 0012 513e 63d6 8cbe 8020 253e
00000300: b933 7c3e d524 b0be 397e 933d 9bea d23e
00000310: ae4c fbbe 22ce 983e c5d3 f4be 18ae 523f
00000320: a60f 383e cc24 6e3e d775 e23e 76a2 c93e
00000330: cfec 2dbd 817a 283f 023f bd3e c257 20bf
00000340: d61a 8f3b 03b6 833e 955a 3abd a69d cc3e
00000350: 0174 02be d430 2c3d 9379 3b3c 8fa8 8bbf
00000360: 0154 193c d5fc 293e 474b 933e 55c8 d8bd
00000370: 9701 533c 0294 adbe 452e 893f 7709 a4bd
00000380: 139e 243f cdbb 033f 01b9 e8be 4396 24bd
00000390: f5bb 54be 4c53 37be a8d5 823d 447e 8a3e
000003a0: 17df 6ebe ce1b 13bd 8d13 2b3f 7f22 0a3f
000003b0: 9e47 c2bd 21e3 0cbf b417 a2be 782b 88be
000003c0: 567d 2ebf a883 0cbf a734 023f 457a d53e
000003d0: 4b85 2f3e 6161 00be 122d b13e a2cb acbe
000003e0: c13b a4bc 0b8b c13e 7720 7b3e a72b cd3c
000003f0: b6e4 fd3c f4aa 693d 7eeb e63e 8cf8 1bbe

fc1.bias f4 [16]
-0.6191472 -0.3081351 -0.4191321 -1.1661239 -0.6795983 -0.6798389 -0.4874757 0.09992876
-0.2712048 -0.10093397 0.17902137 -0.46689728 -1.0351685 0.35098654 -1.4233055 -0.5020224
00000000: 6e80 1ebf e2c3 9dbe 7c98 d6be 8c43 95bf
00000010: 27fa 2dbf ec09 2ebf 6a96 f9be 73a7 cc3d
00000020: 5bdb 8abe 78b6 cebd 6151 373e 290d efbe
00000030: 6780 84bf 82b4 b33e e02e b6bf 8a84 00bf

fc2.weight f4 [16, 16]
0.20443414 0.47873047 0.5009827 -0.93293774 -0.09809512 -0.25758305 0.024046969 0.21774353
0.26999182 0.3817562 0.14376298 -1.3333855 0.74776715 -0.40284923 0.31938988 0.44424716
0.7139842 -0.051581237 -2.2020774 -0.80439824 -0.033315238 -1.5589485 0.12178328 -0.42333367
-1.069413 0.62743366 0.11176147 -0.61435 0.29594812 0.00066061236 -0.055830795 -0.7965902
-0.06891139 -0.5730569 -0.9735616 -0.660113 -0.0491369 0.19708575 -0.05063089 -0.41363278
-0.28226426 0.5801621 0.15978172 -0.524804 -0.30476597 0.17186823 0.228056 0.0054899086
0.84530634 -0.03438223 0.21119243 -0.3224619 -0.4692713 0.32139677 -0.055996504 0.7935343
-0.5041423 -1.0056165 0.5789475 -0.38699988 0.68590754 -0.1846627 0.26486745 0.2209798
0.15640092 0.33722946 -0.13646263 0.2968061 -1.5518706 -0.75991774 -1.0431385 -0.24237081
0.07569848 0.33970353 0.011814713 -0.20845547 -0.018879732 -0.7211181 0.17098676 0.4588292
0.37796333 0.5751774 -0.0029008826 0.0041588936 0.2730027 0.21797143 0.016795212 0.18292296
0.030145569 0.10396052 0.07742353 -0.4902681 0.07432275 0.4011952 0.3919376 0.18671837
0.5231229 0.22806181 -0.01892895 0.45347446 0.33161473 -0.14318852 0.3336652 0.49398977
0.29945052 0.28589755 0.29015553 -1.0039737 0.2723098 0.6299233 0.57408935 0.2342252
-0.007595893 0.28683278 -0.048833907 0.46744496 -0.104168974 0.41102308 0.2590929 0.40209845
-0.38590312 0.45114616 0.16638185 -0.3677257 -0.12522502 0.23785302 0.48238012 0.2613354
-0.39313942 -0.43995902 -0.07576078 -0.62436396 -0.7376837 0.1586539 -1.3699504 -1.3140048
-1.8659524 0.08731466 -0.79025656 -0.2907446 0.49703637 0.39775035 0.477907 -0.1353123
0.1917687 -0.35197467 0.09126182 0.2921948 -0.7189789 0.085057504 0.1664426 -0.36458632
0.32681096 -0.37233546 0.5791572 -0.16639948 0.4443263 -0.11443463 0.1898082 0.35501415
-1.0734427 0.5239469 -1.0333898 -0.8926535 -0.40050417 -0.7949946 0.4621096 0.44695953
-3.225706 0.012275158 0.46878654 -0.23917276 -0.19194682 -0.45207632 -1.4397414 0.015771952
0.28302327 0.3925289 0.17597511 0.10758482 0.12908195 0.3619968 0.20370416 0.36839134
0.1895134 0.63016516 0.3943322 -0.63491017 0.389748 0.4340566 0.54579604 0.36656323
0.30044034 0.35477906 0.1952718 0.029691562 0.20660308 0.022916868 0.2723812 0.34814265
0.21956882 0.65454084 0.38009852 -0.67724574 0.37984982 0.39931354 0.2235684 0.41045108
-0.053731535 -0.7842731 0.6032914 -0.010101448 -0.0659949 0.20892139 0.25550994 0.07373156
-0.0951773 0.24635352 0.3663367 -0.6253833 -0.9515657 0.29525465 -1.4514847 0.78358525
-0.90713775 0.4938828 0.06874413 0.7268701 0.32138243 -0.077358305 0.5952985 -1.1195433
0.3746958 0.121553466 0.26827043 -0.6351933 0.2992301 0.15999927 -0.2562307 0.45916057
-0.5390579 -0.06843127 -0.8403802 -1.5349903 0.57643026 0.4355928 0.01110457 0.29244435
-0.6718586 -0.23356226 -0.4636267 -0.79494286 -0.19812244 0.32212868 0.9970825 -0.47657698
00000000: 2f57 513e 291c f53e 6740 003f 02d5 6ebf
00000010: 18e6 c8bd ede1 83be 26fe c43c 29f8 5e3e
00000020: 5e3c 8a3e 8c75 c33e 9a36 133e 60ac aabf
00000030: ab6d 3f3f 4142 cebe 1287 a33e 5d74 e33e
00000040: abc7 363f d946 53bd d6ee 0cc0 0bed 4dbf
00000050: 8f75 08bd a08b c7bf 8369 f93d 31bf d8be
00000060: 86e2 88bf 7e9f 203f 33e3 e43d 0b46 1dbf
00000070: 8386 973e f22c 2d3a d5ae 64bd 56ed 4bbf
00000080: 6a21 8dbd dbb3 12bf 553b 79bf 2afd 28bf
00000090: c643 49bd d9d0 493e 5662 4fbd adc7 d3be
000000a0: f184 90be 8185 143f d29d 233e 8e59 06bf
000000b0: 490a 9cbe 3afe 2f3e 8387 693e b1e4 b33b
000000c0: ff65 583f 62d4 0cbd d442 583e ba19 a5be
000000d0: 5444 f0be 1e8e a43e 975c 65bd 1025 4b3f
000000e0: 780f 01bf 0bb8 80bf e735 143f d924 c6be
000000f0: a397 2f3f 3818 3dbe b59c 873e 8748 623e
00000100: 9027 203e 57a9 ac3e dcbc 0bbe f8f6 973e
00000110: b2a3 c6bf f889 42bf 9085 85bf 0e30 78be
00000120: ce07 9b3d 9fed ad3e 7f92 413c 5a75 55be
00000130: aba9 9abc 329b 38bf 2717 2f3e a9eb ea3e
00000140: 6984 c13e d33e 133f bc1c 3ebb 5447 883b
00000150: 03c7 8b3e e733 5f3e 1d96 893c 2850 3b3e
00000160: d7f3 f63c 41e9 d43d 3a90 9e3d 6c04 fbbe
00000170: 8736 983d 7569 cd3e 0cac c83e 1a33 3f3e
00000180: 62eb 053f 0989 693e e310 9bbc ce2d e83e
00000190: 68c9 a93e 03a0 12be 2ad6 aa3e 3aec fc3e
000001a0: 9451 993e 2a61 923e 448f 943e 3682 80bf
000001b0: 316c 8b3e a742 213f 85f7 123f bbd8 6f3e
000001c0: f8e6 f8bb bfdb 923e 1006 48bd f254 ef3e
000001d0: 8b56 d5bd 9e71 d23e d3a7 843e d9df cd3e
000001e0: 1895 c5be a1fc e63e 0160 2a3e 8b46 bcbe
000001f0: fd3a 00be be8f 733e 87fa f63e c1cd 853e
00000200: 9249 c9be 4f42 e1be 7828 9bbd 51d6 1fbf
00000210: d7d8 3cbf 2b76 223e 895a afbf 4f31 a8bf
00000220: 87d7 eebf 07d2 b23d 414e 4abf 7adc 94be
00000230: 8d7b fe3e efa5 cb3e 3ab0 f43e 4f8f 0abe
00000240: 045f 443e 0636 b4be 7ae7 ba3d 8f9a 953e
00000250: 000f 38bf a132 ae3d ee6f 2a3e 0fab babe
00000260: c453 a73e c1a2 bebe a543 143f a064 2abe
00000270: bd7e e33e b45c eabd 155d 423e 6ac4 b53e
00000280: 9266 89bf 6221 063f 1e46 84bf f184 64bf
00000290: e20e cdbe c484 4bbf a199 ec3e e1d7 e43e
000002a0: f871 4ec0 bf1d 493c ca04 f03e b4e9 74be
000002b0: b58d 44be 8c76 e7be 7249 b8bf 2e34 813c
000002c0: 6de8 903e 8cf9 c83e d232 343e 6e55 dc3d
000002d0: 0f2e 043e a557 b93e d397 503e ca9d bc3e
000002e0: cd0f 423e 8152 213f e9e5 c93e 7989 22bf
000002f0: 0d8d c73e ab3c de3e 4ab9 0b3f 2dae bb3e
00000300: 51d3 993e 9aa5 b53e 55f5 473e b83b f33c
00000310: c28f 533e 28bc bb3c 8c75 8b3e c13f b23e
00000320: a6d6 603e fd8f 273f 469c c23e fa5f 2dbf
00000330: ad7b c23e d372 cc3e 1def 643e a526 d23e
00000340: 9915 5cbd 1fc6 48bf 4e71 1a3f 8b80 25bc
00000350: 5628 87bd 7def 553e 33d2 823e 9200 973d
00000360: 51ec c2bd 1944 7c3e 7c90 bb3e 1f19 20bf
00000370: cf99 73bf 9e2b 973e 40ca b9bf 0b99 483f
00000380: 2e3a 68bf 35de fc3e b9c9 8c3d 2914 3a3f
00000390: 3d8c a43e 086e 9ebd 7c65 183f 324d 8fbf
000003a0: 21d8 bf3e 06f1 f83d be5a 893e 079c 22bf
000003b0: b034 993e d9d6 233e ac30 83be 1817 eb3e
000003c0: b3ff 09bf b225 8cbd 2823 57bf 907a c4bf
000003d0: ef90 133f 0506 df3e f1ef 353c 44bb 953e
000003e0: edfe 2bbf f22a 6fbe 7b60 edbe 6081 4bbf
000003f0: 9ce0 4abe 0dee a43e cc40 7f3f e601 f4be

fc2.bias f4 [16]
-0.4332806 -0.2786943 -0.16570099 -0.17897718 0.60151446 -0.3430885 -1.3050439 0.060129814
0.8157589 -0.6087892 0.30047277 0.7704231 0.43492442 -0.80117714 -1.1007458 -0.3617738
00000000: f4d6 ddbe 05b1 8ebe 85ad 29be cb45 37be
00000010: dafc 193f 4ca9 afbe ae0b a7bf ae4a 763d
00000020: 93d5 503f 9cd9 1bbf 91d7 993e 733a 453f
00000030: 6aae de3e f219 4dbf 3de5 8cbf 6a3a b9be

fc3.weight f4 [16, 16]
-0.351807 -0.36977765 -0.8691912 0.31925556 0.2420141 -1.1051643 -0.56260276 -0.9534984
0.493827 0.28450575 0.9395263 -0.5067128 -0.69613 -0.30041468 -0.033794753 0.07811201
0.4299309 0.103389844 0.060582135 0.14390203 -0.5708271 -0.24593568 0.7087106 -0.15496159
-0.13122022 0.030430056 -1.0452737 0.014568992 -0.13101052 0.37408307 0.57090205 0.9259776
0.20648715 -0.1070602 0.09127865 -0.0946883 -0.18245016 0.24561155 0.44757774 0.02026436
-0.45217878 -0.044784598 -0.76591575 -0.12781031 -0.12530686 0.29542348 0.42637017 0.6013606
-0.7559288 -0.3761436 -0.2171681 -0.6794112 0.26368007 -0.9466632 -0.1208854 -0.9883265
0.7208488 -0.07838705 2.3565748 -1.9727879 -1.1135896 0.5558028 -0.60313123 -0.40968958
0.3468196 -0.9201429 0.02470129 -0.68652207 0.2759162 -0.29071102 -0.5648831 -0.8260871
0.690716 -0.25320658 0.79385114 -0.18583232 -0.24606232 -0.5230619 -0.93938065 0.18056539
-0.26955318 -0.015184329 0.082174376 0.07211842 -0.17623869 -0.39416167 -0.25402018 -0.1181657
0.009756264 -0.17312507 -0.032289147 0.022790149 -0.19884032 -0.28001544 -0.25824362 -0.18004818
1.3547199 -1.2909346 -0.8979892 -1.0868909 0.29996288 -0.4068534 -0.1985513 -0.02858009
1.1389843 -0.968595 1.7603151 -0.8253212 -0.5166309 -1.6693045 -1.010915 -0.8137132
0.44034466 -0.122729294 0.31769097 0.3643134 -0.3444947 0.12779683 0.72109383 0.11533685
-0.43819645 -0.12970674 -0.7572932 0.42387185 0.34221572 0.6394443 0.5473256 0.60187924
0.29498887 -0.15296972 -0.1519822 0.08328513 -0.13412504 0.13051301 -0.35840923 -0.091405965
0.17159106 -0.29866442 0.06675449 -0.4042518 -0.14154755 -0.3724494 -0.06685758 -0.24096054
0.46999812 0.51388484 0.19857495 -0.42394227 -1.0954728 0.060719237 0.4572685 0.018288648
-0.41187713 0.13867168 -0.8767191 -0.16736831 0.057820573 0.13413057 0.22709449 1.1809134
-0.023889009 0.07257293 -0.10608166 0.068788424 -0.04328141 -0.009212757 0.02728705 -0.061213724
0.079503775 -0.21305424 0.15409273 -0.28722993 0.086853825 -0.06313691 -0.08263999 0.025248097
0.39798322 0.37213722 0.3724197 0.38062787 -0.39560914 0.10839889 1.0149186 0.13767521
-0.6565786 -0.12704764 -1.4672432 -0.1937709 -0.027726613 0.6029156 0.73774725 0.749358
0.52654415 -1.1444811 0.45367643 -0.22610205 0.15482387 -0.027411144 0.44856766 0.057094775
0.76620567 -0.23066473 0.72247607 -0.2881228 -0.23725213 -0.15237388 -0.43280393 -0.24576908
0.1427216 0.37662375 -0.12174655 -0.081093065 -0.26958466 -0.0801799 0.26982948 -0.16794528
0.05511727 0.1962406 -0.16392858 -0.27604875 -0.26613346 0.14122759 0.33474937 0.5719769
-0.2843202 -0.060508847 0.051790375 -0.0037643083 -0.18805248 -0.0845732 -0.11836162 -0.10987669
0.14102672 -0.11749177 -0.11147261 -0.28721628 -0.29629788 -0.21002296 -0.1515226 0.018495947
-0.08910325 0.16964865 0.13015112 -0.29684287 -0.21018885 -0.21396182 -0.07460127 -0.23466784
0.2040447 -0.106107436 0.1044457 -0.2894361 0.07089098 0.09723154 0.17061687 -0.15455736
00000000: 0c20 b4be 7f53 bdbe 5183 5ebf 7775 a33e
00000010: 8bd2 773e 0676 8dbf bc06 10bf 7918 74bf
00000020: e4d6 fc3e bdaa 913e cc84 703f eeb7 01bf
00000030: 9335 32bf f4cf 99be 5e6c 0abd 31f9 9f3d
00000040: e71f dc3e 0ebe d33d f924 783d 0e5b 133e
00000050: ba21 12bf 90d6 7bbe 0f6e 353f 40ae 1ebe
00000060: 985e 06be 7448 f93c 87cb 85bf c8b2 6e3c
00000070: 9f27 06be d187 bf3e a326 123f de0c 6d3f
00000080: 5e71 533e 6142 dbbd 4df0 ba3d f0eb c1bd
00000090: 37d4 3abe 9881 7b3e e928 e53e 7101 a63c
000000a0: fa83 e7be 0e70 37bd 0e13 44bf b5e0 02be
000000b0: 7150 00be bf41 973e 314d da3e c5f2 193f
000000c0: 8d84 41bf e595 c0be 5061 5ebe e4ed 2dbf
000000d0: 1301 873e 8558 72bf c492 f7bd f702 7dbf
000000e0: 8c89 383f 6489 a0bd 1fd2 1640 5084 fcbf
000000f0: 1b8a 8ebf 1849 0e3f cf66 1abf d5c2 d1be
00000100: 5792 b13e 7c8e 6bbf 5c5a ca3c e9bf 2fbf
00000110: e344 8d3e 13d8 94be 2e9c 10bf 727a 53bf
00000120: c4d2 303f 4ba4 81be d439 4b3f d44a 3ebe
00000130: c3f7 7bbe 62e7 05bf 407b 70bf 22e6 383e
00000140: e002 8abe b1c7 78bc 0a4b a83d d2b2 933d
00000150: ea77 34be 8fcf c9be ef0e 82be dc00 f2bd
00000160: bdd8 1f3c b347 31be a041 04bd 68b2 ba3c
00000170: cc9c 4bbe 2f5e 8fbe 8238 84be 8d5e 38be
00000180: 7667 ad3f 583d a5bf 9fe2 65bf 3e1f 8bbf
00000190: bc94 993e 174f d0be 0851 4bbe cb20 eabc
000001a0: 3dca 913f d8f5 77bf 0152 e13f 4048 53bf
000001b0: ec41 04bf c5ab d5bf aa65 81bf 824f 50bf
000001c0: db74 e13e 7f59 fbbd 64a8 a23e 4987 ba3e
000001d0: 9c61 b0be 2cdd 023e 9b99 383f ba35 ec3d
000001e0: 495b e0be d8d1 04be f8dd 41bf bb05 d93e
000001f0: e636 af3e 9fb2 233f 881d 0c3f c214 1a3f
00000200: c808 973e 18a4 1cbe 39a1 1bbe 6591 aa3d
00000210: 1358 09be 34a5 053e 6a81 b7be 0d33 bbbd
00000220: 91b5 2f3e 8bea 98be 94b6 883d 18fa cebe
00000230: d7f1 10be b0b1 bebe a0ec 88bd 5cbe 76be
00000240: 98a3 f03e f58d 033f 3b57 4b3e f60e d9be
00000250: 7438 8cbf bcb4 783d 191f ea3e 13d2 953c
00000260: 8fe1 d2be f3ff 0d3e aa70 60bf 9962 2bbe
00000270: 44d5 6c3d 8659 093e 758b 683e 2c28 973f
00000280: e2b2 c3bc 1ea1 943d 5741 d9bd f2e0 8c3d
00000290: d947 31bd 1bf1 16bc 1789 df3c 3ebb 7abd
000002a0: e0d2 a23d e42a 5abe 7cca 1d3e cd0f 93be
000002b0: 6be0 b13d ed4d 81bd 283f a9bd 19d5 ce3c
000002c0: 75c4 cb3e c588 be3e cbad be3e a8e1 c23e
000002d0: 488d cabe 3d00 de3d dae8 813f bbfa 0c3e
000002e0: 8915 28bf c718 02be a0ce bbbf e16b 46be
000002f0: ec22 e3bc ad58 1a3f 01dd 3c3f edd5 3f3f
00000300: 99cb 063f 5b7e 92bf 4748 e83e 4c87 67be
00000310: 268a 1e3e 568d e0bc a9aa e53e 36dc 693d
00000320: 0e26 443f 6033 6cbe 31f4 383f d584 93be
00000330: 39f2 72be e607 1cbe 7a98 ddbe e4aa 7bbe
00000340: 9c25 123e d4d4 c03e 4156 f9bd 1f14 a6bd
00000350: 0007 8abe 5c35 a4bd 1727 8a3e d9f9 2bbe
00000360: a6c2 613d 4cf3 483e e5dc 27be 4356 8dbe
00000370: a542 88be f79d 103e 4564 ab3e 146d 123f
00000380: 6b92 91be 20d8 77bd 2522 543d 9db2 76bb
00000390: d490 40be b734 adbd 9467 f2bd 0807 e1bd
000003a0: 4f69 103e 869f f0bd c04b e4bd 030e 93be
000003b0: 5bb4 97be 4210 57be be28 1bbe d084 973c
000003c0: c47b b6bd 60b8 2d3e 5646 053e cafb 97be
000003d0: bf3b 57be cf18 5bbe 8dc8 98bd c44c 70be
000003e0: 18f1 503e db4e d9bd a1e7 d53d f830 94be
000003f0: 4a2f 913d 5421 c73d 30b6 2e3e 4944 1ebe

fc3.bias f4 [16]
0.282768 -0.382571 -0.5210061 0.40450567 0.8811078 -0.22098573 0.6025273 -0.21582912
-0.2816236 -0.3218847 -0.21246828 -1.8737146 0.9474055 -0.032476198 -0.2492931 -0.31774256
00000000: f8c6 903e 59e0 c3be a860 05bf 5e1b cf3e
00000010: 4890 613f 154a 62be 3b3f 1a3f 4f02 5dbe
00000020: f830 90be 12ce a4be 4991 59be e1d5 efbf
00000030: 2b89 723f c305 05bd b146 7fbe 27af a2be

fc4.weight f4 [2, 16]
-0.6402552 0.06289659 0.16206267 -6.7075953 -0.42938855 -0.13617751 -1.2088072 0.32226428
0.04481436 0.14449555 -0.06090449 1.573968 -0.2853002 -0.06986984 -0.2596742 -0.07429755
0.54516166 -0.05743081 0.10486098 6.8229294 0.2970705 0.033157945 0.8174921 -0.20954415
-0.07831282 -2.1268992e-05 -0.08976093 -1.315213 0.38559818 0.024052415 0.032254845 -0.06497304
00000000: c4e7 23bf edcf 803d c2f3 253e 9fa4 d6c0
00000010: d1d8 dbbe 1e72 0bbe 32ba 9abf d3ff a43e
00000020: 438f 373d a4f6 133e fd76 79bd c977 c93f
00000030: de12 92be eb17 8fbd 04f4 84be 5029 98bd
00000040: b78f 0b3f 923c 6bbd 5ac1 d63d 7055 da40
00000050: a019 983e a0d0 073d 2a47 513f be92 56be
00000060: 7962 a0bd d06a b2b7 94d4 b7bd e658 a8bf
00000070: 206d c53e 9209 c53c a81d 043d 9610 85bd

fc4.bias f4 [2]
-0.3115295 0.21888913
00000000: cb80 9fbe 7924 603e
