data/results/1731503726.pth (torch, 14114 bytes, 16 tensors)

fc1.weight f4 [16, 32]
000000 e8 7a 2e bd 28 db 5b bd 23 41 0a c0 28 dd d7 3d
       -0.04259768 -0.0536758 -2.1602256 0.10540229
000010 04 8b c1 3d fb d1 1c 3f 78 24 1f 3e 6d f8 bf bd
       0.09450343 0.61257905 0.15541255 -0.09373555
000020 5d 1b 50 3f af c3 c9 3e 35 43 ea be fa da d3 3e
       0.81291753 0.39407107 -0.457544 0.41378003
000030 4c 05 82 3e 1d 58 df 3e 25 d8 b2 3e 31 c0 95 bb
       0.25394666 0.43621913 0.3493053 -0.00457003
000040 31 5e 0c 3f 19 67 fb 3e 82 04 f9 be 30 5f 3f 3f
       0.54831225 0.49102095 -0.48636252 0.7475462
000050 84 e2 b1 3e 27 78 cd 3c 53 53 12 3d 32 62 80 3d
       0.3474313 0.025081707 0.035723995 0.06268729
000060 ef ec 3d 3f a4 63 36 3f 13 7b 6b 3f 71 c5 ca 3e
       0.74189657 0.7124579 0.9198467 0.3960376
000070 e0 cc 24 bf b3 57 2b bf fc e9 07 3e 10 b2 8b be
       -0.64375114 -0.66930693 0.13272852 -0.27284288
000080 b2 14 e6 3d 9b ba 96 3d 14 2c 17 bf 40 35 ea bf
       0.11234416 0.07359811 -0.5905163 -1.8297501
000090 96 b7 da be 66 df 91 3d b3 f3 a9 3e cd 33 93 3e
       -0.4271819 0.07122688 0.3319374 0.28750458
0000a0 3c b4 3a 3f 90 b4 78 3e 00 9d 5a bf 65 28 0e 3e
       0.72931266 0.24287629 -0.85395813 0.13882597
0000b0 97 ff 26 bd f3 17 84 3e cc 6c 5d 3e 1f fe c9 3e
       -0.040771093 0.25799522 0.21623534 0.39451692
0000c0 bd 9c c7 bd c4 d3 4d 3e 99 af 61 3e f2 9d 24 bf
       -0.09746692 0.20100313 0.22039641 -0.64303505
0000d0 3a 49 a9 3e 0d e3 30 be 2a aa 2f bf 8d fd c3 3e
       0.3306368 -0.17274113 -0.68619025 0.3827938
0000e0 b6 19 54 3e 89 b2 f1 3d a3 ff c7 3d 78 98 3e be
       0.20712933 0.11801631 0.09765556 -0.1861285
0000f0 f0 4f 2e 3e 8c b7 13 bf 57 27 60 be 41 0a 10 3f
       0.17022681 -0.57701945 -0.21890007 0.56265646
000100 f2 74 a8 bd 7d 96 c0 bc 21 5f d3 bf 13 53 08 c0
       -0.082254305 -0.023509258 -1.6513406 -2.1300704
000110 56 ec eb 3e 24 bd 91 3e 09 74 3b bf 8f 1f f9 be
       0.46078748 0.28464615 -0.7322393 -0.4865689
000120 4b 7c 9d bd aa 5f b1 be ca 23 3f 3f f0 d3 09 3c
       -0.076897226 -0.34643298 0.74663985 0.008412346
000130 72 f1 16 3f 26 de 8d be 87 e2 7f be 7c 57 58 3e
       0.58962166 -0.27708548 -0.24988757 0.21127123
000140 37 4e 0a 3e 5c 47 e0 be b4 fe da 3e 0f 75 f1 be
       0.13506399 -0.43804443 0.42772448 -0.4715962
000150 df a9 88 3e 21 d3 35 3d 56 51 37 be cb e0 2e 3f
       0.266921 0.0443908 -0.17902121 0.68311757
000160 b9 17 f5 bd 7b ec 25 be 55 49 19 bd f0 b5 2f be
       -0.11967415 -0.16203491 -0.03742345 -0.17159247
000170 f6 bd ff bd 14 13 40 3f c3 d0 b9 3e a9 03 c5 be
       -0.12487404 0.7502911 0.36292085 -0.38479355
000180 1c b4 41 3e e8 59 41 3d 8d 6f 15 bf 74 b1 20 3f
       0.18916363 0.047204882 -0.5837334 0.6277077
000190 15 d5 6b be 53 35 27 3e 94 c5 68 3f 8f 3b 51 bf
       -0.23030503 0.16328935 0.9092648 -0.81731504
0001a0 ff 59 82 be 08 00 9c 3e 3e ff be bd db 13 b0 be
       -0.25459287 0.30468774 -0.09326027 -0.3439015
0001b0 3d fd 4d 3f 0f 7a 70 3e 8e 71 b0 be 06 99 0c bf
       0.80464536 0.23484062 -0.34461635 -0.54920995
0001c0 ed f4 2f be 38 9c f5 be 6c 2c e0 3e e3 7c aa 3e
       -0.17183276 -0.47970748 0.4378389 0.33298406
0001d0 8f 7d 44 3f 30 49 93 be 7e e3 92 bf 8d 1e 3c bf
       0.7675409 -0.28766775 -1.1475675 -0.73484117
0001e0 7a ea 4d 3e ee 46 6f be d1 d7 2a 3e ef 23 a5 3e
       0.20108977 -0.23366901 0.1668389 0.32253978
0001f0 a8 dc ff be 61 cd cc 3e 46 a3 04 bf 0f b7 25 bf
       -0.49973035 0.40000442 -0.51811635 -0.6473245
000200 28 a6 54 3b b7 00 cf 3d dd 96 a5 3e d8 6b 35 3f
       0.003244767 0.10107558 0.32341662 0.7086768
000210 6f 10 95 be a1 13 a1 3e 50 e3 ba 3d a7 ce 86 3e
       -0.291141 0.31460288 0.09125388 0.26329538
000220 75 fb ee 3e 2b 5b 92 3e 06 6b 02 bf b3 5e c6 be
       0.4667622 0.2858518 -0.50944555 -0.38744125
000230 12 72 a6 be 62 01 e1 be cc c2 64 3f 6b 6a e1 3e
       -0.32508904 -0.43946368 0.89359736 0.44026503
000240 74 43 3c bc 8f f0 82 be c8 8d ae be 39 0f 7f bf
       -0.011490691 -0.25574157 -0.34092546 -0.996326
000250 c5 d8 6f 3d ee 30 5a 3e 3e ff 4a 3e c4 6c 39 3f
       0.058556337 0.21307728 0.1982393 0.7243159
000260 7f cc 3f 3f d2 28 c6 bb e2 a0 1c 3e e0 b5 26 be
       0.7492141 -0.0060473466 0.15295747 -0.16280317
000270 51 54 97 be 1f 99 fc 3e b3 03 81 be 72 18 50 bd
       -0.29556516 0.49335572 -0.25198135 -0.050804563
000280 b6 c5 7e bc c2 b8 69 3e 8d c6 95 bd 67 1f 61 3f
       -0.015550068 0.22824386 -0.07313261 0.8793854
000290 ac 0b 50 3f 0f a6 27 bf 8a 71 8f bf 7f 00 4b be
       0.8126781 -0.6548776 -1.1206524 -0.19824408
0002a0 6f 29 5c 3e 4f d3 2a bf 90 91 b1 3e ae 9e 3a be
       0.2150018 -0.6672868 0.34681368 -0.18224594
0002b0 10 f7 98 be 61 3a 41 bd 56 7f 50 be ed 17 d6 be
       -0.29875994 -0.047174815 -0.20361075 -0.4181513
0002c0 fc 27 28 3d 38 ec 08 3d 92 ad f1 3e 1d 96 bd be
       0.041053757 0.0334284 0.47202736 -0.3702859
0002d0 6c a2 47 3f ed 89 05 be ff fa 0d 3f b5 6b 60 bf
       0.7798221 -0.13040896 0.55461115 -0.8766435
0002e0 d8 5d d8 3e 44 23 b6 bd 51 f8 cd be de 90 04 bf
       0.42259097 -0.08893445 -0.40228513 -0.5178355
0002f0 2b c3 d0 3e f4 09 94 bd 3e 50 c5 be 13 4e 0a 3f
       0.407739 -0.07228461 -0.38537782 0.5402538
000300 1d 68 b6 bd d1 2f 8e 3e 3a 04 8b 3f 02 86 98 3f
       -0.08906577 0.27770856 1.0860665 1.1915896
000310 d4 29 23 3f 5c 99 e0 be d5 2b 1b 3e d3 f2 9d 3d
       0.637357 -0.43867004 0.1515344 0.07712331
000320 95 bb 86 3d 0e 47 9d 3d f9 c3 1d 3f 06 aa 6b be
       0.06578747 0.07679568 0.61627156 -0.23014078
000330 1b 37 ac 3e 81 e8 78 3e 34 0c 09 3f a1 95 71 bd
       0.33635792 0.24307443 0.53534245 -0.058980588
000340 ca 56 cb bd 1e 8d 94 3e bb 40 a3 3c 0b 24 26 bf
       -0.09928663 0.29013914 0.019928327 -0.6489875
000350 8e ab 46 bf 1c e8 81 bd 9b 41 ba be e5 84 3e 3f
       -0.7760552 -0.063430995 -0.36378178 0.7442153
000360 7a de 9d 3d 37 00 e7 3c 64 95 fd 3e c5 e1 38 be
       0.0770845 0.028198345 0.49528039 -0.18054874
000370 cd cc ea be 6d 83 4f 3f 65 c5 e6 3e 78 0c 3f be
       -0.45859376 0.81059915 0.45072475 -0.186571
000380 c6 5e df 3c 4f 59 7a bf 6e 64 5c 3d a5 56 17 3f
       0.027266871 -0.97792524 0.053806715 0.59116584
000390 e1 fd d6 3e e0 e1 c3 38 6a 84 29 3c ac e2 83 3f
       0.4199057 9.340397e-05 0.010346511 1.030355
0003a0 17 e7 1a 3f 19 2c 00 bf b0 4c 62 3e a8 ae a7 be
       0.60508865 -0.5006729 0.22099566 -0.3275044
0003b0 02 7a 0f bf 51 e0 1f bf 49 27 6a bf 75 e2 e1 3d
       -0.56045544 -0.62451655 -0.91466194 0.110295214
0003c0 5e 06 0d 3b 2b 0b c2 be 77 51 92 3e 30 cc 91 bc
       0.0021518688 -0.37899145 0.28577778 -0.01779756
0003d0 8b 88 20 3f d1 1c 00 3e d9 d9 6a 3d c1 4c 8b 3d
       0.6270835 0.12510993 0.057336662 0.06801749
0003e0 76 c2 d7 3d 28 1a c2 3e 3e 03 08 bf 26 1b 2b 3f
       0.10535137 0.3791058 -0.5312995 0.668383
0003f0 ed 40 85 bf 03 33 0f 3e 32 43 88 bd cd 1e 85 3e
       -1.0410439 0.13984303 -0.066534415 0.26000062

fc1.bias f4 [16]
000000 bf 42 4b be 6a 3e f6 be a2 ba 09 bf 5b 30 a3 be
       -0.1984968 -0.48094493 -0.53800404 -0.3187283
000010 33 2e 66 bf 70 8f 52 bf 73 b8 62 3e 08 0f 41 bf
       -0.89914244 -0.8225012 0.22140674 -0.7541356
000020 46 3b f2 be b4 96 3e 3d c4 57 07 bf 6d b0 5a bd
       -0.47310847 0.04653044 -0.52868295 -0.05339091
000030 47 83 37 3c 48 14 82 3a 74 c2 3f 3d bc a8 3d 3d
       0.011200733 0.0009924257 0.046816304 0.046303496

fc2.weight f4 [16, 16]
000000 2d 61 3b be df e6 a7 3e 91 dd 6a 3f a9 0f e5 3e
       -0.18298788 0.32793328 0.91744334 0.4473851
000010 2b 08 46 bf 08 59 9a be 09 96 37 be cd e7 8c bd
       -0.77356213 -0.3014605 -0.17928328 -0.0688015
000020 11 39 e8 be c7 4c 59 3f 23 7f bb 3e a1 fa ee 3e
       -0.45356038 0.8488278 0.36620435 0.4667559
000030 53 46 19 be 10 43 a0 be 5c 92 72 bf 5e 18 ef 3d
       -0.14968233 -0.31301165 -0.94754577 0.116745695
000040 3a 58 86 be 6b f1 37 3d 53 54 94 be 45 66 8b 3e
       -0.26239187 0.04490797 -0.28970584 0.27226463
000050 b4 94 84 3d c8 13 2d 3e 3d 2a 1c 3d da 45 55 3e
       0.06473675 0.16902077 0.03812622 0.20827428
000060 d2 2a 77 3f 1b cc 35 bf 10 7f 3c 3f 32 c9 8c 3e
       0.96549714 -0.71014565 0.7363138 0.2749725
000070 a9 38 15 3f 0b 79 7e 3e 0c 15 8b 3e bc ce 31 bf
       0.5828958 0.24850862 0.27164495 -0.69456077
000080 dc 2a 5e be 07 00 cf bd a4 88 56 bf 29 53 c7 3e
       -0.21696037 -0.10107427 -0.8380225 0.38930634
000090 54 15 b8 3e 4b 92 26 3f 8c a8 47 bf 49 6e f3 be
       0.35953772 0.65066975 -0.7799156 -0.47545078
0000a0 e4 66 5e 3f 38 b7 87 bf b1 69 bf be 05 dd 22 3e
       0.8687575 -1.0602789 -0.37385324 0.15904625
0000b0 14 af ff 3c 7d 77 36 3f 39 fd f8 be e6 c0 3a be
       0.031211413 0.71276075 -0.48630694 -0.18237647
0000c0 07 58 8a 3d ba 35 3a bf a4 1e d0 3e cb 47 67 bd
       0.06755071 -0.7273823 0.40648377 -0.05646495
0000d0 93 60 d1 bd 7a ca 01 3e 45 4f b1 3e b6 fd 18 bf
       -0.10223498 0.12674895 0.3463079 -0.5976213
0000e0 10 b9 d5 bd 09 25 ef 3e a7 b9 a4 3e 96 d7 38 3c
       -0.104356885 0.46707943 0.32172891 0.011281868
0000f0 dc e0 b6 3e 55 f7 de be a3 8b ed 3d c2 c8 18 3f
       0.3571843 -0.43548074 0.11598899 0.5968133
000100 ae 7b 0c bf 34 94 29 3e 4a 9f 01 bf 57 cd 60 3f
       -0.5487622 0.16560441 -0.5063368 0.87813324
000110 3a f6 a5 3e d4 25 65 3e e2 d8 34 be 68 35 3d 3f
       0.32414418 0.22377712 -0.17660859 0.73909616
000120 2d 3a 72 3e 2a c4 99 be 74 77 e1 bd 22 28 2c 3f
       0.23655005 -0.30032474 -0.11009112 0.6724874
000130 81 90 42 3e d3 fc 71 be 8a 5a be 3d 8f 5a bf be
       0.19000436 -0.23631601 0.09294613 -0.37373778
000140 f0 1c 11 bf 98 00 b6 be 4f 5f 17 3f a2 e1 f7 bd
       -0.5668478 -0.35547328 0.59129804 -0.12103583
000150 9e ba dc bf c7 a0 ec be 2d f4 7f bf ce f2 60 bf
       -1.7244451 -0.46216413 -0.9998196 -0.8787049
000160 8d 04 91 bf 40 6c d1 bd 21 cd c8 3e 39 05 a7 bf
       -1.1329514 -0.10225725 0.39219 -1.3048469
000170 25 fa d4 3e fd 85 10 c0 7b 04 15 bd b4 b7 08 c0
       0.41597095 -2.258178 -0.036381226 -2.1362123
000180 e5 81 cc be 99 39 b3 3e e2 eb 80 bb e9 af e6 bd
       -0.39942852 0.3500488 -0.0039343694 -0.11264021
000190 6f 95 02 3e de f5 2a c0 61 e4 06 3f b6 a3 83 bd
       0.12752317 -2.6712565 0.5269223 -0.0642771
0001a0 2e 77 8b bd 0c 3c 0c 3f b8 a6 2b c0 32 df e7 3d
       -0.06809841 0.54779124 -2.6820507 0.11321868
0001b0 20 1c 91 bf ed 7a 33 3e c6 e4 99 be 56 ef e5 3e
       -1.1336708 0.17527361 -0.30057353 0.4490916
0001c0 1a 7f 96 be 90 d2 36 bf 0e 78 8b 3e cb 65 28 3f
       -0.29393846 -0.7141504 0.27240032 0.65780324
0001d0 0f 32 1d 3f 7f 54 45 3f 93 ee 31 bf 6c c7 e4 bd
       0.6140451 0.77082056 -0.6950466 -0.11170849
0001e0 23 0d 39 bf 0d 08 9d bf 64 d5 0b 3f 8a 46 f0 be
       -0.7228567 -1.2268082 0.54622483 -0.46928817
0001f0 96 4c 1b 3f 58 7e fc 3d 02 ab 35 be f5 da fe bf
       0.60663736 0.12328786 -0.17741016 -1.991057
000200 b4 f9 b2 be d3 71 26 3f 44 24 97 3f 3c d3 80 3d
       -0.34956133 0.6501743 1.1807942 0.0629029
000210 16 57 8d bf 2d 2a 56 be ba 96 e8 3e d1 e6 c6 be
       -1.1042202 -0.20914526 0.45427495 -0.38847974
000220 37 d4 1d be 36 15 3d bd f9 3d d3 be d0 ef 96 be
       -0.15412985 -0.046162806 -0.4125822 -0.29479837
000230 d5 59 ef 3b ee 33 d6 3e 03 5c 40 be e9 32 19 be
       0.00730441 0.41836494 -0.187851 -0.14960827
000240 65 49 29 bf ef 45 82 bf bb 3e ad 3e 8b a6 84 3f
       -0.66127616 -1.0177592 0.33836922 1.0363325
000250 e4 df cb 3e e5 a5 12 3f 50 71 d5 3e ad c9 9b 3d
       0.39819252 0.57284385 0.41688013 0.07606826
000260 b1 bc 73 3e 86 ed 48 be f9 e3 a5 be c1 51 c4 be
       0.23802449 -0.19621858 -0.32400492 -0.38343623
000270 7d 49 37 bf 30 d1 50 3f a0 d2 4e 3f 69 67 bd be
       -0.7159651 0.81569195 0.8079014 -0.36992958
000280 8b 05 24 bd 60 bb 39 bf 2a c2 2c be 6b 8c 64 3e
       -0.04004435 -0.72551537 -0.16870943 0.2231919
000290 44 d8 0d 3f cb f4 fd 3d 31 fa 6c bf 16 d9 df 3e
       0.5540812 0.12400206 -0.9256926 0.4372031
0002a0 66 09 31 3f cd e7 85 be 10 01 89 be 63 4c 19 3f
       0.69154966 -0.26153412 -0.26758623 0.5988218
0002b0 2f 1e 8f 3e c6 1e 52 be 78 76 b5 bd ef a5 d8 bf
       0.27952716 -0.20519552 -0.08860487 -1.6925639
0002c0 81 81 4e be 02 be 55 bf fc c1 14 c0 2a a5 8f be
       -0.2016659 -0.83493054 -2.3243399 -0.28055698
0002d0 78 56 8e be 68 e8 ec bd 81 33 3b bf bb 94 00 be
       -0.27800345 -0.115677655 -0.73125464 -0.12556736
0002e0 59 d2 33 3f a6 e6 80 3e 9e 7e b9 bd 78 8e 0b 3f
       0.7024284 0.2517597 -0.090573534 0.54514265
0002f0 a8 68 8b 3e b4 23 21 3e c3 fe 20 3e e9 14 c2 bf
       0.27228284 0.15736276 0.15722184 -1.5162631
000300 18 f7 aa bd ee 20 0c 3f ee ad 91 3f 37 3b 9d bf
       -0.08347911 0.54737747 1.1381204 -1.2283696
000310 5b 87 d5 3e fe c6 fd 3d 2b 4b b7 3e 61 44 cf bf
       0.4170483 0.123914704 0.35799536 -1.6192743
000320 d7 b3 38 3e ef f9 34 be c9 4e ea 3e 76 05 d5 3d
       0.18037353 -0.17673467 0.45763233 0.10401432
000330 62 86 37 bf c7 7c 59 3e 72 79 5d bf 79 95 81 be
       -0.71689427 0.21239005 -0.86513436 -0.2530935
000340 32 2e f7 bf e7 ed 15 3f 1a c3 78 be 77 96 aa be
       -1.9310973 0.58566135 -0.24293175 -0.3331792
000350 00 dd d6 3c fd 7f 85 bd e4 32 ad bf 9d 5c 85 bf
       0.026228428 -0.065185525 -1.3531156 -1.0418888
000360 a6 39 3d 3f 50 ff 75 bf e0 d2 38 bd 9f 5d 80 bf
       0.7391609 -0.960927 -0.04512298 -1.0028571
000370 e4 b2 43 3f 73 1f 0d be 09 ee 21 3e b3 14 75 3e
       0.7644484 -0.13781528 0.1581346 0.23933677
000380 a7 f6 0a c0 90 7c cc bd 5b ad 1b 3e 0f 10 bf 3c
       -2.1713045 -0.09984696 0.15202849 0.023323087
000390 66 04 b5 3f 03 2f 72 be 55 93 14 be 01 a3 cc 3d
       1.4141967 -0.23650746 -0.14509328 0.09992028
0003a0 f4 ca bd be cf c0 a8 3e d1 ae c9 bc 34 27 21 3e
       -0.37068903 0.329596 -0.024619492 0.15737611
0003b0 0b db 5e 3e 16 ba 2f 3f e7 c6 7e 3e c0 b6 bb bc
       0.21763246 0.6864332 0.24880563 -0.02291429
0003c0 ec 24 5c bf b2 3a 8d 3d 4c 00 35 c0 a4 24 77 bf
       -0.8599384 0.06895961 -2.8281431 -0.96540284
0003d0 19 bb 0f 3f fe 8d b1 be 18 73 c5 bf 44 52 31 be
       0.56144863 -0.34678644 -1.5425749 -0.17316538
0003e0 0b 98 c6 3e f9 ce e3 bd d7 51 dd 3e 36 c0 27 3f
       0.38787875 -0.11123461 0.432265 0.65527666
0003f0 8c d6 dd 3d 63 f2 09 be e1 ae 0a be 8e fe 05 3f
       0.10831937 -0.1347137 -0.13543274 0.52341545

fc2.bias f4 [16]
000000 70 0c ab 3e 12 af 2b 3c 4d 92 28 3c 62 fc 71 be
       0.33407927 0.010478752 0.010288787 -0.23631433
000010 e0 3f c5 bf c2 47 0b 3e e9 a6 22 bc d8 0d d3 3d
       -1.5410118 0.13601592 -0.00992749 0.10305375
000020 d7 f2 aa 3e 77 c4 bf bd 9d 0c f7 bd d8 6c cd bd
       0.33388397 -0.093636446 -0.12062953 -0.10030526
000030 89 88 0e be 81 f0 2d bf c8 0d 9c be bc 1a d1 bc
       -0.13919272 -0.67945105 -0.30479264 -0.025525443

fc3.weight f4 [16, 16]
000000 83 58 1c 3e f1 82 82 3e 62 9b 27 3e d9 57 25 3e
       0.1526814 0.25490525 0.16367868 0.16146792
000010 bb 17 4a 3e 2a 63 54 bf 4b 03 8b 3e 32 51 ac bf
       0.19735615 -0.8296381 0.2715095 -1.3462279
000020 2f 0d f8 bd d5 37 a5 3e 5d 48 06 3d e2 6a b4 be
       -0.121118896 0.3226916 0.032783855 -0.35237795
000030 40 dc 90 3e 49 8a 6a 3f 9e 4a 47 3e 3b c6 d2 bf
       0.28293037 0.91617256 0.19462058 -1.6466745
000040 5a fc 08 3f 47 2f eb bd 8d 07 6e bf 3c d0 92 be
       0.5351006 -0.11483627 -0.9298027 -0.28674495
000050 ab 6b 1a 3e 50 6e 2c bf a0 8a 1f 3f 79 89 17 bf
       0.15080135 -0.67355824 0.623209 -0.5919414
000060 d7 65 0e bf 2d 7d ef bf 9a 58 e9 3e 2d f3 35 3e
       -0.55624145 -1.8710076 0.4557541 0.17768545
000070 81 e4 6b 3e fd fe bc 3f af f9 56 bf fd c3 bb 3e
       0.23036386 1.4765316 -0.83974737 0.36672965
000080 e2 a8 fd bd f3 0b 17 bf 12 0c 22 3d 7b 34 fd be
       -0.123857275 -0.5900261 0.039562292 -0.49454102
000090 af e1 91 3e 2a 92 a0 3f e6 4e 96 bd b0 54 c0 3f
       0.28492495 1.2544606 -0.073392674 1.5025845
0000a0 b6 f5 1f bf 38 75 a1 bd 27 ea 01 3f 40 74 94 be
       -0.624843 -0.07883686 0.50747913 -0.28994942
0000b0 fc 0e 83 bf b9 06 62 3f 35 07 13 be d8 bc 7b 3e
       -1.0238948 0.8829151 -0.14358218 0.24583757
0000c0 30 a4 8d 3e 42 c3 ad bf f8 d0 c3 3e ad e1 53 be
       0.27664328 -1.3575213 0.38245368 -0.20691557
0000d0 bc dc 09 be ba ea c8 3d 2e 9e 8c 3e 9e 1d 50 be
       -0.1346311 0.098103955 0.27464432 -0.20323798
0000e0 a7 97 04 bd e5 73 32 bf 54 16 00 bf 35 bd bd be
       -0.03237119 -0.6970809 -0.5003407 -0.37058416
0000f0 71 be e8 be 2a cc 64 3f e8 d2 4d bf e5 82 83 3e
       -0.45457795 0.8937403 -0.8039994 0.25685802
000100 2c 3f a3 bf 54 2e 24 be d6 e0 cf bb 46 8f 2e 3e
       -1.2753654 -0.16033298 -0.006343941 0.17046842
000110 f6 81 5f 3f 35 2d 74 be e6 04 9c bf 8a d0 ff bf
       0.8730768 -0.2384537 -1.2188995 -1.9985516
000120 9f 71 db be 89 63 ae 3e ca 13 45 3f cb 70 80 3e
       -0.42860124 0.34060314 0.7698332 0.25086054
000130 82 bf 05 3f 51 01 f2 3e e4 a9 41 be ce 91 91 3e
       0.5224534 0.4726663 -0.18912464 0.28431553
000140 2a bc ca bb a8 05 cc bc 4a ba a4 ba c9 9e af bd
       -0.0061869817 -0.02490504 -0.0012567725 -0.08575208
000150 6e a5 ac bd a6 4e 66 be c9 88 49 bd 6d b5 b6 3d
       -0.08429991 -0.2249094 -0.049202714 0.08921323
000160 7e 85 3f be 04 37 d4 bd 11 f6 50 be c7 75 78 be
       -0.18703267 -0.10362056 -0.20406367 -0.24263678
000170 89 fd 0d be 2b 74 3b be 5a 1a 1a be 73 a0 aa be
       -0.13866247 -0.18306033 -0.15049115 -0.33325538
000180 3d db 64 3e a2 32 3d bf 78 56 bf bf 6f 74 af 3e
       0.22349258 -0.73905385 -1.4948263 0.3426852
000190 58 7c 02 bf 9e 37 fc be 1e 4b 78 be 27 4d d3 be
       -0.50970984 -0.49261183 -0.24247405 -0.412698
0001a0 34 92 86 bf 96 98 54 3e a9 86 5f be 10 fd 00 3f
       -1.0513368 0.20761332 -0.21828713 0.5038614
0001b0 5a 73 00 3f 5c 1a ab 3e 31 f4 c5 3e 3e 22 d4 3e
       0.5017601 0.33418548 0.38662866 0.41432375
0001c0 1a c4 e8 be 14 dc c6 bd c5 25 c3 3e 87 e6 a9 bf
       -0.45462114 -0.09709945 0.38114753 -1.3273476
0001d0 83 6b 00 3e 3f e8 6b 3f d7 40 c3 be 99 6d ce 3f
       0.12541012 0.92151254 -0.38135406 1.6127197
0001e0 3a 95 4d bf 62 02 b7 bd 52 c1 8a 3e 09 f3 0f 3f
       -0.80305827 -0.08936001 0.27100617 0.5623022
0001f0 d9 35 ca bf ce b1 25 3e a2 17 98 bc d6 15 9b 3e
       -1.5797683 0.16181108 -0.018565957 0.30290097
000200 2b 4d 55 3f 83 48 e8 bd b8 19 4d 3e 82 a4 e8 be
       0.83320874 -0.113419555 0.20029342 -0.4543801
000210 17 46 bc 3e 51 2b 8f 3f 31 a4 a9 bf 8f 4c e7 be
       0.36772224 1.1185094 -1.3253232 -0.45175597
000220 f3 31 57 be ba 9b 98 be e1 2d 24 3f e1 22 3d 3f
       -0.21015148 -0.2980631 0.64132506 0.73881346
000230 f3 b2 84 bf fa 16 0e bf 69 d9 c8 3d bb e8 89 be
       -1.0367111 -0.5550381 0.09807093 -0.26935372
000240 ba 84 98 3e 77 13 b6 bd 75 88 13 3d 47 8b c1 be
       0.29788762 -0.088904314 0.036018807 -0.37801573
000250 9d a2 74 3f 7a 30 24 40 78 73 1b bf c9 5f 58 3f
       0.9556063 2.5654588 -0.60723066 0.84521157
000260 05 07 ed 3d c7 d3 48 be 93 f3 b3 3e 68 13 26 3f
       0.115736045 -0.19612037 0.3514677 0.6487336
000270 98 db 40 bf b6 89 ae bf d3 1e 2a 3d 00 9d 56 3f
       -0.75335073 -1.3635776 0.041533303 0.83833313
000280 2e 89 17 be ae 31 d1 be ee 43 cb 3e 00 ab fa 3d
       -0.14798424 -0.40858215 0.39700264 0.12239647
000290 0c e5 ab bd 90 35 e3 3e 9c cc 34 3f db 3a 83 3f
       -0.083932966 0.44376802 0.7062471 1.0252336
0002a0 d0 fa 85 bf 6d 63 05 3d f5 aa e8 be f4 37 a8 be
       -1.0467167 0.032565523 -0.4544293 -0.3285519
0002b0 87 e9 8a bf 5a 39 05 bf 85 4f 3c 3f c8 1f 9b be
       -1.0852517 -0.52040637 0.7355884 -0.30297685
0002c0 1f 52 28 3e 47 24 ab bf f5 62 9e bf 87 5a 32 3e
       0.16437577 -1.3370446 -1.2373949 0.17417346
0002d0 8c 80 32 3f bb d8 0d 3e 9a 5d 42 3c 7f 0d dd 3e
       0.69727397 0.13852207 0.011863137 0.4317436
0002e0 3d d4 3a 3e bf a5 c1 bf 31 92 f4 bf 87 81 e2 bf
       0.18245025 -1.5128707 -1.9107114 -1.7695779
0002f0 4c a2 9a 3d f5 34 3c 3f dd 9c fa 3e c9 5b f0 bf
       0.07550487 0.73518306 0.48947802 -1.8778011
000300 ca 42 54 ba 36 3a 99 bd 9d a7 e9 3c 73 20 a2 be
       -0.00080971105 -0.07481806 0.028522307 -0.31665382
000310 82 d5 38 3f 9f 10 0c 40 06 47 8b bf 6f fc 5d 3f
       0.7220079 2.1885145 -1.088105 0.8671331
000320 da aa dc 3e 9c 1a 50 be 4b e6 b1 3e 92 79 8a 3e
       0.430991 -0.2032265 0.34746012 0.27045876
000330 b0 50 b3 bf 4f 8e 2b bf 44 94 aa 3e 95 b6 ba 3d
       -1.4008999 -0.6701402 0.33316243 0.09116856
000340 fa e4 39 bf fe 52 94 3d 39 21 a1 3e 17 34 45 3d
       -0.72615016 0.07242392 0.3147066 0.04814538
000350 7f d7 2b 3f 56 54 42 3f 36 ef ec bf 8d 00 9e 3f
       0.67125696 0.75909936 -1.8510501 1.2343918
000360 d3 2a 41 bf ce f0 06 3d 16 e8 3f 3e 1c 44 42 3f
       -0.7545597 0.032944493 0.18740878 0.75885177
000370 40 b3 a6 bf a3 7b 91 3f dc 02 01 3f 9d 77 0a be
       -1.3023453 1.1365856 0.5039499 -0.13522191
000380 55 4a ef 3e 19 77 70 bf aa 1f 0d c0 f3 ec 35 be
       0.46736398 -0.9393173 -2.2050576 -0.1776617
000390 01 99 c7 3e ac 76 bf bf 81 b9 82 3f 88 70 9d 3d
       0.3898392 -1.4958091 1.0212861 0.07687479
0003a0 d1 92 a6 3d 40 8e c8 be 30 14 0a 3f 81 aa a2 3b
       0.08133472 -0.39171028 0.53937054 0.0049641733
0003b0 d3 65 52 3e f8 5c 28 3f 89 ca ab bf d2 c7 d4 bf
       0.20546655 0.6576686 -1.3421184 -1.662348
0003c0 42 12 44 bd 5f 33 04 bf d6 9f cc be a7 2d d9 be
       -0.047868975 -0.51640886 -0.39965695 -0.42417642
0003d0 ad 3e e1 be 1d df 28 be 53 f0 02 bf 13 12 9f be
       -0.4399313 -0.16491361 -0.51147956 -0.31068477
0003e0 03 90 a5 be 31 69 a4 be b5 aa ab bc 1f 66 14 be
       -0.32336435 -0.32111505 -0.020955423 -0.14492081
0003f0 6a 5a 22 be 62 06 95 be 91 b0 13 be de 13 b2 be
       -0.15854803 -0.29106432 -0.14422823 -0.34780782

fc3.bias f4 [16]
000000 0e 6e 76 bc 13 c8 e8 bd 6a 4a 63 be 04 f0 80 bd
       -0.0150408875 -0.11366286 -0.22196355 -0.06295779
000010 e4 59 0e be eb 0b b4 be 00 a4 d2 3d bd c1 28 be
       -0.13901478 -0.35165343 0.10285187 -0.16480155
000020 8d 6a 81 bc 81 7b 49 3e 96 50 58 bc d8 fa 0c be
       -0.015797878 0.19676019 -0.013202807 -0.13767564
000030 36 28 b0 3e c6 53 ff be 9a f8 2f 3f 23 cf 46 bc
       0.3440568 -0.49868602 0.6873871 -0.012134346

fc4.weight f4 [16, 16]
000000 3c 56 3f be 10 4e 04 3f 19 4e 9e bf 52 56 20 3e
       -0.1868524 0.51681614 -1.2367584 0.15657929
000010 1c 64 a0 bf f4 a2 94 3d d5 cb a0 be e3 f5 12 bf
       -1.2530551 0.07257643 -0.31405511 -0.57406443
000020 64 10 17 bf 19 af a0 bf c1 75 4a bf 61 c7 8f 3e
       -0.59009385 -1.2553436 -0.7908593 0.28081802
000030 64 cb 6a bf c6 28 5e bc 52 84 ea 3e c0 50 c8 bd
       -0.917166 -0.013559526 0.45804077 -0.09781027
000040 b2 31 a6 bf 8d 24 ba be 0e dd 82 3f 5c 49 52 bf
       -1.2983916 -0.3635601 1.022371 -0.8214319
000050 58 e9 95 3e 5b aa 0f be 4c 2e 65 bf ce 5f 54 3f
       0.2927959 -0.14029829 -0.8952377 0.82958686
000060 cf d2 08 3e 14 1b 74 bd 65 36 47 3f bc 7c 2c bf
       0.13361667 -0.059596136 0.77817374 -0.6737783
000070 86 fe 55 be ca 3d 48 3f d9 b1 b5 bf 05 1c 02 3f
       -0.20897874 0.7821928 -1.41949 0.50824004
000080 6c 1b 99 be 07 c0 91 bd d6 cc 48 be d8 d8 0b be
       -0.29903734 -0.071167044 -0.19609389 -0.13656938
000090 e0 79 0c 3c c5 84 70 3e 76 d0 f2 bd bd 03 de 3c
       0.008573979 0.23488148 -0.11856167 0.027101392
0000a0 f7 c5 66 bd fa ab 10 bc 9a 27 1f 3d 78 32 81 bc
       -0.056341138 -0.008830065 0.038856126 -0.015771136
0000b0 78 d1 88 be 8e 21 07 be a8 46 61 be ba ae b4 3d
       -0.26722312 -0.13196394 -0.2199961 0.08822389
0000c0 af e5 98 be 8d f5 d9 bc ed c6 9c bb 70 10 c4 bd
       -0.29862735 -0.026606346 -0.004784456 -0.09573448
0000d0 2f c1 ef bd 76 d9 52 3e 5a 0d 5c be 5c f4 be 3d
       -0.11706769 0.20590767 -0.21489468 0.093239516
0000e0 9f c8 a1 bd 9e 91 6d be 7c 8c 56 be 48 8a 72 3d
       -0.078995936 -0.2320008 -0.20952028 0.059213907
0000f0 90 92 34 be ab 06 24 be ac ea 70 be 1c 4d 1d 3e
       -0.17634034 -0.16018169 -0.2352702 0.15361446
000100 19 0b 36 3e 16 ae 4d 3f 95 4b ee be 62 61 c1 3e
       0.17777671 0.8034376 -0.4654204 0.3776961
000110 9f 6a 42 bf 37 53 d6 3d 62 bd 81 3e da bb 51 3f
       -0.7594394 0.10465091 0.253398 0.81927264
000120 d2 b4 75 3e 4c 97 12 bf c5 10 bd 3e 0e 7f 7e 3f
       0.23994759 -0.5726211 0.36926857 0.9941262
000130 6b c4 ff be d8 bd 78 3e 71 dd 76 3f ed d3 64 be
       -0.49954543 0.2429117 0.9643164 -0.22346468
000140 5e 15 7b 3e 9e 04 f2 3e 4e 90 7e bf fd 38 07 3f
       0.2451987 0.47269148 -0.9943894 0.5282133
000150 82 a4 25 bf f8 c6 30 be 71 7f 1f 3e 22 36 67 be
       -0.64704144 -0.172634 0.15575959 -0.22579244
000160 74 32 c4 3e f2 ed a1 bf 47 98 8c be 0e 4e 66 3f
       0.38319743 -1.265074 -0.27459928 0.8996285
000170 60 a8 2e bf 7b 56 5d be 36 61 61 3f d7 79 05 3c
       -0.6822567 -0.21615021 0.8803896 0.008146725
000180 87 0b c3 be 22 31 64 bf 95 cc 4d 3f c7 12 24 3e
       -0.38094732 -0.8913747 0.8039029 0.16022788
000190 82 7d bf be ea 97 0a 3e ae 93 68 bf 98 bc 46 3f
       -0.37400442 0.13534513 -0.9085034 0.7763152
0001a0 7a 01 21 3f 3a e3 39 3e 63 bd 61 3d 4b 89 ef bf
       0.6289288 0.18153086 0.055112254 -1.8713773
0001b0 9c 6a 46 3e 0f db 8b 3f f3 a5 ac bf 61 fa 00 3e
       0.19376606 1.0926226 -1.3488144 0.12595512
0001c0 21 33 f8 be 5e 43 b9 3e ea 9d 37 bf 24 db 36 3f
       -0.48476508 0.3618421 -0.7172533 0.7142813
0001d0 30 25 73 3e bc 07 54 3d f1 1e 47 3f e9 7d f0 bf
       0.23744655 0.05176519 0.7778159 -1.8788425
0001e0 e0 3c d7 3d c5 6f 2f bf 5c a2 d3 bf d3 9f 75 be
       0.10509658 -0.6852992 -1.6533923 -0.2398675
0001f0 ae 58 db be 74 8c 70 bf 8b 86 4d 3f 3d df d5 be
       -0.42841095 -0.93964314 0.8028342 -0.4177188
000200 39 a9 9f be 0d aa 13 be b2 4c 01 bd 88 b6 30 be
       -0.31183794 -0.14420338 -0.031567283 -0.1725713
000210 2b fc c3 bc 80 ef 75 be cb 41 78 bd 73 11 12 39
       -0.023923954 -0.24017143 -0.06060962 0.00013930145
000220 7f 5b cb ba 0f 46 66 bd eb 8a ff bd 9a bd 5f be
       -0.0015514939 -0.056219157 -0.124776684 -0.21849671
000230 85 0c b0 be 26 84 10 3d 0f 30 fb 3c 95 6a fe 3e
       -0.34384552 0.035282277 0.030662565 0.4969069
000240 40 42 7f 3e ff 49 0d bf 3b 8d 3d 3f 4e 8d 97 3f
       0.24927616 -0.55191034 0.74043626 1.1839998
000250 ea db dc 3e 4e c9 dc 3c 3e f7 2f bf 29 9f fd 3e
       0.4313653 0.026951458 -0.68736637 0.49535492
000260 40 87 9d bd 33 9b 7b bd b0 1c 3b bf 33 88 8b be
       -0.076918125 -0.061427306 -0.7309065 -0.2725235
000270 e4 3a 42 be e9 5d 43 3f b1 c1 70 bf db b2 a6 be
       -0.18967777 0.7631517 -0.9404555 -0.3255833
000280 e8 27 65 be 8e 65 e3 bf 69 b4 e2 3e 24 82 3d 3f
       -0.22378504 -1.7765367 0.44278267 0.74026704
000290 b9 b5 a1 3e 98 68 ee 3d 3c b8 0a 3f fc 03 da 3e
       0.31583956 0.116410434 0.5418737 0.42581165
0002a0 51 46 58 3f cf 1d 59 3c 30 5b 36 be 5f ca 76 bf
       0.84482294 0.013251736 -0.17808223 -0.96402544
0002b0 34 00 cd 3c 37 20 17 3f 16 f3 81 bf 43 d6 ba be
       0.02502451 0.5903353 -1.0152309 -0.36491594
0002c0 b7 2e 18 bf 2c 28 d8 bd 57 05 b8 be a0 43 7e 3e
       -0.5944628 -0.10554537 -0.35941574 0.24830484
0002d0 21 c2 2e bf ce dd 16 3e d9 83 55 be 69 1a d7 be
       -0.6826497 0.1473305 -0.20851077 -0.42012337
0002e0 62 80 15 bf 52 b2 8f be b8 eb 7f bf 10 d8 84 be
       -0.5839902 -0.28065735 -0.99969053 -0.25946093
0002f0 e8 0d 8b be e7 df 44 be de 9c 9a 3e 00 e5 58 bd
       -0.27159047 -0.19226037 0.30197805 -0.052952766
000300 3e 72 8f bf 90 5b 4b be ec 07 96 3f 45 fa a5 bf
       -1.1206739 -0.19859147 1.1721168 -1.2967001
000310 0c e6 bd be 34 9a 09 3e 5d 50 ad bf ad 0b dd 3d
       -0.37089574 0.1343773 -1.354015 0.107932426
000320 4b ed 6f be 6a 64 ba be d6 4d 5b 3f 8a 97 05 bf
       -0.23430364 -0.36404735 0.85665643 -0.52184355
000330 1d 39 28 bf 74 af 14 3f d0 4d 10 bf a7 fb 12 bf
       -0.6571215 0.5808022 -0.5636873 -0.5741524
000340 b8 00 a7 be 49 df fb 3b 94 17 d6 3e 44 ba 86 3f
       -0.32617736 0.00768653 0.41814864 1.0525594
000350 0c 78 0a bf d0 d4 1a 3e 05 e5 ac bd 44 72 2e 3f
       -0.54089427 0.15120244 -0.084421195 0.68143106
000360 5d 8f a9 3d 25 2a c9 be 62 77 58 3d 2c 98 1f bc
       0.082792975 -0.39289966 0.052848227 -0.00974087
000370 55 b9 4b bf 38 01 2d be a4 e1 2b bc 8c 36 63 be
       -0.7957967 -0.16894996 -0.010490809 -0.22188777
000380 b7 4d 86 be 91 fc 0e be 48 81 b2 bd 49 55 c4 3d
       -0.26231167 -0.13963534 -0.08716065 0.09586579
000390 11 2b 84 bd 35 a6 1a 3c b9 08 c0 bd 66 a3 13 3d
       -0.06453527 0.009439041 -0.09376664 0.0360445
0003a0 00 ce 1e be 1a 17 99 bd 48 03 cc bc 6b a4 f8 bd
       -0.1550827 -0.074751094 -0.024903908 -0.12140735
0003b0 43 18 83 be ab a7 b4 3b a9 be b8 be 0a 33 b5 3c
       -0.25604448 0.0055131516 -0.36082962 0.022119064
0003c0 0d 1a 81 be 28 cd 1f bf a5 10 39 3f d3 37 6c be
       -0.25215188 -0.6242242 0.7229102 -0.2306817
0003d0 35 01 5a 3b 3a 0c 2b be 16 94 0e 3d 71 cf 5a 3f
       0.003326488 -0.16703883 0.034809195 0.8547278
0003e0 e4 e0 57 3e 44 cd fb bb cb f2 89 be c0 5f ee be
       0.21081883 -0.0076843817 -0.2694305 -0.46557426
0003f0 87 29 03 3f f1 09 16 3f a6 41 78 bf c9 09 80 be
       0.5123524 0.5860892 -0.9697517 -0.25007465

fc4.bias f4 [16]
000000 d8 30 d5 bd 46 c5 fa be e1 28 32 be 23 83 af be
       -0.10409707 -0.48978633 -0.17398407 -0.34279737
000010 75 7e cf 3d 75 a5 17 3f 5d 63 4b 3e 4e f9 a1 be
       0.10131542 0.5923684 0.19862123 -0.31635517
000020 29 89 f6 bd ec 08 3e bf e8 37 da be 82 c8 fb be
       -0.1203788 -0.74232364 -0.42620778 -0.49176413
000030 d5 3f 4f 3e 57 e9 52 be a0 fc 2f be 94 ee e2 3d
       0.20239194 -0.20596825 -0.17186213 0.110806614

fc5.weight f4 [16, 16]
000000 c0 2b b4 bb 58 02 f2 bd 24 12 60 be a0 5d 55 bc
       -0.0054983795 -0.11816853 -0.2188192 -0.01302281
000010 0a 00 4c be 63 c6 1b be f6 23 89 be 00 f7 4f bd
       -0.1992189 -0.15212397 -0.2678525 -0.050772667
000020 9c 90 c2 bd a2 c7 93 be dc ad 15 be 2c 84 99 bd
       -0.09500238 -0.28863245 -0.14617103 -0.07495913
000030 48 e8 79 bd 08 1a 70 be e4 4c 1e be eb 0d 45 be
       -0.061012536 -0.2344743 -0.15459019 -0.1924359
000040 53 ab bd 3e 1a a3 17 3e d4 01 4e 3e b7 fc dc 3c
       0.37044773 0.14808312 0.20117885 0.026975973
000050 31 55 ab 3e da 13 4b 3f df d6 94 bf 88 0b d3 3e
       0.33463433 0.79327166 -1.1628073 0.41219735
000060 4e 21 11 be c6 1a 6a bf 1c cd 02 bf 09 d5 93 3e
       -0.14172861 -0.91447103 -0.5109422 0.2887347
000070 ce 6c e1 be f1 ee 80 bd db 3d de 3d 92 de 1c bf
       -0.44028324 -0.062955745 0.10851642 -0.61277115
000080 ad 71 4f be 42 e2 6f 3a b0 d6 dc bc 18 8d 03 be
       -0.20258208 0.00091508415 -0.02695784 -0.12846792
000090 9b 15 96 be b8 5d 78 3d 97 67 f5 3d 64 8a b5 3d
       -0.2931336 0.060636252 0.11982649 0.088642865
0000a0 80 1f 89 be 31 a8 bd 3c 6d 8f 48 bf 05 9b c8 be
       -0.26781845 0.023151489 -0.7834385 -0.3918077
0000b0 9a e8 39 3d 5c 83 f7 bd 60 22 1f be d8 ad 87 be
       0.04538784 -0.12085602 -0.15540457 -0.2649982
0000c0 ad 16 88 be 31 77 ac 3d 4c c2 7b 3e 90 b5 9f 3d
       -0.265798 0.084211715 0.24585837 0.07798302
0000d0 6d 80 e0 3e a1 a3 1b be b9 a9 c8 be 88 af c9 be
       0.4384798 -0.15199138 -0.39191988 -0.39391732
0000e0 4a e6 10 3e f5 67 34 3e 10 4d 6b 3d 2e 82 82 3c
       0.14150348 0.17617781 0.05744654 0.015931215
0000f0 c4 26 6e 3d 7c 44 7f bf 1c c7 dc bd 5c d2 12 be
       0.05814244 -0.99713874 -0.107801646 -0.14338058
000100 f3 65 bd be d0 74 63 3f 17 da 20 be 1c 1d 2c be
       -0.36991844 0.88850117 -0.15708195 -0.1680798
000110 ef e3 11 bf 23 31 aa be 00 02 27 3f 84 cf 29 3f
       -0.56988424 -0.33240613 0.65237427 0.6633227
000120 aa 2a c0 3c a0 bf 25 3f 32 2d 33 3f 9a 05 b8 bd
       0.023457844 0.6474552 0.6999084 -0.089854434
000130 8f e3 94 3f 24 48 c2 be 01 f1 b1 bd 53 1b 12 3e
       1.1631945 -0.37945664 -0.08688546 0.14268236
000140 bd 96 d4 be be af 51 3d e8 86 29 bd e0 cd 60 3d
       -0.41521254 0.05119299 -0.041388422 0.054883838
000150 30 e8 63 be c2 20 1b 3c b0 3f 25 3b 01 50 45 be
       -0.22256541 0.009468259 0.0025214963 -0.192688
000160 04 ed 12 be 34 0f ac be f5 19 6e 3c 2c cc 20 be
       -0.14348227 -0.3360535 0.014532556 -0.15702885
000170 64 c2 83 be 93 a8 fc 3d dc 49 0e be 18 5d 88 bd
       -0.25734246 0.123368405 -0.13895363 -0.06658381
000180 ea c2 17 bf e3 ce 9e 3f 74 c6 78 be b7 40 4f 3e
       -0.5928179 1.2406887 -0.24294454 0.2023953
000190 f0 e0 3d bf d4 16 72 3e e1 2c 37 be d5 ee 46 3f
       -0.7417135 0.2364152 -0.17888214 0.7770818
0001a0 f7 35 98 be c8 64 3f be d8 f9 10 bd a1 da 88 3d
       -0.29728672 -0.18690789 -0.03539452 0.06682325
0001b0 53 6a 78 3f 13 70 0e 3f 61 9d 87 3d 9e 07 83 be
       0.9703724 0.5563976 0.066218145 -0.2559175
0001c0 6a 26 8e b9 bf 9e 02 be b8 33 51 3d 08 82 4e bd
       -0.0002711297 -0.1275587 0.051074713 -0.050416976
0001d0 c2 a3 a4 be 7d 83 2e be c7 c2 1f 3d a2 a0 0e bc
       -0.32156187 -0.17042346 0.039004114 -0.00870529
0001e0 0f 7b 76 bc 54 b3 d0 be 11 dc 01 be 46 d6 0a be
       -0.015043988 -0.40761817 -0.12681605 -0.13558301
0001f0 a2 fb 03 be 4e 9c 03 3e 96 5b 68 be 80 20 9b be
       -0.12888959 0.12852594 -0.22691187 -0.30298233
000200 2f c6 80 be db e9 8a 3f 98 f9 16 3e 48 26 8e 3a
       -0.25151202 1.0852617 0.1474365 0.0010845149
000210 38 8d 85 bf 6b 22 ec bd c9 70 86 3e 1b 26 e2 3e
       -1.0433722 -0.11530002 0.26257923 0.44169697
000220 00 65 b8 3d d4 b9 69 be 7e 94 6f 3e 70 3b c9 3b
       0.09003639 -0.22824794 0.23396489 0.0061411187
000230 97 44 f2 3e 67 5e 42 3e 31 4a 05 bd f6 9a 37 be
       0.47317955 0.18981324 -0.032541458 -0.17930207
000240 3e c4 0e 3f ef 7b 79 3e 23 b7 7f be 22 c1 21 bd
       0.5576819 0.24363683 -0.24972205 -0.039490826
000250 1c 34 9e 3e 4b 2a e9 3e 8d 13 a0 be 2b 96 72 3e
       0.3089913 0.4554008 -0.31264916 0.23690097
000260 23 8f be 3c 74 69 a3 be 49 d4 8b bf c2 c7 3b 3e
       0.023261612 -0.31916392 -1.0924159 0.1833792
000270 a8 4b 4a bf 86 d7 de 3e 13 5c 28 bc e2 1e f3 be
       -0.7902169 0.43523806 -0.010275858 -0.474845
000280 54 13 1c bd 07 23 0b 3d 7f c4 bc bd 60 95 5f 3d
       -0.03810437 0.03396895 -0.09217166 0.054585814
000290 5a 6a c8 bd 2d 4f 18 be b4 5a f3 bb 82 d6 9f be
       -0.0978591 -0.14873953 -0.007426584 -0.31218344
0002a0 97 ec d1 3d 87 c2 b8 bc ac 53 8d be 98 cd 5e be
       0.10250204 -0.022553695 -0.276029 -0.21758115
0002b0 0e db 4c be 80 c9 57 bc bb 7e 43 3c f7 46 98 be
       -0.20005438 -0.0131706 0.01193207 -0.29741642
0002c0 89 46 87 be 4b f2 fc bc d3 b9 2c 3e 2e 0d 2e 3e
       -0.26421002 -0.030877253 0.16867761 0.16997215
0002d0 20 ac d2 bd cb 81 c1 bd 2c 4d 69 be a4 80 78 be
       -0.102867365 -0.09448584 -0.22783345 -0.24267823
0002e0 62 42 72 3d d3 a4 a6 bd d8 f3 0c bd ca dc eb 3b
       0.05914534 -0.081369065 -0.034412235 0.007197951
0002f0 1c 67 50 be 5d 3c e4 bd 49 ff 06 3e ef 04 2f be
       -0.20351833 -0.11144326 0.13183321 -0.17091726
000300 f2 8e 05 be 13 c6 d6 bd 9b da f0 bc d0 5a 3f 3e
       -0.1304281 -0.104869984 -0.029401114 0.18686986
000310 e8 0f a5 bd a0 80 b7 be 34 c8 8c bc 10 22 1e be
       -0.080596745 -0.3584032 -0.017185308 -0.15442681
000320 91 ee 4b 3e cf 83 16 3c cf ab 5d be b3 21 ba 3e
       0.19915225 0.009186699 -0.21647571 0.36353835
000330 48 81 94 3c 60 69 1a be c6 54 1e be 25 33 6c be
       0.018128052 -0.1507926 -0.15462026 -0.23066385
000340 8d d1 4a be 37 c3 96 3f ad 06 61 bd 18 b0 22 3d
       -0.198065 1.1778325 -0.054938007 0.039718717
000350 cb 02 0b bf 77 e8 55 bf c4 cd b1 3e 7e 41 dd 3e
       -0.54301137 -0.8355784 0.347273 0.4321403
000360 a4 f0 a8 3b c4 20 a9 be 99 a1 16 3f 5d 40 5d 3c
       0.0051556397 -0.3303281 0.5884033 0.013504115
000370 ab 48 32 3f db 5b 3f 3e c7 a1 2b 3e 66 2a a6 3e
       0.6964213 0.18687384 0.16760932 0.32454222
000380 66 ca 13 3e e8 4c 97 bd ac 06 f6 3d c8 3e 00 be
       0.14432678 -0.073877156 0.12012991 -0.12523949
000390 4d 25 d8 bd c2 5a 1f be a3 c7 77 bd 74 27 cf bd
       -0.105539896 -0.15561965 -0.060493123 -0.10114947
0003a0 68 20 cc 3d ec ff 6e be 14 b4 76 bd 4c 4f ec 3d
       0.099671185 -0.23339814 -0.06023033 0.11538562
0003b0 62 2e 7d be b0 07 98 3d b9 45 88 bd 76 a9 01 3d
       -0.24724725 0.07423341 -0.066539235 0.03165575
0003c0 77 7d 2f 3e 6c 45 9b 3f ab a9 32 bd ad 71 a9 bd
       0.17137705 1.2130561 -0.04361884 -0.08273635
0003d0 c9 2a 8f bf ae 48 07 bf 50 16 0f 3f eb 80 5e 3f
       -1.1184932 -0.52845275 0.5589342 0.86915463
0003e0 3b 2d 75 bd 83 12 2b 3e 4b a7 85 3e 54 1e 92 bd
       -0.05985759 0.1670628 0.26104197 -0.07134691
0003f0 38 59 78 3f 05 9e 5c be 06 7e 14 bd 6e e0 e9 3d
       0.97011137 -0.21544655 -0.036252998 0.1141976

fc5.bias f4 [16]
000000 83 25 11 be fb e9 34 3c a1 00 cb be 7a c1 33 bf
       -0.14174466 0.011042113 -0.39648917 -0.70217097
000010 16 1d c6 3e a2 5a db be 43 a5 16 3d c3 18 b0 be
       0.38694066 -0.42842585 0.0367787 -0.34393892
000020 25 fa c6 be 49 5a 8a 3e a1 37 dc bc dc 80 1d be
       -0.3886272 0.27022007 -0.026881995 -0.15381187
000030 7f 7c 49 be 67 14 9f 3d 55 d6 70 be 91 5e 9e bd
       -0.19676398 0.07767563 -0.23519261 -0.07732881

fc6.weight f4 [16, 16]
000000 e0 ad 5b 3e 42 1d 09 bf 71 5f 35 3e 2c 82 0c bf
       0.21453047 -0.5356027 0.1771219 -0.54886127
000010 1d 65 4b 3e e0 a9 7c 3e b1 44 a0 bd 55 57 93 3c
       0.1986279 0.24674177 -0.07825602 0.01798598
000020 12 33 8f 3e fb db 3e bf 54 d8 af bd ae 20 c2 bd
       0.2796865 -0.74554414 -0.08586183 -0.094788894
000030 86 aa 3b be e4 c6 75 3e 18 dc f6 3d 48 46 69 3e
       -0.18326768 0.24001652 0.12053698 0.22780716
000040 10 15 d7 bd 5c b5 2b be f6 3f 24 be ec 0e 5a 3d
       -0.10502064 -0.16768402 -0.16040024 0.053236887
000050 32 ee af be 9e 97 0d 3e d0 ab 13 3e cc 81 71 3e
       -0.34361416 0.13827369 0.1442101 0.2358467
000060 6c ab fa bd 28 eb a9 bd aa 26 5a 3e f4 b8 53 be
       -0.122397274 -0.082968056 0.21303812 -0.20676023
000070 f0 f8 f0 bc d0 06 d5 bc b8 4c 33 bd 74 a2 44 be
       -0.029415578 -0.026004225 -0.043774337 -0.19202596
000080 80 ad 70 bb 4d 74 fa 3e 42 38 72 3e 05 e5 9b be
       -0.0036724508 0.48916855 0.23654273 -0.30448166
000090 d3 0d d3 be da 7f 9e be d3 f7 ce be b5 53 ff bd
       -0.41221485 -0.30956918 -0.4042345 -0.12467138
0000a0 4e b4 ad 3e 9d e9 bc 3e b4 1e af 3c db e1 ad bd
       0.33926624 0.36896983 0.021376945 -0.08490344
0000b0 c6 45 7e 3e 4b f6 88 be 38 17 3d 3d f8 09 81 3e
       0.24831304 -0.26750407 0.04616472 0.25202918
0000c0 fc 27 48 be ca 31 28 be c1 32 95 3c 10 12 de be
       -0.19546503 -0.16425243 0.018212678 -0.43373156
0000d0 ff 72 05 be a6 49 a0 be fd 17 8a 3e 8a 9d 02 bd
       -0.13032149 -0.3130619 0.26971427 -0.031888522
0000e0 ff 50 1c 3e 34 9d 8d 3e 81 8a 9d be d6 53 2d bd
       0.15265273 0.27659 -0.30769733 -0.04231628
0000f0 93 c4 75 bd 62 b1 19 bd dd c2 ee 3d a9 ed 64 3e
       -0.06000192 -0.03752268 0.11658261 0.22356285
000100 c5 a0 94 bd 28 a9 29 bf e7 61 01 be 48 cf be be
       -0.07257227 -0.66273737 -0.12635003 -0.37267518
000110 55 dc ef 3e 41 8a 8d 3d 59 c9 6a 3e 44 35 7c bd
       0.46847787 0.069111355 0.2292837 -0.061574236
000120 f0 2e 2b 3e c7 f1 67 bf fb 41 d1 bd f6 16 14 be
       0.16717124 -0.906033 -0.10217663 -0.14461884
000130 55 ef a2 3d d3 5b f1 3e d1 fc 1a be 0f c8 4b 3e
       0.07955805 0.4714037 -0.15135504 0.19900535
000140 e2 0a 0a be 2b f7 34 be a0 6b 38 3e 20 9e 5a 3b
       -0.13480714 -0.17672412 0.18009806 0.003335841
000150 9c cd ba be 72 e3 45 3e 74 d7 b5 3d 40 7b 19 be
       -0.36484993 0.19325045 0.08878985 -0.14988422
000160 0b 16 ed bc 50 2f 9c be e4 a1 78 be 9a 2a 7d 3e
       -0.028941175 -0.30504847 -0.24280506 0.24723282
000170 60 15 8d bc c6 4f bf bd f0 79 fb bd 7a 23 61 be
       -0.017222106 -0.093413875 -0.12279117 -0.2198619
000180 24 d1 13 3e 80 2c a6 bd c7 f4 3e be 80 67 39 bd
       0.1443525 -0.081139565 -0.18648063 -0.04526472
000190 d8 95 91 3c a2 de 48 bd a4 63 9e be 08 78 2f 3d
       0.017771646 -0.049040444 -0.30935395 0.04283908
0001a0 b3 75 56 be 32 d8 70 be a8 f8 6f be f8 38 d3 bd
       -0.20943336 -0.23519972 -0.23434699 -0.103136
0001b0 5c 19 0b be a7 e0 9e bd 8e 62 63 be 84 6d 00 3c
       -0.13583893 -0.07757693 -0.22205564 0.007838611
0001c0 8c 0f e8 3d 47 12 cd bd 30 6f 17 be 12 ef e5 be
       0.1133109 -0.10013252 -0.14788508 -0.4490896
0001d0 9d 93 a2 3d 15 eb 11 3c 12 94 9d 3d 87 8c db 3d
       0.07938311 0.008906146 0.07694258 0.10720163
0001e0 70 65 3d bd 66 23 24 bf 6a 99 83 be e0 db 13 be
       -0.046239316 -0.64116514 -0.25702983 -0.14439344
0001f0 21 c7 c3 be 40 e9 df bd 12 bd ac bd c2 37 f9 3d
       -0.3823786 -0.10933161 -0.084345 0.12168838
000200 b0 37 a6 bd fd 8a ac be 78 d8 a1 be 34 60 4d 3f
       -0.0811609 -0.3369979 -0.31610465 0.8022492
000210 b1 0a 0e be d4 4b 87 be a9 6e 05 3e cd 06 a6 be
       -0.13871266 -0.2642504 0.13030495 -0.32427064
000220 d2 2c 81 3e e7 0e 36 3e 11 0d 41 be 7e 6b 4c 3e
       0.25229508 0.17779122 -0.1885264 0.1996288
000230 68 7e 23 3e 69 1a 67 3e 00 5d ce bc d6 31 0b 3e
       0.15966189 0.22568668 -0.02519083 0.1359323
000240 92 43 22 3b f9 7e 3a be b3 ce 07 3c b9 46 a0 be
       0.0024759513 -0.18212499 0.008289027 -0.31303957
000250 fb 04 13 3f 7c 04 94 3d 73 e3 2b 3e a6 04 8f 3e
       0.57429475 0.07227418 0.16785984 0.27933234
000260 76 1a 9e 3e a5 25 b3 be 1e 1b 86 3d 0f f0 0f 3e
       0.30879563 -0.34989658 0.06548141 0.14056419
000270 06 f6 6d bd dc 0e ce 3e 1f 7e f4 3d 1f c3 f6 3e
       -0.058095954 0.40245712 0.11938118 0.4819574
000280 8a c6 0f 3e 64 8e 91 be 0f e2 5b 3d 66 68 27 be
       0.1404058 -0.28428948 0.053682383 -0.16348419
000290 d1 de 91 be c1 91 10 3c 29 87 96 bd db 21 a1 3d
       -0.28490308 0.008823813 -0.073499985 0.078677855
0002a0 c8 8d 01 be f6 5c 6d be f7 4a cf 3d 4c e8 2c 3e
       -0.12651742 -0.23179993 0.1012172 0.16885489
0002b0 28 3b 3b bc 48 b5 92 be 1b b7 00 3d d6 28 89 be
       -0.011427678 -0.28653932 0.031424623 -0.26788968
0002c0 9c e2 0d 3e 0a aa 2e be ca aa 5f 3e b6 f9 7a bd
       0.13855976 -0.17057052 0.21842495 -0.0612733
0002d0 68 a0 b7 bd 40 31 94 bd 44 ce e5 bd 68 18 0b be
       -0.08966142 -0.07235956 -0.11220983 -0.13583529
0002e0 e0 62 97 3d 66 09 4e be dc 3b 8b 3d 76 d6 45 be
       0.07391906 -0.20120773 0.06798527 -0.19320092
0002f0 4e 8d 5b 3e 20 98 0d 3e b8 37 f9 bd a8 94 a1 bd
       0.21440622 0.13827562 -0.12168831 -0.07889682
000300 bc a0 e0 3d 0a 14 be 3e 4c b5 b6 be 5a 8c 9a bc
       0.10968158 0.37124664 -0.35685194 -0.018865753
000310 e6 a3 fc be e8 17 0a 3e 43 2b b9 bd 34 8c 36 3e
       -0.49343795 0.13485682 -0.09041455 0.17826921
000320 21 18 32 3f fd 62 66 3e cf e5 c3 bd 32 83 9e 3b
       0.6956807 0.22498699 -0.09565317 0.004837417
000330 f3 06 92 bd 7f 40 1d be 4c cc b2 3d e4 a6 87 3d
       -0.07130232 -0.15356635 0.08730373 0.06623629
000340 66 8f 72 be 6e 8c 0e bf 7a f5 2f bd ea 93 a2 be
       -0.23687515 -0.5568303 -0.042958714 -0.31753474
000350 6a f7 40 be 57 04 58 be 2c b1 78 3e 73 0f 8f 3e
       -0.18844381 -0.21095406 0.24286336 0.27941474
000360 e4 1d 28 be 62 5c 08 bf 5b 40 3d bd 1a f5 49 3e
       -0.16417652 -0.53265965 -0.046203952 0.19722405
000370 9f 13 59 be 51 13 1f 3d 51 3f a3 bd ab 62 a8 3e
       -0.21198891 0.03883678 -0.07971061 0.32887778
000380 1a de 15 3e 62 f6 56 be 80 35 a5 bb 4f b0 c9 be
       0.14635506 -0.20992425 -0.005041778 -0.39392325
000390 a0 03 42 be 56 0a 06 be bf 28 9f be 6c 94 32 3d
       -0.18946695 -0.1308988 -0.31085774 0.043598577
0003a0 20 02 f8 bc 84 e4 aa bd d9 0c 85 be 7c d5 f4 bd
       -0.03027445 -0.08344367 -0.25986364 -0.119547814
0003b0 57 63 d1 3d 64 f4 b6 3d d8 11 09 bd b0 30 ea 3c
       0.10224026 0.089333326 -0.033464283 0.02858767
0003c0 08 68 d7 bd 28 f9 a9 bc e4 e8 09 be 44 33 7f be
       -0.10517889 -0.02074869 -0.13467747 -0.249219
0003d0 b0 40 10 be 04 ee 1b be 1b 27 c1 bd 4a 93 33 be
       -0.14087176 -0.15227515 -0.09431287 -0.17536655
0003e0 74 77 a0 3e 5a c0 1b be de 4a 47 bd 3e d1 66 bd
       0.31341136 -0.15210095 -0.048655383 -0.056351893
0003f0 cd 36 bf bd 5d ce cb 3d 7a a7 b8 3d 3e 35 1b 3e
       -0.09336624 0.0995147 0.090163186 0.15157029

fc6.bias f4 [16]
000000 8c a8 8e 3d 84 f7 ae be 61 c8 78 be 05 e4 15 bf
       0.069657415 -0.34173214 -0.24295188 -0.58551055
000010 fc 5f cf bc a1 8c ab be db e7 9c be 90 71 0f bc
       -0.025314324 -0.3350573 -0.30645642 -0.008755103
000020 4a 85 1c bf 13 8a b7 3e ab 5d cf bc d1 7b bf be
       -0.6114088 0.3584753 -0.025313219 -0.37399152
000030 e1 b4 35 be 3a 83 2b be 67 8b cd be fe 0e 58 bf
       -0.17744781 -0.16749278 -0.40145418 -0.84397876
