data/results/1731775287.pth (torch, 14114 bytes, 16 tensors)

fc1.weight f4 [16, 32]
000000 3a bc 6b 3d 25 26 99 bd dc 63 8c 3f 24 c3 8c bd
       0.057552554 -0.074779786 1.0967975 -0.068731576
000010 76 dc a7 be 3d 6c 59 bf 2b 90 0b 3f 85 6f 10 bf
       -0.32785386 -0.84930784 0.5451686 -0.56420165
000020 b1 5e 0f be 43 49 f7 3d 12 e8 87 be 34 47 06 be
       -0.14000966 0.120745204 -0.26544243 -0.131131
000030 95 34 78 be 48 f4 c6 be 6b a8 6b bf 8f e0 0e bf
       -0.24238808 -0.38858247 -0.9205386 -0.558114
000040 e9 44 05 bf 56 42 6d be 25 65 29 3e d7 80 24 3f
       -0.52058274 -0.23169836 0.1654249 0.64259094
000050 ab 32 56 bf 30 3f b7 bf 34 58 29 bf 9e 6c a1 be
       -0.83671063 -1.4316158 -0.6615021 -0.3152818
000060 f5 6d d4 be d7 ed a6 be 1b da 2a bf 90 44 50 be
       -0.4149014 -0.32603332 -0.6673905 -0.20338655
000070 21 8a 0a be 4c 1d c3 3e fd 69 4f bf 30 6b 8e 3e
       -0.13529254 0.3810829 -0.810211 0.27816153
000080 77 b6 80 3d f7 8e 27 be 0a b0 1f bd 93 03 57 3f
       0.062848024 -0.1636313 -0.038986243 0.8398983
000090 5b 17 c7 3e 98 79 2e be 40 66 50 3b d8 2b e5 3c
       0.38885006 -0.17038572 0.0031799227 0.027975008
0000a0 a4 39 15 3f e1 a4 86 3d 54 8c 82 be 54 6b 92 3e
       0.5829108 0.06574417 -0.25497687 0.2859751
0000b0 7f 56 7a bd 6c c3 f0 bd 04 0e 8d be 4a ac ed 3e
       -0.061117645 -0.11756024 -0.27549756 0.4642051
0000c0 11 59 c6 3e 45 23 2a 3f 79 20 03 3e 61 1c 4b 3f
       0.38739827 0.6646007 0.12805356 0.7934018
0000d0 ea a3 3d bc 5c 13 52 3f 75 3e e4 be e1 1e e4 3e
       -0.011574725 0.8206079 -0.445789 0.4455481
0000e0 15 db 31 bc 8d 95 64 be 3c 46 b9 be 3c 90 54 bf
       -0.010855456 -0.22322674 -0.36186397 -0.83032584
0000f0 0f 1f 36 3f 22 f8 75 3e 22 d5 92 3e a7 73 83 bd
       0.7114114 0.24020436 0.28678232 -0.06418543
000100 f8 23 c5 3d 4a 51 02 bd 46 72 c8 3d 91 50 5f bd
       0.09626001 -0.031815805 0.09787421 -0.054520193
000110 4f 14 12 3f 8c d2 75 be e5 9d e2 3e fd 66 11 3f
       0.5706224 -0.24006099 0.4426109 0.5679777
000120 33 c8 38 bf 23 c8 0e bf e8 ce 92 be 4b 05 b2 3f
       -0.7218048 -0.55774134 -0.28673482 1.3907865
000130 fc 5b 4b 3e 46 f8 cb 3e c4 02 00 bf b0 cf 87 bf
       0.19859308 0.39837855 -0.5000422 -1.0610256
000140 eb 91 39 3d 73 bf 82 be b0 75 15 bf 0a 3d ea 3e
       0.045305174 -0.2553669 -0.583827 0.45749694
000150 0c 89 1e 3f 85 17 4b 3f 36 96 5f bc 1d 93 d3 be
       0.61927867 0.7933276 -0.013646653 -0.41323176
000160 60 7f 9d be 9a 75 9f 3e 91 89 64 bf df f3 6a be
       -0.30761242 0.3114441 -0.8927241 -0.22944592
000170 f6 a0 1c 3e 59 88 30 3e f1 3d 30 bc 59 06 bb 3e
       0.15295777 0.17239513 -0.0107569555 0.3652828
000180 29 f7 5b 3d 27 47 02 3e 4b 4e 22 c0 90 bf 1f bf
       0.053702507 0.12722455 -2.5360286 -0.62401676
000190 c8 33 0e bf cd 1a 9a 3e a4 0f e3 be 2b 15 15 3e
       -0.5554776 0.30098572 -0.4434787 0.14558856
0001a0 85 23 3b 3f fe 14 a8 3e 25 71 5c 3e 56 9b 71 3e
       0.73101074 0.32828516 0.21527536 0.23594412
0001b0 80 2b 6c 3e 0e 3d 0c 3f 41 c0 7a 3f 1b e0 fa be
       0.23063469 0.5478066 0.97949606 -0.48999104
0001c0 6f c4 cb 3d e3 26 8c bd 9b ac 1a 3f 57 84 07 3f
       0.09949576 -0.068433546 0.60419625 0.5293631
0001d0 41 35 19 be c1 9f 4b 3f 2d 27 08 3f a2 a0 b5 3e
       -0.14961721 0.7954064 0.5318478 0.35474116
0001e0 e4 bc 3d 3e f9 d9 21 be 4f 1b 96 3e 0f 95 5f be
       0.18529087 -0.15805806 0.2931771 -0.21834205
0001f0 d6 b4 ec be 3b 64 38 3f 49 29 81 3e bb 1c ba 3e
       -0.46231717 0.7202794 0.2522681 0.36350045
000200 88 c7 d1 3d d0 79 6a bf bf c0 ed be b3 09 1b 3f
       0.10243136 -0.9159212 -0.46436116 0.60561675
000210 d3 c8 8c bf 34 12 4e bf d9 78 34 3e 7d c4 9f 3e
       -1.0998787 -0.80496526 0.17624225 0.31204596
000220 fe 62 63 3f fc 85 05 3e 3a b9 aa 3e c2 d4 91 be
       0.88822925 0.13039392 0.33344442 -0.28482634
000230 5b f4 b4 be cb 50 68 be b7 58 45 3e 45 2b 46 3e
       -0.35342678 -0.2268707 0.19272123 0.19352444
000240 0f ed 87 be 36 eb 0e bf ea 4f 72 be d3 a1 10 bd
       -0.2654805 -0.55827653 -0.23663297 -0.035310578
000250 f8 42 14 bf 14 60 18 3c fa f0 3a 3f 64 6b fb 3e
       -0.57914686 0.009300251 0.7302395 0.4910537
000260 9b 9b f5 3c dc c9 0e be c8 73 1a bf 77 21 fb bd
       0.029981425 -0.1394419 -0.6033292 -0.12262242
000270 cf fe d2 be c4 a0 29 3f b4 2f 7d be 54 ac e6 3d
       -0.4121003 0.66260934 -0.24725229 0.11263338
000280 f1 5b 8c 3d 9a 0a 1d 3e 8f 4c 5c c0 9f 65 1e 3f
       0.06853474 0.15336075 -3.4421728 0.6187381
000290 3f 77 68 be 7d 18 93 bc da 84 02 bf 11 45 10 3e
       -0.22701739 -0.017956013 -0.50983965 0.14088847
0002a0 7e 91 cc 3b 75 fb 0d be 9b de 71 be 9b 25 a0 3e
       0.00624293 -0.13865454 -0.23620073 0.3127869
0002b0 e9 d1 48 be 3c 95 ff bd 86 f9 24 bf bb d3 59 3f
       -0.19611324 -0.12479636 -0.6444324 0.850887
0002c0 40 e2 ab 3e 70 0c 8f 3e 17 57 e7 be a3 5c 41 3d
       0.33571053 0.27939177 -0.45183632 0.047207486
0002d0 b5 28 21 be 54 1f dd 3d 25 c6 d8 be 61 8c 89 3e
       -0.15738185 0.10796991 -0.42338672 0.26864913
0002e0 97 9e b5 be 8e 95 6c bd b7 d6 74 bc 5b e8 58 bd
       -0.35472557 -0.057759814 -0.01494377 -0.052955966
0002f0 47 98 3d bc 1b fa aa 3d b8 e3 50 be a3 9e 26 3e
       -0.01157195 0.08348485 -0.20399368 0.16271453
000300 ee 6e 07 3d 53 11 ac bc d0 b2 9b bd ce a9 41 3f
       0.033064775 -0.021004355 -0.07602465 0.75649726
000310 18 6a 82 bf ba 98 18 bf a1 74 46 3f 6c 33 5c be
       -1.0188627 -0.5960804 0.7752171 -0.21503991
000320 80 1f 5f bd 18 71 97 be 6c e5 94 be 88 8b 06 bf
       -0.0544734 -0.2957847 -0.29081285 -0.5255666
000330 f7 34 19 3d 15 21 38 3e a2 a3 59 3e 52 66 73 3f
       0.037404027 0.1798137 0.21253827 0.95078003
000340 df ed d9 3e f0 0d 54 be 2a e0 51 3e 79 31 0f 3f
       0.42564294 -0.20708442 0.20495668 0.55934864
000350 ab f3 02 bf bb a5 93 bf cf ea 82 bf f7 6d 28 be
       -0.5115306 -1.1534952 -1.0227908 -0.16448198
000360 2c 8d 80 be c8 82 bd be c7 a3 58 be b8 2a 1a 3e
       -0.25107706 -0.3701384 -0.21156226 0.15055358
000370 84 b6 52 3e 59 a5 c5 be df e1 2d 3e 0f 76 35 3f
       0.20577437 -0.38602713 0.16980694 0.7088327
000380 30 20 62 3e f1 29 a7 bd d0 33 b2 3f 5a 1a 3f 3e
       0.22082591 -0.081622966 1.3922062 0.18662396
000390 d2 38 b1 be 34 ce 81 be c8 ba 84 3f 4e b5 c9 3d
       -0.34613663 -0.25352633 1.0369501 0.09849034
0003a0 b5 bd 94 bf 6c c7 d4 bd 63 4e 16 3e 51 d2 58 3d
       -1.1620394 -0.10389599 0.1467834 0.05293495
0003b0 aa d4 14 3f 8d 05 cd 3d fa ee 30 3e 2c 4d 72 bf
       0.58137 0.10010824 0.17278662 -0.94649005
0003c0 99 05 9b be 76 42 5d be 35 c3 0f 3f 70 b9 04 bf
       -0.30277708 -0.21607384 0.5615724 -0.51845455
0003d0 d0 47 83 bd 24 ae df bd 1b 14 05 3f fc bd bf bc
       -0.064101815 -0.109218866 0.51983804 -0.023406021
0003e0 19 f8 c5 3e e8 7e 33 be 26 7c 5b bf e0 a7 e5 3e
       0.38665846 -0.1752888 -0.8573631 0.4485464
0003f0 99 0a 7c be 96 85 79 3e ab 63 70 be cf ad f5 be
       -0.24613418 0.24367365 -0.2347552 -0.47984168

fc1.bias f4 [16]
000000 d9 bb 17 3e 81 de 9e be 48 21 13 bf 48 d4 a7 3d
       0.14817752 -0.31029132 -0.5747266 0.08194786
000010 04 0a 01 bf 2f 7d 7e 3e 11 9a 79 bd 96 93 0d bf
       -0.5040591 0.24852441 -0.060937945 -0.55303323
000020 48 d8 35 bf 4b c4 4d bf af e9 06 bf 89 87 ec bb
       -0.71033144 -0.80377644 -0.5270032 -0.0072183055
000030 86 4d 87 bf d2 f3 34 bf fc ac 69 be 4f fb 41 be
       -1.0570533 -0.7068454 -0.22819895 -0.18943523

fc2.weight f4 [16, 16]
000000 cb 6c 4c bf 91 0d 25 3e b1 3d 42 3f 66 0b 29 3f
       -0.79853505 0.16118456 0.75875384 0.6603302
000010 6e 86 0f bf 16 55 83 3d 4f 05 8b bf 76 e1 6c be
       -0.560645 0.06412713 -1.0860995 -0.23132882
000020 5f ef bd bf dc fc 9f be f1 92 74 bf fd 52 6b bd
       -1.4838675 -0.31247604 -0.95536715 -0.05745219
000030 53 64 c0 bf 50 79 8b 3e 54 ed db be 35 1e 3d bf
       -1.5030617 0.27240992 -0.42954504 -0.7387422
000040 5a bc bb 3e ca 1b 86 bf ab 0a 8b bf 94 ef f6 be
       0.36667138 -1.047723 -1.0862631 -0.4822966
000050 d8 a2 a9 3e a5 97 f6 bd 65 a3 f1 3e 6a 6e 63 3f
       0.33132052 -0.12040643 0.47194973 0.88840353
000060 43 19 4d bf 4a 5e 08 3e 19 5b 8c bd 46 5c e3 3d
       -0.8011667 0.13317218 -0.06853313 0.11101584
000070 dc 65 7b 3e 95 09 6e bf a5 ca 93 bf 1c e9 e4 3d
       0.24550575 -0.9298337 -1.1546217 0.111772746
000080 3e d3 40 3f a6 3f c3 be 46 fc 7d bf 4f bc 42 bf
       0.7532233 -0.38134497 -0.99213064 -0.76068586
000090 c3 69 82 be f9 b0 ec 39 fd 74 6c bf 14 37 e1 3e
       -0.25471315 0.00045145283 -0.9236601 0.43987334
0000a0 46 93 6c bf 81 0e 39 bf f2 33 a8 3c c3 84 96 3e
       -0.9241222 -0.72287756 0.020532582 0.29398164
0000b0 9d a3 bb be b6 7b 7c 3f 0e 2a 96 3c 6c fd 99 be
       -0.36648265 0.9862627 0.0183306 -0.30076158
0000c0 eb b0 0f 3e 04 86 ed be 10 fb b3 be 05 8f bc bf
       0.14032333 -0.46391308 -0.35152483 -1.4731146
0000d0 d1 d1 51 3e 7e af 18 3f 8b 88 82 bf b9 6e 84 3f
       0.20490195 0.5964278 -1.019792 1.034629
0000e0 e6 e3 c3 3d 4f d9 4b be 9f be a2 bf 9a e9 d1 be
       0.095649526 -0.19907115 -1.2714423 -0.40998536
0000f0 59 a7 47 3f ed ca d5 be 64 d8 2b 3e de e1 e5 be
       0.7798973 -0.41756383 0.16781765 -0.44898885
000100 8a 9c df 3b 90 f6 9a bf 28 6f 8a be e8 0c 9f 3e
       0.006824081 -1.2106495 -0.2703793 0.31064534
000110 54 93 9f bf 09 ff 22 3f 2d de 8c bf 66 ae b3 3e
       -1.2466836 0.636704 -1.1005303 0.35093993
000120 a0 22 64 bf e4 8d 23 bf 10 0d 46 bf 55 b5 03 3f
       -0.89115334 -0.6388838 -0.7736368 0.51448566
000130 65 92 fe 3c a3 96 b9 3e 84 1a 00 bf e5 7c 18 3e
       0.031075666 0.3624774 -0.5004046 0.14891393
000140 01 28 84 3e 35 dd a3 be 33 ea de be 75 fc 95 3e
       0.2581177 -0.32004705 -0.43538055 0.29294172
000150 15 ab 5b be 57 3d 33 3f b8 c7 09 3f c2 b1 13 bf
       -0.21451981 0.7001547 0.5382037 -0.5769311
000160 91 d2 32 3f 99 de 34 bf e9 35 74 be aa c2 01 bf
       0.6985255 -0.7065216 -0.2384869 -0.5068766
000170 37 51 37 3f 7b 59 55 bf e4 2d 8d bd d5 c6 f5 be
       0.716083 -0.8333966 -0.068935186 -0.4800326
000180 3a 0d c9 3e 85 3b 06 bd f9 2d c4 3e 48 c0 15 be
       0.39267904 -0.032771606 0.38316324 -0.1462413
000190 7f 07 a6 3e f2 b3 e7 bf 01 37 01 3f 0e ad 6e 3f
       0.32427594 -1.810179 0.50474554 0.9323281
0001a0 9c 19 e0 be 6f 2d 6f bf 48 6a 38 bf f9 97 90 bf
       -0.43769538 -0.934287 -0.7203717 -1.1296378
0001b0 04 67 09 bf 79 a9 7d bc f3 b2 20 bf c5 76 f2 3d
       -0.53672814 -0.0154823 -0.62773055 0.1183906
0001c0 8f 83 58 3f 7f b2 cb be d3 6b 3e bf 59 7f f1 bd
       0.8457574 -0.3978462 -0.74383277 -0.11791868
0001d0 06 fd 5b bf 19 79 29 3e 0e a5 86 bf 81 c5 9b 3e
       -0.8593296 0.16550101 -1.0519121 0.3042412
0001e0 ce d8 c5 3e 78 65 43 3e 8c b8 77 3e 10 4a c9 be
       0.3864197 0.19081676 0.24191493 -0.39314318
0001f0 c8 8f 0e be a5 d1 01 3d 43 18 23 3f 00 6b 08 3f
       -0.13922036 0.031694073 0.63708895 0.5328827
000200 d2 83 58 be ab 9f b3 bf c2 09 45 3f 57 a6 4e 3d
       -0.21144035 -1.4033102 0.76968014 0.050451603
000210 f1 d1 69 be bf 65 7d be 51 7a 0f be a4 69 70 3c
       -0.22833993 -0.24745844 -0.14011504 0.014673624
000220 33 46 d8 3e 07 14 33 3f e8 b0 21 bf 10 a0 43 3e
       0.42241058 0.69952434 -0.6316056 0.19104028
000230 60 77 27 3f 34 a4 11 bf 76 e5 1c c0 cd 29 b3 be
       0.65416527 -0.5689118 -2.4515052 -0.3499283
000240 e6 b3 20 bf 7e 5e 14 bf 30 93 74 be 91 fc 34 be
       -0.62774503 -0.57956684 -0.23884273 -0.17674471
000250 b6 d5 c9 be 59 69 a5 be 96 79 91 be c3 85 88 3e
       -0.3942086 -0.32306936 -0.28413075 0.26664552
000260 30 32 76 3e a9 db 32 3f fa f0 57 3f ce 5b 14 bf
       0.24042583 0.69866425 0.84352076 -0.5795258
000270 75 69 8b 3f ee 5d 60 3e 01 60 b1 3e 36 a6 cf bd
       1.0891558 0.21910831 0.34643558 -0.10139124
000280 09 20 d6 be e6 4d 35 be 4c b2 50 3e a7 d3 ba 3e
       -0.41821316 -0.17705497 0.20380515 0.36489603
000290 55 c8 4b bd 9a b3 a2 3d 46 31 8a be 4b 5e b3 be
       -0.0497516 0.079444125 -0.26990718 -0.35032877
0002a0 05 99 4c 3d 96 71 67 be e3 c0 3a bf 46 8d 71 be
       0.04995062 -0.22601923 -0.7295057 -0.23589048
0002b0 0c 2b a3 be 0e aa 71 be 43 40 88 bf e5 f2 79 3e
       -0.3186878 -0.23600027 -1.0644611 0.24409063
0002c0 90 f6 1a 3f 04 2c cc 3e e8 8b 82 3e 47 a1 4f bf
       0.60532475 0.3987733 0.25497365 -0.81105465
0002d0 fc 97 d2 be 2e a0 08 3e f2 f4 ad bd 1d 2f 62 be
       -0.4113158 0.13342354 -0.08493985 -0.22088285
0002e0 30 c0 46 3d 25 63 56 bf 8e f5 14 3f ed ca 76 3c
       0.048523128 -0.8374503 0.58187187 0.01506303
0002f0 df 9b e3 3e 2b 8f fd 3e 70 80 9e bf 00 13 0f 3f
       0.44454858 0.4952329 -1.2382946 0.55888367
000300 e6 33 41 be af 6d 94 3d 07 62 23 3f 7d c1 af bf
       -0.18867454 0.07247483 0.6382145 -1.3730923
000310 4f e4 32 3f cd 03 bc be 2c 21 45 3f 35 e3 ce 3d
       0.6987962 -0.3672165 0.7700374 0.1010193
000320 8e f3 e8 be 47 d8 0a 3e b1 81 9f 3d 81 a2 9e 3e
       -0.45498317 0.13559066 0.077884085 0.30983356
000330 0b c8 80 bf 07 04 c6 be f5 ed 18 be 94 fc d7 3e
       -1.0061048 -0.38674948 -0.14934523 0.4218489
000340 ba 89 bc bd d0 77 a6 3b 09 2b 6a bb c5 ac 4d be
       -0.09205957 0.0050802007 -0.0035731217 -0.20085438
000350 a2 0a 66 bd d0 c8 7e be 5b 07 df bd 0b 69 37 be
       -0.056162484 -0.24881291 -0.10890075 -0.17911164
000360 df 48 30 3d c2 0d a3 bd dc d6 5e be e7 a2 14 be
       0.043038245 -0.079616085 -0.2176165 -0.14515267
000370 da f1 16 be a0 7f 9f be 6d c6 90 be 3a 57 21 bd
       -0.14740697 -0.31152058 -0.28276387 -0.039389826
000380 83 30 57 3e ca ce 81 3e ec 66 4b 3f 9b 53 60 be
       0.210146 0.2535308 0.7945392 -0.21906893
000390 ae a5 88 be e8 d1 99 be 97 50 e0 3e 68 69 aa be
       -0.26688904 -0.30042958 0.43811485 -0.33283544
0003a0 6b c5 5a 3c d3 18 9c bf 74 ca ff 3e d5 20 55 3d
       0.013352732 -1.2195076 0.49959147 0.052033264
0003b0 20 1f 5c 3f 64 5c 0d 3e 8f 5d 8d bf 05 15 18 3e
       0.85984993 0.13804775 -1.1044177 0.14851768
0003c0 2c e4 95 3f 80 6a db 3e 0e ad 71 3e e4 3c cb bf
       1.1710258 0.4285469 0.23601171 -1.5877957
0003d0 92 09 27 bf 40 9b 4c bf b2 dc 94 be 7e 96 44 bf
       -0.6524898 -0.7992439 -0.29074627 -0.7679213
0003e0 d2 ab b0 3e bd 08 0d bf c0 fa c9 3e 56 69 94 be
       0.34506088 -0.5509146 0.3944912 -0.28986615
0003f0 48 c4 f5 be 50 b9 13 bd 99 69 3b 3e 95 cd 5e be
       -0.48001313 -0.0360654 0.18302001 -0.21758111

fc2.bias f4 [16]
000000 02 10 8b bb 0d 85 08 3f f2 6e 07 bf 58 b4 3e be
       -0.0042438516 0.5332802 -0.52903664 -0.18623483
000010 66 f2 14 bf 17 80 b8 3e da 19 a2 3e 0c 1b 85 3e
       -0.5818237 0.36035225 0.31660348 0.25997198
000020 4e 80 90 be 1f e7 16 bf 95 61 ff bd 33 58 42 bf
       -0.2822289 -0.5894641 -0.12469784 -0.7591583
000030 b6 47 97 bd f0 84 57 be 2b 63 d2 be 0d 9b ff 3e
       -0.07386725 -0.21046805 -0.41091284 0.49922982

fc3.weight f4 [16, 16]
000000 86 bc 73 bf 05 a4 4d 3e 7b 85 15 c0 c8 ea 49 bf
       -0.9520954 0.200821 -2.336272 -0.7887387
000010 2c 22 27 bf 11 83 08 c0 3d d8 7b 3d ac 7e fd be
       -0.6528652 -2.1329997 0.061485518 -0.49510705
000020 57 90 eb be 69 6a 21 3e 28 e4 16 3d 0f 01 26 3f
       -0.4600856 0.15763249 0.03683868 0.64845365
000030 c4 ad 86 3e 9d a5 5f 3e c4 23 71 3e 31 03 40 3f
       0.26304448 0.2184052 0.235488 0.7500487
000040 2f 72 8e bf 09 d6 98 be b1 6e b6 bf cf d2 74 3e
       -1.1128596 -0.29850796 -1.425253 0.23908542
000050 9e 4e d5 3e a6 46 24 be c5 6a dd 3e 8e b7 50 be
       0.41661543 -0.16042575 0.4324552 -0.2038252
000060 9b 99 07 bf 9f 65 63 bf 6e b4 05 be 98 e8 52 3e
       -0.5296876 -0.88826936 -0.1305711 0.2059654
000070 b3 7d 1b 3f 33 28 7d 3c e8 14 66 3d 78 95 16 3f
       0.60738677 0.015451479 0.05617228 0.5882182
000080 64 4e 9a bf 88 60 2a 3f 7c 03 e3 be a0 7e bd 3e
       -1.2055173 0.66553545 -0.44338596 0.3701067
000090 14 88 12 bf 93 34 0c be 73 87 8e 3f 00 4f 12 bf
       -0.5723889 -0.1369193 1.1135086 -0.57151794
0000a0 10 83 00 bf 76 de d1 be a4 a6 02 be 7d 41 3f 3e
       -0.50199986 -0.40990037 -0.12758881 0.18677326
0000b0 52 a0 bd 3e 46 f4 4e 3e 06 d8 3a be 60 3c fc 3c
       0.37036377 0.2021037 -0.18246469 0.030790508
0000c0 16 8c 53 bf 9a e5 04 3f 77 2a 90 be 3a a3 28 3f
       -0.8263563 0.51912844 -0.28157398 0.65874064
0000d0 34 da d0 be c3 08 00 bf 4f 2f 7c be 55 c0 af 3e
       -0.40791476 -0.5001337 -0.24627422 0.34326425
0000e0 02 84 1c 3e ad 2e 72 bf 32 05 11 3e db 60 25 3f
       0.15284732 -0.9460247 0.14162138 0.64600915
0000f0 08 c6 7e 3e 73 ff 63 be 70 cb 31 3f 83 ca 12 bf
       0.2488023 -0.22265415 0.69451046 -0.5734026
000100 10 63 8a 3d ff 9b 00 3f 99 75 2f 3f cc 24 1c bb
       0.06757176 0.5023803 0.68538815 -0.0023825644
000110 78 dd 9d 3f a2 0d 0e 3f 75 6f 94 bf db 70 39 3f
       1.2333212 0.5548955 -1.1596514 0.7243783
000120 2c 33 80 3d 42 4d d2 bc f5 80 0b bd 40 a8 e9 3d
       0.0625976 -0.025671605 -0.03405853 0.11409044
000130 ae c7 fb be 86 02 57 be 60 bd 12 be 21 23 a2 3e
       -0.4917578 -0.20997056 -0.14330053 0.31667426
000140 b2 e8 7e bf 17 69 32 3e 42 47 e8 bf ab 25 17 3f
       -0.99573815 0.17422901 -1.8146746 0.5904185
000150 a2 6b 64 be 55 23 c4 be f6 40 e6 3e ac f3 a0 3d
       -0.22306684 -0.38308206 0.44971436 0.07858977
000160 74 73 ff be d4 c8 0c bf ee 5b 96 be eb fd b0 3d
       -0.4989277 -0.5499394 -0.29367012 0.08642181
000170 8e 6a 7e 3d 52 4a f0 bd 9e 2f de bc 06 78 64 3f
       0.062113337 -0.117329255 -0.027122315 0.8924564
000180 5c b1 e1 3c 76 eb 15 3f 2d 81 ac be df e6 4a bf
       0.027550392 0.5856241 -0.33692303 -0.7925853
000190 40 50 ab bf 55 62 c9 be 8a 95 e2 3e c9 e4 d6 3e
       -1.3383865 -0.39332834 0.44254714 0.41971424
0001a0 f3 3c af bf 94 e7 aa bf f8 41 c9 bd cc d0 aa 3e
       -1.3690475 -1.3351922 -0.09827036 0.33362424
0001b0 5e 1f 9b bd 3b 56 00 3e e0 54 ea 3e 19 52 7c 3f
       -0.07574342 0.12532894 0.4576788 0.9856277
0001c0 db 5f df be 69 de 3a 3d df 38 8b 3e 01 5d ea 3c
       -0.4362782 0.045622263 0.27191827 0.0286088
0001d0 cd 20 62 bf 0a e4 b3 bd eb 93 2e 3f d8 0f 3f bf
       -0.883313 -0.087837294 0.68194455 -0.7463355
0001e0 ec 1b af bf 28 e2 d8 3d 6b ca cf bc 2c b8 13 3f
       -1.3680396 0.10590011 -0.025365075 0.577029
0001f0 91 64 a6 3e 9f 51 31 be de a6 ad 3d f3 c8 35 3f
       0.324986 -0.17316292 0.08479093 0.7100975
000200 fc b3 51 bf 36 14 6d be da 58 92 3d f7 b3 38 bf
       -0.8191526 -0.23152241 0.07145853 -0.72149605
000210 d4 26 57 be 4d 8e 8a bd 7c 74 83 3f eb 5b 8c bf
       -0.21010906 -0.06765423 1.0269923 -1.0965551
000220 d5 5f 15 bf 83 ad 14 c0 03 9f b4 bd 2d c0 0b 3e
       -0.58349353 -2.3230903 -0.088193916 0.13647528
000230 59 b6 87 3e 45 32 de bd 19 d1 9f 3d 65 91 a8 3e
       0.26506308 -0.10849432 0.07803554 0.32923427
000240 53 12 c9 3e 54 37 c7 bf 85 21 ee 3e a5 dc 9d bf
       0.39271793 -1.556376 0.46509948 -1.233296
000250 9a ec 45 bf 90 bc c9 3e 47 24 8a bf 9c 2a fc 3e
       -0.7731415 0.39401674 -1.0792321 0.49251258
000260 67 52 4e 3f 1b e4 b0 be 8f 34 17 bf 4b 69 dc be
       0.80594486 -0.3454903 -0.59064573 -0.43049082
000270 3d d3 3b bd 3a 3b 10 3e 9d 60 16 bf 83 32 99 3f
       -0.04585575 0.14085093 -0.5874117 1.196854
000280 dd 0b 0a 3f 77 c9 35 bf 49 17 f1 bf 81 c8 76 bf
       0.5392435 -0.71010536 -1.8835231 -0.96399695
000290 b2 5c 3a 3f 58 fd ee be a6 39 b6 3c 2f 86 8f be
       0.7279769 -0.4667766 0.022244286 -0.2803206
0002a0 0c 32 ec bf 41 86 86 3c 56 12 be 3e 76 6b 04 be
       -1.8452773 0.01642144 0.37123364 -0.12931618
0002b0 5d 55 36 bd 84 b6 30 be be 5b 2d bf db d3 99 bf
       -0.044515003 -0.17257124 -0.6771811 -1.2017778
0002c0 1d 47 6c bf ae 80 84 3c 25 93 95 be c6 2f 0d 3f
       -0.9229601 0.01617464 -0.29213825 0.5515102
0002d0 20 fe 0e bf 61 c0 1c bd 1c bf 2a 3f c3 66 84 3e
       -0.55856514 -0.038269404 0.6669786 0.2585965
0002e0 ee 69 b4 3f b4 d1 07 3f 0f 47 91 be 28 13 f6 bd
       1.4094827 0.53054357 -0.28374526 -0.120153725
0002f0 78 4b 18 be bb 02 82 3c 66 9d c9 bf 46 13 78 3e
       -0.14872539 0.015870443 -1.5751159 0.24226102
000300 99 1e ea be a4 1e f6 3b 37 5c 3c bc 8e 9f 1e be
       -0.4572647 0.007510977 -0.011496595 -0.15490553
000310 eb ec 13 be 0a 2e bf be 4d ad cf bd ca 9c 9b be
       -0.14445846 -0.37339813 -0.101404764 -0.30393058
000320 35 16 ca be 60 0e 87 be 25 98 21 bd d9 1c 98 be
       -0.39470068 -0.26378155 -0.039451737 -0.2970951
000330 2b d5 99 bd 63 a9 82 be d2 36 8e bd 6a a2 14 3e
       -0.07511362 -0.25519857 -0.0694405 0.14515081
000340 05 b9 f9 3e ab 39 04 3c f6 d0 e7 3e bf 38 75 be
       0.4877397 0.00807039 0.45276612 -0.23947428
000350 50 1f c8 3e 8d 67 d8 3e f6 87 c1 bf 5a 74 d4 3e
       0.3908639 0.42266503 -1.5119617 0.4149502
000360 1d 6c c3 3e 33 e5 61 3e ab ab d2 3d 4e fe 08 bf
       0.3816842 0.22060089 0.10286649 -0.5351304
000370 09 40 a7 be 7b d7 de bd 89 2b 83 bf 62 07 09 3f
       -0.32666042 -0.108809434 -1.0247661 0.5352689
000380 70 e3 0c bd 29 25 82 be 92 59 00 3e d6 27 dc be
       -0.03439659 -0.25418976 0.12534168 -0.42999142
000390 a9 c0 ac bf b2 b6 81 bf 06 98 fa 3e 85 8b 38 bf
       -1.3496295 -1.0133879 0.4894411 -0.7208789
0003a0 88 fa 58 bd b4 53 72 be 8f 90 cc bb 87 23 36 3f
       -0.0529733 -0.23664743 -0.0062428187 0.7114796
0003b0 d4 f3 9d bf 3d 7b e3 3d 3a 1c 2d bf f6 59 ac 3e
       -1.2340035 0.1110749 -0.67621195 0.33662385
0003c0 0f a9 ef 3d 17 f7 f4 3c 0d 93 f6 3d 40 24 01 3f
       0.11702167 0.029902978 0.120397665 0.5044594
0003d0 61 b7 24 3c 45 5f ec bf 6f c6 e2 3e da b1 b9 3e
       0.010053487 -1.8466574 0.44292018 0.36268502
0003e0 cb f6 60 3f 8e ab e5 bf 83 ca f7 3e 36 6c 57 be
       0.87876576 -1.7942979 0.48396692 -0.21037373
0003f0 cc 4b 62 3d 00 e5 40 3c a1 a1 86 bf e6 74 6e 3d
       0.055248067 0.011773348 -1.0518075 0.05821695

fc3.bias f4 [16]
000000 82 25 b7 be d6 ff c1 3e 1e 57 df 3e bc f2 87 3e
       -0.35770804 0.378905 0.43621153 0.2655238
000010 eb 7b 28 bf 9e c0 ed 3e 0d 4e c3 3d a3 04 a2 be
       -0.65814084 0.46436018 0.095363714 -0.31644163
000020 76 b4 4f 3f 6c 96 80 bd fa c1 a0 be c0 95 89 bd
       0.81134737 -0.06278691 -0.31397992 -0.06718016
000030 f6 2e 1e bf a8 87 25 3f 87 1f 24 3f 6f 14 02 bf
       -0.61790407 0.6466012 0.64110607 -0.5081243

fc4.weight f4 [16, 16]
000000 51 32 f7 3f d4 f5 0d 3f 20 d3 de bd de b1 f8 bd
       1.931223 0.5545323 -0.10880113 -0.121433005
000010 77 f9 b3 be d2 20 f7 bd c0 7b f5 3b fc d0 e5 3d
       -0.35151264 -0.12066807 0.007491559 0.11221501
000020 d9 5b 2e 3f a6 04 36 bf e9 f9 16 be 00 f7 ad be
       0.681089 -0.7110084 -0.1474377 -0.3397751
000030 30 1f 95 bd 8f 4b 01 bf 8e 31 3d 3f 58 8e ff 3e
       -0.07281339 -0.5050592 0.7390374 0.49913287
000040 45 90 2e bc 75 b3 bf be f0 a3 1a 3d d5 6f 43 bf
       -0.010654514 -0.37441602 0.037754 -0.7634252
000050 d5 71 4d bf 6b bc 41 bf df 9c 92 be 6e 13 e2 be
       -0.8025182 -0.7567813 -0.28635308 -0.4415545
000060 16 90 7f bc 43 31 c6 bc 73 58 cc be 4f a5 a1 bb
       -0.015598318 -0.024193412 -0.3991123 -0.0049330364
000070 80 cc c4 3d 7e 1f 0f bf 4a 01 81 be 52 11 2e be
       0.09609318 -0.5590743 -0.25196296 -0.16998795
000080 ad 07 95 3f 8a f3 86 3e 8a bb fa 3c df 81 87 bd
       1.1642967 0.2635768 0.030607004 -0.06616568
000090 96 7c c1 bf 81 89 c7 3d a7 83 9c 3d d2 35 c5 3e
       -1.5116146 0.09743024 0.07642298 0.38517624
0000a0 a8 25 0d 3f 41 4a dd be 52 51 c0 be d0 e0 97 bf
       0.55135584 -0.43220714 -0.37562042 -1.1865482
0000b0 98 f9 b2 bd db ab 86 bf 45 85 3a 3f ac c0 50 3f
       -0.087390125 -1.0521196 0.72859603 0.81543994
0000c0 09 ef b8 3f f7 3d e1 3e 37 64 4f 3e 2e 8b 18 bf
       1.4447948 0.43992588 0.20253073 -0.5958737
0000d0 3e 80 5f bf 5d da 9a 3d 34 61 ac 3e 38 ac b1 3e
       -0.8730506 0.07561181 0.3366791 0.34701705
0000e0 7b 8a f7 3e d1 3a 7b bf f3 1b 1e 3f 00 7e 41 bf
       0.4834784 -0.9813662 0.617614 -0.75582886
0000f0 ba 1d f4 bd f4 f0 96 bf df b5 8f bd dd 85 c7 bf
       -0.119197324 -1.1792283 -0.07017111 -1.5587727
000100 96 c2 61 be 96 ae 49 be 7d 8a 33 be 91 5b 5e be
       -0.22046885 -0.19695505 -0.17533298 -0.21714617
000110 17 37 96 be 6f 29 8b be 62 3d 94 3d e2 ef 78 be
       -0.29338905 -0.2718005 0.0723827 -0.24310258
000120 bc ba 01 3e 36 fe 0d be 48 19 a9 bd a4 ac be bd
       0.1266889 -0.13866505 -0.08256775 -0.09310272
000130 a3 f0 55 be 8c c4 92 bd 0a 00 a0 be 27 34 41 be
       -0.20892577 -0.071663946 -0.3125003 -0.18867551
000140 3f 10 23 3f 80 be bc 3d 19 8b 0c 3f 2b 08 ba bd
       0.63696665 0.092160225 0.54899746 -0.09083589
000150 ce 0b f2 3d 8e 2d 26 3f 05 20 13 be d5 4f 10 3d
       0.11818658 0.6491326 -0.14367683 0.035232384
000160 0a 76 ea 3e 66 0d a1 bf 91 72 7d bf 59 82 49 bf
       0.45793182 -1.2582214 -0.9900294 -0.7871452
000170 73 b0 e5 bd 0b c9 b8 3e c1 f3 88 3f 43 87 a0 3f
       -0.11215296 0.36090884 1.0699388 1.2541279
000180 24 60 78 bf d2 4c 2b 3f f8 02 40 bf a4 a5 69 bf
       -0.970217 0.66914093 -0.7500453 -0.9126837
000190 d7 5d d7 3e 92 dc 92 be f1 5a 9a be bc 7a fc bd
       0.42063782 -0.28683907 -0.30147508 -0.12328097
0001a0 52 bd f8 3d bc f6 36 3f b2 f8 04 3f 93 f4 1a 3f
       0.12145485 0.71470237 0.5194198 0.6052944
0001b0 1b fe ee 3d 41 02 8e 3e 22 8a 88 bf cd cb 25 be
       0.116695605 0.27736095 -1.0667155 -0.16191025
0001c0 15 f9 07 be 4b 35 25 3e 7f cd 6d be 53 49 45 be
       -0.13278611 0.16133611 -0.23222922 -0.19266252
0001d0 64 e0 62 be 70 78 80 bd 93 36 76 3d 71 7a 8e be
       -0.2215591 -0.06272972 0.06011064 -0.2782779
0001e0 31 25 92 be f2 c8 8a be b0 6e 45 3d 32 f0 3e be
       -0.28544 -0.27106434 0.048201263 -0.18646315
0001f0 2a e2 50 3e d8 a5 52 bd fe 2e 3f bd b0 d2 9d bd
       0.20398775 -0.051427692 -0.046675675 -0.07706201
000200 5d 1a ad be 89 9d b7 3e a9 e2 2c 3e 93 33 9f bf
       -0.33809176 0.35862377 0.16883339 -1.2437614
000210 17 c5 d0 3e f7 f8 0e bf a4 05 83 bf ea c2 82 bf
       0.40775368 -0.5584864 -1.0236096 -1.0215733
000220 40 5a 54 3f 19 e9 03 3f 1a a8 51 3f 86 f6 54 be
       0.8295021 0.51527554 0.8189713 -0.20797166
000230 34 db 87 3e 7e 30 da 3e 7d a8 80 bf d4 76 2d 3d
       0.26534426 0.42615122 -1.0051419 0.04234965
000240 ab 41 89 be 41 a8 64 be c9 d7 b7 bd fb 99 14 be
       -0.26807913 -0.22329809 -0.089767046 -0.14511864
000250 a3 1a 31 be 5b 7b 74 be 9d 6f 1a bd d2 ed ba bd
       -0.17295317 -0.23875181 -0.0377041 -0.09127392
000260 9b 54 c3 3c a1 b0 c4 bd 74 ad 7f 3c 9d ae 13 bd
       0.023844054 -0.09604002 0.015605319 -0.036055196
000270 fa 16 75 be 19 36 06 be 87 ee a0 bd 98 67 66 be
       -0.23934546 -0.13106574 -0.078579955 -0.22500455
000280 25 3d 98 3f 7e 48 41 3e 11 73 09 be f6 1a 56 be
       1.189366 0.1887531 -0.134228 -0.20908722
000290 60 c7 a1 bf 27 b3 00 3e 1b df 32 3e e4 9a b0 3d
       -1.263897 0.12568341 0.1746792 0.08623293
0002a0 30 26 2c bd 69 f6 b0 be 45 dd 99 be 3a 75 3b bf
       -0.042028606 -0.34562996 -0.30051628 -0.7322575
0002b0 e1 f6 cd bd 76 10 35 bf af 01 a1 be 54 be 67 3f
       -0.10056854 -0.7072824 -0.31446597 0.9052479
0002c0 00 bb 7b 3b 00 0a a3 bb 4b a6 8f bd e1 23 28 be
       0.0038411021 -0.0049755573 -0.0701414 -0.16419937
0002d0 31 21 cd be 84 98 77 be 28 0d 30 3d 48 2e 70 be
       -0.40064386 -0.24179274 0.042981297 -0.23455155
0002e0 e8 2d 55 be 88 e6 8b bd 00 03 34 3d 79 10 e7 3c
       -0.20818293 -0.0683108 0.043948174 0.028206097
0002f0 14 23 7c be 30 34 70 be fc 2a b6 3d 39 e4 b7 be
       -0.24622756 -0.23457408 0.08894917 -0.35916308
000300 1e 65 3e be b7 de 2c bf 97 7d 29 bf 79 dd 2a bf
       -0.1859326 -0.67527336 -0.6620726 -0.6674419
000310 e0 6e 91 be 62 e7 8b bf b1 68 60 3f 0b 8a bb be
       -0.28404903 -1.0929987 0.87659746 -0.36628756
000320 e2 0b 19 bf 30 f9 99 bf 11 c4 5e 3f da 95 0e bf
       -0.59783757 -1.2029171 0.87017924 -0.55697405
000330 85 49 16 3e bf 9a 87 bd 9b 4f 4b 3f 51 54 48 be
       0.14676483 -0.06621312 0.79418343 -0.19563414
000340 47 a8 ad 3f 23 e8 2b 3f ab 59 ce bd 6b 8a 72 be
       1.3566979 0.6715109 -0.100756966 -0.23685615
000350 8a a8 8e bf b6 f5 ca 3d 1b 55 fb 3e e5 a1 71 3e
       -1.1145184 0.09910147 0.49088368 0.23596914
000360 0d 45 a6 be f2 19 1f be d7 58 0e bf 29 38 1d bf
       -0.32474557 -0.15537241 -0.5560431 -0.6141382
000370 68 17 3f be e4 7c 2d bf 78 94 06 bf 82 78 97 bf
       -0.18661273 -0.6776869 -0.52570295 -1.1833651
000380 11 89 46 3f 12 48 7f 3e 48 f4 1d 3f 57 2a 48 bd
       0.77552897 0.24929836 0.6170087 -0.048868503
000390 df f8 2a be 06 56 34 3f b1 fb 2d 3f d1 23 73 be
       -0.166965 0.7044376 0.67962176 -0.23744132
0003a0 52 af 7d 3f a1 28 d3 3e bd 77 9b bf 68 ee 36 bd
       0.9909564 0.41241935 -1.2145916 -0.044660956
0003b0 86 38 bc 3d 27 e2 d7 be cc 0d 19 3f 7e 5b 56 3f
       0.091904685 -0.42164728 0.5978668 0.83733356
0003c0 e8 25 05 bf 29 f7 2b bf 82 a4 8e 3b b2 21 24 3e
       -0.52010965 -0.6717401 0.004353107 0.16028479
0003d0 f9 45 1a 3f 1c 43 85 3a 5a d4 70 3f a8 87 7f 3e
       0.6026302 0.0010167095 0.9407402 0.24954093
0003e0 0f 3e 45 bf fa c6 12 be d3 55 38 be b3 b7 55 bf
       -0.7704782 -0.14333716 -0.1800149 -0.8348343
0003f0 2d d2 ae 3d fa 39 b6 be 2b 78 f9 3e 74 0a 14 3f
       0.085361816 -0.35591108 0.48724493 0.5782845

fc4.bias f4 [16]
000000 73 e1 c9 3e 52 71 8a be 63 4d 87 bd d1 e2 e4 bd
       0.39429817 -0.27039582 -0.06606557 -0.11176074
000010 dc 82 8c be 30 20 83 3e 1e fe b1 bd 79 0d a0 be
       -0.27443588 0.25610495 -0.08691047 -0.3126028
000020 d5 13 12 3e d6 1b c3 bd b0 5c 71 be 68 5a e0 be
       0.14265378 -0.09526794 -0.23570514 -0.43818974
000030 c6 04 43 be b1 a9 b8 be a1 e4 a0 3d 01 e7 90 be
       -0.1904479 -0.36066964 0.078561075 -0.28301242

fc5.weight f4 [16, 16]
000000 c1 46 27 bd ef 09 43 be d3 56 2f be 61 47 6c be
       -0.04083896 -0.19046758 -0.17122965 -0.23074104
000010 4c ea 88 3e 67 60 48 be a0 22 8b be c0 30 58 3e
       0.26741254 -0.19568025 -0.27174854 0.21112347
000020 23 0f 8b bd 7f 9f a7 3d f7 f4 a1 be 64 d8 48 3e
       -0.067899965 0.08184718 -0.31632206 0.19613796
000030 ec f9 1e be 28 dd 10 3e ca 52 a6 bd 41 fc d4 bc
       -0.15525025 0.14146864 -0.081212595 -0.02599919
000040 fc 3e f1 bc 5f eb c9 be 4f ac 2b 3f 84 6a 4f 3e
       -0.029448979 -0.39437386 0.670598 0.20255476
000050 76 32 a3 bc 55 73 2e be a0 1f 2b bf 13 32 8e be
       -0.019921523 -0.17036183 -0.6684513 -0.2777258
000060 6f 37 9f bf 1a f2 b4 3a 1e 3c 6b 3e cc 8e 25 3e
       -1.2438792 0.0013805062 0.22972152 0.16167754
000070 a3 1a 28 bf 44 c1 42 3f 19 53 2e be 31 ea f0 be
       -0.65665644 0.7607615 -0.17023887 -0.47053674
000080 7b f1 75 3e 16 1a 4a 3c 38 e5 82 3e 92 de b3 3d
       0.24017899 0.012335321 0.25565505 0.08782686
000090 b8 95 16 bd ce 49 9e bf 28 07 af 3e 36 b7 1d be
       -0.036763877 -1.2366273 0.34185147 -0.1540192
0000a0 85 4b 64 3e 24 3e 19 3e 18 cc 9e bb bd 63 d5 bc
       0.22294433 0.14965111 -0.004846107 -0.026048535
0000b0 2b dd bc 3e 39 99 72 be ce 01 b5 bf 42 d1 8b be
       0.36887488 -0.23691262 -1.4141176 -0.2730809
0000c0 ed ba 8a 3e 14 58 23 3e 35 52 18 3f 8a d0 a0 3e
       0.27095738 0.15951568 0.5950044 0.31409103
0000d0 4f e5 87 be cd e6 c5 3e 03 cf 47 bf 44 be ad be
       -0.26542136 0.3865265 -0.7805025 -0.33934224
0000e0 f6 c1 3e bf f0 ab b0 3d 7b c9 84 3e 67 74 a5 be
       -0.7451471 0.086265445 0.25934967 -0.3231537
0000f0 4d 9b 8d bf e4 ef 8a 3e 26 49 c8 3e 26 28 0f bf
       -1.1063019 0.27136147 0.39118308 -0.55920637
000100 53 9e 76 3e 0a 44 23 3e cb 8b 5b 3d 43 b8 a6 3e
       0.24083833 0.15943924 0.053600114 0.32562456
000110 dd 9a 52 3e cd 05 74 bf 09 47 f9 3c f0 86 01 3e
       0.20566888 -0.9532135 0.03042938 0.12649131
000120 0a e5 ae 3e a8 a1 8c be 79 54 de bd 7d 0a 41 be
       0.34159118 -0.27467084 -0.10855956 -0.18851657
000130 29 29 9c 3d b8 6b 69 bd 20 68 26 bf b4 83 ca be
       0.07625038 -0.056987494 -0.6500263 -0.39553607
000140 31 c8 42 3e 27 f1 af 3d 44 bf da 3e 65 39 c7 3e
       0.1902168 0.08590918 0.4272405 0.38910976
000150 98 29 05 3e 44 be f9 3d 6b 03 bf be ec da 61 be
       0.13004148 0.121944934 -0.37307295 -0.22056168
000160 8d f6 92 bf 13 11 b9 3d 69 1f 71 3e 60 c3 cc 3c
       -1.1481491 0.0903646 0.23547138 0.024995506
000170 12 41 99 bd 52 4d 8d 3c 6d 47 9a 3d 46 ab 40 3e
       -0.07483114 0.017248783 0.07533155 0.18815336
000180 9c dc bb 3d 0d e1 f3 bd a3 0d 83 3e 37 48 17 3f
       0.09172937 -0.119081594 0.25596341 0.59094566
000190 7a d4 0f 3e f6 bd 55 be 4b 09 98 bf 62 06 7f 3d
       0.14045897 -0.20873246 -1.1877836 0.062261946
0001a0 3f da 24 bd 05 38 11 bd 5a 14 30 3f d0 00 27 3d
       -0.0402472 -0.035453815 0.68781054 0.04077226
0001b0 30 03 25 bd ef 9d 90 3f 13 75 01 bd 5a 18 08 be
       -0.040286243 1.1298198 -0.03160579 -0.1329054
0001c0 d8 a9 44 3d b4 a7 cf be 1b 17 20 3f 85 03 b0 3e
       0.048013538 -0.40557635 0.62535256 0.34377685
0001d0 4a ef 3b 3d c7 5e 0d be fd cc 2f bf 11 07 0b 3e
       0.0458825 -0.13805686 -0.6867216 0.13576914
0001e0 77 f8 8f be 38 8a 26 be c3 2c bd 3e 20 51 62 3d
       -0.2811925 -0.16263664 0.36948213 0.055253148
0001f0 3e 5b 85 bf 75 01 3c 3f b1 69 27 3e 96 10 75 bf
       -1.041847 0.73439723 0.16348912 -0.95728433
000200 88 18 46 3f 85 fb 51 3e 6f 0e 67 3f c2 33 dc 3e
       0.7738118 0.20506103 0.902564 0.43008238
000210 d2 82 c7 bd ca 99 cc 3e 56 fd 14 be 68 5b 59 3e
       -0.09741749 0.39961082 -0.14549765 0.21226275
000220 e0 cc 76 bf bf 99 4b be 1f aa 72 3e 86 0f 33 bd
       -0.96406364 -0.19882868 0.23697709 -0.043715976
000230 b5 ad 58 be 5a e2 45 3e c9 98 ce 3e 4d e3 96 3e
       -0.21160014 0.19324628 0.4035094 0.29470292
000240 a9 0f c3 be 65 1e 40 be 6d f0 9d be 2c 26 55 be
       -0.38097885 -0.18761595 -0.30847493 -0.20815343
000250 ad 36 5b 3e a3 06 89 bf 09 ec a6 3e 40 9a 2d 3d
       0.21407576 -1.070515 0.32601956 0.042383432
000260 a6 ad 1a 3f 1f 49 6b be 00 54 b6 3e 94 1e 1e be
       0.60421216 -0.22977112 0.35610962 -0.15441352
000270 ee e6 d3 be 61 e6 3c bf 15 f5 ec bd e4 a5 32 bf
       -0.41387123 -0.7378903 -0.11570183 -0.6978438
000280 76 58 1d bd ae 13 02 be e6 3f 3a be 86 9d 22 bd
       -0.03841444 -0.1270282 -0.18188438 -0.039701007
000290 c3 c4 06 bd 46 5b a0 bd 13 4e 27 be 00 6f 60 bc
       -0.03290249 -0.07829909 -0.16338377 -0.013698339
0002a0 d0 84 2e be 00 32 2b be 3c d5 a5 3d a4 96 67 be
       -0.17042851 -0.16718292 0.08097312 -0.22616059
0002b0 33 9e b1 bd 0f a3 56 be 61 55 b4 be f0 2a 95 bc
       -0.08672752 -0.2096064 -0.3522139 -0.01820895
0002c0 b4 ca 3b be 24 50 f2 3d f6 58 05 bd bb 3f 44 be
       -0.18339044 0.11831692 -0.032555543 -0.19164936
0002d0 63 46 2a 3d 8d 8a c6 be 9c a2 c9 bd 94 33 42 be
       0.041571032 -0.3877758 -0.098454684 -0.18964988
0002e0 bf d1 8a be 9a 3c 50 be d9 3d c7 3e 5e 32 48 3e
       -0.2711315 -0.20335618 0.38914374 0.19550464
0002f0 e3 71 da bd 1d db 55 be ab e1 80 be a3 65 d7 be
       -0.106662534 -0.20884366 -0.2517217 -0.4206973
000300 1a 92 29 be 1a c9 7b 3e 48 02 55 be e0 93 1e bd
       -0.1655964 0.24588433 -0.20801651 -0.038715243
000310 40 cf 37 be d0 b4 30 3d 04 e8 81 be 72 31 38 be
       -0.17950153 0.043141186 -0.25372326 -0.17987612
000320 5b 42 71 3d 2c 1c 93 bd 62 bf 00 be cc 62 c5 bd
       0.058901172 -0.07183108 -0.12573007 -0.09637985
000330 a0 b8 54 3d 58 ee 25 3e 44 a2 63 be 20 bf 58 be
       0.051933885 0.16204202 -0.22229868 -0.21166658
000340 db 6c 32 bf 68 27 3d 3d 96 41 3d bf 2a 46 a1 be
       -0.6969735 0.04618016 -0.739282 -0.31498843
000350 0b 98 5a bc 6f 0c 69 bf 90 ed d2 3e 98 ce 18 be
       -0.013341914 -0.910346 0.4119687 -0.1492256
000360 7d d0 91 3e 24 e2 e6 3d c7 7b 56 be e7 b3 dc bc
       0.28479376 0.11273602 -0.20945655 -0.026941253
000370 90 7e 08 bf 29 8f 9d be 86 68 3f bf 61 90 28 be
       -0.5331812 -0.30773285 -0.74768865 -0.16461326
000380 6f 8a 8a 3d ce 07 4c 3e 31 0f ad be 04 35 e5 3e
       0.06764685 0.19924852 -0.33800653 0.4476701
000390 e9 24 9a 3e 61 b7 ad bf 04 e7 de 3e e4 d2 2e be
       0.30106285 -1.3571588 0.43535626 -0.17072636
0003a0 d6 72 10 3f 0b 7d 91 b8 39 78 97 bd a7 a3 dd bd
       0.56425226 -6.93743e-05 -0.073959775 -0.1082223
0003b0 3f a0 8b bd 7b 7c db bd 5e 40 9b bf 6c aa e9 be
       -0.06817674 -0.10717102 -1.2129018 -0.45637834
0003c0 37 4a 6e 3e ce b5 c3 bc 88 5e d9 3e 06 98 7f 3e
       0.23270498 -0.023890402 0.42454934 0.24960336
0003d0 55 80 18 3e 6e 0a 7e 3e 98 29 14 bf fb 24 70 3d
       0.14892705 0.24808666 -0.5787597 0.058629017
0003e0 be a8 40 bf 3f c5 2d be 96 00 06 3f 00 52 6e bb
       -0.7525748 -0.16969775 0.52344644 -0.0036364794
0003f0 f3 ee d0 be 7c 77 90 3e c6 ed 48 3e f1 f1 23 bf
       -0.40807304 0.2821616 0.19621953 -0.6404105

fc5.bias f4 [16]
000000 99 2f 54 bd fa 6d 08 be d0 d1 1a be 2a fd 11 3c
       -0.051803205 -0.13323203 -0.151191 0.008910457
000010 ee 81 af be 36 d8 3c bd 1c 49 6d bf f9 38 bc bc
       -0.34278816 -0.046104632 -0.9268968 -0.022976385
000020 2f de 84 3e 16 71 98 3d 6a da de be b6 7b 89 bd
       0.25950763 0.074434444 -0.43526012 -0.06713049
000030 73 c6 a7 be de ab 57 3e 4d bc 2e be 8e d1 c6 3c
       -0.32768592 0.21061656 -0.17064019 0.024269845

fc6.weight f4 [16, 16]
000000 8b 5f 21 bc 99 66 aa 3d 2f 69 be bd 67 da f3 bc
       -0.009849439 0.0832035 -0.09297406 -0.029767228
000010 a6 6d a1 be fd b3 a1 be 51 b2 0d be fa 41 af be
       -0.31528968 -0.31582633 -0.13837554 -0.34230024
000020 e6 e1 8d be 10 b0 27 be 78 bb 30 3e 8f ca 1a 3e
       -0.2771141 -0.16375756 0.17259014 0.15116332
000030 ac bf da 3d db 37 a8 bd 6a 62 a5 3b 66 a2 e4 bd
       0.1068109 -0.082137786 0.0050471323 -0.111637875
000040 b4 a1 38 3e b0 64 d5 bc 56 41 74 3e ae c5 6b 3e
       0.18030435 -0.026048988 0.23853049 0.23024628
000050 b8 40 27 be 64 72 ed bd 80 8e b7 bc 3c 0e 56 be
       -0.16333282 -0.11594084 -0.022406816 -0.20903867
000060 2c 42 5d be 60 bb 98 bc c0 c6 c6 bd 06 2c 1a be
       -0.21607274 -0.018644035 -0.09705877 -0.15055856
000070 70 d7 08 be 90 83 97 be 42 7d 2e be 30 d8 45 bd
       -0.13363433 -0.29592562 -0.1703997 -0.048301876
000080 d0 fc d7 3d 55 70 01 3d 46 48 e0 3e 30 a6 79 3d
       0.10546267 0.03160127 0.4380514 0.060949504
000090 4e ec 10 be 91 a4 37 bf 17 55 3a be 84 73 9d bd
       -0.14152643 -0.71735483 -0.18196522 -0.076880485
0000a0 d5 2d 51 bf 3f 26 a3 3e 12 4b e3 bd 74 b4 8a bd
       -0.8171056 0.31865117 -0.11098303 -0.067727
0000b0 bf 9c 61 be 63 78 86 3e 85 dc dc 3e 83 d5 b2 bd
       -0.2203245 0.26263723 0.43136993 -0.087321304
0000c0 c0 e2 6e bd 39 00 3a be a2 84 1a be fc 5e 6d bd
       -0.058321714 -0.18164147 -0.15089658 -0.057951912
0000d0 f6 bb d1 bd e3 e0 b5 be af 96 3e be 13 09 b1 be
       -0.10240929 -0.35523137 -0.18612169 -0.34577236
0000e0 94 0b 0c be 9d 16 2e bc b0 50 8c bc 24 67 4f 3e
       -0.13676292 -0.010625509 -0.017128319 0.20254189
0000f0 da ba 58 3e 8b f8 f7 bd bd b3 d4 3d 53 4d 2c be
       0.21165028 -0.12107953 0.10385845 -0.16826372
000100 5f 85 04 3e 1f 82 33 3e 68 cd e5 bd 71 80 50 bc
       0.12941502 0.17530106 -0.11220819 -0.012725935
000110 b3 c0 48 be f7 f0 5d 3d 58 a1 2f 3f b3 36 66 3e
       -0.19604759 0.05418488 0.68605566 0.22481804
000120 25 71 f6 bc 4f dc 12 bf f4 78 bc bc 32 8a a7 3d
       -0.030083248 -0.57367414 -0.023006894 0.081806555
000130 f8 a1 89 bd 31 6a f8 be ff b5 ea bd 4e cd 0c 3e
       -0.06720346 -0.48518518 -0.11460494 0.13750193
000140 46 7d 4e be 17 f0 9e 3d f1 31 20 3d c6 2a b1 3d
       -0.20164976 0.07760637 0.039110128 0.086507365
000150 67 99 a0 be 82 f1 86 be 80 16 fc bb 33 0b e6 3d
       -0.31367037 -0.2635613 -0.007693112 0.11232605
000160 af bf 92 be ad be ab be d5 88 78 bd c2 6d 18 3e
       -0.28661868 -0.33543912 -0.06067737 0.1488562
000170 50 68 97 bd 30 2f 18 be cf bb 92 bd 7c fa 7e be
       -0.07392943 -0.1486175 -0.07164728 -0.2490024
000180 18 f5 02 3e 96 c8 84 be e2 b5 b7 bd c7 38 88 3c
       0.12788808 -0.25934285 -0.08970238 0.016628636
000190 05 44 c1 3d 3d 53 b3 3d 67 05 0a 3c 97 7a a1 be
       0.09436802 0.08756111 0.00842414 -0.3153884
0001a0 ec 81 ea be c6 a7 67 be 00 00 60 be e0 a4 55 3d
       -0.45802248 -0.22622594 -0.21875 0.05215919
0001b0 20 6a 54 3c 15 b0 ef bc 68 0b 04 be 44 56 54 be
       0.012964755 -0.029258767 -0.12894976 -0.20736033
0001c0 0c 6d 10 3e 33 58 17 be 0b 22 79 be e9 f9 27 be
       0.14104098 -0.14779739 -0.24329393 -0.16403927
0001d0 74 04 42 be d3 b3 81 be 8d b6 31 3e 48 45 a5 bd
       -0.18947011 -0.25332507 0.17354794 -0.08069855
0001e0 ec b1 05 be 1e cb bc bb c0 b8 63 bc c0 d7 34 bc
       -0.13056153 -0.005761518 -0.013899028 -0.011037767
0001f0 e0 9e a5 3c 3e d2 0a be b0 09 08 be d3 56 2c be
       0.020217359 -0.13556764 -0.13284945 -0.16829996
000200 9f 1b 3b 3d 4b 59 1d bd 95 53 b2 3e 83 56 31 3e
       0.04568064 -0.038415235 0.34829393 0.17318158
000210 a4 02 70 bd 8d 95 99 bd 05 09 af 3c 24 cc 10 3e
       -0.05859627 -0.07499228 0.021366606 0.14140373
000220 0f 9c d2 bb 0e 9e 2a bf a4 03 0b be 5e 06 9e 3d
       -0.006427295 -0.6664742 -0.13575608 0.07716058
000230 00 82 30 3d 37 2f 19 bf f7 81 a6 be e9 e4 9c bd
       0.043092728 -0.5983767 -0.3252103 -0.07660849
000240 af f9 7a 3b e7 37 cb 3c d2 07 7b 3d 67 13 a8 be
       0.0038295796 0.02480693 0.061286755 -0.32827303
000250 fe 9a d0 bd d9 b4 8b be 46 da 4c 3e 2c 56 96 be
       -0.101858124 -0.27286413 0.2000514 -0.2936262
000260 c4 d6 0c bf 5c 73 28 3c 91 ec 7a be d1 1d 92 be
       -0.55015206 0.01028141 -0.24504305 -0.28538373
000270 fb 56 34 be e4 87 2e be de 86 a3 bd 9c e6 ab 3b
       -0.17611305 -0.17044026 -0.07984708 0.0052459966
000280 21 e0 86 3e 43 8b 87 bd f7 7e b7 bd c8 4d ca 3d
       0.26342872 -0.06618359 -0.089597635 0.09878117
000290 a5 ab 60 bd a6 c8 c7 be ac c8 25 3e 1c 89 8c 3e
       -0.054851193 -0.3902027 0.16189831 0.27448356
0002a0 33 23 9b bd de 78 0f be 5c e5 c2 3c 2d 81 fa 3d
       -0.07575073 -0.14010951 0.023791008 0.122316696
0002b0 5a d2 19 be f4 97 d5 bd c9 09 a1 be 07 b7 0c be
       -0.15021649 -0.104293734 -0.31452778 -0.13741694
0002c0 9f b1 74 3c 3e 1c 05 be bd d8 0d 3f 95 99 b2 bd
       0.014934926 -0.12999055 0.5540884 -0.087207
0002d0 60 c7 7f 3e 7b 46 e1 be 9d 5f 0c 3e e2 a1 ec 3d
       0.249784 -0.43999085 0.13708349 0.11554314
0002e0 aa 93 27 bf 1e 43 02 3f 3b 02 6f be f2 3c 8e 3d
       -0.6545969 0.5088366 -0.23340695 0.06945218
0002f0 72 01 bf 3d 08 0d 0b 3f e1 41 ef 3e b3 23 f1 be
       0.093264475 0.5431676 0.4672995 -0.4709755
000300 43 28 b7 be 9a 05 aa be e8 4d 01 3e 0d e3 71 bd
       -0.35772905 -0.332074 0.12627375 -0.059054423
000310 dc 92 31 3e 7e a8 60 3e 84 c8 52 be 3a 13 5b bf
       0.17341179 0.21939275 -0.20584303 -0.8557621
000320 99 a5 69 3e 4d ed 3e 3d af 5c 77 bd b4 1b 68 3d
       0.22817077 0.046613026 -0.060391124 0.056667045
000330 29 df a8 3d 97 15 0e bd cf 48 f7 3d e3 58 f5 bc
       0.082456894 -0.03468856 0.12074434 -0.029949611
000340 a0 41 e8 3d f0 9b d5 bd 69 3c 20 3d a4 45 8f bd
       0.11340642 -0.10430133 0.03912011 -0.06995705
000350 e6 b5 83 bc 2a 60 13 be 64 4b 47 be 16 d0 50 3e
       -0.016077947 -0.14392152 -0.19462353 0.20391878
000360 a4 ee 64 be 0c d6 aa bd 82 5e 5b be dc 75 23 be
       -0.22356659 -0.083416075 -0.2142277 -0.15962929
000370 f0 da ae bc d5 f5 e1 bc 29 03 70 bd 40 15 5e bc
       -0.021344632 -0.027583042 -0.058596764 -0.013554871
000380 eb f2 64 3d 13 31 a2 3e 72 5f 31 be c3 ac 0c 3f
       0.055895727 0.31678066 -0.17321566 0.54951113
000390 4c 03 2e bd d9 ce 70 3e cf 88 3b 3f fd e4 17 3d
       -0.042483613 0.23516406 0.7325563 0.037083615
0003a0 2f 0a df 3e fc 90 9b be e9 89 9f bd cc f8 7a bc
       0.43562457 -0.30384052 -0.07789976 -0.015318107
0003b0 d0 79 87 3d 36 31 13 be d3 dc 87 3e 4d 3b a6 3e
       0.06615031 -0.14374241 0.26535663 0.32467118
0003c0 96 e6 6a be 12 65 a1 be 64 36 a0 3d 05 f2 fd bd
       -0.22939524 -0.31522423 0.07822874 -0.12399677
0003d0 06 32 5d be 4f 34 b0 3d 31 d2 32 be e0 b8 fc bd
       -0.21601114 0.08603727 -0.17462994 -0.123399496
0003e0 4b f3 86 be cb 9e 1f bd be 46 75 be ae a2 60 3e
       -0.26357493 -0.038969796 -0.23952767 0.21937057
0003f0 d8 a8 79 3e 20 50 03 be 84 b6 20 be 79 ec 13 3e
       0.24380815 -0.12823534 -0.15694624 0.14445676

fc6.bias f4 [16]
000000 aa ee 6e bc 3f 81 91 be 8b 7d 29 be 7b d2 f9 be
       -0.014583269 -0.2841892 -0.16551797 -0.48793396
000010 0a d6 9d bd f9 d7 66 bd fb 89 70 be 79 be 0b bf
       -0.0770684 -0.05635831 -0.23490135 -0.54587513
000020 79 eb aa bd 39 a9 22 be f9 fa 75 be bd fd 1b 3e
       -0.08345694 -0.15884866 -0.2402152 0.15233512
000030 f6 70 7b bf 93 bc 6b be ab d4 0a be 1a 89 99 be
       -0.9821924 -0.23021154 -0.13557689 -0.29987413
