data/results/1731501187.pth (torch, 14114 bytes, 16 tensors)

fc1.weight f4 [16, 32]
00000000: f101 e63d 755e f3be a179 1fbf e3f4 19bf
00000010: c08d 8abe 072c 1c3f 627f 8a3d 975b 873e
00000020: 53c5 713e f3cb cbbd 8c94 05bd 7a32 f5be
00000030: 5762 f6be a564 9e3e 390a 6fbf 806c 15be
00000040: 36cc 8b3d adeb 63bf e98b 8cbe b990 9e3e
00000050: 62dd d0be d598 69bd 4fa1 1ebf 8f0a 36bf
00000060: 2905 003f d3a9 b63d c166 8fbe 9343 4c3e
00000070: 8904 34bf 5a7d 4b3f 02c6 89be 4ede bfbe
00000080: f3bd 29be 0591 843e 4099 ed3c 043c 9b3f
00000090: 7d3c e33e 8c7a 183f 9c6b b1be 6d96 8d3f
000000a0: f716 a83e 962a 03bf 390c 3cbf eeee 633e
000000b0: 86e4 f3be 1739 a2bc f6d4 81be 02f2 8b3e
000000c0: 10c6 a739 f024 51bf 91d2 b23e fd4f 9abe
000000d0: 6a3a 843f f632 e63e 9650 2ebe 5b30 efbd
000000e0: bd67 9cbe 6b7c 49be 1ac3 3ebf e77a b03b
000000f0: 0561 05bf d407 a63e d544 8d3e 6e05 613e
00000100: c776 d53b 3a7d 2b3e a5b5 3ebf b647 0bc0
00000110: c78f cfbe 6b48 ffbd fd39 a0be a34e 253e
00000120: 2e23 2f3f 08ce 48bd 2f1a 233e bab8 60be
00000130: bc41 b03c 67e1 02be a232 6fbe 566d db3e
00000140: 6174 0e3f 3dcc 5b3e a207 d13e 7b71 08bf
00000150: 1c84 a33e 791c 35be 3539 07bf ff77 2a3f
00000160: fba0 9dbd ab5a dcbc 165f 353f 174a ebbe
00000170: 8f9a 433c 4d7d 1d3d 6a32 a43e bc15 d13e
00000180: c6dc fb3d c76e 8b3d 6c26 283f ea5e 203f
00000190: 2a96 173e b511 f43d ba8b 56bf 2ccf 773e
000001a0: 2b64 e6be bb06 c1be cf83 54be 5c3c 633e
000001b0: ccab 4ebe 0a41 14bf 7672 08bf 0be2 de3d
000001c0: cacb 1dbe 86d3 e53e ade2 6e3c 8257 843f
000001d0: 4041 333f ae80 c2bd b8f2 163e 6c66 b63c
000001e0: f3cd 833f e69a 94be 8fd8 21be caa1 c4be
000001f0: 32f8 97be 94ca 3b3f ad53 2dbf 3739 32be
00000200: 83ce 54bd a4b9 903b f3ea cebc 6862 6d3f
00000210: b7ab 263e 5d05 c73e 979f 3f3f 633a 1e3f
00000220: a24f f43d 3af5 093c c007 323f 847e 1f3f
00000230: 5870 ae3e fe4b c73d b440 733e 6474 d8be
00000240: b33a adbd 4ff9 a43e bdf5 afbd 0bbc 08be
00000250: cb1b 48be d82e 393e d7e0 8bbf 1210 353f
00000260: 7af9 96bf 6fbd 44be cb8f 283f 175d 27bc
00000270: e3aa 81bb c89d 01bf 98e9 113f 67b0 b33d
00000280: f619 a73e ccc5 7bbf d296 3dbe e772 0d3f
00000290: a86b 9c3e e1b0 f9bd ff1e 623e 4e35 4bbf
000002a0: b559 0bbe 0144 0cbf ae90 053e 7cd6 b13e
000002b0: 1bdc 413f fe08 223e d9ca 37bd c682 fdbe
000002c0: 8e73 c03d 9a34 043f 55e7 533f 8f7a 073d
000002d0: 2969 493f 2bca 76be 4d89 db3e 7adf 37bf
000002e0: c8ec 02be 8357 323e 0803 b43e 731e e7bd
000002f0: 4d99 4cbf 27b0 083f bc87 d33e 9690 163e
00000300: 82fd 3a3d 70e4 b5ba b83f bdbd b407 99bd
00000310: 4374 383e 5349 74bf 43d6 d2bc 2c4e a6be
00000320: d2a1 f23d c590 babe a0f2 9bbf 8180 e83e
00000330: 09a9 d43e 7286 d4bd eccf 4bbf f955 fb3d
00000340: c9c3 273e 7b53 04bf 2651 b13e a982 243f
00000350: b40b 943f 9495 9abe 9617 8fbf a17d 76bd
00000360: 3cf6 63bf 86d0 df3d de56 4d3f c7b5 4f3e
00000370: d25b ffbe 0005 39be f7b3 bd3d f71d 683e
00000380: 9c46 b5bd 9a57 6dbf f3b5 e2bd 6259 0d3e
00000390: dce3 1d3f f9fd 30bf 60f6 b3be 7e19 583e
000003a0: e6c5 9bbe 23bf 02bf 165e 41bf 28e3 c0bd
000003b0: 79eb 603e 4329 5cbf a1b3 203f 9aa4 9ebd
000003c0: 0b78 6fbe c153 39bf a14d 0cbf 463b 023f
000003d0: 38dc 313f a3de b3be b729 ad3e b429 b53c
000003e0: 8b1b 09be bffd 24be f093 48bf b65a d8be
000003f0: d43a 3c3f ed5d 14be 2274 643d 4d59 283e
0.11230839 -0.47533002 -0.62294966 -0.6013929 -0.27061272 0.6100468 0.067625776 0.26437065
0.2361043 -0.099510096 -0.03261237 -0.47890073 -0.48121902 0.3093616 -0.93374974 -0.1459217
0.068260595 -0.8903149 -0.27450493 0.3096979 -0.40793902 -0.057030518 -0.6196489 -0.7110986
0.50007874 0.0891911 -0.28008083 0.19947653 -0.7031942 0.79488146 -0.2690888 -0.37474293
-0.16576366 0.2589189 0.02900374 1.212769 0.44382086 0.5956199 -0.34652412 1.1061531
0.3283002 -0.51236856 -0.7345615 0.22259113 -0.47635287 -0.019802613 -0.2535779 0.27333075
0.0003200029 -0.8169699 0.34926274 -0.3013915 1.0330327 0.44960755 -0.17022929 -0.11679145
-0.30547896 -0.19676368 -0.7451645 0.005385745 -0.52101165 0.32427847 0.27591577 0.21974728
0.0065144035 0.16746989 -0.7449592 -2.176252 -0.4053938 -0.124649845 -0.31294242 0.16143279
0.68413055 -0.04902461 0.15927957 -0.21945468 0.02151572 -0.12781297 -0.23359159 0.42856854
0.5564633 0.2146463 0.40826136 -0.5329816 0.3193673 -0.17686643 -0.52821666 0.6658935
-0.0769672 -0.026898703 0.70848215 -0.45954964 0.011938705 0.038449574 0.32069713 0.40836895
0.122979686 0.068082385 0.6568363 0.6264483 0.14803377 0.1191744 -0.83806956 0.24200124
-0.44998297 -0.37700447 -0.20753406 0.22190994 -0.20182723 -0.5791174 -0.53299654 0.10882958
-0.1540977 0.44887942 0.014580411 1.0339205 0.7002144 -0.094972 0.14741027 0.022265635
1.0297226 -0.29024428 -0.15805267 -0.38404685 -0.29681545 0.73355985 -0.67705804 -0.17404638
-0.051954757 0.0044166613 -0.025258517 0.9272828 0.16276442 0.3887128 0.7485289 0.6180784
0.11929251 0.008420283 0.69543076 0.6230242 0.34070086 0.09731291 0.23755151 -0.422763
-0.084584616 0.32221457 -0.08591793 -0.13352983 -0.19541852 0.18084276 -1.0927991 0.70727646
-1.1794884 -0.19212888 0.6584441 -0.010215065 -0.003957139 -0.5063138 0.5699706 0.087738805
0.32636994 -0.9834869 -0.18514565 0.5525345 0.30550885 -0.1219194 0.22082137 -0.7937821
-0.1360844 -0.54791266 0.13043472 0.3473395 0.7572648 0.15823743 -0.044871185 -0.49513835
0.0939704 0.51642764 0.8277486 0.033075865 0.78676087 -0.24100558 0.4287819 -0.71825373
-0.12785637 0.17416196 0.35158563 -0.112851046 -0.7992142 0.5339379 0.41314495 0.14703593
0.04565192 -0.0013877284 -0.09240669 -0.074721724 0.180131 -0.95424384 -0.025736934 -0.32481515
0.11847271 -0.36438575 -1.2183418 0.4541054 0.41535214 -0.10377206 -0.7961414 0.12272257
0.1638328 -0.5168988 0.34632224 0.6426187 1.1566072 -0.30192244 -1.1179073 -0.060178403
-0.890476 0.109284446 0.80210674 0.20284186 -0.4987474 -0.18068314 0.09262841 0.2266768
-0.08851358 -0.92711794 -0.1106986 0.13803628 0.6167581 -0.6913753 -0.35148907 0.21103474
-0.30424422 -0.510729 -0.7553419 -0.094183266 0.21964826 -0.8600046 0.6277409 -0.07746239
-0.23385637 -0.72393423 -0.5480595 0.50871694 0.6947665 -0.35130796 0.33820888 0.022114612
-0.13389413 -0.16112421 -0.78350735 -0.42256707 0.73527265 -0.14488955 0.055774815 0.16440316

fc1.bias f4 [16]
00000000: 62a2 d6be 2183 2cbf 104f 00bf f5d5 9f3e
00000010: 238f 84be d4a6 febe 3f51 d2be 0a4a 4c3e
00000020: e21d cfbe 1e6f aabe b32d 3d3e faa0 20bf
00000030: c57d 31be ae6a 02bf f16b e9be ea4d 4c3e
-0.41920763 -0.67387587 -0.5012064 0.31217924 -0.25890455 -0.49736655 -0.4107761 0.19950119
-0.40452486 -0.332879 0.18474464 -0.6274563 -0.17333134 -0.5094403 -0.45590165 0.19951597

fc2.weight f4 [16, 16]
00000000: 3de2 0e3f 397c 23bf 4cd0 9ebe 5fd5 cdbe
00000010: ba2d 9ebf 2c94 15bf 18d2 ce3e 8759 70bf
00000020: b8eb a1bd 09eb 4ebe 0da1 c1bd 0d1d 12c0
00000030: 369c 54bf 87d8 3dbe 1e24 7f3f 85f5 edbe
00000040: 1350 583f 6ab5 453e 47d2 1f3f 4278 ffbe
00000050: 3bf6 53be faaa 87be 87a8 26be 5dd2 3dbf
00000060: 08c7 dfbe 2695 11be b368 183d 30c7 283f
00000070: 2734 083e 762d 463f ca02 ffbb 7ee2 39be
00000080: ec9a 1a3f 6605 7f3e c2c7 b6be 6190 ad3e
00000090: e924 f0be cb11 e1be 0d11 d1bf fea7 223f
000000a0: 9be7 4cbf 97a7 26be e4f6 593e 1468 103f
000000b0: eec7 f83e ec6f 853e a915 0c3f 19bf 6dbf
000000c0: 28d6 bc3e 936f 703d ddd5 c8be ff89 423d
000000d0: 7c2a edbf d5e1 10bf 11a1 313f 3363 013f
000000e0: f22b 1e3e 39fc ebbf 4080 a8be 1d2f 643e
000000f0: 06e4 abbf 793e 5fbe 2359 1c3f 67de e0bd
00000100: a194 9fbe 9cd0 64bf 75ca 4e3d 11a9 e13e
00000110: 20fc 2f3f 866f 303e d8ad 35bf c4c1 83be
00000120: a9dd ffbe 1540 093e 1dc3 89bc 7c40 513e
00000130: 3351 943f fd55 cd3e 4277 333f b1aa 3f3e
00000140: edda 0c3f b0f2 81bd 09cd e2bf 2a2e 0ebe
00000150: f5b5 24bf 0c9d 133f e9b0 f53d 4c09 4d3e
00000160: 4baf cb3d 386c 23be f3c8 2fbe 1e8a 99be
00000170: 5a21 5ebf 649f 9dbd 5e4a d0be 8402 323f
00000180: cc53 4dbe 4981 1b3f 8ed0 bf3d 3f5f ba3d
00000190: 9cea 3dbf d6df 963d b2a9 933e b211 183f
000001a0: 84fc 753e 5501 1abe 9b8a 9dbf 2c10 30be
000001b0: 8183 e9be 9eba 95bf 3534 0e3f 3d0f 103f
000001c0: 205b 1d3f e174 123e f5a9 00bf c952 4fbc
000001d0: aa29 70bf 04fb 403e d0fa 513f 7f25 dc3e
000001e0: 83fb adbe 9e68 0cbf e14f b63e 1294 c63e
000001f0: 6bde 59bf 008b 89bf 0691 e13d fffd 973e
00000200: 4f7c 19bf 0ca3 9dbf cbb0 6c3f 353c bbbf
00000210: e806 63bd c0da 9b3d d0e1 473e 9516 433e
00000220: 2902 c5be f754 373f 1c4a 7bbe 20e0 05bc
00000230: b453 8c3d 5744 bebd b14d c2be 5500 8dbf
00000240: 39a7 e33e 6cc1 37bf b166 463f 5c15 8abf
00000250: 75de 56bf 3b7b 31bf d09f c83e b646 3abe
00000260: 467b 68be bccb 993e 9df8 1cbf 295c 3e3f
00000270: fc42 173f b17c 913f 8fa5 febd 7f72 2abe
00000280: a1a3 37bf dd42 da3e ef8e b0be c148 433e
00000290: 9b49 9c3e 5318 a23e c0db 8cbe f523 503f
000002a0: ae47 163f a80b 0c3f 30db 653e de6c e7be
000002b0: 6bd7 163f 7b09 f73e 6e4c 95bf e318 e23e
000002c0: 4d4e 11c0 0321 60bf a9ce d3bf c51a 5cbf
000002d0: 6993 cebe adfe 48bf 43f9 4d3f cdd8 dd3d
000002e0: dfe9 973e 45a1 26bf 6679 1fc0 3f0a 02bf
000002f0: 325a 49be bc31 2a3b 8e55 2a3f ed03 be3d
00000300: 48c0 ab3c 2859 afbf c587 253f c0e1 203f
00000310: 3cd9 d63e ebeb 15bf 140c 0e3f ca49 8d3e
00000320: b9ea 29bf 8642 243f 5669 16bf 97a9 ae3e
00000330: c089 84bf 25ed 333f 7243 94bf 7959 1e3e
00000340: 1488 00be ed54 693d 5d34 003f f608 1abf
00000350: ef05 0d3f 47d3 3fbe b992 a73b c4a7 afbd
00000360: 2fa6 3ebf 9b7c a1be c511 0c3f cbb2 223f
00000370: 8164 b83e 8b01 c23d 42c2 a33e 67d8 e63e
00000380: 661d 06bf 09a2 16bf 9b8a be3e 0a52 3abf
00000390: 2010 653d 837a 56bf d3f5 e03e 8f9a a2bf
000003a0: b1b6 993e e979 81be 0fcc d83e 579c 423f
000003b0: c245 cf3d f314 493f 378a a53e 02de e53e
000003c0: 6e37 58be 8c79 823e 028c ea3e 5b07 2dbe
000003d0: 62a3 08bf 347c b53e df61 9b3d 2a6e 0cbc
000003e0: 8f64 0fbf 1cad f33e 546b 983e abe4 853f
000003f0: 5c21 d83e b3d9 eb3e 1daf cfbe 4944 1c3d
0.5581396 -0.63861424 -0.31018293 -0.40201852 -1.2357705 -0.5842922 0.40394664 -0.9388661
-0.07906288 -0.20206846 -0.09454546 -2.283023 -0.8305086 -0.1853963 0.99664485 -0.4647638
0.84497184 0.19307485 0.6243023 -0.49896437 -0.20699398 -0.26497632 -0.16275226 -0.74149114
-0.43706536 -0.14217052 0.037209224 0.65928936 0.13301145 0.7741312 -0.007782315 -0.18152806
0.6039264 0.24904403 -0.35699278 0.33899215 -0.4690316 -0.43958887 -1.6333328 0.63537586
-0.800409 -0.16274868 0.21285588 0.5640881 0.48590034 0.26061952 0.5472055 -0.92869717
0.36882138 0.058700155 -0.39225665 0.047494885 -1.852859 -0.5659459 0.6938639 0.5054199
0.15446451 -1.8436347 -0.32910347 0.22283597 -1.3428962 -0.21801175 0.6107351 -0.1097992
-0.31168082 -0.8938081 0.050486047 0.440743 0.6874409 0.17230043 -0.7096839 -0.2573377
-0.499738 0.13403352 -0.01681667 0.20434755 1.158728 0.40104666 0.7010385 0.18717457
0.55021554 -0.06345117 -1.7718822 -0.13884798 -0.64340144 0.5766151 0.119966336 0.20023078
0.09945544 -0.15959251 -0.171665 -0.29988188 -0.8676964 -0.07696417 -0.40681738 0.6953509
-0.20051497 0.6074415 0.093659505 0.09100198 -0.7418611 0.07366912 0.28840405 0.59402
0.24022108 -0.1503957 -1.2307924 -0.17193669 -0.45608142 -1.1697576 0.5554841 0.5627325
0.6146717 0.14302398 -0.50259334 -0.012654015 -0.93813574 0.18845755 0.82023335 0.42997357
-0.3398095 -0.54847133 0.35607818 0.38784844 -0.8510501 -1.0745544 0.11013989 0.2968597
-0.59955305 -1.2315383 0.92457265 -1.4627749 -0.05542651 0.076100826 0.19519734 0.19051583
-0.3847821 0.7161402 -0.24539989 -0.008171111 0.068519026 -0.092903785 -0.379499 -1.1015726
0.44463518 -0.71779513 0.77500445 -1.0787768 -0.8393319 -0.6932866 0.39184427 -0.18191037
-0.22703275 0.3003825 -0.61316854 0.74359375 0.59086585 1.1366178 -0.124339215 -0.1664524
-0.7173405 0.42629138 -0.3448405 0.19070722 0.30524907 0.31659183 -0.27511406 0.81304866
0.58703125 0.54705286 0.22446895 -0.45200247 0.5892245 0.4824942 -1.166395 0.44159612
-2.270404 -0.8755037 -1.6547443 -0.8597835 -0.4034684 -0.78513604 0.8045847 0.10832367
0.29670617 -0.6508983 -2.4917846 -0.50796884 -0.19663313 0.0025969585 0.66536796 0.092780925
0.02096571 -1.3699083 0.6466029 0.6284447 0.41962612 -0.5856311 0.5548718 0.2759536
-0.66373783 0.64164007 -0.5875448 0.34113762 -1.0354538 0.7028373 -1.1583083 0.15463819
-0.1255191 0.056965757 0.500799 -0.60169923 0.5508718 -0.1873294 0.0051139263 -0.08576921
-0.74472326 -0.3154038 0.54714614 0.63554066 0.36014178 0.094729505 0.31984144 0.45086977
-0.5238861 -0.58840996 0.37215123 -0.7278143 0.05592358 -0.8378069 0.4393755 -1.2703418
0.30022195 -0.25288323 0.42343184 0.76019806 0.10120727 0.7854759 0.32332012 0.4489594
-0.21114895 0.25483358 0.45809942 -0.16897337 -0.533743 0.35446322 0.07587027 -0.008571187
-0.56012815 0.4759301 0.29769385 1.0460409 0.4221295 0.4606453 -0.40563288 0.03815106

fc2.bias f4 [16]
00000000: 585e fbbe 44ac b3bc 1ce7 03bf ed64 2dbe
00000010: ec26 adbe 9aef 92be 9e1d 0ebe c0cf e23d
00000020: 8727 6abd 860e 95bb 40f5 afbd e0b7 95be
00000030: 10d7 50bd d4cc e0be cffc e6be e26d afbf
-0.49095416 -0.021932729 -0.5152452 -0.16933031 -0.33818758 -0.28698426 -0.13878486 0.110747814
-0.057166602 -0.0045488505 -0.085916996 -0.29241848 -0.05098635 -0.4390627 -0.45114753 -1.3705409

fc3.weight f4 [16, 16]
00000000: 24ef 2b3d eb88 953d 45ed c2bd 13ca 843f
00000010: 2b11 acbf 0452 0ebf 0de3 53bf 0980 03c0
00000020: 50ed 0a3f a75f 6ebe 30b1 c53e 7502 593f
00000030: abd9 dd3d cd30 a33e 3d8e 17bd d90d 6e3e
00000040: 5781 fabe d9b0 5c3e 2aec 9abf 16e1 8fbb
00000050: 6221 10bf df5d a53e a444 f73e 8132 bb3b
00000060: 578a 773d ffa6 d6bf 67d2 fb3e 4406 e5be
00000070: 56a8 b3bf 96be 49bd 432b abbe 7f85 80be
00000080: 4f35 c4bd f3eb 27be 9b6d 4bbe ed91 a73d
00000090: 1980 c7be 1a91 8c3d 37bb e3bd 3cf8 9dbe
000000a0: 809f 8dbe 1d8c 53be f84a 47be 6cf4 2dbe
000000b0: f37c 65bc 4b7a 2abe 839e ca3d 0205 99bc
000000c0: b321 5e3f 6ca9 a73e 1d64 67bf 8b9e 133f
000000d0: 873b 23bf ec65 803e ec6c e33e f2dc ec3e
000000e0: 87cf 4bbf de35 20bf 2485 8cbe 909e 87bf
000000f0: 772a f0be c273 b2be fcd1 3dbf ae7a c3bf
00000100: 845a bf3d 71e8 ab3e 81c1 8ebf 4ff9 6cbe
00000110: 6c2b 453e 05db 4e3f 218e 84bf adba d6be
00000120: cb6d 41bf 8d26 da3e b8b2 ddbe 8967 5dbe
00000130: 1059 dd3e 75d8 76bf 2e5a 803d 61a7 0dbf
00000140: cdc6 0dc0 5b37 cabe c47f 24be bd12 8cbd
00000150: 1f6c bb3d cf90 a5bc 0c89 69be 2131 a53e
00000160: 2638 a4be 0c55 a43e 7316 153f 3a83 6abf
00000170: 3dcb b1bf 4f67 a2bd c3c5 473e 2077 263f
00000180: 9516 f0be 287e aabe c3a5 07c0 13cf 613e
00000190: 1390 e4bf bb92 60bf f046 693f 2beb be3e
000001a0: d7bb c93e d4aa 20bf 7920 21bf 7007 79bf
000001b0: c227 be3e ddb9 8c3e 4cfd 2fbf 1d43 d83d
000001c0: a903 533f 0611 173e f956 afbf 7990 983e
000001d0: 4268 29be 47af 553e c1e7 5d3e ca4a f63e
000001e0: b9d6 8bbf a3be 53bf 7d8c 4f3e 0ebc 23bf
000001f0: 7693 5bbf f451 2e3e 0c57 0f3d 7723 783e
00000200: e27b a2be 1115 79be 4eef 523d 7522 aabc
00000210: b901 32be f4d0 83bd feca 4bbe 2618 adbe
00000220: 4e81 3f3d 5463 cf3d 8940 4abe 7ccc 573e
00000230: 5265 81be 7282 eabe b162 b4be c693 21be
00000240: ff26 133f 319c 28be f847 c5bc 5560 6a3f
00000250: bba3 68bf 4139 75bd bdaf ebbd 24a0 d73e
00000260: 30da 75bf 11c3 9cbf 70d7 8abe 6e5c cdbd
00000270: 7c32 a0be f41a 80bf e8ee fa3e 15be bbbd
00000280: 4cf1 9e3d 0eca 87bd f9ca c5bd c028 cabd
00000290: ce82 00bd b438 36bd e567 d2be 5efc 82bd
000002a0: 3dc9 aabd 4f01 a3be 86e2 5ebe 9ace d33c
000002b0: 6d67 69be e140 31bd 802d 913c 5839 babe
000002c0: c7ba 4cbe 801f cabf a0af 64be b4a1 343f
000002d0: 617f 7dbe 0f3e cabe 8e31 9b3e eedb 3e3f
000002e0: 7bf8 b0be f90f 03bf b156 21be 1530 91bf
000002f0: 39a3 23bf 1c74 84bf 7299 c9be 7981 a4bf
00000300: 9c3b 963f 014f 21bf 8c0f c8bd 00a1 2bbf
00000310: a946 273e 56eb 023f 4987 003f f7b0 afbe
00000320: 90bb a73e 99a3 f9bd 926d a13e 05f8 173f
00000330: 8f4c 9c3e ce57 dcbe c756 a2bf b73d 04bf
00000340: 6759 253d 3415 0fbe 2521 14bd 4729 d0bd
00000350: 2470 4ebe 8890 013e 5952 51be 4e26 a2be
00000360: 3fc5 423c 2f17 1dbe a022 9ebd ef3c dcbd
00000370: cc51 1cbe 87f8 84bd afde 683d 3ede fbbd
00000380: bab3 e1bf 84d6 943e 28c1 703e a67a 293f
00000390: b913 a03e 9489 38bf 5186 2abf ce40 c2bf
000003a0: f080 7c3f c706 343f bc15 0dbf 8255 52bf
000003b0: 8a1f 19bf cd53 103e ef29 cd3e 07f5 6a3d
000003c0: bba9 733f 4697 bbbf b1c2 48bf 0e81 043f
000003d0: a57b e8be 2cb7 8c3e 637c 873e 64b5 c13d
000003e0: 3d00 55bf 3a23 bfbf 7f9f 80bf 0247 d1bf
000003f0: f155 8a3e 071b 93be 6b0a df3d eae9 8fbf
0.04197611 0.07301506 -0.09517912 1.0374168 -1.3442739 -0.55593896 -0.82768327 -2.0546896
0.5426836 -0.23278676 0.38611746 0.84769374 0.108325325 0.3187317 -0.037000883 0.2324747
-0.48926803 0.21551837 -1.2103322 -0.004390846 -0.5630094 0.3229818 0.48294556 0.0057128076
0.060434666 -1.6769713 0.49183962 -0.44731343 -1.4035747 -0.049254023 -0.33431444 -0.2510185
-0.0958048 -0.16398601 -0.1986603 0.0818213 -0.38964918 0.068636134 -0.11119693 -0.3085345
-0.2766075 -0.20658918 -0.19462192 -0.16987771 -0.014006841 -0.16648214 0.09893515 -0.018679146
0.8677017 0.32746446 -0.90387136 0.5766379 -0.63762707 0.2507776 0.44419038 0.46262318
-0.79613537 -0.62582195 -0.27445328 -1.0595264 -0.46907398 -0.3485394 -0.74148536 -1.5271814
0.09343436 0.33575776 -1.1152803 -0.23141979 0.19254845 0.8080295 -1.0355874 -0.41939297
-0.75558156 0.42607537 -0.43300414 -0.21621527 0.43232012 -0.9642404 0.062672004 -0.55333525
-2.2152588 -0.39495358 -0.16064364 -0.068395115 0.09151482 -0.020210652 -0.22806185 0.32264045
-0.32074088 0.32096136 0.5823738 -0.91606486 -1.3890148 -0.07929861 0.19509034 0.6502552
-0.4689223 -0.33299375 -2.1194923 0.22051649 -1.7856468 -0.8772389 0.9112387 0.37288794
0.39401123 -0.62760663 -0.62940174 -0.97276974 0.37139708 0.27485552 -0.68745875 0.10559676
0.8242746 0.14752588 -1.3698417 0.29797724 -0.16543677 0.20867644 0.21670438 0.48103935
-1.0924903 -0.82712764 0.20268436 -0.63958824 -0.8577188 0.1702345 0.034995124 0.24232279
-0.3173514 -0.24324442 0.05149775 -0.020768384 -0.1738347 -0.06436339 -0.19901654 -0.33807486
0.046754174 0.10126367 -0.1975118 0.21074098 -0.25272614 -0.45802647 -0.35231546 -0.15779027
0.5748138 -0.16465832 -0.024082169 0.9155324 -0.9087483 -0.059869055 -0.11508129 0.42114365
-0.9603605 -1.224703 -0.2711749 -0.10027395 -0.31288517 -1.0008225 0.49010396 -0.09167115
0.077608675 -0.06630336 -0.096578546 -0.09871054 -0.031374745 -0.04448767 -0.4109489 -0.063957915
-0.083391644 -0.31836936 -0.217661 0.025855351 -0.2279336 -0.043274764 0.017721891 -0.36371875
-0.19993125 -1.5790863 -0.2233262 0.7055924 -0.24755622 -0.39500472 0.30311245 0.74554336
-0.34564576 -0.5119625 -0.15755726 -1.1342798 -0.63920933 -1.0347934 -0.39374882 -1.2852012
1.1736941 -0.63011175 -0.0976859 -0.6704254 0.16335548 0.51140344 0.5020643 -0.343147
0.32760286 -0.12189407 0.31528908 0.5936282 0.3052716 -0.4303574 -1.2682732 -0.5165667
0.040368464 -0.13972932 -0.03616442 -0.10164123 -0.20159966 0.1265279 -0.2044157 -0.3166985
0.011887847 -0.15340875 -0.07721448 -0.1075381 -0.15265578 -0.06492715 0.056852993 -0.12298249
-1.7632973 0.29069912 0.23511183 0.6620277 0.31265047 -0.7208493 -0.666112 -1.5176027
0.98634243 0.7032284 -0.5511129 -0.82161725 -0.5981375 0.14094467 0.40071055 0.057362583
0.95180863 -1.465554 -0.78422076 0.5175942 -0.45406833 0.274835 0.26462087 0.09458426
-0.8320349 -1.4932625 -1.0048674 -1.6349795 0.27018693 -0.28731558 0.10890659 -1.124326

fc3.bias f4 [16]
00000000: 4219 04be b6ec 163f e512 bebe f9cc 02bc
00000010: 0bf9 fbbe bb96 c9bf ac64 30be 6160 103e
00000020: 4d2a 36be 9779 293f 257e bcbe cfcb f73d
00000030: c87b a23e 8710 aabe df1d d7be 6843 b93e
-0.1290026 0.5895494 -0.3712379 -0.00798344 -0.49213442 -1.5749124 -0.17225903 0.14099266
-0.17789574 0.66201156 -0.3681499 0.1209942 0.31735063 -0.33215734 -0.42014977 0.3618424

fc4.weight f4 [16, 16]
00000000: 5c9e bebf 4588 d63e 4b63 15be 38d9 d63e
00000010: 4798 303f 7f61 263f 561d b83d 0233 79bb
00000020: f25e de3c 7bd5 613e eff3 2ebe 5296 9c3e
00000030: e3b2 573e 7fcf 9a3d c95b acbf 8741 8b3f
00000040: d637 87be 2d2a 603f 3791 82be e277 2a3f
00000050: 8440 5bbf 2da1 86be 79f7 8cbf a85f 173e
00000060: efef db3d e20a 3cbe c1c7 45be ec04 543f
00000070: 56b2 56bd a184 58be 0902 adbf 94d6 993f
00000080: 4417 87bf 8e8d 013f f30e 88bd fb31 e63e
00000090: c0d0 ee3e b691 b5bf 277f 5d3f cdee c13e
000000a0: 0c84 b83d e809 ff3e 8e3c 92be 380d 553f
000000b0: 4ccd 4f3e 77f1 48bd a884 8bbd bce4 4b3f
000000c0: e268 9e3e 72fe 45bf c204 843e 4251 dfbc
000000d0: 4318 4ebf 1bae cbbf 29d6 0c3e 49e5 31bf
000000e0: 5040 f93d 11fc dcbe 12a9 6cbe 72b8 3abf
000000f0: 2814 3ebf 09da 873c be8a b53e f17e 803e
00000100: 58b9 ec3e 272b 963e 39fe 0abd 0c8b a8bf
00000110: 30d7 363e 2a46 4a3e 4bba 90be f0f4 6c3f
00000120: a890 133d 22f1 873e ae61 153e 3d8b 363d
00000130: 4d6f 1dbf b03f 37bd c45d 1c3e 973f 46bf
00000140: 137a babe 75b9 e73d 602f eb3d 5bc8 533e
00000150: 19a4 b43e 669d 46bf 0066 ec3e 5b9b be3e
00000160: 81b3 2ebe 7dc4 2a3e 989e 9b3e 3619 d73e
00000170: 8028 01bd 6a4f 74be 617b 44bf 2c1b 903f
00000180: 952e 6d3e 264e d8bf f720 c5ba fed5 b7bd
00000190: 331a e7be a2e5 71bf 1812 0e3e 4020 89bf
000001a0: daf1 48be 0089 e7bd f31b 7c3e 74da 24bf
000001b0: 4153 11bf 9b00 163e 7811 323f 4af6 c1bd
000001c0: 07fc 2a3d c452 25be 6084 0c3c 60c7 ecbd
000001d0: 1b7c 883d ba3a e6bc f0c4 bbbc e39a 89be
000001e0: 3bc1 8a3e e0a6 363b d45c afbd b819 81bc
000001f0: 116a b0ba 6414 79be d8fb a7bd 41ca c93c
00000200: 9c7f 8bbc e750 613f 1170 22be 7f84 893e
00000210: bdf0 b43e 8cf7 cfbe 3e25 e13e b15a 153f
00000220: 5459 2f3d 54ec cc3e 8e25 f73c ebc8 db3e
00000230: b0f1 013f 8f63 753d 7c71 f8be c2a0 233f
00000240: 55d7 9abf f444 e03e 537b 8bbe a01b e63e
00000250: b0a7 a73e dbc9 f73e 0bad 70be 5fd9 68be
00000260: 85a0 96bd d42c fb3e cd27 95bd 7c13 fa3e
00000270: 405f 663e cd45 7ebd 41a0 d2bf 4fcc 423f
00000280: df08 ce3c 98dd 22be 08cb 563e 9c63 893d
00000290: 4b1c 02be 3629 3ebe 18bb 16be bfd2 a13b
000002a0: 4ed9 113e 71b2 3dbe 0041 a13d 4ff0 31be
000002b0: 760d e8bc 39f8 823e 39e2 b9bd e0f1 a0ba
000002c0: 09d3 cabe ade8 883e acdb 583e 7f76 683e
000002d0: 9095 f83e 9c1f b5bf 55f3 be3e e02a 013f
000002e0: 8060 8abb c3b0 0cbe c394 eb3d f33d 533f
000002f0: ace4 ad3e 70bd 90bb b956 abbe 5c9a 5e3f
00000300: f1eb 45bf 98d4 1a3f e55c 9a3e 28cb 603f
00000310: bbb3 0d3f 30ef 01bf c689 38be 1717 5a3b
00000320: 7e67 15be 0450 503e 66b6 063c 024a 153f
00000330: 41b5 cd3e 5418 f23d 90f2 abbe acc7 0b40
00000340: 0608 a3bd 338d 51bf 86a5 323e c19b c8bd
00000350: def9 3e3e f781 4fbf 838c 0c3f 2fda 77bf
00000360: 46e6 c7b9 15d1 c43d fe1b 6dbe 3480 f73c
00000370: e75c 7fbf 4875 54be 6668 a63e 7056 d93d
00000380: ac74 fcbe 5bb4 b9bc c1f4 84be 47e7 01bf
00000390: aed5 dfbd ef95 1f3c a0c9 38bf 498c cdbe
000003a0: ea48 ab3c c3bd 4a3f 8610 e03c 25dc b23e
000003b0: d4b8 fd3d 7163 cf3d 1201 4bbf 3891 5abc
000003c0: 473e 533f d306 843e 9e50 4b3d 9e87 51bf
000003d0: 73a6 0bbf e710 9e3e 5f08 c73d 68e7 be3e
000003e0: d042 d6bd 8e86 c23e 97c4 333c 4637 93bd
000003f0: 8e82 38be 0a32 463e 0114 71bd b6e2 2abf
-1.4892077 0.4190084 -0.14588659 0.419626 0.68982357 0.6499252 0.089899704 -0.0038024788
0.027144883 0.22054093 -0.17085241 0.30583435 0.21064334 0.07559108 -1.3465511 1.0879372
-0.26409787 0.87564355 -0.25501415 0.66589177 -0.8564532 -0.26294842 -1.1013023 0.14782584
0.10739123 -0.18363526 -0.19314481 0.8282001 -0.05241617 -0.21144344 -1.3516246 1.2018609
-1.0553975 0.5060662 -0.06643476 0.44960007 0.4664364 -1.4185092 0.86522144 0.37877503
0.09009561 0.49812245 -0.28561825 0.83223295 0.20293158 -0.049058404 -0.068124115 0.79645896
0.30939394 -0.7734138 0.2578488 -0.027260426 -0.8050577 -1.5912508 0.1375357 -0.69490486
0.1217047 -0.4316106 -0.2311137 -0.7293769 -0.74249506 0.01658346 0.35457414 0.2509685
0.46235156 0.29329798 -0.033933852 -1.3167434 0.17855525 0.19753328 -0.2826713 0.92561245
0.036026627 0.26551157 0.14588043 0.04456638 -0.61497957 -0.04473847 0.15270144 -0.7744078
-0.3642126 0.1131467 0.114836454 0.20681898 0.35281447 -0.7758392 0.4617157 0.37227902
-0.17060663 0.16676517 0.30394435 0.42011422 -0.031532764 -0.23858419 -0.7675076 1.1258292
0.23162301 -1.6898849 -0.0015039732 -0.08976363 -0.45137176 -0.94491017 0.1387409 -1.0712967
-0.19623509 -0.113054276 0.24620037 -0.64395833 -0.5676766 0.14648668 0.69557905 -0.09470804
0.04174426 -0.16144854 0.008576483 -0.11561465 0.06664296 -0.028104175 -0.022921056 -0.26875982
0.27100548 0.0027870461 -0.085626274 -0.015759334 -0.0013459345 -0.24324185 -0.08202332 0.024632575
-0.017028622 0.8801407 -0.15863062 0.268589 0.3533992 -0.4061855 0.43973726 0.5834151
0.0428098 0.40024054 0.030169275 0.42926726 0.5075941 0.0599094 -0.48524082 0.6391717
-1.2096964 0.43802607 -0.27242526 0.4494295 0.32745123 0.4839619 -0.2350351 -0.2273917
-0.073548354 0.4905764 -0.07282982 0.4884299 0.22497272 -0.062078286 -1.6455156 0.76093
0.025150714 -0.15904844 0.20975888 0.06708452 -0.12706105 -0.18570408 -0.14719808 0.004938453
0.14243051 -0.18525101 0.07873726 -0.17376827 -0.028326731 0.25580004 -0.09076352 -0.0012279116
-0.39614132 0.26740018 0.21177548 0.22701453 0.48551607 -1.4150271 0.37295023 0.5045605
-0.0042229295 -0.13739304 0.115029834 0.825164 0.33963525 -0.004417114 -0.33464602 0.86954284
-0.77313143 0.6048064 0.30148998 0.8780999 0.5535237 -0.50755596 -0.18021306 0.0033277923
-0.1459026 0.20343024 0.008222198 0.5831605 0.40177348 0.118210465 -0.33583498 2.184062
-0.07960515 -0.8185608 0.17445955 -0.09795333 0.18650004 -0.81057686 0.54901904 -0.96817297
-0.00038127805 0.09610192 -0.2315521 0.0302125 -0.9975113 -0.20747864 0.32501525 0.1061219
-0.49307764 -0.022669008 -0.25967982 -0.50743526 -0.10929428 0.009740337 -0.72182655 -0.40146092
0.020908792 0.79195803 0.027351629 0.34933582 0.12388769 0.10126389 -0.7929851 -0.013340287
0.825169 0.25786456 0.04963743 -0.8184756 -0.54550856 0.3087227 0.097183935 0.37285924
-0.10461962 0.37993282 0.010972164 -0.07188277 -0.18018553 0.19355026 -0.058856968 -0.66752183

fc4.bias f4 [16]
00000000: bff5 0ebe 7eba a0be ea60 d63d 773e 0a3e
00000010: f1e1 58bf f73a a5be b7e5 0d3f a4e9 ddbe
00000020: 442a ddbd 0269 cdbd 793c bbbe 030a 84bd
00000030: 1988 88bf ddd6 ebbe de02 7dbe 5ffd abbf
-0.13960932 -0.31392282 0.10467704 0.13500391 -0.8471976 -0.3227155 0.5542864 -0.43342316
-0.10799077 -0.10029794 -0.36569574 -0.06447222 -1.0666534 -0.46062365 -0.24708125 -1.3436698

fc5.weight f4 [16, 16]
00000000: b918 bdbc d459 cc3e d5d4 01bf 309e 253f
00000010: 933c a73c 708a ff3d 993b 1c3f 4dc8 26be
00000020: 32b4 433e 3b67 05be 3b94 b83d 5a7d 01bf
00000030: 31e8 143e 3b2e f53e 8282 dcbe 0137 fcbe
00000040: 96b3 e2be 4f1a f43c d851 6abf ae09 d53e
00000050: e632 4bbf 3da1 abbe abb9 3b3d 2c2a 17bd
00000060: 0d71 c1be 10e8 77be eba1 cb3d 1163 45be
00000070: a844 a83d 67a9 173f 406a 56bf 5875 6ebf
00000080: 3c34 ce3d 1406 f7bd 5465 a9bd 82f4 24be
00000090: 85f3 85be 8c4b 30be 4079 06bc 70ab de3c
000000a0: 4499 39be 9397 8ebd ac48 6abe a015 c53d
000000b0: 7e8d 6bbe e67b 563e 0cd3 80be 01f5 5cbe
000000c0: 1e44 953d d235 0e3f 7029 71bd c17d 053f
000000d0: 804f fdbe 3ffd ca3e 3eae 983e 3b20 613d
000000e0: 9986 80be 9d69 98be 63a7 843e ca4c 21bd
000000f0: a95a f53f f059 de3d 7cb8 643d 09d2 b0bf
00000100: 0a0b 943d 11c8 6ebf 939a 9abf 5e1a 413f
00000110: 2386 293f 08ef 53bf d735 39bc 06dd a2bd
00000120: e001 65bf 45b2 a7be c3c1 ebbc 245a c7bd
00000130: f518 253e ddb4 9d3e 1e9c 1abf 04ff db3d
00000140: 5c51 93bd b937 c5bd 57bd 403d 5d2e a7be
00000150: 0b4f 85be a3d3 883d 62f6 22be f055 e9bd
00000160: 6e46 14be 4889 8f3d e523 02be 7357 60be
00000170: 8d51 dbbd ba7c 8bbd f473 89be 827b 04be
00000180: e664 103f 8410 6e3e 26b3 c33e c08e e8be
00000190: f420 f0bd 69c3 093e 81a3 15bf c351 043d
000001a0: fa2f 533e 351c 9b3e 9949 09be da5d 093f
000001b0: b212 243f 78e4 c73d 560b 263e 4c4d 92be
000001c0: f192 b23e 6f4a af3e e6c1 5ebe f6aa 883e
000001d0: d36a c2bf 039d 1c3e 4533 e9be 166b 5fbe
000001e0: 7930 34bf 35a9 a13e 0635 003e 4be7 bdbd
000001f0: ee6e 5d3f aadf ca3e 2a6e bdbe 63e0 4bbf
00000200: 54c3 e4be 856a 463d e13e e4bd ec01 c1be
00000210: f849 a6bf 3235 44be a356 2bbf a81c 013e
00000220: bed0 123f 2824 d8be 91c9 263e baa0 0bbd
00000230: 4639 3e3f f3b9 10bf 3803 52bd 13e3 afbf
00000240: f959 053f 06a6 1f3f 7b17 4f3f de41 393d
00000250: b824 ccbe 83fc 1f3e 7f2e a5be b79e c8bd
00000260: c992 b33e 1c5c 093f d3f0 963e ae2c 8e3e
00000270: e680 263f 525a afbe 094e 203e 5720 b73e
00000280: 34ca d63e 51ec d33e bc5c ad3e bc9e bcbe
00000290: 64b5 98bf 3672 523d 80b5 b8bf 1bf2 e4be
000002a0: cef5 093f 38a0 823e ee65 0ebd c7b1 043f
000002b0: 320e 1b3f 8708 abbe baa0 f23c 10e3 b4bf
000002c0: 55ae cbbd ecbf 8ebe 44e9 07bf f88b f1bd
000002d0: 4a91 48bd c14e ebbe ff4d 80be a867 61be
000002e0: 11c2 293d f83c 05be 6af3 783e f1b8 ebbe
000002f0: 89d4 93be 7586 ef3d 5dc7 9cbd 286f e6be
00000300: 43e4 17be d88a 42be 3497 89bd db60 d53e
00000310: 78e6 b5be 1622 bbbc 3c43 633e d004 3b3e
00000320: 0308 70bf 7b77 f4bd 4b77 1d3e e52b 013e
00000330: d889 d0bb 6157 543f 9388 b1be eedd 39bf
00000340: 4c50 a63e 8b91 523d ef7f 08be bd3c 863e
00000350: 9c88 c93e e3e3 0d3e 26bb 41be 5593 293e
00000360: f1b9 2ebd 712e de3d af01 013e bd12 bfbe
00000370: 0001 1640 1422 133f 3df2 b9be 6f6e 023f
00000380: aae4 5bbe bbd3 6bbf 3573 51bf 683c b43e
00000390: 0d23 b4be d280 22bf fae7 253f 6647 e8bd
000003a0: 7e6b 9dbf 0a63 57be 528f 8e3e 6ac3 07bf
000003b0: ce32 72be 9140 ca3e 126b 9fbf 68bd 2fbf
000003c0: 16ef 6abe cae6 51bd e716 99be 49e0 f1bd
000003d0: 034b c2be 2f91 bebc 1026 c8bd 9fec 353d
000003e0: 664c d0be efd2 b7be f4fc 073e 1136 d8be
000003f0: 7d2f dabd 3caf 273e 76b0 e63d c257 173d
-0.023083078 0.39912283 -0.5071538 0.646945 0.020414626 0.12477577 0.6102844 -0.16287346
0.19111708 -0.1302766 0.09012648 -0.50581896 0.14541699 0.47886834 -0.4306832 -0.49260715
-0.44277638 0.029797701 -0.91531134 0.41608948 -0.7937454 -0.33521453 0.045831364 -0.036905453
-0.37781563 -0.24209619 0.09942993 -0.19276072 0.0821622 0.5924286 -0.83755875 -0.931478
0.10068557 -0.12061706 -0.0827128 -0.16108897 -0.26162353 -0.17216319 -0.008207619 0.027181357
-0.18124872 -0.06962504 -0.22879285 0.09623265 -0.23003194 0.20945701 -0.25161016 -0.21577837
0.07288383 0.55550873 -0.05887741 0.5214501 -0.49474716 0.39646336 0.29820436 0.054962378
-0.2510269 -0.29768077 0.25908956 -0.039379872 1.9168292 0.10856998 0.05584 -1.3814098
0.07228668 -0.9327403 -1.2078422 0.7543086 0.662203 -0.8278661 -0.01130434 -0.07952313
-0.89455986 -0.32753196 -0.028778916 -0.0973399 0.16122802 0.3080205 -0.60394466 0.10742
-0.071932524 -0.09629769 0.04705557 -0.3265256 -0.26036867 0.066809915 -0.159143 -0.113933444
-0.14479992 0.07008606 -0.12709005 -0.21908359 -0.10708914 -0.06810899 -0.26846278 -0.1293774
0.5640396 0.23248488 0.38222617 -0.4542141 -0.11725035 0.1345345 -0.5845261 0.032304537
0.2062377 0.30294958 -0.13406982 0.5365883 0.64091027 0.09760374 0.16215262 -0.28574598
0.34877732 0.34236476 -0.21753654 0.26692933 -1.518885 0.1529427 -0.45546928 -0.21818194
-0.70386463 0.31574407 0.12520227 -0.09272631 0.8649739 0.39623767 -0.3699811 -0.7963926
-0.44680274 0.04844143 -0.11144806 -0.3769678 -1.2991323 -0.19160917 -0.6692907 0.12608588
0.57349765 -0.42215085 0.16287829 -0.034088828 0.7430614 -0.56533736 -0.0512726 -1.3741173
0.5209041 0.62362707 0.80895203 0.04522883 -0.39871764 0.1562367 -0.32262036 -0.097958975
0.35072926 0.5365617 0.2948061 0.27768463 0.65040433 -0.34248596 0.15654768 0.3576686
0.41951144 0.41391233 0.33859813 -0.36839855 -1.1930356 0.05137845 -1.443039 -0.44715962
0.53890693 0.25512862 -0.034765176 0.51833767 0.60568535 -0.33404943 0.029617656 -1.4131794
-0.099453606 -0.278808 -0.5309031 -0.11794275 -0.048966683 -0.45958522 -0.25059506 -0.22012198
0.04144484 -0.13011539 0.24311605 -0.46039537 -0.2887309 0.116955675 -0.07655213 -0.4500668
-0.14833169 -0.18998277 -0.06718293 0.41675457 -0.35527396 -0.022843402 0.22193617 0.18263555
-0.93762225 -0.119368516 0.15377538 0.126144 -0.0063640885 0.8294583 -0.3467451 -0.7260426
0.32483137 0.05140833 -0.13330053 0.26218215 0.39362037 0.13856463 -0.18919048 0.16560109
-0.042657796 0.10848702 0.12598298 -0.37318984 2.343811 0.57473874 -0.36317626 0.5094976
-0.21473947 -0.9211995 -0.81816417 0.35202336 -0.35182992 -0.63477814 0.64807093 -0.11341743
-1.2298429 -0.21033874 0.2784372 -0.53032553 -0.23652193 0.39502385 -1.245455 -0.68648386
-0.22942767 -0.05124549 -0.29900286 -0.11810357 -0.37947854 -0.023262588 -0.09772885 0.044415113
-0.40683287 -0.35903117 0.13280088 -0.4222875 -0.10653589 0.1637544 0.11264126 0.036948927

fc5.bias f4 [16]
00000000: 6854 a7be dc57 923e 7ccf babe 43d7 92bf
00000010: bae6 053f 7fad 56be 58ee 95be a761 11bf
00000020: 99cb 1dbe 5e3a 81bc a2ac 563e c531 b8be
00000030: 5b6f b4be 840c 7dbf c8bc a73e 92be e6be
-0.32681584 0.28582656 -0.36486423 -1.1471943 0.52305186 -0.20964621 -0.29283404 -0.5678963
-0.15409698 -0.015774902 0.20964292 -0.3597547 -0.35241207 -0.9884722 0.32761216 -0.4506727

fc6.weight f4 [16, 16]
00000000: 6e19 f23d a766 84be 6050 1c3e ef48 8c3f
00000010: e20a 25bf 8a50 a53c 9346 e83d 39b9 e73e
00000020: 0934 173e b654 ae3e 560b 0e3f 3c30 9fbd
00000030: 79f1 ffbd 9a61 163f a3b2 6abe f27f 8d3d
00000040: c654 e83d 168f 08be b03f 9f3c 72cb a83e
00000050: 4bf4 67be 5325 91bd 4c06 2f3e 34c4 94be
00000060: 4b63 773d 7563 40be 8a20 333d bd34 82be
00000070: e199 a63d 4093 9cbe f580 40be 8b62 7e3e
00000080: 1cc2 8bbd 8f89 cdbe a401 2bbe bf9e b838
00000090: f78c acbd d48e 123b 3232 27be fe6f 4fbe
000000a0: 4b87 3c3e 133f f5be e8e9 adbe 79af 40be
000000b0: 4102 70be c71e 78be c404 21be fe17 4f3e
000000c0: feb9 7bbe c0a6 79be 741b 00be 1edc 813f
000000d0: e1ef 74bf 0431 d53d eda2 fcbd fd13 ea3e
000000e0: 3fa9 703d 9900 173e a7b7 8f3d 9f5f 92bd
000000f0: b34b 84bf 5793 8b3e 03ac a5be 04db 7bbe
00000100: 9e0f 583d c52e 8bbe f261 6ebe 0faa 423e
00000110: 9531 9b3d e8f6 73be 0266 c9bd 9375 43bd
00000120: 4e8a 643e faff 39be 8b2c dabd 201a 423e
00000130: b30c 223e b976 80be 51e0 8bbe 3d28 adbd
00000140: 090f 8cbc 357e ccbd 6c95 3e3e 56c1 1ebe
00000150: d70f 23be 40ed ecbb fb3a 61be b444 94be
00000160: 58b3 3cbe 161d fbbe c4d6 cd3c 47f0 8bbd
00000170: d090 76bd 0b15 d83b 26c5 59bd 0e19 1cbe
00000180: 32e9 9d3c 0cd6 9fbc aeea 11be fb7c 9fbe
00000190: 8818 9eb9 9490 5abc 9be8 cf3c f32e 1ebe
000001a0: cb89 4ebe f38a 14be de97 8dbd bfcf c5bd
000001b0: fb88 f8bd 3a3a 98bd a7e7 40bd aaf9 ee3c
000001c0: 2fb9 f8be a930 d9bd f0ca e8bc 95ba ae3f
000001d0: bd1e d2be 765e 1cbd f37f 683e 5060 fa3e
000001e0: 0355 563e 42e3 183e af01 cf3e 0c8a 0abd
000001f0: 6d85 27bf 41c6 533e f650 07bf 79bc 653e
00000200: e019 94be a0e7 f7bd c001 663e 2831 da3d
00000210: e017 6fbd 363a 303e fad3 563d 9273 d93d
00000220: 2ca4 363c eacb 0abe 3a6b 61bd 44aa 063e
00000230: f72d ec3d bc1c a2bd c6e2 143e cdf0 743e
00000240: 1682 01be d440 013e f820 043d cc71 3fbe
00000250: 1661 99be 2007 cfbd f9d6 1ebe 9d6a 9fbc
00000260: ef26 b4be 159c 05be aa6a bebe 16a3 0c3e
00000270: 1110 02be a97e bdbd 98f9 7fbe 6f19 a63d
00000280: c31d 61be cb06 8fbd b02d 5fbe e6a7 61be
00000290: d8dc 323d 7814 40be 80ee 58bd b203 2f3e
000002a0: 048c 71bd 300d 87bd 1436 8fbd 089b 40be
000002b0: 06f3 ae3b 510a 29be 9712 05be c8e5 13bd
000002c0: 2809 093f 7a58 af3e 3455 8fbd 28b4 473f
000002d0: 491d 9c3c 121c 22be cb0a 84bd 5a54 29bd
000002e0: aaaf 04bf 2048 a7bf 32d6 b93d bae9 5abe
000002f0: c6fb 9a3e 70b3 20be 101d 103f 1ead 0dbe
00000300: 87d8 33be d533 cebe 6eed 63bc 7b93 a33f
00000310: 300c 40bf 6abd 0e3e 76c1 b83e 59d9 403f
00000320: d2c3 9c3e a9ba a73e 935c d33e dbad 26bd
00000330: ffbb a3be f293 783e 6ede 80bd 36ba c1bc
00000340: d296 80be bddf 2abe 68a6 663d ee29 d23e
00000350: 47a6 e5bd aa49 9e3d e7e8 9ebe 6856 f5bd
00000360: 18f2 e2be b82d c6be 9719 86bd fb2c 3bbe
00000370: 1cd3 193d b0dd 84be b844 9d3e 50eb 44be
00000380: d7a1 b0be 1bc6 59bf 383c 713e becf c63d
00000390: 10fc 3f3e c2d2 223e ba4a acbe 34cc 8bbe
000003a0: eefd 41be bd73 00bf 3e13 563b 37f8 5b3b
000003b0: c9b3 4e3e 0a3c 953d f239 88be 861c 3abe
000003c0: b8db 9abe e66a 14bd 601c 393e 80e7 77be
000003d0: a327 e2be 86b5 01bb 56bb cfbe d9b4 9a3d
000003e0: 743c c1ba b1e0 eabc cdd9 b73d c10c b63d
000003f0: a85e 1abf 552e 58be dc85 18bd 2663 0fbe
0.118212566 -0.25859568 0.15265036 1.0959758 -0.6446973 0.020180006 0.11341586 0.452585
0.14765944 0.34049004 0.5548605 -0.07772872 -0.12497229 0.5874268 -0.22919707 0.06909169
0.11344294 -0.13335833 0.019439548 0.32967716 -0.22651784 -0.07087197 0.17092246 -0.2905594
0.060397428 -0.1878794 0.043732204 -0.2543086 0.08134819 -0.30581093 -0.18799193 0.24842279
-0.06824133 -0.4014401 -0.16699845 8.8033725e-05 -0.084253244 0.0022362964 -0.16327742 -0.20257565
0.18410985 -0.47899684 -0.3396752 -0.18816938 -0.2343836 -0.2423049 -0.15724474 0.20223996
-0.24582669 -0.24380016 -0.12510473 1.01453 -0.95678526 0.104097396 -0.12335763 0.45718375
0.058755156 0.14746322 0.07017451 -0.071471445 -1.0335602 0.2726085 -0.32357797 -0.24595267
0.05274927 -0.2718412 -0.2327955 0.19010185 0.075778164 -0.23824656 -0.098339096 -0.04771955
0.22318384 -0.18164054 -0.10653027 0.18955278 0.15825157 -0.25090578 -0.27319577 -0.084549405
-0.017097013 -0.099850096 0.18611687 -0.1550344 -0.15924011 -0.007230431 -0.21995156 -0.28958666
-0.18427789 -0.49045628 0.025126822 -0.06832939 -0.060196698 0.0065943054 -0.05316653 -0.15243933
0.019276235 -0.019511245 -0.1424968 -0.3115004 -0.00030154386 -0.013340134 0.02537947 -0.15447597
-0.20169751 -0.1450613 -0.06913732 -0.09658765 -0.12135502 -0.07432981 -0.04709592 0.029171783
-0.48578784 -0.10604984 -0.02841708 1.365069 -0.41039076 -0.038176022 0.22705059 0.48901606
0.20930867 0.14930442 0.40430972 -0.033823058 -0.65437967 0.20681097 -0.5285791 0.22435178
-0.2892599 -0.12104726 0.22461605 0.10653907 -0.05837238 0.17209706 0.05244825 0.106177464
0.01114754 -0.1355435 -0.0550339 0.13150889 0.115322046 -0.07915637 0.14539632 0.23919983
-0.1264728 0.12622386 0.032258004 -0.18695754 -0.29956883 -0.10108781 -0.15511693 -0.019460017
-0.35185954 -0.13047822 -0.37190753 0.13734087 -0.12701441 -0.09252674 -0.24997556 0.0811032
-0.2198401 -0.069837175 -0.21794772 -0.22036704 0.043667644 -0.18757808 -0.052961826 0.17091253
-0.05897142 -0.06594312 -0.069927365 -0.1880914 0.0053390292 -0.16507842 -0.12995373 -0.03610781
0.53529596 0.3424719 -0.06998673 0.7800927 0.019056933 -0.1583102 -0.06447371 -0.04134021
-0.5183054 -1.3068886 0.09074058 -0.21378222 0.30270213 -0.1569345 0.56294346 -0.1383557
-0.17563067 -0.4027392 -0.013911588 1.2779382 -0.75018597 0.13939443 0.360851 0.75331646
0.3061815 0.32759598 0.41281566 -0.040693145 -0.31979367 0.24275187 -0.06292425 -0.023648363
-0.25115067 -0.16686912 0.05631104 0.41047615 -0.112133555 0.07728894 -0.31037065 -0.11979371
-0.44325328 -0.38706756 -0.065478496 -0.18278877 0.037554845 -0.25950384 0.3071649 -0.1923039
-0.34498474 -0.8506791 0.23558128 0.097075924 0.18748498 0.1590071 -0.33650762 -0.27304232
-0.18944523 -0.501766 0.0032665278 0.0033564696 0.2018577 0.07286842 -0.2660671 -0.18174943
-0.30245757 -0.03623476 0.1807723 -0.24209404 -0.44170865 -0.0019792034 -0.40572613 0.07554025
-0.0014742748 -0.028671594 0.08977089 0.08889151 -0.60300684 -0.21111424 -0.037237033 -0.14002666

fc6.bias f4 [16]
00000000: 5f4f 43be f6b7 03be e99b f6bd f05a 193e
00000010: 7f2d acbe 9367 36be 7071 4cbd 0a04 3abe
00000020: 7682 d1bd 17fb b7be a2ed 1ebe c89f a13e
00000030: 42cf dbbd 6282 403d 33e0 cb3c 64e9 eebd
-0.19073246 -0.12863144 -0.12041456 0.14976096 -0.3362846 -0.17812948 -0.04991287 -0.18165603
-0.102299616 -0.35933754 -0.15520337 0.31567216 -0.10732891 0.046999343 0.02488718 -0.116656095

fc7.weight f4 [16, 16]
00000000: 810f c2bc 0609 04bd 5f97 983d dd19 3fbe
00000010: d0dc 633d 63ae a93d 0809 4dbd c849 9039
00000020: 05c6 893d 72c2 1abe d4dd 173e d8ac a4be
00000030: b410 57be 9d48 0fbe c6a9 62bd 1ed1 903d
00000040: ace4 7d3e 1181 0d3a 20e3 bb3d 8d28 3b3c
00000050: 51fd bbbd aa02 0a3e b321 02be 79e4 973c
00000060: 4e59 d63d 46a8 423d aa13 73be 706f dabe
00000070: e1ad 1c3e 548e 4cbe 26d5 a2be 29f8 43be
00000080: ec4b eb3d 42ff c7bd 5a6e 2cbe 40d3 e1bd
00000090: b005 9cbe 1d22 3dbc f1ec 893e fd92 133e
000000a0: 31ba 64bd f9f3 663c 7dc6 20be 1341 dcbd
000000b0: 730a 37be dfa7 66be 15eb dabd 8158 a13d
000000c0: 721b 50be 0ea9 31be e4fd df3d 2c13 44be
000000d0: 48ca 76be 84eb c6bd 0009 703d 20f0 f63c
000000e0: b8c7 7c3e 46ab 76be 801e 9dbc c02b 7cbd
000000f0: c0c3 1d3d 6290 65be 14ec 10be 42ed 4c3e
00000100: 1262 51bf 4999 24be 74e4 523d 0570 b6be
00000110: 5bfd 873d 2851 46be 0a30 3f3e 48de 20be
00000120: 2052 bbbc f87f 043e c8aa c1bd ffba a3bd
00000130: 8bf7 d3be 0c1d 39be 8f66 843d be41 13be
00000140: 9b4d 693c 4e8b dabd 7aae 113d 2aa1 b6bd
00000150: 717b 4bbe fc5f 0dbe 9594 9fbd 3d8a 263e
00000160: af35 d0bd f858 32be 40f5 d83c f782 9abe
00000170: e871 d6bd 3489 f2bd 13c1 eabd dc70 0f3e
00000180: 46c8 8dbe 3046 91be 9003 34be 428c 52be
00000190: 98a6 7f3d 744d 3ebe 1ed6 27be 782e 193e
000001a0: e590 5e3e def5 73be 22de 363e 88f9 2dbe
000001b0: 1e3d 4ebe e51d 82be 5839 7bbd 8049 cfbc
000001c0: 0a03 643e 9cf5 033e 6440 0cbe da79 c2bc
000001d0: 09a1 aa3c bb16 193e 779c b03d 3fa4 a8bc
000001e0: 1013 2abe ebf4 94be 4cb1 30be 7106 d6bd
000001f0: 8157 3f3c ec27 b7be 5ffa 8fbc 7f55 5fbe
00000200: 88b4 edbd f4d3 2ebd ac2c 5cbe 3a4b 67bd
00000210: 2c8a 9a3d 7665 423e 94f6 a03d f77a 30be
00000220: a664 89be c8da 503e 44c2 5cbe 32e6 64be
00000230: c897 adbd 5477 6ebd 76ba 72be c8e4 5dbe
00000240: 358d 72be 8bad a33d 29e1 81be 87da a43b
00000250: 6a92 f2be 64ad 533c 96f2 783d b72d 2c3e
00000260: 7fac 643e fb8c a53d 6954 1f3e ad63 9bbd
00000270: de49 a73d 12d6 b9be 1ae2 bb3c 84eb 4a3e
00000280: c149 51be 14be e7be 829b 0a3e e820 49bf
00000290: 81aa 523d 02ad b8bd 7fc3 fdbd 9fad 4cbf
000002a0: 0c54 9c3d f0e1 e03d 7b7a 053d e8ee 4c3d
000002b0: e6b0 b5be 9a72 6dbe 865c 8bbe 06b3 aa3d
000002c0: fc26 80be 187f b03d b426 e23d d814 33bd
000002d0: 0cf9 68be 6883 283d 30e8 8d3d dc94 d9bd
000002e0: e2d4 103e 1edc 75be d65a 3e3e 80f7 f9bc
000002f0: fcff fb3d d205 90be a63d bc3c d61c 5cbe
00000300: 8bcf 1fbe 3fbb aa3c 9629 af3c 72c2 edbd
00000310: 083d bbbd e27a e3bb e39b 043e ff5c 5abd
00000320: e88a a6bb e883 40bd 8a25 353e 46a7 6fbe
00000330: 3af7 73be 026a 1ebe e122 dabd bcfe f53d
00000340: ca4a bb3e 4f36 8dbd 4c5b c1bd 5e7e c93d
00000350: ef8b cbbe a455 723e 4267 57be a4e1 963e
00000360: 1694 ab3e 779f 3cbe e4be 493e 6660 42bf
00000370: b279 e03e d652 493d 00a4 81be c215 dcbd
00000380: ac43 53be d76d 233d 881b 113e 8fd7 95bb
00000390: 2018 53be 8e8e 3d3e bcc8 5cbe fa05 1e3d
000003a0: c231 20be 28a4 753d 1cd2 68be 9f3b 98bd
000003b0: b1da dc3d 90e5 743d 9c62 9fbd 6464 e33d
000003c0: d96f 95be 2200 c73d be2e a4bd 9327 82bf
000003d0: cfff bdbc 9a9c 4f3d 7836 ac3d a59b afbe
000003e0: bed4 773e 7057 4dbe 5b53 3f3e cc71 113f
000003f0: 9bb1 57bf 63eb 18bb 0d2f 16be 3ad8 88be
-0.023689033 -0.032235168 0.07450747 -0.1866221 0.055630505 0.08285215 -0.05005744 0.00027520792
0.06727222 -0.15113238 0.14830714 -0.3216312 -0.21002465 -0.13992544 -0.05533769 0.07071136
0.24794263 0.00053979555 0.0917418 0.011423242 -0.09179176 0.13477579 -0.12708168 0.018541561
0.10466252 0.04752376 -0.2373797 -0.42663145 0.15300705 -0.19976169 -0.31803244 -0.19137634
0.1148909 -0.097654834 -0.16838971 -0.11026621 -0.3047309 -0.011543778 0.26938584 0.1441154
-0.05584163 0.014096254 -0.15700717 -0.107545994 -0.1787508 -0.22524975 -0.106893696 0.07878209
-0.2032297 -0.17349645 0.10937098 -0.19147938 -0.24100602 -0.0971289 0.058602333 0.030143797
0.24685562 -0.24088773 -0.019179583 -0.06156516 0.03851676 -0.22418359 -0.14152557 0.20012382
-0.8179027 -0.16074099 0.0514874 -0.3563234 0.066401206 -0.19366896 0.18670669 -0.15709794
-0.022866309 0.12939441 -0.09456402 -0.07994651 -0.41399798 -0.18077487 0.06464874 -0.14380547
0.014239694 -0.106711015 0.035566784 -0.08917458 -0.19871308 -0.13806146 -0.07792012 0.16263671
-0.10166489 -0.17416751 0.026484132 -0.30178043 -0.10470945 -0.11842576 -0.11462607 0.14007896
-0.2769186 -0.2837386 -0.17579484 -0.20561317 0.062414736 -0.18584234 -0.16390273 0.14959133
0.2173496 -0.2382426 0.17858174 -0.1698972 -0.20140502 -0.25413433 -0.061333984 -0.025303602
0.22266784 0.12886661 -0.13696438 -0.023739744 0.02082874 0.14950077 0.08623593 -0.020586131
-0.16608834 -0.29093108 -0.17255133 -0.10450447 0.011678577 -0.35772645 -0.01757544 -0.21809958
-0.11606699 -0.042682603 -0.21501416 -0.056468226 0.075458854 0.18984017 0.07859531 -0.17234407
-0.268346 0.20395958 -0.21558481 -0.22353438 -0.084762156 -0.05821927 -0.23703942 -0.21669304
-0.23686679 0.07992085 -0.25367096 0.0050309333 -0.4737733 0.0129197575 0.060778223 0.16814314
0.22331427 0.080835305 0.15559544 -0.07587371 0.08168386 -0.36296135 0.022934962 0.19816405
-0.20438291 -0.45262206 0.13535884 -0.78565836 0.051432136 -0.090173736 -0.123908035 -0.79952425
0.07633218 0.10980594 0.03258751 0.050032526 -0.35486525 -0.23188248 -0.27219027 0.08334927
-0.25029743 0.08617991 0.11042538 -0.04372105 -0.22751254 0.041140944 0.06929052 -0.10624096
0.14143708 -0.2400975 0.18589339 -0.030513525 0.123046845 -0.2812944 0.022978615 -0.21495375
-0.15606515 0.020841239 0.021382134 -0.11609353 -0.091425 -0.006942139 0.12950091 -0.053311344
-0.005082477 -0.047000796 0.17690101 -0.23403654 -0.23824778 -0.15470126 -0.10651184 0.12011477
0.36580497 -0.06895124 -0.094412416 0.09838556 -0.39755198 0.23665482 -0.21035483 0.29469025
0.33511418 -0.18420206 0.19701725 -0.7592834 0.43842846 0.049151264 -0.25320435 -0.107463375
-0.20631284 0.039899673 0.14170659 -0.0045728157 -0.20614672 0.18511412 -0.21560949 0.03857992
-0.15643981 0.059971005 -0.227364 -0.07433247 0.107838996 0.05978924 -0.0778248 0.11103132
-0.29186895 0.09716822 -0.08016728 -1.0168327 -0.023193268 0.050686456 0.084088266 -0.34298435
0.24202248 -0.20052886 0.18684141 0.56814265 -0.8425538 -0.002333366 -0.14666386 -0.26727468

fc7.bias f4 [16]
00000000: 9a8b 7bbd 2d5e c53d 8dfa 16be ae54 44be
00000010: 3060 ad3c 3709 20be 622c 09bf bcaa 32bd
00000020: 36c3 79be 2c83 b6bd 2c84 2dbd dc9c b6be
00000030: 74a5 72be e9c2 d73d 5074 a9be 7e3d 083e
-0.06141243 0.09637103 -0.14744015 -0.19172928 0.02116403 -0.15628515 -0.5358335 -0.043619856
-0.24390873 -0.08911738 -0.042362377 -0.3566655 -0.23695928 0.10535223 -0.33096552 0.13304707

fc8.weight f4 [2, 16]
00000000: 53f0 f13d b635 4ebe ca86 08be 6859 14bd
00000010: 2765 f13d c4a7 143e 0fc2 adbe b878 02be
00000020: ecbb 6dbc 3534 e73d a4a0 8d3d 94f4 28be
00000030: a19d fcbc a428 21be 4f03 613d 59f0 a03e
00000040: 28eb 5a3e 18bf 433c 40a7 09be 6a8d 3abe
00000050: 75ba 263e 9d02 293e 1559 773e dd10 77bd
00000060: 149c 323c 5110 f03d ca48 373d a500 ad3e
00000070: af0f b1bd f32f c03e 0a62 693d 201c 66be
0.11813416 -0.20137677 -0.13332668 -0.036218077 0.117868714 0.14517123 -0.33937117 -0.12741363
-0.014510136 0.112892546 0.069154054 -0.16499549 -0.030836882 -0.1573816 0.054934796 0.3143337
0.21378767 0.011947416 -0.13442707 -0.18218008 0.16282065 0.16504903 0.24155076 -0.060318816
0.01090147 0.11721862 0.04474715 0.33789554 -0.086455695 0.37536582 0.056978263 -0.22471666

fc8.bias f4 [2]
00000000: 786a 43bc d56d 78be
-0.01192724 -0.24260648
