data/results/1731510158.pth (torch, 7588 bytes, 8 tensors)

fc1.weight f4 [16, 32]
0	0xbe6ea730	-0.23305964
1	0xbd939e21	-0.07207895
2	0x3f9490ab	1.1606649
3	0xbf61fa9c	-0.88273025
4	0x3e33079e	0.17483374
5	0xbf6224fd	-0.8833769
6	0x3e3e63cb	0.18592755
7	0x3da9c5ac	0.08289656
8	0xbe3513b7	-0.17683302
9	0x3be30e24	0.006929176
10	0x3efccce6	0.49375075
11	0xbf04ddb8	-0.51900816
12	0xbf6bacc6	-0.92060506
13	0xbd00aa6e	-0.031412534
14	0xbfa120a3	-1.2588085
15	0x3f5c933e	0.86162174
16	0xbc6d0487	-0.014466411
17	0x3f01d4b9	0.50715214
18	0x3f1d267f	0.61386865
19	0xbe3e75e9	-0.18599667
20	0x3f80345a	1.0015976
21	0xbf10557e	-0.5638045
22	0x3eac1127	0.33606836
23	0x3bc2355d	0.0059267716
24	0xbfbda946	-1.4817283
25	0xbeaae2b3	-0.33376083
26	0xbdc9a9a5	-0.0984681
27	0xbe3f1adc	-0.1866259
28	0xbf0188d0	-0.50599384
29	0x3fa096d2	1.2546027
30	0xbf8def94	-1.1088738
31	0xbe851b1a	-0.2599724
32	0x3e52ce0c	0.20586413
33	0xbf750361	-0.9570828
34	0x3f12c2b4	0.57328343
35	0x3e98249e	0.29715437
36	0x3e8a3e4c	0.27000654
37	0xbe9fd417	-0.312165
38	0x3e977663	0.2958251
39	0xbf0a8bc1	-0.541195
40	0x3d3e53ab	0.04646651
41	0xbf0239f9	-0.5086971
42	0xbf1ff258	-0.6247916
43	0xbf404f79	-0.75121266
44	0xbf1be637	-0.60898155
45	0xbee41bca	-0.4455245
46	0x3f029cb1	0.5102034
47	0xbe7a74d8	-0.24458635
48	0xbe0a2fac	-0.13494748
49	0x3e27e923	0.16397528
50	0xbd3764b6	-0.04477378
51	0xbd36e732	-0.04465408
52	0x3fdb1142	1.7114642
53	0xbe8346eb	-0.25640044
54	0x3f9c9b6b	1.223493
55	0x3e75e51c	0.2401318
56	0xbf1a8925	-0.60365516
57	0xbeae7b4f	-0.34078452
58	0x3d30b892	0.04314477
59	0xbe5c39d0	-0.21506429
60	0xbf13f82d	-0.5780056
61	0x3f2dd565	0.6790374
62	0x3eeb79f1	0.4599147
63	0xbf4fc484	-0.81159234
64	0x3cc04c71	0.02347395
65	0xbd6df9c1	-0.058099512
66	0x3f6d04f4	0.9258568
67	0x3e9f7ec7	0.3115141
68	0xbdfb281d	-0.122635104
69	0xbeda4a37	-0.42634746
70	0xbe75cf27	-0.24004804
71	0x3eb0de7b	0.3454474
72	0x3e8c224f	0.27369925
73	0xbf238e25	-0.6388877
74	0xbfad442f	-1.3536433
75	0x3f127bfa	0.57220423
76	0xbf57b0ac	-0.84253955
77	0xbebc72e7	-0.36806414
78	0x3e3f0ab5	0.18656428
79	0x3f33a165	0.70168144
80	0x3d9182ff	0.07105064
81	0xbf1b56d6	-0.60679376
82	0x3e8f3ef4	0.27977717
83	0xbf151d0b	-0.5824744
84	0x3f82df6e	1.0224435
85	0x3d2460cc	0.040131375
86	0x3e9efa61	0.310504
87	0xbfa374f1	-1.2770063
88	0x3fb21afc	1.3914485
89	0x3d9fa5ad	0.07795272
90	0xbf4b848b	-0.7949912
91	0xbf30474e	-0.688588
92	0x3f291042	0.6604043
93	0x3d834dc9	0.06411321
94	0xbf40a7e3	-0.75256175
95	0x3ef4b8b1	0.47797158
96	0x3c4eb0e3	0.012615415
97	0xbcc94a79	-0.024571644
98	0xc0a110bf	-5.033294
99	0xbf906107	-1.127961
100	0x3e98e7ed	0.29864445
101	0x3ee2c2a6	0.4428913
102	0x3db1465b	0.08655997
103	0x3e83b9b1	0.2572761
104	0x3f338995	0.7013181
105	0xbef1b7b5	-0.4721047
106	0xbf0c5317	-0.54814285
107	0x3e44e547	0.19228087
108	0x3e3ffe9e	0.18749472
109	0xbd5c5d5c	-0.053799972
110	0xbec6b8c4	-0.3881284
111	0xbe914d56	-0.28379315
112	0x3e8ecd8e	0.278912
113	0xbf084d8b	-0.5324332
114	0x3d65d85c	0.05611454
115	0xbea10f7c	-0.31457126
116	0xbdcc2bb6	-0.09969275
117	0x3e556008	0.20837414
118	0x3e95fa4d	0.29292527
119	0xbe059eae	-0.13048813
120	0xbf05b7ad	-0.5223339
121	0x3f306110	0.68898106
122	0x3d4490dd	0.047989715
123	0xbe865f88	-0.2624476
124	0xbba41ed7	-0.005008559
125	0x3f0b27e9	0.54357773
126	0xbf2d1f05	-0.6762546
127	0x3e8ee281	0.27907184
128	0xbe01dba2	-0.1268144
129	0x3e143876	0.14474663
130	0x3e350a41	0.17679693
131	0xbf46eee6	-0.7770828
132	0xbecb6db5	-0.39732137
133	0x3e42d805	0.19027717
134	0xbe7b13d4	-0.24519283
135	0xbfcd78fb	-1.6052545
136	0x3deafc1e	0.11473869
137	0x3e8f44cd	0.27982178
138	0x3e8c30fd	0.27381125
139	0xbf269b23	-0.6508047
140	0xbf4e50a1	-0.8059178
141	0xbe868e28	-0.26280332
142	0x3f698ab3	0.91227263
143	0x3f0d9a65	0.5531371
144	0xbe51cf69	-0.20489277
145	0x3ef1bb16	0.47213048
146	0xbdb67ae0	-0.08910155
147	0xbf1e4b2c	-0.61833453
148	0xbea99714	-0.33123076
149	0xbeeb742b	-0.45987067
150	0x3e89d8f8	0.26923347
151	0x3f245852	0.64197266
152	0x3f33ed50	0.70283985
153	0xbe340ee2	-0.17583802
154	0x3de39f19	0.1111433
155	0xbf5000d9	-0.81251293
156	0x3eb5b518	0.35489726
157	0x3f349750	0.70543385
158	0x3f19bb05	0.60050994
159	0xbf6f8dcb	-0.93575734
160	0xbdde1154	-0.10843149
161	0x3dcc433d	0.09973762
162	0x3f90007d	1.1250149
163	0xbfbfa150	-1.4971104
164	0x3eb91441	0.36148265
165	0x3f02b6a1	0.5105992
166	0xbea39fc3	-0.31957826
167	0xbdf50d15	-0.11965386
168	0xbe5f8c31	-0.21830823
169	0xbf254d06	-0.64570653
170	0xbefd8849	-0.4951804
171	0xbec52aee	-0.38509315
172	0xbf9d67fe	-1.2297361
173	0xbf2850f8	-0.6574855
174	0x3e08b92d	0.13351889
175	0x3ddb66d2	0.10712971
176	0x3e141d55	0.14464314
177	0x3ecc7685	0.39934173
178	0xbf190dbb	-0.59786576
179	0xbed82473	-0.4221531
180	0xbf4e4c4a	-0.8058516
181	0xbed98269	-0.42482308
182	0xbe82d940	-0.25556374
183	0xbf16e546	-0.58943594
184	0x3e6860cf	0.2269318
185	0xbdfdf850	-0.124008775
186	0xbe89a7d7	-0.26885864
187	0x3f24bc6c	0.6435001
188	0x3e8c565d	0.2740964
189	0xbf9608ba	-1.1721413
190	0x3e00e4b0	0.12587237
191	0xbf85697e	-1.0422819
192	0x3c3bc712	0.011461036
193	0xbdd3be36	-0.10339014
194	0x3f57cd67	0.84297794
195	0xbe36a921	-0.17837955
196	0x3eed479f	0.46343705
197	0xbeed9ea8	-0.46410108
198	0xbe35f3a8	-0.17768729
199	0xbf1fbb3e	-0.62395084
200	0xbdf3874b	-0.118910395
201	0xbf1910a9	-0.59791046
202	0x3f2c51f7	0.6731257
203	0x3d6e2dac	0.058149025
204	0xbfbd7ee0	-1.4804344
205	0xbefd3201	-0.49452212
206	0xbfaa1298	-1.3286924
207	0xbe7e5d8e	-0.24840376
208	0xbe268ff1	-0.16265847
209	0x3f1e5c1b	0.6185929
210	0x3f4746eb	0.7784259
211	0x3f134822	0.5753194
212	0x3f6f06e8	0.93369913
213	0x3f2914db	0.6604745
214	0xbefedaf7	-0.49776432
215	0x3eb8b0f1	0.36072496
216	0x3f3680b4	0.71290135
217	0xbe64b9de	-0.22336528
218	0xbf1d85eb	-0.6153247
219	0x3df4ce01	0.119533546
220	0x3e72d3b8	0.23713577
221	0x3c8c6b58	0.01714103
222	0xbefa41ca	-0.48878318
223	0xbe8846ba	-0.2661646
224	0x3e97d956	0.29658002
225	0xbdcb225b	-0.09918662
226	0x3f13037f	0.5742721
227	0x3f75cdef	0.96017355
228	0x3e805c01	0.25070193
229	0xbe8539d3	-0.2602068
230	0xbf7ad968	-0.97987986
231	0xbf8a85b8	-1.0822058
232	0xbf2f3197	-0.68435043
233	0x3b1367c8	0.0022492278
234	0xbf1bd6bc	-0.60874534
235	0xbf098b54	-0.5372822
236	0x3e27ebbd	0.16398521
237	0xbdab2174	-0.0835599
238	0xbf2d3c62	-0.6767026
239	0xbf0e7d99	-0.55660397
240	0xbf1aaf42	-0.6042367
241	0x3ed0b9b7	0.4076669
242	0xbf41d3ab	-0.75713605
243	0x3df700f9	0.120607324
244	0x3efc706f	0.4930453
245	0x3f661dbb	0.89889115
246	0xbf82c5e4	-1.0216641
247	0xbf62df76	-0.88622224
248	0x3f04c5d4	0.5186436
249	0xbee48e4e	-0.4463982
250	0xbd2e076c	-0.042487547
251	0x3f17012c	0.58986163
252	0xbf3cc6a3	-0.73740596
253	0xbda479db	-0.080310546
254	0xbf24c77b	-0.64366883
255	0x3e077c81	0.13231088

fc1.bias f4 [16]
0	0xbf488a21	-0.7833577
1	0xbdfe9adf	-0.12431883
2	0xbfcb11c5	-1.5864798
3	0xbe266de9	-0.16252865
4	0xbf229ca2	-0.6352025
5	0xbec77f73	-0.38964424
6	0xbf8227cd	-1.0168396
7	0x3df9cd9f	0.12197422
8	0x3ecb8571	0.39750245
9	0xbf2868b5	-0.6578477
10	0xbe259c1d	-0.16172834
11	0x3e6f89da	0.2339243
12	0xbec1839f	-0.3779573
13	0xbf5da1bd	-0.8657492
14	0x3e462f54	0.19353992
15	0xbfad415e	-1.3535573

fc2.weight f4 [16, 16]
0	0x3f233095	0.63746005
1	0x3e02a24d	0.12757225
2	0x3f0dfc97	0.55463547
3	0xbe328d7b	-0.17436783
4	0xc00b7b70	-2.179409
5	0xbf4c53da	-0.7981545
6	0x3e40546f	0.18782209
7	0x3f204c6b	0.62616605
8	0x3d1c3262	0.038133986
9	0xbf090ebc	-0.5353811
10	0x3e37dd0d	0.17955418
11	0x3f4b9cbe	0.79536045
12	0x3e91e46c	0.28494585
13	0xc0067df4	-2.1014376
14	0xbda3176f	-0.07963454
15	0xbfcb5f93	-1.5888542
16	0x3f1bc1b9	0.6084247
17	0xbd26085a	-0.04053531
18	0x3ea1a3ff	0.31570432
19	0xbf4583c6	-0.77154195
20	0xbcd1b9d5	-0.025601307
21	0xbf966c85	-1.1751868
22	0x3efdef58	0.49596667
23	0xbe132de8	-0.1437298
24	0xbef3d905	-0.4762651
25	0xbfb95c13	-1.4481224
26	0x3f90203e	1.125984
27	0xbeaddbf0	-0.33956861
28	0x3f61dac7	0.8822445
29	0xbef7beab	-0.48387656
30	0x3e938702	0.2881394
31	0xbf9aa395	-1.2081171
32	0xbf22ec7a	-0.63642085
33	0x3f465881	0.77478796
34	0x3f3ed9bd	0.7455099
35	0x3f210d16	0.6291059
36	0xbf157cce	-0.5839356
37	0x3f64b466	0.89337766
38	0x3e5f888d	0.21829434
39	0xbf1f84c9	-0.6231199
40	0x3c66ab9a	0.014078999
41	0x3e05dd49	0.13072695
42	0x3d60b475	0.054859597
43	0xbc98d9b9	-0.018658506
44	0x3e6904ec	0.22755784
45	0xbf260fdb	-0.64867944
46	0xbf3df8e3	-0.74207896
47	0xbe9b1cab	-0.3029531
48	0x3e895c7c	0.26828372
49	0x3e971fd0	0.2951646
50	0xbfbdf255	-1.4839579
51	0x3ec6fa1f	0.38862702
52	0x3d33464b	0.04376821
53	0x3ebeb643	0.3724843
54	0x3f22bd6d	0.6357029
55	0xbf42f268	-0.7615113
56	0xbda5483c	-0.08070418
57	0xbe574eac	-0.21026105
58	0xbfa8bb7b	-1.3182214
59	0x3fb0a09e	1.3799016
60	0xbe477c50	-0.19481015
61	0x3e5db1ff	0.21649931
62	0xbf5b334e	-0.8562516
63	0x3f6a0304	0.9141085
64	0xbdbc8a34	-0.09206048
65	0xbdc7bb38	-0.09752506
66	0xc02baf0b	-2.6825588
67	0x3ee71bf6	0.4513852
68	0x3eaa77a4	0.33294404
69	0x3dae3a62	0.085072294
70	0xbe0292d2	-0.1275132
71	0xbe918195	-0.28419176
72	0xbd3a5e22	-0.04549993
73	0xbf98e702	-1.1945498
74	0x3f2b5a28	0.6693444
75	0x3f63b739	0.8895145
76	0xbddd82b6	-0.10815947
77	0x3e6a50c5	0.22882374
78	0x3d873fdd	0.06603978
79	0xbeed4133	-0.46338806
80	0xbfa3dd35	-1.2801882
81	0x3f48974e	0.7835587
82	0x3f1460e4	0.57960343
83	0xbfbafb6f	-1.4607981
84	0x3e476e12	0.19475582
85	0x3f06ea37	0.52701133
86	0xbf54719c	-0.82985854
87	0xbd239388	-0.03993562
88	0x3d8abc94	0.0677425
89	0x3d30f104	0.0431986
90	0xbebd6301	-0.36989596
91	0x3f7bfdb2	0.98433983
92	0x3f001dd1	0.50045496
93	0xbf47c324	-0.78032136
94	0xbf0b655f	-0.54451555
95	0xbdbc7b9c	-0.09203264
96	0xbebd76e5	-0.37004772
97	0xbf1bfea7	-0.60935444
98	0x3ed97b05	0.4247667
99	0xbdb89e3f	-0.09014558
100	0xbf01761c	-0.50570846
101	0x3f3a50b8	0.7277942
102	0x3d23d5e6	0.03999891
103	0xbe0bad1e	-0.13640258
104	0xbf3d7c74	-0.74018025
105	0xbe6db64f	-0.23214076
106	0xc00e2ae4	-2.2213678
107	0x3f3134ec	0.6922138
108	0x3ef08433	0.4697586
109	0xbf52a734	-0.8228638
110	0x3edb67a5	0.42852512
111	0xbfae3172	-1.360884
112	0x3e7fd834	0.24984819
113	0x3d851c52	0.06499542
114	0x3f2057b0	0.626338
115	0x3ea77116	0.32703465
116	0x3e78ce20	0.2429738
117	0x3d15fb49	0.036616597
118	0xc0027a66	-2.0387206
119	0xbf9a2888	-1.2043619
120	0xbf9cebc3	-1.2259449
121	0xbf2bf600	-0.6717224
122	0x3e9df059	0.30847433
123	0x3f767089	0.96265465
124	0xbea55ef0	-0.32298994
125	0x3efd15c2	0.49430662
126	0x3e88d308	0.26723504
127	0xbeea6a88	-0.45784402
128	0x3caa0f75	0.020759324
129	0xbee8e620	-0.4548807
130	0xbf376eb3	-0.7165329
131	0xbec35f84	-0.3815881
132	0xbf89253c	-1.0714488
133	0xbeccb1cc	-0.39979398
134	0x3f650b47	0.8947033
135	0x3ed8b651	0.42326596
136	0x3e2a6203	0.16638951
137	0xbebd710c	-0.3700031
138	0x3eecd31f	0.46254823
139	0x3f5e45cd	0.8682526
140	0xbf5bc33d	-0.85844785
141	0x3eb56982	0.3543206
142	0x3e48aa76	0.19596276
143	0xbf20b996	-0.6278318
144	0xc0529ea3	-3.2909324
145	0x3f1b7200	0.60720825
146	0x3d7f0f53	0.062270474
147	0xbfbc8ecf	-1.4731082
148	0xbec71d4a	-0.38889533
149	0xbe093a67	-0.13401185
150	0x3dfd72fd	0.12375448
151	0xbf448236	-0.76761186
152	0x3e4a7c1d	0.19773908
153	0xbe864b27	-0.26229212
154	0x3f2bb04c	0.6706588
155	0x3ee365ca	0.44413596
156	0x3e49d018	0.19708288
157	0x3e92fa5b	0.2870663
158	0xbf09109a	-0.53540957
159	0xbf8d85da	-1.1056473
160	0x3f10e4c1	0.5659905
161	0x3e2434cc	0.16035765
162	0xbea0e34a	-0.31423408
163	0x3f4a23a2	0.7896062
164	0xbde07190	-0.1095916
165	0x3e8c131a	0.27358323
166	0xbf50f409	-0.8162237
167	0xbf7b03eb	-0.98052853
168	0xbfd4993c	-1.6609263
169	0xc004e088	-2.0762043
170	0x3f56071d	0.83604604
171	0x3d8973b3	0.06711521
172	0xbeb15145	-0.34632316
173	0x3e7cc931	0.24686123
174	0xbf03f6c3	-0.51548404
175	0x3cca4b90	0.024694234
176	0x3d788dbd	0.060682047
177	0xbeef312d	-0.46717206
178	0xbe10ad57	-0.14128624
179	0x3cb1ee3b	0.021720042
180	0x3e62aac2	0.22135451
181	0x3f39c6d2	0.72569
182	0xbec94d5a	-0.39316827
183	0x3cfc51f2	0.030800793
184	0x3ee0c87e	0.43902963
185	0xbf0d84cc	-0.55280757
186	0xbf6393b9	-0.8889728
187	0xbfc6a1c3	-1.5518116
188	0xbf0c73ad	-0.5486401
189	0x3f398052	0.72461426
190	0xbf68566e	-0.9075688
191	0x3ea3eb70	0.32015562
192	0x3ec920f8	0.39282966
193	0x3f6374de	0.888502
194	0x3f05dd3a	0.5229069
195	0xbe32de33	-0.17467575
196	0x3e87a539	0.26493242
197	0xbde3becf	-0.11120378
198	0xbf7209ff	-0.945465
199	0xbf30181e	-0.687868
200	0xbf8e1161	-1.1099054
201	0xbdd93963	-0.10606649
202	0x3dcd1ad8	0.10014886
203	0xbea34f3d	-0.31896392
204	0x3f11ec99	0.57001644
205	0xbf0c9dac	-0.5492809
206	0xbf74f406	-0.9568485
207	0x3ea16d57	0.31528732
208	0x3ec5501e	0.38537687
209	0xbf627051	-0.8845263
210	0xbe93a03d	-0.2883319
211	0xbf0b06f7	-0.543075
212	0xbd8add35	-0.06780473
213	0x3f864768	1.0490541
214	0xbfcbe9b4	-1.5930696
215	0x3f0d7526	0.5525688
216	0xbf868b44	-1.051125
217	0xbef442d4	-0.47707236
218	0xc00c4f8b	-2.192355
219	0xbf086373	-0.5327675
220	0x3e9b7d70	0.3036914
221	0xbe41e528	-0.18935072
222	0x3f23c38d	0.6397026
223	0xbea968ae	-0.33087677
224	0xbf338e6d	-0.701392
225	0xbfec16f5	-1.8444506
226	0x3ea67e6d	0.3251833
227	0xc047eea6	-3.123941
228	0xbf8a6f2c	-1.0815177
229	0x3e9ee55b	0.3103436
230	0xbe78ecc0	-0.24309063
231	0x3e87dcc4	0.26535618
232	0xbe19ea00	-0.1503067
233	0x3f14480d	0.5792244
234	0xc007c4af	-2.1213796
235	0xbdb51e93	-0.08843722
236	0xbfc46444	-1.5343099
237	0xc020e29b	-2.513831
238	0xbfbeaccc	-1.4896483
239	0xbf39eb69	-0.7262483
240	0xbe4d5a5d	-0.20054002
241	0xbf8ad51f	-1.0846289
242	0x3eccbde6	0.3998863
243	0xbfb51663	-1.4147457
244	0xc03feca7	-2.998819
245	0x3ec40365	0.3828384
246	0x3d3cb6b3	0.046072673
247	0x3e370d4d	0.17876168
248	0xbd23e090	-0.04000908
249	0x3e495d62	0.19664529
250	0xc07079e2	-3.7574391
251	0x3f12f469	0.5740419
252	0x3e2ab4e3	0.16670565
253	0x3ecf4552	0.40482575
254	0x3e490a99	0.19632949
255	0xbeed625d	-0.46364108

fc2.bias f4 [16]
0	0xbeba159b	-0.3634461
1	0x3cf9a04d	0.030471945
2	0xbfbfcde7	-1.4984711
3	0xbf18274b	-0.59434956
4	0xbf13cd8a	-0.577355
5	0xbf1d13eb	-0.6135852
6	0xbed40ff5	-0.41418424
7	0xbf0d60d4	-0.55225873
8	0xbf545382	-0.8293992
9	0xbf1c0753	-0.60948676
10	0x3ea4afdc	0.3216542
11	0x3ed572f2	0.4168926
12	0xbf7c524a	-0.98563063
13	0xbe4b0d10	-0.19829202
14	0x3e3b51cf	0.18292926
15	0xbf17342e	-0.59063995

fc3.weight f4 [16, 16]
0	0x3ef2ae18	0.47398448
1	0x3e2fcda5	0.17168291
2	0xbf5a5d8c	-0.8529899
3	0xbfabc1b6	-1.3418491
4	0x3d8f133d	0.06986091
5	0x3f1cb42d	0.61212426
6	0x3ed2f90e	0.4120564
7	0x3dc07b27	0.093984894
8	0x3b371c25	0.002794036
9	0xbe874d7e	-0.2642631
10	0xbf38247c	-0.7193067
11	0x3e871eea	0.26390773
12	0xbe3e9a4f	-0.18613552
13	0xbe33f759	-0.17574824
14	0xbd99161c	-0.0747492
15	0x3f369269	0.71317154
16	0xbb91913c	-0.004442362
17	0xbe48105f	-0.19537495
18	0xbf19f7a8	-0.6014352
19	0xbf3f7b56	-0.7479757
20	0xbfa0bab2	-1.2556975
21	0xbf1b368e	-0.6063012
22	0xbea248c9	-0.31696156
23	0x3e8df241	0.27723888
24	0xbf2e6d99	-0.6813598
25	0x3f0d841d	0.55279714
26	0x3f378422	0.71685994
27	0xbec5db7d	-0.3864402
28	0x3f5fa120	0.8735523
29	0x3e2dd958	0.16977441
30	0x3fcd8f30	1.6059322
31	0x3f185adb	0.59513634
32	0x3f347eb9	0.70505863
33	0xbf244a5f	-0.6417598
34	0x3ed8af06	0.42321032
35	0x3e759eac	0.2398631
36	0xbe33dd9a	-0.17565003
37	0xbf0c748c	-0.54865336
38	0xbdb26874	-0.08711329
39	0xbf865e3c	-1.0497508
40	0x3dd4ec5d	0.10396645
41	0x3ead4426	0.33841056
42	0xbf938da4	-1.15276
43	0xbe110c52	-0.14164856
44	0xbdebc088	-0.11511332
45	0x3ec0208c	0.3752483
46	0x3d8e95d1	0.06962169
47	0x3f613595	0.87972385
48	0xbf16cfe9	-0.58910996
49	0x3f94bf10	1.1620808
50	0x3e5818c1	0.21103193
51	0x3e994317	0.29933998
52	0xbe4bc9ba	-0.19901171
53	0xbe4eb254	-0.20185214
54	0xbecec233	-0.40382537
55	0x3e1ae3e2	0.15125993
56	0xbe0f001f	-0.1396489
57	0xbed39ccd	-0.41330567
58	0x3ec36858	0.38165545
59	0x3efb29ca	0.4905532
60	0xbe036750	-0.1283238
61	0xbeb3c6c7	-0.35112593
62	0xbf4b26f2	-0.793563
63	0x3f42ab83	0.76042956
64	0xbe61a5c4	-0.22035891
65	0xbf1b825f	-0.60745806
66	0xbf7d3e34	-0.9892304
67	0x3e734265	0.23755796
68	0xbebd0c39	-0.36923388
69	0x3e269b7a	0.16270247
70	0x3f7aa364	0.97905564
71	0xbf9e5ba3	-1.2371715
72	0xbf779a44	-0.96719766
73	0x3eb4a89e	0.35284895
74	0x3eb4e60d	0.35331765
75	0x3ee0eece	0.43932194
76	0x3ed47f93	0.4150358
77	0xbfb4a5e2	-1.4113123
78	0x3f5b8bd3	0.8576023
79	0x3f481d27	0.7816948
80	0x3eab99d8	0.3351581
81	0xbf8b4cff	-1.0882872
82	0xbe4ec414	-0.20191985
83	0x3f148735	0.5801881
84	0x3d9d9416	0.07694261
85	0xbf743073	-0.9538643
86	0x3f749814	0.9554455
87	0x3e054078	0.13012874
88	0xbffac725	-1.9592024
89	0x3ee8fda7	0.4550602
90	0x3e1f1d2b	0.1553847
91	0x3c85f526	0.016352247
92	0x3f60caec	0.87809634
93	0xbd8324e3	-0.0640352
94	0x3f6529f2	0.8951713
95	0xbd4427e0	-0.04788959
96	0xbfc7e269	-1.561597
97	0xbe4be6c0	-0.19912243
98	0xbf09b6b3	-0.537944
99	0x3ee1d5fd	0.44108573
100	0x3f084411	0.5322886
101	0xbf077535	-0.5291322
102	0xbea4d8da	-0.32196695
103	0xbf10765b	-0.56430596
104	0xbf59779f	-0.8494815
105	0xbf8c5e16	-1.0966213
106	0x3ebdf107	0.37097952
107	0xbe995591	-0.29948094
108	0xbf31a8b5	-0.6939805
109	0xc061f376	-3.5304847
110	0xbf77e6c6	-0.9683651
111	0xbd05f6db	-0.032706123
112	0xbe745575	-0.23860724
113	0x3e1bcd11	0.15214945
114	0xbeb534bc	-0.35391796
115	0x3ed4015c	0.41407287
116	0x3eb9f2a1	0.36317924
117	0xbeaa05b4	-0.33207476
118	0xbaf702cc	-0.0018845438
119	0xc034ec9f	-2.8269422
120	0xc05eb788	-3.4799519
121	0xbef8bfb2	-0.48583752
122	0x3f059e0f	0.52194303
123	0x3e383529	0.17989029
124	0xbe6ca5cf	-0.23110126
125	0xbf691cfe	-0.91059864
126	0xbde06025	-0.10955838
127	0x3f06ebe7	0.5270371
128	0xbde74533	-0.112924956
129	0xbe4bd194	-0.19904166
130	0xbda5fe31	-0.08105124
131	0xbe64d960	-0.22348547
132	0xbe5314bd	-0.2061338
133	0xbe3683d8	-0.17823732
134	0xbbcab477	-0.006186064
135	0xbe561df0	-0.20909858
136	0xbe822830	-0.25421286
137	0xbd908130	-0.070558906
138	0x3dd082c3	0.10181191
139	0xbdca31cf	-0.098727815
140	0xbd238928	-0.039925724
141	0xbce1c8b0	-0.027561516
142	0x3d8a37b4	0.06748906
143	0x3d7b48c8	0.061348706
144	0x3e9e4983	0.3091546
145	0xbeddeda2	-0.43345362
146	0xbfc00b7d	-1.5003506
147	0xc00fd64d	-2.247455
148	0x3e9d3c93	0.30710277
149	0x3f454e69	0.7707277
150	0x3f24fd3e	0.64448917
151	0xbe3e42fb	-0.18580239
152	0xbe9150dc	-0.28382003
153	0xbf3c7494	-0.73615384
154	0xbfa9b37e	-1.3257902
155	0xbe1936a2	-0.14962247
156	0x3eed760c	0.46379125
157	0x3ddfaea6	0.109219834
158	0x3f2fe05a	0.6870171
159	0x3e951f0c	0.2912525
160	0x3f0c341b	0.54767007
161	0x3eda1a0b	0.42597994
162	0xbf25480e	-0.6456307
163	0xbfd414fb	-1.6568903
164	0x3e30cbe1	0.17265274
165	0xbf18e43c	-0.5972326
166	0xc0219c28	-2.525156
167	0xbf8a3f5b	-1.0800585
168	0x3cc7aa98	0.024373338
169	0x3f13009c	0.57422805
170	0xc03bb632	-2.9329953
171	0xbf910113	-1.1328453
172	0xbfad783c	-1.3552318
173	0xbfd9f3ec	-1.7027564
174	0xc00e183e	-2.2202296
175	0x3f318655	0.693456
176	0x3e39f81a	0.1816105
177	0xbdf5e0e6	-0.120057866
178	0xbe1cac7d	-0.15300174
179	0xbd1b6bc7	-0.03794458
180	0xbb0ff61b	-0.0021966759
181	0x3efd6923	0.49494275
182	0x3f30e10e	0.69093406
183	0xbd9a73f6	-0.07541649
184	0x3cb47208	0.02202703
185	0xbf49e004	-0.78857446
186	0xbf69c672	-0.9131843
187	0x3f3724b2	0.7154037
188	0xbf44479f	-0.76671785
189	0xbe0913c0	-0.1338644
190	0xbd9a8549	-0.075449534
191	0xbdfc534b	-0.123205744
192	0x3ed7e6b0	0.42168188
193	0xbf314669	-0.6924806
194	0xbeb3cb60	-0.351161
195	0x3ea9fe22	0.332017
196	0x3e3817c5	0.17977817
197	0xbef8e2bc	-0.48610485
198	0x3f653f03	0.89549273
199	0xbf90228a	-1.126054
200	0xbbeac767	-0.007164884
201	0x3da3cafc	0.079977006
202	0x3e033722	0.12814
203	0xbf22f262	-0.63651097
204	0x3eecb851	0.46234372
205	0x3de16ad0	0.11006701
206	0x3edaead8	0.42757297
207	0x3f695a24	0.9115317
208	0x3ea6cb6f	0.32577083
209	0xbf8fca9e	-1.1233709
210	0x3ebbca7d	0.36677924
211	0x3d11f788	0.035636455
212	0xbf9e4db8	-1.2367468
213	0xbfee01f0	-1.8594341
214	0xbe46b15d	-0.19403596
215	0xbd8866f4	-0.06660262
216	0x3e517b6e	0.20457241
217	0xbfadfda5	-1.3593031
218	0xbc25e1a6	-0.0101246
219	0x3f3f88d6	0.7481817
220	0xbf3479ab	-0.7049815
221	0xc0066982	-2.1001897
222	0xbe180743	-0.1484652
223	0xbe80436f	-0.25051448
224	0x3f1b1c81	0.6059037
225	0x3f0a5feb	0.5405261
226	0x3f2d9817	0.67810196
227	0xbf2e4a15	-0.6808179
228	0x3ddbc351	0.10730613
229	0xbf2ff11c	-0.6872728
230	0x3f82946c	1.0201545
231	0xbfa147a5	-1.2599989
232	0x3f116ff3	0.56811446
233	0x3f4b7f1f	0.79490846
234	0xbe297c74	-0.16551381
235	0xbe1d081a	-0.15335122
236	0x3dd6f730	0.10496366
237	0xbd918d30	-0.071070075
238	0xc04f266c	-3.23672
239	0x3ee74906	0.451729
240	0x3f2aaae0	0.66666985
241	0xbf067100	-0.52516174
242	0x3c053a97	0.008131645
243	0xbfa8c2d2	-1.3184454
244	0x3efe3035	0.49646154
245	0x3ebb19c7	0.36543104
246	0x3d22c31b	0.03973685
247	0x3e719fbf	0.23596095
248	0xbf92126e	-1.1411874
249	0x3f024c55	0.50897723
250	0xc025bb39	-2.5895522
251	0x3e7cbfed	0.24682589
252	0x3ece2119	0.40259627
253	0xbd73aaf0	-0.05948919
254	0x3f52d47a	0.82355464
255	0xbb53620f	-0.0032254492

fc3.bias f4 [16]
0	0xbedf629a	-0.43629915
1	0xbdb3cfc9	-0.08779866
2	0x3eafdd12	0.3434835
3	0x3f7cb4e9	0.98713547
4	0xbed9b397	-0.4251983
5	0xbfbbccec	-1.4671912
6	0x3f392107	0.7231602
7	0x3ef3e439	0.47635058
8	0xbed52438	-0.41629195
9	0x3f197dc2	0.59957516
10	0xbfa84e5a	-1.3148911
11	0xbf4bcbad	-0.7960766
12	0xc019304a	-2.3935723
13	0x3f08294a	0.53188
14	0xbf6bf4e1	-0.9217053
15	0xbfd3773e	-1.6520765

fc4.weight f4 [2, 16]
0	0xbde0c217	-0.1097452
1	0xbe2aa779	-0.16665448
2	0xbe70a483	-0.23500256
3	0x3e561d02	0.20909503
4	0xbe667343	-0.22504906
5	0x3ea7e78a	0.32793838
6	0x3e16028f	0.14649414
7	0xbec1f6e4	-0.37883675
8	0xbd0e0ddc	-0.034681186
9	0xbe843adc	-0.25826156
10	0xc02c137e	-2.6886897
11	0x3d102166	0.0351881
12	0xbf251648	-0.64487123
13	0x3ea241c9	0.31690815
14	0xbe8267da	-0.25469857
15	0xbf42bbe5	-0.76067954
16	0xbdf49d55	-0.11944071
17	0x3e7c0dff	0.24614714
18	0xbd5bf4bf	-0.053700205
19	0xbe1a5642	-0.15071967
20	0x3e7d5a65	0.24741514
21	0xbe97ae37	-0.29625103
22	0xbe6d52cc	-0.23176116
23	0x3d4f7244	0.05064608
24	0xbd3faedd	-0.046797622
25	0x3e98798f	0.29780242
26	0x401d2ee3	2.4559867
27	0x3e0ecc3f	0.13945101
28	0x3e4af059	0.19818248
29	0xbe35b177	-0.17743479
30	0x3e4e20e3	0.20129733
31	0x3f30d48e	0.6907433

fc4.bias f4 [2]
0	0x3ca782c2	0.020448092
1	0x3df81655	0.121136345
