data/results/1731775214.pth (torch, 14114 bytes, 16 tensors)

fc1.weight f4 [16, 32]
000000 53 ae 16 bd bd 83 23 bf 6b f4 9f 3f fd 7e 23 3f
       -0.036787342 -0.6387289 1.2496465 0.63865644
000010 d2 86 85 3d b0 58 19 3f 3a 2d 8f be 25 06 b6 3e
       0.065198556 0.5990095 -0.27964193 0.35551563
000020 1f fc ea 3e f2 2c 26 3e 33 2f 1a 3e 83 96 74 be
       0.45895478 0.16228083 0.15057068 -0.2388554
000030 d0 3b ae bb 29 d7 91 3d d8 99 69 bf c1 60 d4 be
       -0.005317189 0.07121117 -0.9125037 -0.41480067
000040 5f b7 e1 3e 82 6c d1 3d 3b af cd 3e bd 3f 29 3d
       0.44085214 0.10225774 0.40172753 0.04132055
000050 2d 04 1b 3f 47 0f df 3e 21 e4 4b be 23 35 fe 3e
       0.60553247 0.43566343 -0.19911243 0.49649915
000060 a4 56 90 3e 80 1c cc 3e 33 d3 8b bf ca 98 8f bb
       0.28191102 0.39865494 -1.0923828 -0.0043822275
000070 59 bf b6 3e ec 74 cd be 7c 7e a3 be 72 49 85 bd
       0.35692862 -0.40128267 -0.31932437 -0.06508149
000080 f5 fe 08 be 92 01 87 3e 8b e9 d0 be 63 f1 21 3f
       -0.13378508 0.26368386 -0.4080318 0.6325895
000090 e0 ca 8f 3f 3c 66 c2 be d1 67 0a 3e 52 17 a5 be
       1.1233788 -0.37968624 0.13516165 -0.32244354
0000a0 f0 d8 72 bc 6f a4 05 bf 37 ac da 3e fb de 7d be
       -0.01482223 -0.5220403 0.42709514 -0.24792092
0000b0 95 2a 54 be 98 51 a9 3e 5a c6 59 bf 5f db 1a 3f
       -0.20719369 0.33070064 -0.85068285 0.60490984
0000c0 49 23 29 bd c1 bf 11 bf 16 55 1b be 4d b3 da 3e
       -0.041293416 -0.5693322 -0.15169176 0.4271492
0000d0 80 a1 7f be cf 4e 56 3f d5 6a 45 be 24 aa 20 bf
       -0.24963951 0.83714 -0.19279034 -0.62759614
0000e0 c3 4b 38 3f 62 c2 11 be 9e 85 d4 3e e7 ca 44 3f
       0.71990603 -0.14234307 0.41508192 0.76872104
0000f0 e2 0e aa be e0 96 30 bf 6a 11 f3 be 10 c6 c2 be
       -0.3321448 -0.68980217 -0.47474223 -0.38041735
000100 9f 15 7a 3d 8f b2 d4 be 37 4d 5b be b3 54 15 3e
       0.061055776 -0.4154248 -0.21416174 0.14583091
000110 be d6 d3 bd 97 0c d1 be e2 4a f0 3e 18 88 e9 be
       -0.10343693 -0.40829918 0.4693213 -0.45611644
000120 b6 ae be be 5d 36 92 bc ca cd 40 be ec 98 0e 3f
       -0.3724267 -0.017848188 -0.18828502 0.5570209
000130 c7 34 7b be 46 5b 2b 3d b9 a9 37 bf a4 be 72 bf
       -0.24531852 0.041835092 -0.7174335 -0.94822145
000140 8e 9e 08 bf db 47 bb be 72 7f da be d7 b0 08 3f
       -0.53366935 -0.3657826 -0.42675358 0.53394836
000150 23 1c 63 bd 56 26 c1 3e 0c 56 4b 3f 31 f9 4c bf
       -0.055446755 0.3772456 0.7942817 -0.80067736
000160 b2 dc 22 be a9 a5 58 bc e7 86 44 be 5a 00 ad 3e
       -0.15904501 -0.01322309 -0.19192086 0.3378933
000170 6e 04 f4 be 7f e8 d4 be e6 35 45 bf ae 8d 29 3f
       -0.4765963 -0.4158363 -0.7703537 0.6623181
000180 9a b4 f6 3c ee bc 83 be f5 5a 94 be c9 cb 04 be
       0.030115414 -0.2573008 -0.28975645 -0.12968363
000190 fa de 72 3e 07 7e ea be 90 5e ea 3e 7c 69 fb be
       0.23717871 -0.45799276 0.4577527 -0.49103916
0001a0 7b 64 0e bf 5b c1 dd 3e 80 4d b8 be e0 b4 70 bd
       -0.5562207 0.4331158 -0.35996628 -0.058766246
0001b0 0f 37 11 3f 4c df 1a 3f bc a0 d1 bd 44 04 1d be
       0.5672464 0.60496974 -0.10235736 -0.15333658
0001c0 a9 7d 8f be 0f d6 20 3f 5a cb 40 3f b1 0e e3 3e
       -0.2802556 0.6282663 0.7531029 0.44347146
0001d0 5f 57 90 3f 3d 9d 58 3e 72 af a4 bf 1a d4 86 be
       1.1276664 0.21153732 -1.2866042 -0.26333696
0001e0 67 e0 da 3e b0 70 99 3e c5 d4 5c bf 40 ff 18 bd
       0.4274933 0.29968786 -0.8626216 -0.0373528
0001f0 d1 d7 6a be 31 41 54 bc ca 04 3f be 6b a5 0c 3f
       -0.2293389 -0.012954996 -0.1865417 0.5493991
000200 f2 d5 15 3e c1 65 fb 3c a3 fd b7 bf 90 c9 c9 bf
       0.14632395 0.030688168 -1.4374279 -1.5764637
000210 cc 1a 1a bf 63 2e 95 bd 24 68 17 be cb 5f e0 3d
       -0.6019714 -0.07284238 -0.1478582 0.10955771
000220 8f 9a 9f bd 9b 97 53 be f4 99 aa bd b5 54 83 be
       -0.077931516 -0.20663302 -0.083301455 -0.25650564
000230 3d f2 5c bd 6b ee 3e be df 5e 54 bf 09 0a 99 be
       -0.053941954 -0.18645637 -0.8295726 -0.2989047
000240 dc 19 5d 3e 14 7d a3 3e 3d 01 4e 3e 93 a6 30 bf
       0.21591896 0.31931365 0.2011766 -0.6900417
000250 6b b3 18 bf d3 d2 03 3f 47 41 11 bf 58 6d 0f 3f
       -0.5964877 0.5149357 -0.5674023 0.5602622
000260 d2 03 10 3f d9 76 c5 3e b1 61 8e 3d e3 cb 91 bc
       0.5625583 0.38567236 0.06952227 -0.017797416
000270 e2 cd 87 3d fd dd e7 be 44 2d a9 be 5c b0 f9 3e
       0.06631066 -0.4528655 -0.33042347 0.48767364
000280 c8 32 20 bd c8 bc 15 3e 5d 4e 6f c0 aa ac 75 be
       -0.03911093 0.14622796 -3.739158 -0.23991647
000290 52 57 c6 be 65 df 07 bd e6 8f 2a be 12 57 77 be
       -0.38738495 -0.03317203 -0.16656455 -0.24154308
0002a0 8d 23 46 be 81 18 1f be 9c fb 4e be fe 0e 1e 3f
       -0.19349499 -0.15536691 -0.20213169 0.61741626
0002b0 a6 7e 35 be 83 fa 8f bc f9 fa a7 3e a0 d9 8d be
       -0.17724094 -0.017575508 0.32808664 -0.27705097
0002c0 76 8c 5c 3d 35 39 ee 3e 02 48 86 be 99 53 de 3c
       0.05384489 0.4652802 -0.26226813 0.027139472
0002d0 65 c7 93 bc 9c d9 8f bd 66 d9 f0 3d d7 71 b5 3e
       -0.018039415 -0.070239276 0.117602155 0.35438415
0002e0 37 d6 05 3f c6 35 19 be 03 62 39 be 92 37 83 3e
       0.5227999 -0.14961919 -0.18103795 0.25628334
0002f0 af c2 ae be 4b 12 8c be a2 46 9f 3d ff fb 2e bd
       -0.34132907 -0.27357706 0.07777144 -0.04272079
000300 39 35 85 bd a0 ed d0 3e ae 8c 1e 3e 5b fa 78 3f
       -0.06504292 0.40806293 0.15483353 0.9725701
000310 6d a6 13 be 0c 44 f8 3d ad 91 76 3f 7e 99 a5 3e
       -0.14418955 0.12122354 0.96316034 0.32343668
000320 9d 00 53 3f e2 7d c4 be 15 a2 4b be 70 97 b2 be
       0.8242281 -0.3837729 -0.19886048 -0.34881163
000330 03 fe cd 3e c2 04 44 bf 98 4e 8b be b1 6f 3d 3c
       0.40232858 -0.7656976 -0.272084 0.011562274
000340 1d ba 21 be 61 af 2a 3e ac f9 ec bd 59 0e 1a 3f
       -0.15793653 0.16668464 -0.11571059 0.6017814
000350 7e d5 8d bf 3c 84 f6 bb 41 8c 3f 3f 0d 85 9b bf
       -1.1080778 -0.007523088 0.74823385 -1.2149979
000360 8b ce 84 3d 96 e1 b3 3e 1e 71 f7 be ae 18 a1 3e
       0.064847074 0.35133046 -0.4832849 0.31464142
000370 2c 10 af 3e 41 91 02 bf a3 74 38 be c1 60 92 ba
       0.34192026 -0.5100289 -0.18013243 -0.0011167751
000380 b2 25 66 3d 7c f2 1d be c5 f1 19 3e a8 84 e4 3e
       0.056188293 -0.15424532 0.15033634 0.4463246
000390 6c da 07 bf be a5 a6 3e a5 11 06 3c ae 44 29 3e
       -0.5306766 0.32548326 0.008182918 0.16530105
0003a0 df 78 c5 3e 1c ac cd be da 9e 37 be 84 19 bd 3e
       0.3856878 -0.40170372 -0.17931691 0.3693353
0003b0 d6 41 89 be d1 23 67 be 37 ed fe 3e e4 20 4f bf
       -0.2680804 -0.22572257 0.49790356 -0.8090956
0003c0 26 ff 5a 3d f3 e7 a6 3e 7e 1a e0 3d 8e 77 60 bf
       0.053465985 0.32598838 0.10942553 -0.87682426
0003d0 e7 77 08 bf ec 43 09 3f 89 eb 43 bf b1 3f 33 bf
       -0.53307956 0.53619266 -0.76531273 -0.7001906
0003e0 c8 ec a4 be 9b dd 3b be a8 af 50 3e 11 7f 0f 3f
       -0.322119 -0.18346255 0.20379508 0.5605326
0003f0 3b 12 a6 bd c9 d8 86 bf 85 93 4b 3e 84 2c 18 bf
       -0.08108946 -1.0534908 0.19880493 -0.59442925

fc1.bias f4 [16]
000000 61 e5 fe be 1b df 05 be e2 bd 90 3e 15 12 0e be
       -0.49784377 -0.13073389 0.2826987 -0.13874085
000010 39 ca 6c bf dc c3 7c bd 4b a9 10 3d fe 83 be 3b
       -0.9249607 -0.061710224 0.0353177 0.0058140745
000020 3d f6 2d bf 50 d3 a8 be d9 6a 13 bf 9b af 04 bf
       -0.67953855 -0.3297372 -0.5758491 -0.5183045
000030 22 83 cd be ae c6 03 bf 52 2b 64 bd 6e 31 e3 be
       -0.4013911 -0.51475036 -0.055705376 -0.4437365

fc2.weight f4 [16, 16]
000000 13 54 8c bd 2d 22 a7 3e e5 9b 2c bf 68 3b ad 3e
       -0.068519734 0.32643262 -0.67425376 0.33834386
000010 1e 34 6a bb 43 fd 50 3f 16 e5 fb bf 27 50 43 3e
       -0.003573663 0.81636447 -1.9679286 0.19073544
000020 22 7c 3d 3d 21 71 a1 be 3d 09 31 bf ea d1 df 3e
       0.04626096 -0.31531623 -0.6915472 0.4371484
000030 82 b6 0e 3e 53 f1 ca be c0 24 e6 3e 2a a0 3c bf
       0.13936809 -0.3963724 0.44949913 -0.7368189
000040 0d 39 44 be 2b ed 6f 3f 36 f5 92 bd 17 d0 19 be
       -0.19162388 0.93721265 -0.071756765 -0.15020786
000050 79 f0 51 3e 03 a7 51 3c 97 f4 f5 3e 23 16 36 3e
       0.2050189 0.012796166 0.4803817 0.17781882
000060 bb 72 0a 3d 6b 8b 6f 3e 1d e2 a1 bd 9b 4a 86 bf
       0.03380082 0.23393027 -0.07904456 -1.0491518
000070 fb 49 51 3f ab c7 19 3f 55 94 0f 3f 6b 8d 09 3e
       0.8175351 0.60070294 0.5608571 0.13432853
000080 74 97 3d bf 90 a6 1e 3f 01 b3 0d 3d 54 6e 00 3f
       -0.74059224 0.61972904 0.03459454 0.5016835
000090 72 3a 26 bc dc 03 0f bf 69 19 df 3c a3 16 2a 3e
       -0.01014577 -0.55865264 0.027233796 0.16610198
0000a0 c5 a4 77 bf 21 70 56 bf 4d 09 41 3f 31 48 09 3f
       -0.96735793 -0.83764845 0.75404817 0.5362578
0000b0 09 66 b7 be 4d 1d 00 c0 9c b7 11 bf f8 d4 9d be
       -0.35820034 -2.0017884 -0.5692079 -0.30826545
0000c0 40 07 09 bf a7 9b bd bd 6f 96 03 bf 52 f9 94 3e
       -0.5352669 -0.09258204 -0.5140142 0.29096466
0000d0 6d e5 27 3f d2 78 1d bf 67 9b 8f 3e d4 cc ab bf
       0.6558445 -0.6151248 0.2804825 -1.3421884
0000e0 ef 1b bc 3e d8 e6 03 be dd bf 90 bf 3f 53 05 bf
       0.36740062 -0.12881029 -1.1308552 -0.5208015
0000f0 94 df e0 3e 7c 1a ab 3e 9b eb 3e 3e fe af 2d 3f
       0.43920577 0.33418643 0.18644564 0.6784667
000100 3e 57 3f 3f 64 ae 29 bf 0e 28 80 bd 50 82 bb bf
       0.74742496 -0.66281724 -0.0625764 -1.4649143
000110 06 60 37 3e 29 16 0d bf b2 7c 8f bf 49 75 9e 3d
       0.17907724 -0.5511194 -1.1209929 0.07737214
000120 59 9d 14 3f d6 04 b3 3b 1c 65 06 3f b3 a2 1d 3f
       0.58052593 0.005463223 0.5249803 0.61576384
000130 cc 90 90 3e a6 72 a2 3e dc e4 84 3c 9c 8e 65 bf
       0.2823547 0.31728095 0.01622241 -0.8967073
000140 d8 70 de bf 8b aa 8c be 30 67 83 3e 9e c7 29 3f
       -1.7378187 -0.27473864 0.25664663 0.66320217
000150 c6 0a bc bf ce 3b a4 bf 6e 30 d2 3c 8e 08 2c bf
       -1.4690788 -1.2830751 0.025657859 -0.67200553
000160 7c 80 a2 bf 2c 4b a3 3e bc 81 cd be d5 1d ef bf
       -1.269546 0.3189329 -0.40138042 -1.8680979
000170 42 88 18 3f 1b c0 b1 3d 5d 2e 89 bf 0f e3 80 3d
       0.5958291 0.08679219 -1.0717274 0.06293308
000180 5f 45 cb be a4 67 01 c0 f4 75 30 bf 57 46 91 bf
       -0.39701363 -2.0219507 -0.6892998 -1.1349591
000190 13 db 0c 3f 21 1d 3c 3f 03 9d cc 3d 26 10 5f 3e
       0.5502178 0.7348195 0.09990885 0.21783504
0001a0 c0 0b 1f 3f 60 11 02 bf aa f9 2e 3f 2d 27 91 3e
       0.62127304 -0.5080776 0.6834971 0.283502
0001b0 ad c2 71 3d 36 23 ab 3e c9 08 b3 3c c7 88 81 bc
       0.059023548 0.334253 0.021854775 -0.01581229
0001c0 b4 e3 1e 3e 5a f5 71 3f d5 95 1e bf 34 7b 98 3d
       0.1551655 0.94515 -0.61947376 0.07445374
0001d0 95 b6 73 3b f7 3d 78 be 0f 69 38 be 08 30 74 3e
       0.0037187685 -0.24242388 -0.18008827 0.23846447
0001e0 6f 85 0b 3f a7 c9 9c bc 77 b4 a7 3e c2 50 e5 bd
       0.5450048 -0.019139124 0.3275487 -0.11197044
0001f0 2a 0e 42 bf 00 d3 d5 3d 52 ad 80 bf 28 6d 2c 3f
       -0.7580286 0.10440636 -1.0052893 0.6735406
000200 2d b5 c8 be 90 3c 03 3e a6 bd c0 be 1a 97 8c be
       -0.39200726 0.12816072 -0.3764469 -0.2745903
000210 1a 5b ae 3e b4 e1 cc 3e 72 22 7a be c0 8d 2b bf
       0.3405388 0.40015948 -0.24427202 -0.6701317
000220 e1 b1 fd bc da 88 a7 bf 16 0b 50 3f f5 c4 ff 3e
       -0.030968608 -1.3088639 0.81266916 0.49954954
000230 a7 ef a6 3f df eb 18 bd 80 71 30 be 36 48 db 3d
       1.3041886 -0.03733432 -0.17230797 0.107071325
000240 04 39 07 bf 49 d8 a3 be f0 cd 37 3f 2f c4 c8 3e
       -0.52821374 -0.3200095 0.7179861 0.39212176
000250 15 5d 37 bf b9 d2 21 bf d7 99 0c 3d bd 4b 84 3e
       -0.71626407 -0.6321216 0.0343264 0.25839034
000260 44 a6 83 be 1f 7b 89 3c 8c f9 cb 3e bb 93 85 3e
       -0.25712788 0.016782342 0.39838827 0.26089272
000270 dd e0 da 3e 08 5b e6 be 9f ea b3 bf 35 13 07 3f
       0.42749682 -0.44991326 -1.4055976 0.5276368
000280 c1 b7 19 3e 78 9f 8e 3e cd dc 33 bf 83 81 19 3e
       0.15011503 0.2785604 -0.7025879 0.14990811
000290 60 d0 2c bf a3 d9 38 3e 98 52 b7 3d e0 b5 ba be
       -0.67505455 0.18051772 0.089513004 -0.36466885
0002a0 05 0a 60 3e 65 5e 25 3d fb cc 43 3d f3 18 3a be
       0.21878822 0.040373225 0.047802906 -0.1817358
0002b0 4d 3e 27 3f e0 c0 c8 3d dd 19 83 3f 0d 51 b5 3e
       0.6532944 0.09802413 1.0242268 0.354134
0002c0 e6 d0 05 bc 2c 39 07 bf b0 a1 86 3e c5 b3 0b be
       -0.008167481 -0.5282161 0.26295233 -0.13642795
0002d0 7d 10 bf be d3 ee 7d be 65 1c 37 3f 21 37 52 3e
       -0.37317267 -0.24798135 0.715277 0.20528843
0002e0 16 41 95 3e cc 22 11 3e 8e 38 c7 3e 6c a0 91 3e
       0.2915122 0.1417343 0.38910335 0.28442705
0002f0 f1 1f b5 be ff 46 06 c0 41 5f e7 bf 52 23 84 3e
       -0.35375932 -2.0980833 -1.8075944 0.25808197
000300 55 b4 ed be 93 91 7a be f7 3e f4 3e 1c 79 03 be
       -0.46426645 -0.24469595 0.47704288 -0.12839168
000310 0d c6 2b bf 4f d6 ca be 98 de 30 3f e2 ec 45 3f
       -0.67099077 -0.3961663 0.6908965 0.7731458
000320 98 a7 7f be 1d 77 e4 3e 84 1b 8e 3e 47 a6 48 3f
       -0.24966276 0.44622126 0.27755368 0.7837872
000330 14 4f 58 3e e7 4d d0 be ec cf f6 be 13 89 83 bf
       0.21123916 -0.40684435 -0.48205507 -1.0276207
000340 ca 4b 84 be b9 5f 0d 3e 3f 15 1a 3e 48 2f 9d bd
       -0.25839072 0.13806047 0.15047167 -0.07675034
000350 82 eb 72 bf 03 bf 99 bf 0b 6c c7 3e 81 25 03 3e
       -0.94890606 -1.2011417 0.38949618 0.12807275
000360 84 eb d1 bf 67 05 f5 3e bb 94 0a bf 62 89 17 3f
       -1.6399999 0.47855684 -0.54133195 0.59194005
000370 aa a2 98 be 33 eb 3e be 25 fa 68 bf f5 37 36 3f
       -0.29811603 -0.18644409 -0.9100669 0.71179134
000380 0c 62 5e 3f 92 36 4e 3e 6a f0 0d 3f 5b b3 46 bf
       0.8686836 0.20138004 0.5544497 -0.77617425
000390 e4 60 2a be 24 33 d3 3c 2e 72 44 be ac ad 01 bf
       -0.16638523 0.025781222 -0.19184181 -0.5065563
0003a0 9b 27 8c bd b9 0d 08 bf 0c 04 03 be ff 7b 4e bf
       -0.06843492 -0.5314594 -0.12794513 -0.80657953
0003b0 98 58 81 bd 8d 7b 86 3f b1 45 b4 3e b0 8c 10 3f
       -0.06315726 1.0506455 0.3520942 0.5646467
0003c0 f5 7a bf be 37 d4 15 3f 04 52 03 be 31 f9 ff 3d
       -0.37398496 0.5852694 -0.12824255 0.12498701
0003d0 9d 22 35 bf f4 d3 29 3f d1 45 19 be b5 e5 45 3e
       -0.7075594 0.6633904 -0.14968039 0.19325908
0003e0 42 87 f3 be 0f 82 6e be 0f 76 a2 be 8a a2 df 3e
       -0.4756413 -0.23291801 -0.31730697 0.43678695
0003f0 fb df 1b bf f3 f8 fe 3e c8 56 ad 3f 7d e5 6a be
       -0.6088864 0.49799308 1.3542109 -0.22939105

fc2.bias f4 [16]
000000 14 86 6a be f4 85 a2 be 9d a9 14 bf 19 6b 38 3f
       -0.22902709 -0.31742823 -0.5807131 0.7203842
000010 48 95 0b 3e 0d 64 10 be bb 9f 97 bf d8 eb 92 be
       0.13631165 -0.14100666 -1.1845621 -0.2869556
000020 f3 d9 cb 3e 3a 8d 48 3f 4f f8 49 bd 2f 0e b4 3d
       0.3981472 0.78340495 -0.04930907 0.08791768
000030 b0 48 c1 be 98 8d 0f 3f 72 1c 5f be f3 cd 04 bf
       -0.3775077 0.5607543 -0.21788195 -0.51876754

fc3.weight f4 [16, 16]
000000 34 a3 85 bd f2 a3 7f be a5 07 7f be 2d ed 3d bd
       -0.06525269 -0.24964884 -0.2490526 -0.046368767
000010 ce 3c 64 3c 30 d4 ec bd e4 77 5a be 30 ef 72 be
       0.013930513 -0.11563909 -0.21334797 -0.23724055
000020 b4 7f 24 be 6a 31 8c be 6c b2 a4 be b8 30 92 bd
       -0.1606434 -0.2738145 -0.32167375 -0.071381986
000030 c8 46 92 be 89 2d 88 be 1f 1c 92 be 55 ab 65 bd
       -0.28569627 -0.2659724 -0.2853708 -0.056071598
000040 90 c7 5f be ad aa 3b be e7 29 45 be c1 b2 62 be
       -0.21853471 -0.18326826 -0.19254266 -0.22138502
000050 7d 4c 35 3c 08 02 fa 3d 37 ee c7 bd 02 92 84 be
       0.0110655995 0.12207419 -0.09762233 -0.25892645
000060 72 d0 ef 3d 2e 31 5e be e1 e5 3c be ec 16 e2 bd
       0.1170968 -0.21698448 -0.18447067 -0.11039528
000070 a6 0c 96 3c 4b 50 bf bc a4 8b 0e be e4 4b 88 be
       0.018316578 -0.023353716 -0.13920456 -0.266204
000080 d9 14 ae 3d 9f 9b d1 3e cf 76 a9 be 9d d5 0f 3f
       0.0850007 0.40939042 -0.33098456 0.56185323
000090 60 6a 89 be 88 2b a4 bf a3 88 c6 3f c5 5e 60 3e
       -0.2683897 -1.2825785 1.5510448 0.21911152
0000a0 45 ad 5c 3f b2 a2 b5 3e 40 b0 e1 3d 7d 90 03 be
       0.8620189 0.3547569 0.11019945 -0.12848087
0000b0 f7 ed 06 3e 41 9c 42 bf 39 90 92 3e 09 0a a8 bc
       0.13176714 -0.76019675 0.28625658 -0.020512598
0000c0 d6 22 74 bf fb 8b 22 3b 01 b1 c2 bd a7 5d 83 bf
       -0.95365655 0.0024802673 -0.09506417 -1.0262955
0000d0 cd 23 bc bf 13 12 de 3e 66 20 84 3e ea 4a b7 3e
       -1.4698426 0.43373165 0.25805968 0.35799342
0000e0 60 c4 5a bd 12 bf 11 3f 31 2a 78 3d db 38 88 3e
       -0.053409934 0.56932175 0.06058711 0.26605877
0000f0 c4 06 d6 bd 9d 49 9a 3f ea 84 85 bf b3 57 8d bf
       -0.10450509 1.2053715 -1.0431187 -1.1042389
000100 f3 0b ae 3e cd fd ff 3e 40 0f 0b 3b fd 9a a8 3e
       0.33993492 0.49998322 0.0021218807 0.32930747
000110 46 9d 39 bf fc d0 6a bf d2 c3 87 3f 5d cb b8 be
       -0.72505605 -0.91725135 1.0606635 -0.36092654
000120 87 74 b7 3e 01 ae f7 3e cb a0 86 bb a0 23 30 3e
       0.3583109 0.48374942 -0.0041085235 0.1720109
000130 9c 80 b7 3c 0e 96 4c bf 10 d8 df 3b ac f9 ee be
       0.022400193 -0.79916465 0.0068311766 -0.4667486
000140 63 9c 08 bf ab 78 34 bf 43 a4 86 bf d1 25 8d be
       -0.5336363 -0.70496625 -1.0518879 -0.27567914
000150 3f 1f b3 bd a0 60 5e 3f ae 90 14 3f a7 d1 c9 bd
       -0.08746194 0.8686619 0.58033264 -0.09854441
000160 ff 4e 2f bf 04 fc 40 3f 31 f4 9a 3d 5b a8 d8 3e
       -0.68479913 0.75384545 0.07566107 0.42315945
000170 f6 58 54 3d 9d 50 09 bc 76 ea 1d bf 60 9d 06 bf
       0.051842652 -0.008381036 -0.61685884 -0.52583885
000180 bd 3c 5f bd 48 21 dc bd 5f 74 1e 3e 17 40 9c 3d
       -0.054501284 -0.107485354 0.1547408 0.07629412
000190 c5 66 b1 bd 58 bf 50 3d 97 5c 71 be ed ea a7 be
       -0.0866218 0.05096373 -0.23570476 -0.32796422
0001a0 ad 97 e6 bc 84 1c 76 be bc 39 94 bc 3b 8f 23 be
       -0.028148497 -0.24034315 -0.018093936 -0.15972607
0001b0 82 89 6d be be d5 92 3c b7 04 b2 bd 1e cc fb be
       -0.23196986 0.017924186 -0.086923055 -0.49179167
0001c0 44 74 ac 3d ea 04 4e 3e df 95 fc bf 6e 8c 90 3f
       0.084206134 0.20119062 -1.9733237 1.1292856
0001d0 42 3d 5c bf 91 b6 ba bf fb aa eb 3f bb 41 0d 3f
       -0.8603097 -1.4586965 1.8411554 0.5517842
0001e0 76 6c d4 3e 7f ec 5f be 3f ec a6 be 27 1d ef be
       0.41489 -0.2186756 -0.32602116 -0.4670193
0001f0 b4 39 44 bf 02 de 59 3e e4 32 9e be 68 55 b5 3e
       -0.7665055 0.21276096 -0.308982 0.35416722
000200 7c 54 27 3d 18 5c 66 be 63 ff 49 be 2e 05 fb bc
       0.040852055 -0.22496068 -0.19726329 -0.030642118
000210 80 88 0f be 88 1a cd 3b 5e 83 92 3a 15 59 e2 3a
       -0.14016914 0.0062592663 0.0011178066 0.001726898
000220 29 e8 b3 be 8c 00 18 bd f5 38 35 be af 1b f7 3c
       -0.35138062 -0.037109897 -0.17697509 0.030164568
000230 c9 91 72 be 9c 6f 8c bd 05 d3 c1 be fc 85 f2 bb
       -0.23688425 -0.06857225 -0.37856308 -0.007401226
000240 16 c0 b8 3e 90 4c bf 3d 27 b6 6f bf de 53 b6 ba
       0.3608405 0.09340775 -0.9363732 -0.0013910492
000250 96 52 95 bf 82 d5 b1 bf 34 a3 6a 3e 92 b5 97 3e
       -1.1665828 -1.3893282 0.2291382 0.29630715
000260 ed 99 0a 3f 81 82 51 3f e8 f9 0e bd e6 3b 8b bf
       0.5414112 0.8183976 -0.034906298 -1.0877655
000270 29 4c 1f c0 b7 45 42 bf 26 90 b4 3c e5 d5 a4 3e
       -2.4890234 -0.75887626 0.022041392 0.3219444
000280 70 f3 29 be 8d 91 f8 3e db 2e 8f be 89 51 0a 3f
       -0.1659677 0.48548546 -0.27965435 0.5403066
000290 bb 15 8d bd ff 43 14 bf a5 7d 98 3f 7b 1a ef 3d
       -0.068889104 -0.57916254 1.1913344 0.116749726
0002a0 39 53 38 3f 24 5f 14 be 7f ef f2 3e d8 6c 78 be
       0.7200199 -0.14489418 0.47448346 -0.2426027
0002b0 02 7b ff bd 6c 93 de be 10 c9 ad bd 34 c8 78 3d
       -0.12474634 -0.4347185 -0.08485615 0.060737804
0002c0 05 fd cf bc 5b 48 a9 3e d2 05 32 c0 d6 84 30 3f
       -0.025389204 0.33063015 -2.7816052 0.6895269
0002d0 8d d1 cd bf aa 11 c1 3e eb c7 87 3e cb 31 a4 be
       -1.6079575 0.3770879 0.26519713 -0.3206924
0002e0 04 61 c8 bf df 21 f7 3e d7 b1 1c 3f e9 46 84 bf
       -1.5654607 0.4826803 0.6120886 -1.033414
0002f0 21 f0 86 bc 29 41 57 be e9 d6 c8 3d af 18 0a c0
       -0.016471924 -0.2102095 0.09806616 -2.1577566
000300 5b 24 5c 3f a0 cd 3d be a0 e2 eb be 00 c6 e1 bf
       0.85992974 -0.18535471 -0.4607134 -1.763855
000310 df f3 84 3e f0 5a 54 be f9 51 d9 bd 63 1c 4d bf
       0.2596731 -0.20737815 -0.10611338 -0.8012144
000320 da 04 86 3e 39 ce b2 bf a9 91 2c bf a8 5f 9b be
       0.26175576 -1.3969184 -0.6740976 -0.30346417
000330 65 ef 1d bf 67 60 00 c0 d2 44 c1 3e a1 73 ca 3e
       -0.6169341 -2.005884 0.37747818 0.39541343
000340 41 e4 75 3e 38 df 66 be 43 2a 2c be 81 9b 59 3e
       0.24012853 -0.22546089 -0.16812997 0.21250726
000350 95 26 40 3f f3 23 32 3f c2 bc c1 3d 61 16 85 3f
       0.7505887 0.69586104 0.09459831 1.0397455
000360 78 e9 51 be f2 de c0 be ea 39 00 be 16 6f c2 3e
       -0.20499218 -0.37670094 -0.12522092 0.37975377
000370 05 32 30 bf 5a 71 8f 3e 5a 97 05 c0 01 53 9a 3e
       -0.68826324 0.28016168 -2.0873628 0.30141452
000380 16 4b 2f 3d 6d 22 a6 bd 05 e1 31 bf d1 e2 fd 3e
       0.042796217 -0.08112035 -0.6948398 0.4958711
000390 b8 7b b5 bd cb 11 d0 bf 94 6a b8 3f 1e b3 e8 bc
       -0.08861488 -1.625543 1.4407525 -0.028405722
0003a0 05 a1 1a 3f e0 d5 e7 3e 16 36 92 be 73 51 47 3e
       0.60401946 0.4528036 -0.2855689 0.19464664
0003b0 35 90 39 bf 30 6b ca be e3 15 81 3e 52 73 91 3e
       -0.7248567 -0.39534903 0.2521201 0.28408295
0003c0 30 0d d9 bf 59 fb 03 bf a5 ca c9 3e e3 cf 3f bf
       -1.695715 -0.515554 0.39412418 -0.74926585
0003d0 04 ca 2b bf 03 1e f5 3c 8a 09 85 bf fb 85 ca 3e
       -0.67105126 0.029921537 -1.0393536 0.39555344
0003e0 83 1c b3 be 39 5d 0d 3f 1a bb 36 bf 6d 79 7a 3d
       -0.3498269 0.5522037 -0.71379244 0.061150957
0003f0 00 d0 20 be bc 41 a0 3e dd c7 e2 be 72 cd 50 3e
       -0.15704346 0.3130015 -0.4429311 0.20390871

fc3.bias f4 [16]
000000 29 6a 70 be aa 9e 87 be e6 68 d3 be 77 98 9c 3e
       -0.23477997 -0.2648824 -0.4129097 0.3058507
000010 fe 7c 37 be d1 c1 00 3f 40 23 bc be d5 7e 45 3e
       -0.17918774 0.5029574 -0.36745644 0.19286664
000020 d2 db da be 88 77 71 3d 3e 12 38 be 89 ce 08 bf
       -0.42745835 0.058951885 -0.17975709 -0.5344015
000030 39 87 ca 3e 7b fa 6c bf 51 71 79 bd c9 d5 ca 3d
       0.39556292 -0.925697 -0.060899083 0.099040575

fc4.weight f4 [16, 16]
000000 9c 5d 1d be a9 65 2b 3d dd ce 14 3f 70 eb db 3d
       -0.1536774 0.041844998 0.5812815 0.107382655
000010 b5 6c a5 3e 75 4e c5 bd 81 3a f5 bd c6 d3 3c 3f
       0.323095 -0.09634105 -0.11974049 0.7376064
000020 97 03 ca 3d 90 f0 df 3e ca 72 6b 3e e8 87 dd be
       0.09863966 0.43738222 0.22993007 -0.4326775
000030 1e 7a 7b be aa e9 9a be bd bb 07 3f 50 04 28 bd
       -0.24558303 -0.30256397 0.5302084 -0.041019738
000040 53 48 2d 3e 09 3a 22 3e b1 8f 1f bd d3 23 8b bf
       0.16922121 0.15842451 -0.038955394 -1.0870308
000050 59 a9 34 3d 9e 16 b1 bf f2 1e bb 3d 55 8b 47 bf
       0.044106815 -1.3835027 0.09136762 -0.7794698
000060 fa 9a 86 be 4e 8f 67 bf 48 84 95 be fd e4 84 3d
       -0.26290113 -0.9045304 -0.29202485 0.064889885
000070 c2 36 90 3e 81 3b 98 3f 65 26 0e 3e 29 41 9a bf
       0.28166777 1.1893159 0.13881834 -1.2051135
000080 ef cf 18 be 66 14 7f 3e e1 61 1e 3e 33 6c d8 bf
       -0.1492307 0.24910125 0.15467025 -1.690802
000090 54 aa d9 be 0f 03 5a bf af 26 d3 3b a6 cf 6e 3d
       -0.42512763 -0.8516092 0.0064438204 0.058303498
0000a0 45 b7 87 bd ba 8e 2f bc 2c 40 8f bd de 45 d9 be
       -0.06626753 -0.010715181 -0.06994662 -0.42436117
0000b0 7d a9 e3 3e 4f d5 45 3f 8a 4f a7 3e 70 a0 b4 bf
       0.44465247 0.7727861 0.3267787 -1.4111462
0000c0 d9 e4 2c 3d ea ba 51 bd 5b 07 03 3e 7f 99 b0 bf
       0.042210434 -0.051203646 0.12795775 -1.3796843
0000d0 b2 37 b8 bb 9e 8e c6 bf 1b 82 00 3d 2f 11 3a 3f
       -0.005621874 -1.5512273 0.03137408 0.7268247
0000e0 c6 71 77 3d c1 bb 88 3f 7d 17 ba 3d 28 09 98 bf
       0.060411237 1.0682298 0.09086511 -1.1877794
0000f0 d9 45 73 bf eb a0 c3 bc 9e 36 5f 3e 75 f4 0c bf
       -0.95028454 -0.023880443 0.21798179 -0.5506051
000100 e4 98 15 3d c9 29 4c be d5 9e 21 be f9 0d 12 3d
       0.03652276 -0.19937815 -0.15783246 0.035657857
000110 a2 fe 29 bf a2 47 27 3f 9b c1 3c 3e 55 48 ce 3d
       -0.66404164 0.6534368 0.1843323 0.1007239
000120 d2 23 78 be 99 0a c7 bd 66 cd 72 be eb 74 8a be
       -0.24232414 -0.09718818 -0.23711166 -0.27042326
000130 8c 25 df be df 9f 9f 3f 5a 79 1e be 24 bb 00 3f
       -0.43583333 1.2470664 -0.1547598 0.50285554
000140 39 84 88 bd fb f1 88 be fd 00 1b bf b6 18 3d 3f
       -0.066658445 -0.26747116 -0.60548383 0.7386583
000150 f6 1e 6b bf 57 1d ab 3e 96 a9 3a bd c4 be e1 bf
       -0.9184412 0.33420822 -0.045571886 -1.7636342
000160 f8 31 9d 3d 48 c6 c5 3e 87 db f9 be 9f dc 26 bd
       0.076755464 0.3862784 -0.488003 -0.040737744
000170 9c 9c 7f bf 32 ca af be c1 29 6a bf d5 95 25 3f
       -0.9984834 -0.3433395 -0.9146996 0.6468175
000180 19 f0 5f be 4b c5 ea 3c 56 b2 b8 be 9d 18 49 bd
       -0.21868934 0.02865853 -0.3607356 -0.04909574
000190 ec c6 55 bf ab 32 1e bf 78 b1 1d be e5 9b 06 3f
       -0.83506656 -0.61796063 -0.1539973 0.52581626
0001a0 1a 8b a2 bd 8a 91 28 bf 70 20 9a 3e 84 e1 0c be
       -0.07936688 -0.65847075 0.30102873 -0.13757902
0001b0 ea b0 72 bf ba f9 b3 be ca d0 04 bf 0b cc 00 bf
       -0.948012 -0.35151464 -0.51881087 -0.50311345
0001c0 ac 04 07 3d 4c 42 32 be 8f e3 45 3e 7a 3a 1b bf
       0.03296344 -0.17408103 0.19325088 -0.60636103
0001d0 66 79 37 be e4 82 c6 3e 90 f3 e6 bd 76 a3 84 3e
       -0.17917404 0.38771737 -0.112769246 0.2590596
0001e0 ff de 11 3e c6 00 6f 3f ad d8 6b bd 29 9a 14 bf
       0.14245223 0.93360555 -0.057579685 -0.5804773
0001f0 f5 83 76 be 1c 08 ad 3d 12 cc d3 3e 92 9f 8a be
       -0.24073775 0.08448812 0.4136663 -0.27074867
000200 ae ca 1f 3e 05 76 64 3e 6c 51 5f be 3a 6c ed 3e
       0.1560466 0.22310646 -0.21808404 0.46371633
000210 cc 1e 2e bd af 6d 62 3e 67 de bc bd 6d 80 84 bf
       -0.04250984 0.22112153 -0.092221074 -1.0351692
000220 66 08 1f 3e c2 99 25 3e 1c 84 ac 3e 07 cf 09 3f
       0.15530547 0.16171935 0.3369454 0.53831524
000230 b3 f4 42 3e 23 1d 52 3e f9 66 66 be 52 97 6c 3c
       0.19038658 0.20518927 -0.22500218 0.014440374
000240 c0 f7 50 3d e0 f4 31 3c 04 fc 6c bb 7b 4e 65 3e
       0.051017523 0.010861605 -0.0036160955 0.22393219
000250 99 51 b9 3d 14 b4 34 bc a6 75 5d 3e 43 df c2 bd
       0.09048767 -0.011029262 0.2162691 -0.0951524
000260 9e 88 58 3e bc 14 b7 bc d7 e2 b1 be 44 30 77 be
       0.21145865 -0.022348754 -0.34743378 -0.24139506
000270 c4 28 0c bf 3c 5e 23 bd 2c 10 41 be 16 e3 9c be
       -0.54749703 -0.03988479 -0.18853825 -0.30642003
000280 aa a0 29 3e 98 4b f3 bd bf cc ef be a1 52 93 be
       0.16565195 -0.11879653 -0.46835896 -0.28773978
000290 10 fe 0a bd 60 9a ab bd 10 ec b2 3d 02 f2 e7 bc
       -0.0339337 -0.08379054 0.087364316 -0.02831364
0002a0 8c 05 0e 3e 9c e6 c9 bd 7c aa 72 be 51 89 85 3c
       0.13869303 -0.098584384 -0.23697847 0.01630083
0002b0 70 66 68 be 6e 9a 21 be bb 6a b2 be 2c 54 aa ba
       -0.22695327 -0.15781567 -0.34847054 -0.0012995056
0002c0 12 39 06 3e 0a 16 17 bc d8 b2 ac bf d6 e6 87 3e
       0.13107708 -0.009221563 -1.3492079 0.265433
0002d0 62 32 4c bf 6a f6 fa 3e d2 be 4d 3e 6c 70 81 bf
       -0.7976438 0.49016124 0.20092323 -1.0112433
0002e0 48 3b 08 bb ad 93 19 3f c0 4a 87 be 50 b1 8c 3d
       -0.0020787288 0.5999096 -0.26424217 0.06869757
0002f0 ad 41 08 bf 1d d7 e4 be 51 40 f1 be 20 55 64 be
       -0.53225213 -0.44695368 -0.47119382 -0.22298098
000300 98 53 19 bd 5a 3d 3c 3d 09 f5 47 be 6c 2c 3a 3f
       -0.037433237 0.045956947 -0.19527067 0.7272403
000310 b0 60 e8 3d 1e b9 8f 3e 70 2f 23 3c a2 a5 68 bf
       0.11346567 0.2807092 0.00996004 -0.90877736
000320 17 33 d6 3d e5 6e 9d be 82 f4 cb be 54 88 08 c0
       0.10458963 -0.30748668 -0.39834982 -2.1333208
000330 01 cb e1 3e 33 f8 13 3f da 59 97 3e d1 31 27 3f
       0.44100192 0.57800597 0.2956074 0.6531039
000340 e0 42 fc 3d 2c 41 92 bd 0b 37 6f bd 30 62 0e bd
       0.12317443 -0.07141337 -0.058402102 -0.034761608
000350 80 75 13 bc 10 84 bf bd 5a ab 41 be bd 62 e3 bd
       -0.009000182 -0.09351361 -0.18913022 -0.11102817
000360 96 74 1b be da 8e 40 be 10 15 ef bd da 28 69 be
       -0.15181193 -0.18804494 -0.11673939 -0.2276949
000370 4c 74 ab bd f3 90 ba bd d7 52 fd bd 61 24 84 be
       -0.08371791 -0.09109678 -0.12369316 -0.25809005
000380 0f 0f a4 3c 67 28 81 bd 61 2b 49 be 78 e6 90 be
       0.020026712 -0.06306534 -0.19645454 -0.28300834
000390 1d fd 86 be 21 51 81 be ca ec 03 bd 14 99 96 be
       -0.26364985 -0.2525721 -0.03220824 -0.29413664
0003a0 ed d9 04 3e 4c 1b 23 bd c8 50 44 be 56 09 d4 bd
       0.12973757 -0.039820954 -0.1917144 -0.10353343
0003b0 20 c7 fb bd 3d 03 c6 be 80 fa a1 be 5a fb f1 bd
       -0.122938395 -0.38674346 -0.3163643 -0.1181552
0003c0 11 27 15 be 28 00 48 be 5f de 5b bf 25 ce b3 3e
       -0.14565684 -0.1953131 -0.85886186 0.35118213
0003d0 44 97 be 3e 94 14 cd 3e 7d 3f 68 be 27 bd 06 bf
       0.37224782 0.40054762 -0.22680469 -0.52632374
0003e0 06 85 9d bc de 38 ac 3e 56 5f 59 bf 0b 22 2b bf
       -0.01922847 0.33637136 -0.84911096 -0.6684882
0003f0 ea 10 e8 be 88 a9 f1 be 04 56 25 be 6f 4c ac 3d
       -0.45325404 -0.47199655 -0.16146094 0.08413016

fc4.bias f4 [16]
000000 35 87 cc be 1b c8 90 be ce f3 da bd 8a b7 0c 3f
       -0.39946905 -0.28277668 -0.10691033 0.5496756
000010 fb d3 6f 3e ca 36 9e 3e 29 c1 93 3e e3 b9 64 3e
       0.23420708 0.30901176 0.28858307 0.22336535
000020 e1 2e 50 3e 50 7f 8c be 82 d1 a2 be aa c5 c9 bc
       0.20330383 -0.27440882 -0.31800467 -0.024630386
000030 ed 52 4b 3e 3c bd 70 be 0e 5c 4b bd 3e 5b c3 3e
       0.19855852 -0.23509687 -0.049648337 0.3815555

fc5.weight f4 [16, 16]
000000 5a cd aa be 76 49 7e be 7d 38 82 bd 98 df 1e bb
       -0.33359796 -0.2483271 -0.063584305 -0.002424216
000010 ea 34 88 bd 48 5f 72 bd f3 5d 3c 3d 3b ec dd bd
       -0.066507176 -0.0591729 0.045988034 -0.10836073
000020 35 14 48 be 06 17 33 bd e2 49 5a be dc 7d 7b be
       -0.19538958 -0.04372313 -0.21317247 -0.2455973
000030 d1 c4 88 be fc 6b 99 3d b2 6a 78 3e c0 38 06 3e
       -0.2671266 0.074912995 0.24259451 0.13107586
000040 a4 2c d5 be 3c d9 1e 3f 7d e1 d5 3e 09 83 ba be
       -0.4163562 0.62050223 0.41773596 -0.36428097
000050 71 43 3e be 57 1d 44 3f 55 39 8b 3d 5d 45 a0 bd
       -0.18580414 0.7660727 0.067980446 -0.0782573
000060 a2 75 2e bd f6 df 45 3e b0 da f5 3d cf fa 18 3f
       -0.042592652 0.19323716 0.12004602 0.59757704
000070 c1 ba 8d 3e 48 41 4c 3d 03 84 a4 3d 17 75 23 3f
       0.27681544 0.049866945 0.08032992 0.6385054
000080 8e 3c 45 3e f5 f9 4e 3d 1d 9f c6 3e 52 7e 8d 3e
       0.19261381 0.050531346 0.3879327 0.27635437
000090 81 fb b3 bf d7 1f 36 be 02 0a 22 3f 62 ca 09 be
       -1.4061128 -0.17785583 0.6329652 -0.13456109
0000a0 24 8a 9a bf 74 ac 3e be 38 ff ec bd d3 7b 60 be
       -1.2073407 -0.18620473 -0.115721166 -0.21922235
0000b0 51 ce e9 be ce 99 74 3e e4 3e db 3d 92 5c e7 be
       -0.4566522 0.23886797 0.10705355 -0.45187813
0000c0 8e 81 2a 3e cf 28 a0 bf 06 75 56 bf 1b f7 34 bf
       0.16650984 -1.2512454 -0.83772314 -0.70689553
0000d0 6e 05 74 3e ae 6a 28 3f 8d fb ed be 07 e0 01 bf
       0.23830196 0.6578778 -0.4648098 -0.50732464
0000e0 98 ba 46 3e c8 d1 9c bd 82 74 33 3e 0a 17 94 3e
       0.19407117 -0.076572 0.17524913 0.28923827
0000f0 6e 8c e6 3e 40 0c 2b bc 60 eb 4e be 04 fb ed 3e
       0.45029014 -0.010439932 -0.20206976 0.46480572
000100 3a 83 b3 be 5f e5 d1 3e a7 4f 23 3f 40 99 31 bf
       -0.35061055 0.4099531 0.63793415 -0.69374466
000110 7e 3d 13 3e ab 8f 55 3f 9b d9 46 be 24 26 b6 3e
       0.14378926 0.83422345 -0.19418947 0.35575974
000120 02 9d 1a bd a1 48 c6 3d 2b cf 96 3e 53 de 0c 3f
       -0.03774739 0.096818216 0.29454932 0.5502674
000130 76 9c e8 3e fb b2 2e bc fc f8 4d be 0d dc 0a 3f
       0.4543187 -0.010662789 -0.20114511 0.5424202
000140 6a eb 04 bf 5b 69 da 3d 7e 5b 36 be b0 08 30 3d
       -0.51921713 0.10664626 -0.17808339 0.042977035
000150 aa 0f e0 bd ff 15 05 be 10 5b db 3d b0 3f 59 be
       -0.10940488 -0.12996672 0.10710728 -0.21215701
000160 85 7b d3 bd 80 c7 d0 3c b8 a6 da 3d 6f 06 ef 3d
       -0.10326294 0.025485754 0.1067633 0.11671149
000170 e2 89 ef 3d 02 63 49 3e c6 22 72 be 9f c4 1e be
       0.11696221 0.19666675 -0.23646078 -0.15504692
000180 7d 95 89 be 4c d6 27 be ba 1d 92 be a4 87 0a 3e
       -0.26871863 -0.16390342 -0.28538305 0.13528305
000190 a7 0c 54 be 0e c1 20 be 64 f7 68 3d c9 4a 82 be
       -0.20707951 -0.15698645 0.056876555 -0.25447682
0001a0 2f 03 75 3c 99 bd 83 3d a0 de d4 3d c1 0d 59 be
       0.014954372 0.06432647 0.10394025 -0.21196653
0001b0 a7 15 ea be 68 9b 19 3e 64 13 68 3e 39 6c ed be
       -0.45719644 0.15000689 0.22663647 -0.4637163
0001c0 87 4d a5 be 1e bc 2f be fc 19 32 bd 81 28 83 3d
       -0.3228571 -0.17161605 -0.043481812 0.0640421
0001d0 50 4d 0e be fe 77 25 3d bc bd d4 3d 71 25 3c 3d
       -0.1389668 0.040397637 0.103877515 0.045934144
0001e0 b5 20 ac bd f6 44 41 be 60 0d ac bd 00 57 d1 bc
       -0.08404676 -0.18873963 -0.084009886 -0.02555418
0001f0 09 9c da bd 4c fd 44 3e 90 1e d2 bc 02 af 80 be
       -0.106742926 0.1923725 -0.025649339 -0.2513352
000200 2f 0c eb bd 9e 5b 68 be 2e 4d 33 be 0c e8 45 bb
       -0.11476933 -0.22691199 -0.1750991 -0.0030198125
000210 67 72 03 be 7d 56 7c 3d 81 6f b4 bd 25 37 bb be
       -0.1283661 0.06160592 -0.0881033 -0.3656551
000220 2e c1 74 bd b8 80 96 bd c6 44 03 be 65 42 6f bd
       -0.059754543 -0.0734877 -0.12819204 -0.058412928
000230 ad f0 af be 80 51 11 bb aa 82 01 be e6 05 86 3d
       -0.3436331 -0.0022173822 -0.126475 0.06544094
000240 6e d7 76 bf 1a 89 49 bf b2 45 1b bf 62 42 64 bf
       -0.9642247 -0.78724825 -0.6065322 -0.8916379
000250 b2 0d 0d bc 13 3b da 3d 72 2c 55 bf d8 0e 95 be
       -0.008609222 0.10655799 -0.83270943 -0.29112887
000260 44 77 41 3d cb bb 00 be 63 be 4c bd f5 ea 69 3d
       0.04723288 -0.12571637 -0.049986254 0.057108838
000270 f3 8b 53 bd ac fc 53 3e 49 6c a6 3d 7d 78 f7 bd
       -0.051647138 0.20701855 0.081261225 -0.12083528
000280 25 b9 8f 3e b6 d1 b3 be 94 1b 4d 3e 54 b9 6f 3f
       0.28070942 -0.35120934 0.20030051 0.93642163
000290 66 5c 57 be b2 7a 34 3e 4e b9 a3 3e b4 a5 93 3e
       -0.21031341 0.1762493 0.31977314 0.2883736
0002a0 d7 e6 8e bd ca f3 d0 3b cd 16 0f 3e 62 be 2e be
       -0.06977623 0.006376718 0.13973542 -0.17064813
0002b0 64 e0 4a bf 96 8d bc bd 73 ce 04 be 0a f2 e7 be
       -0.7924864 -0.09206693 -0.12969379 -0.4530185
0002c0 62 69 a6 bf 14 2b 1d 3f f3 00 8a 3e cf 3c ea be
       -1.300091 0.61393857 0.2695385 -0.45749518
0002d0 b6 f1 0a 3e 3e 8d b4 3f 4c b3 dd 3d f8 3d 3b 3d
       0.13568768 1.4105604 0.10825214 0.045713395
0002e0 d2 e5 9a 3c a4 75 45 bd 4b 1b f5 bd 03 89 3d 3f
       0.018908415 -0.048207894 -0.11968096 0.7403719
0002f0 75 7f b7 3e 8d 65 0b 3e 67 76 c3 3d b1 01 89 3e
       0.3583943 0.13612957 0.09544068 0.26759103
000300 2d 19 2a 3e 0b ed dd be 07 13 a9 3e 5e 32 16 3f
       0.16611166 -0.43344912 0.3302233 0.58670604
000310 2e c0 bb bf 85 85 01 3f 47 93 41 be bd 60 2e 3e
       -1.4668024 0.5059436 -0.18903838 0.1702909
000320 c3 6a 31 bf 48 c3 58 bd a8 3d 51 3e 04 b6 52 be
       -0.6930353 -0.05292061 0.20433676 -0.20577246
000330 54 3b 7b bf 07 eb e2 3d c4 d1 77 3e 9e e7 91 3f
       -0.981374 0.11079984 0.24201113 1.1398809
000340 22 e3 13 bf a1 ed 50 bd cf 01 36 be 11 ac 38 be
       -0.5776845 -0.05100787 -0.17774127 -0.18034388
000350 d8 03 be 3c d0 29 e1 3e b6 c7 12 3e 35 5e 90 bc
       0.023195192 0.43977213 0.14333996 -0.017623046
000360 e8 57 cd bc d7 a5 28 be 60 a3 e9 3c c9 fa e4 3e
       -0.025066331 -0.16469513 0.028520286 0.44722584
000370 05 a9 b3 be b4 3d 56 3e 5a 9f 6f be 6f 56 d6 be
       -0.3508989 0.20921975 -0.23400632 -0.4186282
000380 d4 20 6e bf 0b ae 4e bf bc 46 29 bf fd 17 42 bf
       -0.9301884 -0.8073432 -0.6612356 -0.75817853
000390 42 24 a9 bd f5 da 93 3f 37 b5 a1 be 1a 5b a8 bf
       -0.08258869 1.1551195 -0.31583568 -1.3152802
0003a0 99 6a e2 bd a1 f6 bb 3e d7 e3 bf 3d 83 12 22 3f
       -0.11055488 0.367116 0.09369629 0.63309497
0003b0 53 df 8e 3e 60 b3 46 3c 40 33 2a bd cc f8 c9 3e
       0.27904758 0.012127727 -0.041552782 0.3944763
0003c0 f8 09 b8 bf 6f d3 3a bf be c7 8a bf 65 4c 54 3e
       -1.4378042 -0.7297887 -1.0842206 0.20732267
0003d0 60 2a 52 3d 43 ab 8c 3f 09 5c ba bd 47 03 82 bf
       0.051309943 1.0989765 -0.090995856 -1.015725
0003e0 60 17 e9 bd ae 49 b2 bd 83 6e 9e 3e f8 d7 22 3f
       -0.113814116 -0.087054595 0.3094369 0.6361079
0003f0 d5 b2 00 3e 06 5c 6a 3e 5c 66 91 3d 3f 6e 1a 3e
       0.12568219 0.22886667 0.070996016 0.15081118

fc5.bias f4 [16]
000000 98 a0 e6 be 1c 4c 29 3e 4a 4a 00 bf 33 ec b9 3d
       -0.45044398 0.1653294 -0.50113356 0.090782546
000010 ce 0c b3 3e 52 d2 09 be 6b d4 4d be b3 63 19 bf
       0.34970707 -0.13459137 -0.20100562 -0.59917754
000020 16 0c 81 be 5f 38 0b be 51 25 2f 3e 29 6b a0 3e
       -0.25204533 -0.13595723 0.17104079 0.31331757
000030 0b e3 04 bf 19 2a 12 bf e5 43 28 be 11 97 22 be
       -0.5190894 -0.57095486 -0.1643215 -0.1587794

fc6.weight f4 [16, 16]
000000 da 64 16 be 05 00 d2 3d ac ee 83 bf 01 b0 51 3e
       -0.1468691 0.1025391 -1.0307212 0.20477296
000010 07 6c 95 3e 57 e8 64 3c 14 07 84 3d 0c eb 95 be
       0.2918398 0.01397141 0.064466625 -0.2928089
000020 ed aa 39 bd 14 bb fb bd 2b 63 de be 4d 55 f1 3d
       -0.045329023 -0.12291542 -0.43435034 0.11783848
000030 7b 31 cb bc bd ef c2 3d c2 55 4f 3e 0d 44 60 3f
       -0.024803868 0.09518383 0.20247558 0.8760384
000040 7b 3b 62 3d 2e f7 75 be 3b ac 4b 3e d2 d0 51 bf
       0.055232506 -0.24020073 0.1988992 -0.8195926
000050 46 72 f2 be a1 4d 8c 3c 55 8b 4f 3e c7 28 30 bd
       -0.4735281 0.01712686 0.20267995 -0.04300764
000060 9e 41 bb bd 52 96 a0 3d 56 34 99 3e 0e 00 dc be
       -0.09143375 0.07841171 0.29922742 -0.42968792
000070 b1 bb e2 3e 35 70 44 3e 88 84 57 bd 05 c8 0e 3e
       0.44283822 0.19183429 -0.052616626 0.13943489
000080 98 57 94 3d 6a a7 e1 3d 2d 28 e4 3e 7a 95 cc be
       0.0724327 0.1101826 0.44561902 -0.39957792
000090 10 5c 6a 3d 86 bf 42 be 45 95 c0 3c 35 71 c4 bc
       0.057216704 -0.19018373 0.023508677 -0.023979763
0000a0 90 28 aa bd a3 9f 6d be 30 58 71 bf 06 56 72 3f
       -0.08308518 -0.23205428 -0.9427519 0.9466251
0000b0 f6 ed b3 bd 8b 66 5c 3e d8 f6 45 3f 03 ca 61 3f
       -0.08785622 0.21523492 0.7732978 0.8819887
0000c0 8e 55 30 be d7 a7 3d 3e 84 fa fe be 3a a0 75 be
       -0.17220137 0.18521057 -0.49800503 -0.23986903
0000d0 46 03 96 3b 6b 9c 06 be 9e 7f a1 3d d6 da 8a 3e
       0.004578027 -0.13145606 0.07885669 0.27120084
0000e0 b0 aa 26 be f6 69 b5 3e 23 ed 92 be 25 66 01 3f
       -0.1627605 0.35432404 -0.28696546 0.50546485
0000f0 30 4b 21 bf 3c 47 a8 3e e2 97 95 3e bf 4f 35 3f
       -0.6300535 0.32866848 0.2921744 0.7082481
000100 90 c9 02 be 64 4d c2 bd 91 91 25 be cd 16 61 be
       -0.12772202 -0.09487417 -0.1616881 -0.21981354
000110 2e 5a a6 3d 2a ce 87 bd e9 ce 84 3e 7e 84 d4 3d
       0.08122669 -0.066311195 0.2593911 0.103768334
000120 1c 56 9b 3d 77 b1 bc 3d ae 4c 57 be a8 1e 3f 3e
       0.075847834 0.09213536 -0.21025345 0.18664038
000130 bc 78 97 be 3b b1 fe 3d 11 f1 24 3c cd 4b d1 3e
       -0.295843 0.12436148 0.01006724 0.40878144
000140 df 4d 77 bd cd f8 32 3e 18 18 bb b9 57 ea 32 3e
       -0.060376998 0.17477722 -0.0003568537 0.17472206
000150 41 6e ad 3e f6 93 30 3d d7 d8 08 bf 7e 33 f4 3d
       0.3387318 0.043109857 -0.5345587 0.11923884
000160 15 8f 71 3d bb 52 c5 3d 28 e3 1f be 7b 00 40 bf
       0.058974344 0.0963492 -0.15613997 -0.75000733
000170 f6 bd b2 bd a8 1a 90 be c9 bb 42 bf 53 54 67 3e
       -0.087276384 -0.28145337 -0.7606779 0.22590761
000180 b1 b2 87 be 55 03 60 be d8 e3 9e bd e3 7e 83 be
       -0.26503518 -0.21876271 -0.077583015 -0.25682744
000190 f0 f3 ed be a0 e0 7e 3e 1a 10 37 be 71 b5 13 be
       -0.46475172 0.24890375 -0.17877236 -0.14424683
0001a0 5a 25 43 3d c4 a0 90 bd e1 56 fe 3c 46 55 44 3e
       0.047643043 -0.070619136 0.031047286 0.19173154
0001b0 be 45 fc bc 38 7a 35 3e b8 97 c2 bd a0 e3 ba 3d
       -0.030794974 0.17722404 -0.09501594 0.09125447
0001c0 93 44 35 be 04 b6 b8 3e 7f 5b 13 bf c8 58 bc 3e
       -0.1770194 0.36076367 -0.57561487 0.36786485
0001d0 b2 c9 f8 3e f1 c7 d1 bc b8 ec b1 bd b0 e7 51 be
       0.4859138 -0.025608035 -0.08687729 -0.20498538
0001e0 d4 0a 4d be aa 2f a6 3e dd 48 15 bf 7e c9 d9 3e
       -0.20023662 0.3245824 -0.58314306 0.4253654
0001f0 6a f2 6a bd 6d a2 98 3d 8c 92 32 3f dc 07 06 3f
       -0.05736009 0.07452855 0.6975486 0.5235574
000200 2e cd ba 3d 69 49 59 bd c3 8c aa be 1a 23 9d be
       0.09121166 -0.053048525 -0.33310518 -0.30690843
000210 0d a7 30 bf 87 4d 4e 3e 91 4e 42 3f 25 7d a2 bd
       -0.690049 0.20146762 0.7590113 -0.07934026
000220 49 1d 04 3e d9 58 6e be 62 a6 e9 bd 56 df ad be
       0.12901796 -0.2327608 -0.11408688 -0.33959454
000230 46 01 4f be c5 05 cb 3e d2 2c a1 bc 76 16 47 be
       -0.2021533 0.3965284 -0.019674692 -0.19442162
000240 ee ec 47 3e 3a cd b9 bd cd 1e be 3e cf 64 5e be
       0.19523975 -0.09072347 0.37132874 -0.21718143
000250 53 64 89 3d 6e b3 da bd 84 8a 8a 3e 66 d9 2c bc
       0.067085885 -0.10678755 0.27058804 -0.010549879
000260 a0 3a 78 bc 07 24 4f 3e 70 ae 28 bf 18 7b c0 3e
       -0.015150696 0.20228587 -0.6589117 0.37593913
000270 8f 7f 31 bd 45 ae e9 3e 25 ae 1c 3f e3 86 50 3f
       -0.04333454 0.4564077 0.61203223 0.8145582
000280 e9 17 ae bd 6f fb 46 bd 2e fc 92 bd b3 89 ed bd
       -0.08500654 -0.04857963 -0.07177006 -0.1159853
000290 01 84 c0 bd cd 04 03 3e 30 13 62 be 8a b7 46 bd
       -0.09400178 0.127948 -0.22077632 -0.04851488
0002a0 97 62 82 3e 7d d3 e3 3d 69 2a 88 be 6f 4e ff bd
       0.25465843 0.111243226 -0.26594856 -0.12466132
0002b0 b4 65 ab be e8 9e 8e 3e 9b 4c b2 3e 3c 92 07 3f
       -0.3347603 0.2785561 0.3482407 0.5295751
0002c0 99 e3 22 3d ab 7a 9b 3d 73 3b 89 bc f9 ae f6 bd
       0.039767835 0.075917564 -0.01675198 -0.12045092
0002d0 46 d6 82 be 64 89 87 3e 44 ea a6 be bc f0 06 be
       -0.25554103 0.26472008 -0.32600605 -0.1317777
0002e0 dd 1f b1 3d 5e 44 4f bd 8b 1d 9c bd b1 82 9e 3d
       0.086486556 -0.05060231 -0.076228224 0.07739771
0002f0 13 b5 e7 3c da 92 89 bd 96 61 2f 3e 20 06 df 3e
       0.028284585 -0.06717463 0.1712707 0.4355936
000300 66 e0 04 3e 38 70 52 3d f8 02 98 be b8 76 1b be
       0.12976226 0.05137655 -0.29689765 -0.15182006
000310 58 e3 33 be af d2 67 3e 61 65 3e bd 69 f4 8f 3e
       -0.17567194 0.22638963 -0.0464834 0.28116158
000320 d5 0d 85 bd 37 5e 6a 3d 1d c5 d7 be e5 7c 87 bd
       -0.06496779 0.057218757 -0.42142573 -0.066156186
000330 85 a3 fa be a7 94 09 3c ec 93 8e 3e 69 e1 00 3f
       -0.4895288 0.008397258 0.2784723 0.5034395
000340 10 1c fb bd 1b df 18 3e 8a 56 3c be dc 23 3e 3a
       -0.12261212 0.14928858 -0.18392387 0.0007253268
000350 3b e0 12 bd 39 53 8e bd 1d f1 5a be 23 de dd be
       -0.035858374 -0.06949467 -0.2138104 -0.4333354
000360 86 13 6d 3d e9 b1 80 bd 62 4d 09 bf b5 53 4d 3d
       0.057879947 -0.06283934 -0.536337 0.050128657
000370 77 bb 30 bf f6 14 19 be 7e 91 fc 3e 8e e8 46 3f
       -0.6903605 -0.14949402 0.49329752 0.776986
000380 a2 47 1d be dc 2c ff 3d 6e 6a 85 be 6f f5 8c be
       -0.15359357 0.12459728 -0.26057762 -0.27531
000390 98 a4 fd bd cc a1 89 3e 10 7e 27 3e 3a a2 2e be
       -0.123849094 0.26881254 0.16356683 -0.17054072
0003a0 2c f1 0a be 5f 79 47 be c8 83 0c bd e2 10 2b be
       -0.13568562 -0.19479893 -0.034305364 -0.16705659
0003b0 ef df 69 be 52 39 2a be 19 cc 68 be e4 03 23 3c
       -0.2283933 -0.16623428 -0.22734107 0.009949658
0003c0 86 67 73 3e 67 b0 97 be 39 3b 23 be d2 7c 1d 3d
       0.2376996 -0.29626772 -0.1594056 0.038449116
0003d0 31 d4 2e bc 0c 31 a0 3c f3 a4 fb bd 1e 9c d2 3d
       -0.010670708 0.019554637 -0.12287321 0.10283683
0003e0 ae d0 e8 3d cc 5f 27 be f9 ce c3 be 48 cd 38 bd
       0.113679275 -0.16345137 -0.38243845 -0.045117646
0003f0 e3 8b 1b be f8 cc a0 bd ca cd 37 3d 27 32 76 3d
       -0.15190081 -0.07851595 0.04487399 0.060106423

fc6.bias f4 [16]
000000 55 0b ad 3e d4 5d da bd 67 f9 57 bf ec 5b 0f bf
       0.33797708 -0.106624275 -0.8436493 -0.55999637
000010 ad c3 a9 be de 32 57 bf 66 43 ad be 85 84 e2 3e
       -0.331571 -0.8406199 -0.33840483 0.4424173
000020 cf 8d 3d 3d 9b f3 11 bf a6 94 af 3d 48 7b 15 be
       0.046277817 -0.5701234 0.08573274 -0.1459781
000030 e0 53 aa bd f9 01 66 3e 4c bf ea bd dc 02 38 3e
       -0.08316779 0.2246169 -0.11462268 0.17969841
