data/results/1731781981.pth (torch, 14370 bytes, 16 tensors)

fc1.weight f4 [16, 36]
-0.07539956 -0.08260046 0.29584914 0.15381709 -0.017041491 1.0529538 0.30583608 -0.21217564
-0.6883517 -0.23483877 0.08284578 -0.25301746 0.46917847 0.0064277234 0.029410752 -0.9491286
-0.21815257 -0.7453464 0.68575126 0.46328247 0.013984249 -0.50738037 0.6344059 -0.19852328
-0.9619575 -1.103989 -0.30329075 -1.1299839 -0.007844268 -0.02229456 0.043281816 0.02942111
-0.6428392 0.28067213 -0.025293455 -0.07242804 0.2322903 -0.04415745 0.38742307 0.44744468
-0.07015305 2.628002 0.43478212 0.40882388 0.5282539 0.36838466 -0.28647992 0.2916845
0.67972416 0.18828638 0.08292511 0.1185908 -0.32186547 -0.09062621 0.08758034 -0.3506787
-0.06531252 0.5997748 -0.49276996 -0.24016513 0.467673 0.1268367 0.330795 0.4471137
0.20586209 0.15554425 -0.088449106 0.41856816 -0.24763188 -0.03819419 0.08654555 -0.20223616
-0.1600949 -0.17679709 -0.6560315 0.04003188 0.03285464 0.36455652 0.08213509 0.43826866
0.393754 -0.90085644 0.8475992 -0.15442765 0.2233723 -0.39023313 0.28329822 -0.20832743
-0.08357375 -0.2084747 0.50504756 -0.5478527 -0.104778014 0.038457263 -0.4774266 -0.32536745
-0.6772091 0.5472529 0.2596785 0.19055387 -0.017317135 -0.08613566 -0.24617526 -0.5570115
0.785646 0.09912806 -0.12153162 -0.4031848 0.1699195 0.11644154 -0.54239684 0.15584695
0.06886948 1.4683089 -0.33353335 0.18735775 -0.63686025 0.11622936 0.32504582 -0.17252688
-0.37849018 0.25650483 -0.009379839 0.39216015 0.031680867 0.06803956 -0.12898211 -0.44519424
0.10335869 0.6627546 -0.038116198 -0.26083294 0.13288575 0.28098875 0.31696263 -1.4276835
-0.9562216 -0.4488748 0.1549182 -0.7074642 0.48236036 0.22895584 0.35433775 -0.13548137
-0.080470204 0.1403339 0.06259218 -0.0017658701 0.030047659 -0.12835197 0.61796886 0.3043183
0.9563792 -1.2631191 0.3402305 -0.256702 0.055265374 -0.39264753 0.5136082 0.48245686
-0.047366984 -0.03858774 0.092715554 0.6329463 0.45681712 -0.64657867 0.35376927 -0.1568068
-0.073215015 -0.5062805 0.91726476 0.6128657 0.32108295 0.3324863 0.1459741 0.81887025
-0.44929227 -0.4610726 0.47108483 -0.8981123 0.023622323 -0.117538266 0.28120336 -0.1470844
-0.12299944 -0.6237235 0.46342915 -0.36658478 -0.33457324 0.720593 0.32235292 0.18997957
1.2503464 0.097007826 -0.023979161 -0.03559497 0.68698245 0.21797824 0.6875234 -0.73102164
-0.25330094 -0.30223104 -0.14101021 -0.10372053 -0.06375075 0.11748036 0.6688855 0.09612636
0.43594265 -0.35152444 0.28480065 -0.6531413 -0.34283802 1.0955843 0.41031158 0.020970633
0.02598918 -0.26495418 0.23734032 0.069227055 0.05618142 0.026568647 -0.62604094 -0.8252039
-0.36717832 0.62194073 0.2761296 -0.4291524 -1.0114106 -0.5233537 0.25500715 -1.2607005
-0.06343111 -0.48941132 -0.55547214 0.15735254 -0.0047687967 -1.3520292 0.16852817 -0.29723114
-1.0744331 -0.3350902 -0.09685595 0.7392515 -0.17913033 0.1922342 0.5073813 -0.6112009
0.052286215 0.07676663 0.47246733 0.020650338 -0.24458422 0.09891798 0.5232047 0.025053281
00000000: 166b 9abd 6e2a a9bd 8a79 973e 3a82 1d3e
00000010: 999a 8bbc 31c7 863f 8c96 9c3e 9244 59be
00000020: d137 30bf 9379 70be 0cab a93d 818b 81be
00000030: 2938 f03e a79f d23b d1ee f03c 18fa 72bf
00000040: 6363 5fbe 06cf 3ebf 658d 2f3f 5c33 ed3e
00000050: 311e 653c aee3 01bf 6d68 223f b049 4bbe
00000060: d942 76bf 834f 8dbf ed48 9bbe 50a3 90bf
00000070: 3f85 00bc 15a3 b6bc 4648 313d 8a04 f13c
00000080: 1c91 24bf 42b4 8f3e 3834 cfbc 2755 94bd
00000090: 82dd 6d3e 71de 34bd 515c c63e 7817 e53e
000000a0: 67ac 8fbd 2f31 2840 c39b de3e 5d51 d13e
000000b0: a63b 073f ea9c bc3e 7fad 92be ac57 953e
000000c0: 6702 2e3f 25ce 403e a4d4 a93d bcdf f23d
000000d0: 8dcb a4be 3c9a b9bd 525d b33d 298c b3be
000000e0: 92c2 85bd d78a 193f 584c fcbe d9ed 75be
000000f0: d672 ef3e 7be1 013e f65d a93e 16ec e43e
00000100: 83cd 523e fe46 1f3e ce24 b5bd 914e d63e
00000110: 3693 7dbe 8371 1cbd cb3e b13d ff16 4fbe
00000120: ebef 23be 4c0a 35be aef1 27bf 78f8 233d
00000130: 9692 063d 27a7 ba3e 7136 a83d c064 e03e
00000140: 209a c93e 879e 66bf 43fc 583f 4822 1ebe
00000150: b5bb 643e a3cc c7be 770c 913e c953 55be
00000160: b728 abbd 647a 55be cc4a 013f 1340 0cbf
00000170: db95 d6bd 5d85 1d3d 4271 f4be 9096 a6be
00000180: 935d 2dbf c418 0c3f 95f4 843e 8e20 433e
00000190: aadc 8dbc e567 b0bd 5e15 7cbe 4e98 0ebf
000001a0: 1920 493f a703 cb3d 92e5 f8bd 3d6e cebe
000001b0: 61ff 2d3e e778 ee3d 85da 0abf 5896 1f3e
000001c0: 710b 8d3d 8cf1 bb3f e2c4 aabe b6da 3f3e
000001d0: 4609 23bf a909 ee3d 686c a63e e3aa 30be
000001e0: 77c9 c1be 9a54 833e e5ad 19bc 37c9 c83e
000001f0: ccc3 013d 5358 8b3d e313 04be 80f0 e3be
00000200: b9ad d33d 49aa 293f bb1f 1cbd e58b 85be
00000210: 3413 083e c2dd 8f3e ed48 a23e 55be b6bf
00000220: f0ca 74bf ebd2 e5be e0a2 1e3e 601c 35bf
00000230: f0f7 f63e 6673 6a3e c26b b53e a1bb 0abe
00000240: 90cd a4bd b1b3 0f3e 5430 803d c574 e7ba
00000250: 8226 f63c b36e 03be 3533 1e3f 9ccf 9b3e
00000260: 44d5 743f e3ad a1bf b132 ae3e 726e 83be
00000270: f25d 623d 1909 c9be d47b 033f 9604 f73e
00000280: e203 42bd 2e0e 1ebd a7e1 bd3d c508 223f
00000290: efe3 e93e 2e86 25bf 3f21 b53e f691 20be
000002a0: c1f1 95bd 999b 01bf ddd1 6a3f c4e4 1c3f
000002b0: fc64 a43e a53b aa3e 3c7a 153e 7ba1 513f
000002c0: a309 e6be b511 ecbe 0832 f13e b0ea 65bf
000002d0: 9a83 c13c e7b7 f0bd e3f9 8f3e 4b9d 16be
000002e0: 21e7 fbbd 58ac 1fbf 9646 ed3e 00b1 bbbe
000002f0: 2f4d abbe c878 383f 710b a53e 018a 423e
00000300: 5a0b a03f 0aac c63d f26f c4bc 08cc 11bd
00000310: 15de 2f3f b035 5f3e 8901 303f 3c24 3bbf
00000320: a9b0 81be 07be 9abe fb64 10be 6e6b d4bd
00000330: c18f 82bd 8b99 f03d 153c 2b3f e6dd c43d
00000340: e033 df3e 03fb b3be 64d1 913e 4534 27bf
00000350: 7788 afbe 1b3c 8c3f 5c14 d23e 9bca ab3c
00000360: 43e7 d43c 13a8 87be 5709 733e eac6 8d3d
00000370: 7d1e 663d 7ea6 d93c 3844 20bf 9040 53bf
00000380: ccfe bbbe 8237 1f3f dc60 8d3e ddb9 dbbe
00000390: e775 81bf 82fa 05bf 4c90 823e a25e a1bf
000003a0: 2be8 81bd 1f94 fabe 6c33 0ebf 0621 213e
000003b0: 9143 9cbb 4b0f adbf a692 2c3e ae2e 98be
000003c0: 0687 89bf f190 abbe 6a5c c6bd 963f 3d3f
000003d0: f16d 37be 0bd9 443e bee3 013f aa77 1cbf
000003e0: 122a 563d d337 9d3d 3de7 f13e e62a a93c
000003f0: 4974 7abe 8395 ca3d bef0 053f 8a3c cd3c

fc1.bias f4 [16]
-0.099256314 0.1955607 -0.91999835 0.2961893 -0.62608635 0.15472265 -0.37856945 0.011800379
0.14147924 -0.5596379 0.23419838 0.002769036 -0.53562087 -0.21240485 -0.14006265 -0.014997809
00000000: e546 cbbd 1041 483e 0385 6bbf 20a6 973e
00000010: 3247 20bf 9d6f 1e3e dbd3 c1be 6056 413c
00000020: efdf 103e 6e44 0fbf b3d1 6f3e b778 353b
00000030: 731e 09bf a880 59be 956c 0fbe 5fb9 75bc

fc2.weight f4 [16, 16]
-0.29492033 0.52987874 0.14760832 0.26983282 -0.73843217 0.5313622 0.4169804 0.7961204
-0.9686165 0.6897908 -0.21510053 0.15133786 -0.13357186 -0.1749429 -0.6456599 0.26354098
-0.45189652 -0.3675719 -0.47307217 -0.32798114 -1.1462474 -0.7075334 -0.04662009 0.71488434
-1.787642 0.6235774 -0.18608676 0.21538737 0.2546293 0.26194787 0.6925953 -0.06254112
0.41465035 -0.11814639 0.32526183 -0.22768354 -0.22569384 -0.07800814 -1.9404849 0.26742086
-0.44014582 0.5298183 -1.5743904 0.21431552 0.18951185 -0.25331867 -0.16417728 0.22778066
0.28328717 0.5071615 0.6841006 0.2844759 -0.12103559 -0.22073969 -0.04066806 0.39814216
-0.63201445 0.5519615 0.08620929 -0.13811286 -0.45212677 -0.03626092 0.07984713 0.26938632
0.6109162 -0.1702599 -1.4164686 -0.85045123 -0.34839994 0.56096154 -0.25390005 0.13710245
0.11149367 0.1694534 -0.2424369 -0.80172896 0.5624331 0.32133147 -0.35559326 -0.0001413268
0.4613804 -0.06856489 -0.45050174 0.6118402 0.0047380123 -0.62876385 0.38416502 0.08144452
0.13912304 0.02530447 -0.79530394 -0.26010272 -0.33747807 0.62179464 0.045619942 0.4633147
0.6680741 -0.24836393 0.62684155 -0.07682324 -1.0726541 -1.2209902 -1.4504087 -0.4757917
-0.8628852 0.42673242 0.19501679 0.81463265 0.15252492 0.15486766 -0.14991187 0.19845875
-0.45617613 -0.07727732 -0.35172018 -0.3356072 0.379707 0.53462386 0.64554614 -0.11770162
0.7080202 -0.02134415 0.094265334 0.0060396735 0.5093056 -0.4438842 -0.2925006 -0.33558804
0.4800128 0.58530676 0.10233812 0.38892406 -0.14767511 -0.084171996 -0.4354888 0.5597774
-0.4314353 0.625868 -0.04802744 0.023692857 -0.064520836 0.7702968 0.45528895 0.32671022
-0.24833292 -0.056807544 -1.2905419 0.45747268 0.35197222 -0.34868777 0.55634177 -1.0405576
0.4723404 -0.13497655 0.081765346 0.047640566 0.6605052 -0.20374036 -0.35910967 -0.017396204
-0.7160325 0.36034006 -0.9003025 -0.2918782 -2.172682 0.48826048 -0.7132152 -0.21539791
-0.9389205 0.88665044 -0.79213524 -0.73126054 -1.3799475 -0.06063866 -0.52156544 0.19713637
0.5976698 0.43298668 -0.36318392 0.45800048 -0.36021677 -1.9205171 -0.5730647 -0.09161902
0.6611035 -0.9903766 -0.4508999 0.034745395 -0.59132487 0.5443715 0.2770009 0.23376413
-0.7066678 -0.54294246 -0.020298546 -0.19933107 0.6720678 0.17852077 0.7285167 -0.09530214
0.2878322 -0.1918725 0.25620106 0.10806912 0.5588551 -0.18744093 -0.16681898 -0.4644815
0.35568368 -0.17400539 0.54944795 -0.79165787 -0.5955105 0.3202075 -0.4745214 0.060265515
-1.2026377 -1.0100713 -1.3448977 -0.47375804 -0.20983587 -0.6924943 0.48615596 -1.0540509
-0.2021086 -0.041573625 0.06314323 -0.15594813 -0.11271099 -0.19999072 -0.48881894 -0.6431499
0.03522164 -0.09983371 -0.076622374 -0.24293236 -0.4393873 0.068103366 -0.27585858 -0.2317722
0.53025484 0.76272786 0.33947724 0.39238465 -0.24503124 -0.02020249 -0.24857472 0.24510752
-0.31387353 0.37023547 0.0056296904 0.10861268 -0.022618491 0.6399949 0.83237195 0.43659908
00000000: ccff 96be 22a6 073f a326 173e 8727 8a3e
00000010: e409 3dbf 5a07 083f 747e d53e 8cce 4b3f
00000020: 40f7 77bf 2196 303f 5043 5cbe 50f8 1a3e
00000030: 10c7 08be 3b24 33be f849 25bf d8ee 863e
00000040: fb5e e7be 6232 bcbe 8436 f2be 25ed a7be
00000050: 3cb8 92bf e920 35bf b5f4 3ebd a902 373f
00000060: 74d1 e4bf c5a2 1f3f 878d 3ebe 828e 5c3e
00000070: c65e 823e 081e 863e ed4d 313f 8f15 80bd
00000080: 0d4d d43e bcf6 f1bd b888 a63e e025 69be
00000090: 491c 67be bbc2 9fbd cf61 f8bf 63eb 883e
000000a0: cb5a e1be 2ca2 073f a085 c9bf 8775 5b3e
000000b0: 650f 423e fcb2 81be 171e 28be 553f 693e
000000c0: 040b 913e 56d5 013f 3821 2f3f d3a6 913e
000000d0: 82e1 f7bd 9609 62be 8d93 26bd 4ad9 cb3e
000000e0: b3cb 21bf 594d 0d3f 7f8e b03d 756d 0dbe
000000f0: 297d e7be 5586 14bd e486 a33d 01ed 893e
00000100: 0165 1c3f 9c58 2ebe d84e b5bf 2cb7 59bf
00000110: 7a61 b2be 2d9b 0f3f 30ff 81be 9664 0c3e
00000120: cb56 e43d 3185 2d3e 6141 78be 1c3e 4dbf
00000130: 9efb 0f3f 8f85 a43e 5210 b6be 2031 14b9
00000140: 0d3a ec3e c06b 8cbd 2aa8 e6be 8fa1 1c3f
00000150: 5441 9b3b abf6 20bf 47b1 c43e 62cc a63d
00000160: 4576 0e3e 524b cf3c 0a99 4bbf 2f2c 85be
00000170: edc9 acbe ef2d 1f3f fadb 3a3d 9637 ed3e
00000180: e706 2b3f 1d53 7ebe b078 203f 8155 9dbd
00000190: bb4c 89bf 6849 9cbf fea6 b9bf f89a f3be
000001a0: 0be6 5cbf ac7c da3e 7bb2 473e c48b 503f
000001b0: 7e2f 1c3e a195 1e3e 7f82 19be c538 4b3e
000001c0: eb8f e9be 9243 9ebd ab14 b4be b5d4 abbe
000001d0: f568 c23e 1cdd 083f 8342 253f 8c0d f1bd
000001e0: d040 353f edd9 aebc 2f0e c13d 74e8 c53b
000001f0: da61 023f ca44 e3be a3c2 95be 32d2 abbe
00000200: 3dc4 f53e aad6 153f a696 d13d 0e21 c73e
00000210: 2538 17be 5e62 acbd 63f8 debe 924d 0f3f
00000220: 16e5 dcbe e338 203f 6cb8 44bd 8617 c23c
00000230: 8023 84bd 2c32 453f a21b e93e 9046 a73e
00000240: fc4a 7ebe 07af 68bd 7a30 a5bf dc39 ea3e
00000250: b435 b43e 3487 b2be 6a6c 0e3f fe30 85bf
00000260: 9ad6 f13e 4b37 0abe 9774 a73d c122 433d
00000270: de16 293f 50a1 50be 39dd b7be 7c82 8ebc
00000280: e84d 37bf 7e7e b83e 3a7a 66bf 0f71 95be
00000290: 390d 0bc0 47fd f93e 4595 36bf 4591 5cbe
000002a0: 185d 70bf 86fb 623f 60c9 4abf e433 3bbf
000002b0: 1fa2 b0bf 3e60 78bd 5085 05bf 1ede 493e
000002c0: e300 193f 6eb0 dd3e 3ef3 b9be 0a7f ea3e
000002d0: 556e b8be 81d3 f5bf 5eb4 12bf c1a2 bbbd
000002e0: 143e 293f 5289 7dbf 5adc e6be 3051 0e3d
000002f0: 1161 17bf ee5b 0b3f 10d3 8d3e dd5f 6f3e
00000300: 2ee8 34bf 47fe 0abf 2349 a6bc 721d 4cbe
00000310: a30c 2c3f 26ce 363e 1280 3a3f c52d c3bd
00000320: be5e 933e 3a7a 44be c92c 833e 5853 dd3d
00000330: 2111 0f3f 84f0 3fbe 98d2 2abe 85d0 edbe
00000340: 2c1c b63e 782e 32be 9fa8 0c3f 17aa 4abf
00000350: 6073 18bf 3df2 a33e 78f4 f2be f9d8 763d
00000360: 08f0 99bf 044a 81bf 9c25 acbf 6a90 f2be
00000370: 37df 56be 4e47 31bf 6fe9 f83e 24eb 86bf
00000380: 8ff5 4ebe 1b49 2abd 3d51 813d deb0 1fbe
00000390: 05d5 e6bd 5eca 4cbe 7a46 fabe 79a5 24bf
000003a0: 9144 103d 9e75 ccbd 31ec 9cbd 43c3 78be
000003b0: 5ff7 e0be c779 8b3d 563d 8dbe b155 6dbe
000003c0: c8be 073f 2242 433f f6cf ad3e a4e6 c83e
000003d0: 78e9 7abe b17f a5bc 5f8a 7ebe 77fd 7a3e
000003e0: 08b4 a0be 818f bd3e 4479 b83b 5370 de3d
000003f0: 6a4a b9bc b5d6 233f 5416 553f ea89 df3e

fc2.bias f4 [16]
-0.29379293 0.24021636 0.8263784 -1.0181962 -0.9198883 0.40276644 -0.19762704 0.57955664
0.38088107 -0.31369564 0.16079116 -0.73189986 0.19711533 -0.15244432 -0.37911248 -0.19062565
00000000: 076c 96be 47fb 753e 898d 533f 4154 82bf
00000010: cd7d 6bbf 6737 ce3e be5e 4abe d35d 143f
00000020: d802 c33e b79c a0be 70a6 243e ca5d 3bbf
00000030: 9ad8 493e 5d1a 1cbe 081b c2be 5f33 43be

fc3.weight f4 [16, 16]
0.50766116 1.0317676 0.68744606 0.26161292 -0.263006 0.27395302 0.6885385 -0.17195825
0.39283657 0.023513844 -1.0620269 0.98873067 -0.1911538 -0.087582715 -0.0873035 0.2555449
0.06853292 -0.1675621 0.08656097 -0.053892177 -0.1732544 -0.29827592 -0.3189221 -0.022120345
-0.122988105 -0.23546469 0.051383168 -0.3694935 -0.053702835 -0.35988724 0.050185464 0.020121831
0.5397251 0.7037356 0.94319445 0.20186025 -0.8970479 0.044582777 0.85830057 -0.17836024
0.17651467 -0.79770386 -1.9342413 -1.9153353 -0.029856432 0.9951893 0.02170283 0.035530835
0.5152211 1.0757836 0.49114126 0.48956183 -0.23590934 0.361506 1.0575 -0.1503913
0.28880534 -0.06061262 -1.08283 0.90683246 -0.19464585 0.6529822 0.08272283 0.30945382
0.76958287 0.8499887 0.8973511 0.15595342 -0.5071366 0.38236886 0.9605458 -0.20512915
0.43191606 -0.1314932 -1.1620252 0.9937594 -0.2004561 0.6928906 0.12103227 0.48831666
-0.51295364 -0.6636377 -0.34598273 -0.31312764 0.77453065 0.08461964 0.27908736 -0.14896242
0.083642766 -0.2443006 -0.5914606 -0.11178224 -0.22173779 0.039849542 0.06891429 0.02113784
0.051280692 -0.0067476975 -0.21707623 -0.087001465 0.12222502 -0.08439413 -0.31644621 -0.1497781
-0.40540594 -0.1895419 -0.06501305 -0.040469717 -0.26935133 -0.16150844 -0.2245341 -0.045655206
-0.31801367 -0.051878866 0.26932645 -0.1963426 0.5634138 -0.5229326 0.19963837 0.14651029
-0.86790985 0.2503367 0.8688812 -0.10385129 0.43874705 -0.02954975 -0.24041228 -0.591516
0.41720307 0.64877135 0.49894077 0.15339376 -0.4239324 0.14721313 0.74987733 -0.5016872
-0.02350749 -0.31233013 -0.7989976 0.6007762 -0.28077343 0.28996137 0.051440272 0.22847338
0.07093289 -0.13380921 0.1335064 0.10169043 -0.20601493 -0.18370578 -0.1960088 -0.07626349
-0.19033884 0.010140508 0.16561839 0.11051427 -0.090636864 0.060735077 0.08985883 -0.30700505
-0.16750897 -0.67243266 -0.3695992 -0.11806314 0.6760678 -0.22332278 -0.28437114 0.27543327
0.24476828 0.35258967 1.2481021 -0.017414572 0.49801555 -0.5587924 0.10978838 0.018600512
0.44197893 0.4958805 0.89613634 0.0769644 -1.1188124 0.11429103 0.89964753 -0.42794707
0.18738295 -1.1513573 -2.0636783 0.3472429 -0.457007 0.98598045 0.33306706 0.11860358
0.16406521 0.042568654 -0.0016739041 -0.09624823 0.05744439 0.08494736 -0.19336233 -0.26109305
-0.24727042 0.05436573 -0.085523844 -0.13567857 -0.07082977 0.18577908 -0.00016610516 -0.14307983
-0.4671084 0.22249578 -0.015065759 0.16381472 0.6423757 -0.16938712 -0.4655421 0.3831894
-0.12838687 0.16397458 1.4909163 -0.10545731 0.39128476 0.078453764 0.23058799 -0.31351274
-0.06577143 -0.15975927 -0.15809952 0.09650694 0.11721877 -0.27623335 -0.030393794 -0.27052185
-0.21457203 0.00467763 -0.1382108 -0.08904039 -0.1412836 -0.11468053 -0.12365766 -0.008787936
0.42356586 0.55720323 0.3472062 0.25886902 -0.3536967 0.087088026 0.64989984 -0.43763435
-0.07428983 -0.008782423 -0.4290851 0.5874274 -0.70552367 0.5951635 -0.099889055 0.27191296
00000000: 15f6 013f f610 843f 77fc 2f3f 21f2 853e
00000010: b9a8 86be 9243 8c3e 0f44 303f d315 30be
00000020: e021 c93e 1ba0 c03c 7ff0 87bf 741d 7d3f
00000030: d2bd 43be 915e b3bd 2dcc b2bd c8d6 823e
00000040: fd5a 8c3d 6695 2bbe e146 b13d 0bbe 5cbd
00000050: 9a69 31be 9fb7 98be c249 a3be ba35 b5bc
00000060: 30e1 fbbd a81d 71be 2877 523d 412e bdbe
00000070: 81f7 5bbd 2443 b8be 468f 4d3d 8ad6 a43c
00000080: 6d2b 0a3f 0428 343f 3175 713f 74b4 4e3e
00000090: eea4 65bf 6e9c 363d 96b9 5b3f 11a4 36be
000000a0: 43c0 343e 5236 4cbf 3895 f7bf b529 f5bf
000000b0: 7a95 f4bc bac4 7e3f 22ca b13c c888 113d
000000c0: 88e5 033f 47b3 893f de76 fb3e d9a7 fa3e
000000d0: 3892 71be 5017 b93e 295c 873f 2d00 1abe
000000e0: 4bde 933e f044 78bd 2c9a 8abf 2c26 683f
000000f0: 3e51 47be d729 273f 966a a93d bb70 9e3e
00000100: 6203 453f dc98 593f cdb8 653f 41b2 1f3e
00000110: b4d3 01bf dac5 c33e 54e6 753f 600d 52be
00000120: 1a24 dd3e 27a6 06be 3ebd 94bf 0467 7e3f
00000130: 5d44 4dbe 4761 313f c4df f73d a404 fa3e
00000140: ee50 03bf 29e4 29bf a624 b1be 4452 a0be
00000150: a447 463f 104d ad3d 8ae4 8e3e 9b89 18be
00000160: e64c ab3d f029 7abe f669 17bf 16ee e4bd
00000170: 3b0f 63be 4639 233d ef22 8d3d 4329 ad3c
00000180: b40b 523d ca1b ddbb 3b49 5ebe d32d b2bd
00000190: 1c51 fa3d d4d6 acbd 3d05 a2be 6e5f 19be
000001a0: 5e91 cfbe 4617 42be 9025 85bd 93c3 25bd
000001b0: 6be8 89be 7862 25be 44ec 65be f400 3bbd
000001c0: b0d2 a2be ef7e 54bd 28e5 893e 090e 49be
000001d0: e33b 103f e9de 05bf 006e 4c3e cb06 163e
000001e0: 572f 5ebf 222c 803e 006f 5e3f fcaf d4bd
000001f0: 74a3 e03e 5112 f2bc a32e 76be 986d 17bf
00000200: a49b d53e e115 263f 2a75 ff3e 4113 1d3e
00000210: ab0d d9be 0abf 163e f6f7 3f3f 936e 00bf
00000220: c892 c0bc bce9 9fbe 1b8b 4cbf 78cc 193f
00000230: 89c1 8fbe d175 943e 09b3 523d edf4 693e
00000240: 4345 913d 4805 09be e7b5 083e 1243 d03d
00000250: 94f5 52be 5e1d 3cbe 88b6 48be 0830 9cbd
00000260: 2fe8 42be 6024 263c de97 293e 4e55 e23d
00000270: d29f b9bd 58c5 783d e807 b83d c42f 9dbe
00000280: 7987 2bbe 8c24 2cbf 1b3c bdbe 16cb f1bd
00000290: c812 2d3f baae 64be 1899 91be 9705 8d3e
000002a0: 89a4 7a3e a286 b43e cfc1 9f3f 01a9 8ebc
000002b0: e5fb fe3e 050d 0fbf bbd8 e03d 1a60 983c
000002c0: 104b e23e 0de4 fd3e 3169 653f 839f 9d3d
000002d0: 3f35 8fbf 6a11 ea3d 4d4f 663f e11b dbbe
000002e0: 51e1 3f3e ad5f 93bf 4e13 04c0 d2c9 b13e
000002f0: d2fc e9be 3769 7c3f c487 aa3e 6fe6 f23d
00000300: b600 283e 785c 2e3d e766 dbba cb1d c5bd
00000310: cf4a 6b3d e2f8 ad3d c600 46be fdad 85be
00000320: 7534 7dbe 9aae 5e3d 2027 afbd 53ef 0abe
00000330: 330f 91bd df3c 3e3e 842c 2eb9 8583 12be
00000340: d528 efbe efd5 633e 60d6 76bc 0cbf 273e
00000350: bc72 243f d173 2dbe 895b eebe 6731 c43e
00000360: d977 03be f4e8 273e 58d6 be3f 01fa d7bd
00000370: 7a56 c83e 5eac a03d 421f 6c3e be84 a0be
00000380: 2cb3 86bd ef97 23be d7e4 21be 6ea5 c53d
00000390: 6510 f03d 756e 8dbe 68fc f8bc d781 8abe
000003a0: c5b8 5bbe ce46 993b 2287 0dbe cf5a b6bd
000003b0: a6ac 10be a0dd eabd 3a40 fdbd 46fb 0fbc
000003c0: a0dd d83e dfa4 0e3f 03c5 b13e 7b8a 843e
000003d0: bc17 b5be 355b b23d d65f 263f 9c11 e0be
000003e0: 4425 98bd 27e4 0fbc 0bb1 dbbe a461 163f
000003f0: 339d 34bf a35c 183f a292 ccbd 2d38 8b3e

fc3.bias f4 [16]
0.11840587 -0.4651962 -0.16922988 -0.0713054 0.013422717 0.85239476 -0.23939884 0.082324974
-0.22284988 -0.19383192 0.6552755 -0.4067015 -0.21862751 -0.039276447 -0.19006822 -1.7704654
00000000: c77e f23d 322e eebe 994a 2dbe 9108 92bd
00000010: f5ea 5b3c 8b36 5a3f f824 75be ff99 a83d
00000020: c232 64be e07b 46be 23c0 273f 2e3b d0be
00000030: e4df 5fbe 57e0 20bd 3ea1 42be 9c9e e2bf

fc4.weight f4 [16, 16]
-0.15760922 -0.0667728 0.9101994 -0.09568391 0.037462793 -0.56758076 0.21420476 0.2147123
0.1407005 -0.06621 -1.2507806 0.40289265 -0.12414077 -1.1642708 -0.16716465 2.5621893
0.6001667 0.0133124385 0.5265146 0.6373893 0.76449704 0.00093396386 -0.012427897 -0.19956003
0.23767349 0.12599802 -0.011481077 0.545176 0.24718834 0.05803273 -0.041928675 0.5470196
0.12684684 0.10198901 0.38534814 0.090441145 0.25317645 -0.11349549 0.18749793 -0.040865354
0.20782414 -0.13427438 -0.5891785 0.45271888 0.1959739 -0.42364973 -0.11076112 1.8224597
-0.106665574 -0.0014517964 -0.054016225 0.046217583 -0.10381088 -0.11726821 -0.16045117 -0.11577888
-0.25955936 -0.18727627 -0.12955882 -0.26465905 0.1442088 -0.38261062 0.08282796 -0.13478021
-0.5819244 0.011567669 -0.44930702 -0.56536305 -0.98140997 0.47850895 0.12771803 -0.009780962
-0.36465082 0.1073856 -0.048965808 0.3054054 0.1752343 0.34052923 0.08501539 -0.59237444
-0.24971841 0.14624406 -0.06008921 -0.0011152306 -0.3300228 0.5291551 -0.027711004 0.60191464
0.0034925442 -0.10211673 0.508769 0.08733221 -0.12958542 0.075459875 -0.015098147 -0.34175584
0.034340244 0.024615817 0.5239759 0.26395798 0.4841667 0.22423561 0.20515141 -0.36435932
0.4502684 -0.10124085 -0.3364965 0.6979768 -0.029203702 -0.3112666 -0.18963648 1.8916702
0.24024248 -0.02380558 -0.22480181 0.13420042 -0.07975945 0.09158402 -0.13629045 -0.48116404
0.036467697 0.113710016 -0.08044493 -0.035145644 0.19736876 -0.34772855 -0.21387051 -1.4834831
-0.13850847 0.22135611 0.16456006 -0.18676563 -0.05184432 -0.176451 -0.010090381 -0.17270051
-0.06416201 0.09439069 -0.25421634 -0.15417728 0.25902238 0.19553705 0.017793559 -0.05103376
0.16922563 -0.1984962 -0.2179248 -0.115209825 0.13142067 0.24355225 -0.07911881 0.42841896
0.12369487 -0.070972964 0.0010243693 0.06933068 0.22582383 0.21891335 -0.14006585 -1.5252522
-0.061472915 0.13981514 0.4020783 -0.13928176 -0.19542962 0.48705643 -0.19734241 0.7687899
0.057033196 -0.1570977 0.28537512 -0.0781632 0.203833 0.24816449 -0.18431032 -0.030885339
0.04738972 0.18449214 0.09473225 -0.09030074 0.01204053 0.45586556 -0.23717605 0.3302345
0.03666246 -0.23102896 0.119700536 -0.0041683866 -0.23100854 0.32137296 0.15365149 -0.970232
-0.2795709 -0.018833186 -0.032007318 -0.3956709 0.05891875 -0.07450834 -0.12790975 -0.20843515
-0.10632905 0.006575376 -0.07484808 -0.24042702 0.072042346 0.0014736024 -0.05528006 -0.025823252
0.2682246 0.22755444 0.7967415 0.18945564 0.04106576 -0.17625742 0.1247894 -0.29983243
0.12924595 0.1258376 -0.3394824 0.7223779 0.040892474 -0.4396278 0.12058801 1.7668276
0.51716876 0.21929863 0.7092959 0.62971115 0.73423976 0.169746 0.16250739 -0.1903534
0.28286508 -0.14560282 -0.102478184 0.52700764 -0.17628707 0.16559184 0.001913409 0.35013372
-0.7164688 0.011727416 -0.88154596 -0.6059276 -0.93943137 0.4081977 -0.09891519 0.19900426
-0.15907331 0.20548858 -0.031458396 0.40362743 0.2205904 0.18798892 -0.1865456 -0.46043628
00000000: 5064 21be 2ec0 88bd d402 693f edf5 c3bd
00000010: 9672 193d f94c 11bf 7e58 5b3e 8bdd 5b3e
00000020: cb13 103e 1c99 87bd 9419 a0bf f247 ce3e
00000030: 843d febd d306 95bf 362d 2bbe e9fa 2340
00000040: 86a4 193f 6a1c 5a3c a9c9 063f f22b 233f
00000050: 14b6 433f 41d5 743a 619e 4bbc 7759 4cbe
00000060: ae60 733e a005 013e 211b 3cbc a890 0b3f
00000070: f11e 7d3e bab3 6d3d 67bd 2bbd 7a09 0c3f
00000080: 23e4 013e 9ddf d03d 5a4c c53e 3539 b93d
00000090: 58a0 813e 5370 e8bd 75ff 3f3e 6e62 27bd
000000a0: dacf 543e 397f 09be 67d4 16bf c5ca e73e
000000b0: 62ad 483e 9ee8 d8be bad6 e2bd 5c46 e93f
000000c0: 7b73 dabd 344a beba 1e40 5dbd a64e 3d3d
000000d0: cc9a d4bd 512a f0bd 504d 24be 7a1d edbd
000000e0: f7e4 84be 5ac5 3fbe 11ab 04be 6481 87be
000000f0: 79ab 133e 8ae5 c3be b5a1 a93d d303 0abe
00000100: fff8 14bf 5286 3d3c 920b e6be a2bb 10bf
00000110: af3d 7bbf 20ff f43e 84c8 023e 5440 20bc
00000120: 83b3 babe fbec db3d 5f90 48bd 195e 9c3e
00000130: 9f70 333e d959 ae3e 8c1c ae3d daa5 17bf
00000140: 2fb6 7fbe 01c1 153e 1a20 76bd ee2c 92ba
00000150: c0f8 a8be b576 073f 3002 e3bc 1417 1a3f
00000160: 2be3 643b 9322 d1bd af3e 023f 3bdb b23d
00000170: 0ab2 04be b58a 9a3d 385e 77bc 9ffa aebe
00000180: 5ba8 0c3d 1ca7 c93c 4923 063f 8025 873e
00000190: b3e4 f73e 059e 653e 3613 523e 4e8d babe
000001a0: 9489 e63e 5d57 cfbd 4549 acbe 9cae 323f
000001b0: 9a3c efbc 565e 9fbe 1130 42be 4022 f23f
000001c0: 2002 763e eb03 c3bc 7232 66be d66b 093e
000001d0: ec58 a3bd 6790 bb3d b98f 0bbe 225b f6be
000001e0: 275f 153d cce0 e83d 50c0 a4bd e1f4 0fbd
000001f0: 091b 4a3e 7a09 b2be df00 5bbe c6e2 bdbf
00000200: 2ad5 0dbe 2dab 623e 6f82 283e 7d3f 3fbe
00000210: b65a 54bd 92af 34be 2052 25bc 67d8 30be
00000220: 5f67 83bd e84f c13d a528 82be a6e0 1dbe
00000230: 959e 843e dd3a 483e ccc3 913c c708 51bd
00000240: 7c49 2d3e 9642 4bbe ae27 5fbe 21f3 ebbd
00000250: 2493 063e c365 793e 0b09 a2bd bb59 db3e
00000260: bc53 fd3d 465a 91bd 2144 863a 3efd 8d3d
00000270: 5d3e 673e d22a 603e 6c6d 0fbe 773b c3bf
00000280: 06cb 7bbd b32b 0f3e 35dd cd3e e19f 0ebe
00000290: b41e 48be 765f f93e 2114 4abe 6acf 443f
000002a0: a49b 693d 38de 20be b01c 923e 0714 a0bd
000002b0: 99b9 503e d51e 7e3e d8bb 3cbe 4003 fdbc
000002c0: b91b 423d 82eb 3c3e fb02 c23d 98ef b8bd
000002d0: a545 453c 3667 e93e 47de 72be 7f14 a93e
000002e0: 602b 163d db92 6cbe 8e25 f53d f696 88bb
000002f0: 818d 6cbe ff8a a43e d156 1d3e 2061 78bf
00000300: eb23 8fbe 0e48 9abc 1b1a 03bd 6095 cabe
00000310: ca54 713d d497 98bd c6fa 02be 0670 55be
00000320: 0cc3 d9bd 4076 d73b f349 99bd 8032 76be
00000330: f08a 933d e425 c13a 586d 62bd 498b d3bc
00000340: bc54 893e 0804 693e 40f7 4b3f a900 423e
00000350: 9234 283d d37c 34be 9691 ff3d a383 99be
00000360: 0d59 043e 92db 003e a3d0 adbe c2ed 383f
00000370: de7e 273d e516 e1be d9f6 f63d 6827 e23f
00000380: 2c65 043f d28f 603e 6b94 353f c034 213f
00000390: 23f7 3b3f e5d1 2d3e 5668 263e 00ec 42be
000003a0: b1d3 903e e818 15be 15e0 d1bd f9e9 063f
000003b0: 9984 34be e890 293e 5acb fa3a ba44 b33e
000003c0: 806a 37bf 5924 403c ffac 61bf 121e 1bbf
000003d0: 937e 70bf 4aff d03e 0c94 cabd c6c7 4b3e
000003e0: 1de4 22be 996b 523e 85da 00bd 41a8 ce3e
000003f0: 73e2 613e 2b80 403e cf05 3fbe 4ebe ebbe

fc4.bias f4 [16]
-0.99873173 -0.061311316 -0.38631678 -0.27473927 0.12243815 0.29601195 -0.3580247 0.75747836
-0.112221405 0.9241988 0.4416559 0.89175403 -0.20050417 -0.3485996 -0.22619972 0.30290267
00000000: e2ac 7fbf 9321 7bbd 50cb c5be a0aa 8cbe
00000010: dac0 fa3d e18e 973e 034f b7be 1aea 413f
00000020: 56d4 e5bd 4b98 6c3f b920 e23e fe49 643f
00000030: f750 4dbe a67b b2be e6a0 67be 0f16 9b3e

fc5.weight f4 [16, 16]
-0.18408921 0.026372313 -0.18201461 -0.04621306 0.16466537 0.11085868 0.2264128 -0.14063169
-0.18284187 0.014203562 -0.20590414 -0.048828896 -0.12028729 -0.18523401 -0.11179741 -0.14948934
0.24495012 -0.75106543 0.030269768 0.18477401 0.3938742 0.3522791 -0.28835937 0.13572776
0.22394681 -0.0049342006 0.09039815 0.2722226 -0.10498896 -0.14844549 -0.78663105 0.40409267
0.62623924 0.46759677 0.40035075 0.25231227 0.12863764 -0.28920043 0.3505833 0.09703768
-0.079022974 -0.06179272 -0.26581785 0.0013773676 -0.051350374 0.3547703 0.2747618 0.21097301
-0.37863514 -0.12566459 -0.36109078 0.11055946 0.03527632 0.17541406 -0.22597514 -0.22861247
-0.22966978 -0.07974662 0.093493424 -0.24631613 -0.077236354 -0.3343555 -0.080156624 0.078135185
0.008849193 -0.07593864 -0.33721578 0.21731758 0.14675176 -0.24657387 0.06736134 -0.05157265
-0.037338704 -0.2474104 -0.35211366 -0.35807586 0.23052299 -0.28965238 -0.14913851 -0.1480568
-0.20016754 0.096941955 -0.15452047 -0.20984259 -0.12739675 -0.20575385 -0.17703448 -0.070944905
-0.011085659 -0.29459345 -0.100790784 -0.09754824 0.026332587 -0.2710686 -0.16305117 -0.10624815
-0.048723415 -0.43196392 -0.201033 0.17813365 0.37076384 -0.124152124 -0.16770908 0.116945095
-0.092154734 -0.041703664 0.21741867 0.25565892 0.020720465 0.10592266 -0.260759 0.25307432
0.60221106 0.22184023 0.10285659 0.02547009 -0.023889728 -0.5923042 0.30494213 -0.14899649
0.10403813 -0.2705108 -0.6192592 -0.48627365 0.13828552 0.17302431 0.38364762 0.1336365
-0.03479287 -0.19489996 -0.30588332 -0.1281771 -0.30352193 -0.042394526 -0.37901527 -0.21426965
0.0068489313 0.033848453 -0.20252931 -0.15287411 0.11031118 -0.05353198 -0.14402507 0.030026546
0.08759165 -0.9950472 -0.3145031 -0.07465013 0.14435257 0.13605598 -0.82519275 -0.50963277
-0.22414544 0.057337116 0.025497356 0.043664377 0.064371526 -0.34746602 -0.9080554 0.34889147
0.6016631 0.033219505 0.19539209 -0.15193325 0.060666203 -0.05163203 0.038556863 0.07940241
0.2785463 -0.26562968 -0.05543716 -0.20325318 -0.051113416 -0.1237618 -0.257921 -0.018209375
-0.24367002 -0.022787385 0.20547308 -0.1946207 -0.24479935 0.015797777 -0.058154367 0.1616367
-0.19836867 -0.27588025 0.08474045 -0.12919179 0.18094628 0.06814541 -0.20689349 0.114487305
0.0010069761 -1.8624845 -0.6573123 0.035500735 0.48847905 0.095494725 -1.1145213 0.035303578
-0.11483005 -0.048169635 0.3778415 -0.0006960559 -0.11038227 -0.43319112 -1.3286258 0.4782636
-0.08377448 -0.0054263473 -0.13576555 -0.11588192 -0.1291478 0.039737433 -0.19524872 0.020322591
0.03180003 -0.1585255 0.033560097 -0.24487326 -0.17939803 -0.01718232 0.09484732 0.1988
-0.10885012 -0.02733375 -0.16670078 0.24057415 -0.17315632 -0.16010384 -0.23469174 -0.16442814
-0.04797995 0.13855447 0.17690815 -0.119157284 -0.059556365 0.18947417 -0.15292051 -0.24020302
1.0351924 -0.13029838 0.32111004 -0.11881711 -0.5910128 -0.647553 0.24528652 -1.1540399
0.085707046 -1.5191591 -0.26142037 -1.2714797 -0.11616427 0.3068383 -0.125418 -0.38712248
00000000: e281 3cbe c00a d83c 0a62 3abe e849 3dbd
00000010: 0a9e 283e e009 e33d c2d8 673e c101 10be
00000020: e63a 3bbe 0fb6 683c 89d8 52be cf00 48bd
00000030: 2f59 f6bd fcad 3dbe 0af6 e4bd bc13 19be
00000040: 34d4 7a3e d345 40bf 4ef8 f73c 6635 3d3e
00000050: e1a9 c93e ed5d b43e d7a3 93be 38fc 0a3e
00000060: 5052 653e 13af a1bb aa22 b93d c360 8b3e
00000070: 7404 d7bd 1802 18be a760 49bf 3ce5 ce3e
00000080: 3751 203f d868 ef3e c6fa cc3e 132f 813e
00000090: 96b9 033e 1412 94be a87f b33e b1bb c63d
000000a0: ccd6 a1bd 5d1a 7dbd 4719 88be ca88 b43a
000000b0: c554 52bd 74a4 b53e 94ad 8c3e 4f09 583e
000000c0: 77dc c1be 38ae 00be e4e0 b8be 006d e23d
000000d0: e77d 103d be9f 333e 0766 67be 6319 6abe
000000e0: 8e2e 6bbe 3252 a3bd 7b79 bf3d 4c3a 7cbe
000000f0: 182e 9ebd a530 abbe 2829 a4bd 5705 a03d
00000100: 35fc 103c b885 9bbd 8ca7 acbe 8088 5e3e
00000110: 1846 163e dc7d 7cbe bef4 893d d83d 53bd
00000120: 78f0 18bd 2759 7dbe 3e48 b4be b855 b7be
00000130: 380e 6c3e 514d 94be c4b7 18be 349c 17be
00000140: b8f8 4cbe 8189 c63d 9d3a 1ebe fae0 56be
00000150: 4b74 02be 23b1 52be 8748 35be 904b 91bd
00000160: a0a0 35bc f4d4 96be 666b cebd 5fc7 c7bd
00000170: 70b7 d73c 81c9 8abe e3f6 26be a198 d9bd
00000180: 3492 47bd 602a ddbe 98db 4dbe ab68 363e
00000190: c2d4 bd3e 7843 febd eebb 2bbe e980 ef3d
000001a0: 9fbb bcbd 76d1 2abd 00a3 5e3e bae5 823e
000001b0: f7bd a93c fbed d83d 3482 85be f592 813e
000001c0: 812a 1a3f 162a 633e 7aa6 d23d a6a6 d03c
000001d0: 64b4 c3bc 40a1 17bf 6021 9c3e 8992 18be
000001e0: f111 d53d 6480 8abe c587 1ebf dcf8 f8be
000001f0: b89a 0d3e 492d 313e 766d c43e 02d8 083e
00000200: f882 0ebd db93 47be bd9c 9cbe dc40 03be
00000210: 3a67 9bbe e2a5 2dbd 4a0e c2be 8169 5bbe
00000220: 006d e03b ada4 0a3d d863 4fbe 088b 1cbe
00000230: d4ea e13d 5944 5bbd 4f7b 13be 3bfa f53c
00000240: 4063 b33d 6abb 7ebf 8d06 a1be 2be2 98bd
00000250: 29d1 133e 4252 0b3e d53f 53bf 4b77 02bf
00000260: 6286 65be 53da 6a3d d5df d03c 6bd9 323d
00000270: 38d5 833d 11e7 b1be 5276 68bf e7a1 b23e
00000280: 9806 1a3f 2d11 083d dd14 483e 6494 1bbe
00000290: 207d 783d 1c7c 53bd cded 1d3d bb9d a23d
000002a0: 9f9d 8e3e 9d00 88be 1312 63bd 9a21 50be
000002b0: 4d5c 51bd d476 fdbd 390e 84be d42b 95bc
000002c0: a284 79be 9cac babc 8967 523e a64a 47be
000002d0: aeac 7abe 576a 813c 4633 6ebd 1784 253e
000002e0: 2821 4bbe 2d40 8dbe 678c ad3d da4a 04be
000002f0: fb49 393e d28f 8b3d e3db 53be 5278 ea3d
00000300: 83fc 833a e465 eebf 9e45 28bf 3869 113d
00000310: ed19 fa3e bd92 c33d a2a8 8ebf 7c9a 103d
00000320: 042c ebbd 864d 45bd 7174 c13e 8577 36ba
00000330: 1910 e2bd 3acb ddbe 6910 aabf f7de f43e
00000340: f491 abbd 80cf b1bb 2006 0bbe 8053 edbd
00000350: 523f 04be b8c3 223d 48ef 47be 907b a63c
00000360: c040 023d 8254 22be 5076 093d 0ec0 7abe
00000370: 1eb4 37be f0c1 8cbc 503f c23d 3a92 4b3e
00000380: d0ec debd 07eb dfbc 9cb3 2abe 1259 763e
00000390: e44f 31be 43f2 23be 0853 70be da5f 28be
000003a0: a086 44bd 39e1 0d3e 6927 353e bc08 f4bd
000003b0: 60f1 73bd 8405 423e 3297 1cbe c8f7 75be
000003c0: 2f81 843f f06c 05be 8968 a43e 6356 f3bd
000003d0: 9d4c 17bf 09c6 25bf 642c 7b3e 94b7 93bf
000003e0: 2d87 af3d ce73 c2bf e4d8 85be d9bf a2bf
000003f0: 88e7 edbd e919 9d3e 946d 00be eb34 c6be

fc5.bias f4 [16]
-0.15385124 0.39481828 -0.5304091 -0.32649794 -0.20987397 -0.17548035 0.035689324 -0.3567204
-0.32371098 -0.05639983 -0.5116554 -0.20276593 -0.34422854 -0.019520193 -0.12577532 -1.1355314
00000000: 2e8b 1dbe 9f25 ca3e e4c8 07bf bd2a a7be
00000010: 34e9 56be 1fb1 33be f82e 123d 0ea4 b6be
00000020: 72bd a5be 8203 67bd d9fb 02bf dfa1 4fbe
00000030: b93e b0be d0e8 9fbc 3fcb 00be 1859 91bf

fc6.weight f4 [16, 16]
0.18237558 0.25084475 -0.68609905 -0.014258282 0.18323573 0.21503124 0.00043610187 -0.1547486
-0.110956304 0.5022956 -0.13652787 0.09512404 1.0887675 0.07510123 -0.13901202 -0.22754426
0.17056677 -0.24464469 0.3237433 0.05658815 -0.11487569 -0.058225263 -0.14290544 0.29763263
-0.21205112 -0.26177487 -0.07962645 0.1932785 -0.062836 -0.17672506 -0.04957524 0.48685947
0.24046466 -0.13768387 -0.044885993 0.21778652 -0.05171457 0.22252202 -0.2788767 -0.14625104
-0.19782108 0.1755543 -0.18961614 0.042386264 0.00019857287 -0.2429775 0.09637052 -0.021774724
0.012115121 0.07134213 -0.06675319 0.020806324 -0.27383792 0.15280713 0.1293123 -0.019845838
0.32322833 -0.08995615 0.051920064 -0.26182947 -0.66545206 0.022678852 0.09779141 0.4277477
-0.10826987 -0.3354245 0.0801353 0.01613659 -0.28504646 0.21634448 -0.26293224 -0.29820818
-0.22301239 -0.31967422 -0.07551529 -0.12362544 -0.03533813 0.21908003 -0.15537074 0.87870675
-0.07705465 0.3684391 -0.40098703 0.05964479 -0.116214305 -0.12461141 0.14486971 -0.13717832
0.08842958 0.23633194 -0.2642978 0.1745179 0.7974309 -0.038247228 -0.21870941 -0.07096961
-0.13778538 0.07928559 -0.09464356 -8.7864486e-05 -0.014079763 0.10254139 -0.7951517 0.23540457
0.006119013 -0.22651869 0.15617135 0.12457648 -0.11972534 -0.09654933 0.16661194 1.3516439
0.107984275 0.374073 -0.37754235 -0.3071201 -0.14388886 -0.040091157 0.16600187 -0.53486556
0.09336309 -0.030929351 0.053097676 0.14526644 0.7230216 0.09759426 0.09333608 -0.14626776
0.05330175 -0.004484888 0.12940685 0.115891576 -0.059851553 -0.1443812 0.005586064 -0.06544468
0.19617622 0.13241968 -0.016475603 -0.003353068 -0.5952221 0.0029616058 -0.13462965 0.17207505
0.11857424 -0.15302292 -0.031219974 -0.14544106 -0.23073189 -0.16029127 -0.33660337 -0.17203096
-0.169947 0.11219806 0.088143185 -0.021092413 0.040889792 -0.16699764 0.21831036 0.8610167
0.20289174 -0.11608434 -0.16908935 -0.21277377 -0.015003353 0.00988549 -0.06110844 -0.19802985
0.03369862 0.10861674 0.11531532 -0.05457735 -0.19997275 0.069457084 0.14091915 0.08113
0.16508359 0.11086507 -0.19393693 -0.281772 -0.14520077 -0.24100047 -0.16991198 0.08146483
-0.07390171 0.45234483 0.023013612 0.12210788 1.5546427 0.108350515 0.18083443 0.616699
-0.05488828 -0.345843 0.30136734 0.009872576 0.071520284 0.18973994 -0.25873208 0.2788492
-0.02420805 0.018275162 0.17211173 0.123050205 0.20075622 0.10787547 0.16591752 0.85203594
0.13239563 0.107212245 0.03572862 0.1510663 0.06006196 0.097307555 -0.34610438 -0.17016686
0.20345348 -0.21016915 0.021487119 0.028398931 0.22303563 -0.04609859 -0.07319358 0.053611137
-0.09685486 -0.5378769 0.005300894 -0.4123423 -0.07205532 0.14987156 -0.09489804 0.2156147
-0.3877852 -0.23125575 -0.0878159 0.16900088 -0.10235624 -0.009890288 -0.24488181 0.5043665
-0.2597124 0.37232372 -0.29960147 -0.021227187 0.2155953 0.11104652 0.09153504 -0.23827508
-0.098896496 0.15819809 -0.2136946 -0.046147373 -0.7067023 -0.09910759 0.025135817 0.019796362
00000000: aac0 3a3e b96e 803e 30a4 2fbf 929b 69bc
00000010: 26a2 3b3e 2631 5c3e 9aa4 e439 6b76 1ebe
00000020: 0f3d e3bd 7296 003f f6cd 0bbe 65d0 c23d
00000030: bc5c 8b3f acce 993d 2b59 0ebe 5d01 69be
00000040: 0ea9 2e3e 2384 7abe afc1 a53e fac8 673d
00000050: f243 ebbd 9d7d 6ebd ce55 12be 4e63 983e
00000060: ee23 59be 5b07 86be 3113 a3bd cdea 453e
00000070: 29b0 80bd 6af7 34be 680f 4bbd a545 f93e
00000080: 5e3c 763e 00fd 0cbe 60da 37bd 6e03 5f3e
00000090: a8d2 53bd d0dc 633e edc8 8ebe d5c2 15be
000000a0: 9c91 4abe 82c4 333e bc2a 42be 389d 2d3d
000000b0: 0038 5039 18cf 78be e85d c53d e860 b2bc
000000c0: 807e 463c d31b 923d e5b5 88bd 0672 aa3c
000000d0: 7c34 8cbe 7979 1c3e 726a 043e bd93 a2bc
000000e0: 2f7e a53e ee3a b8bd 22aa 543d 830e 86be
000000f0: 115b 2abf 00c9 b93c dd46 c83d bf01 db3e
00000100: 98bc ddbd c3bc abbe fa1d a43d e230 843c
00000110: 9cf1 91be 6889 5d3e 0e9f 86be beae 98be
00000120: 5c5d 64be 57ac a3be c3a7 9abd 562f fdbd
00000130: b7be 10bd 8456 603e 8219 1fbe edf2 603f
00000140: d4ce 9dbd 0da4 bc3e 2c4e cdbe 184e 743d
00000150: c401 eebd 4434 ffbd ba58 143e 7978 0cbe
00000160: 911a b53d 0001 723e 0b52 87be d2b4 323e
00000170: 6e24 4c3f 20a9 1cbd 5cf5 5fbe 8458 91bd
00000180: 9c17 0dbe 7c60 a23d 7cd4 c1bd e343 b8b8
00000190: ceae 66bc 3801 d23d 108f 4bbf e50d 713e
000001a0: 0082 c83b 84f4 67be 62eb 1f3e f421 ff3d
000001b0: 8f32 f5bd a8bb c5bd 529c 2a3e ab02 ad3f
000001c0: dc26 dd3d 7f86 bf3e 3b4d c1be d93e 9dbe
000001d0: 9a57 13be a036 24bd 65fc 293e f3ec 08bf
000001e0: 2635 bf3d 8d5f fdbc f37c 593d bac0 143e
000001f0: f217 393f 80df c73d fd26 bf3d 37c7 15be
00000200: f052 5a3d f8f5 92bb 3b83 043e 9058 ed3d
00000210: e726 75bd aad8 13be 4d0b b73b dc07 86bd
00000220: 6be2 483e 0699 073e d8f7 86bc 25bf 5bbb
00000230: 7a60 18bf 8017 423b 5bdc 09be 7134 303e
00000240: 0dd7 f23d 0ab2 1cbe 08c1 ffbc 80ee 14be
00000250: fb44 6cbe 6523 24be 4757 acbe e228 30be
00000260: 9606 2ebe 19c8 e53d 6a84 b43d ffc9 acbc
00000270: 0e7c 273d 6e01 2bbe c08c 5f3e 976b 5c3f
00000280: dac2 4f3e a0bd edbd c225 2dbe 5ee1 59be
00000290: a0d0 75bc c0f6 213c d84c 7abd 56c8 4abe
000002a0: 9007 0a3d 7472 de3d 702a ec3d 808c 5fbd
000002b0: a8c5 4cbe 843f 8e3d 1c4d 103e 7c27 a63d
000002c0: ac0b 293e 3a0d e33d 6797 46be 6b44 90be
000002d0: 83af 14be d4c8 76be 68fd 2dbe 08d7 a63d
000002e0: c859 97bd be99 e73e 0b87 bc3c b213 fa3d
000002f0: 88fe c63f e0e6 dd3d a92c 393e fcdf 1d3f
00000300: 88d2 60bd 5512 b1be d24c 9a3e 96c0 213c
00000310: 3a79 923d 304b 423e 8878 84be 53c5 8e3e
00000320: f64f c6bc cbb5 953c 0f3e 303e bf01 fc3d
00000330: 0a93 4d3e d0ed dc3d 48e6 293e 071f 5a3f
00000340: b892 073e 1892 db3d 2c58 123d 20b1 1a3e
00000350: 8803 763d 2f49 c73d 9834 b1be 3940 2ebe
00000360: 1c56 503e 9536 57be c105 b03c e0a4 e83c
00000370: 7463 643e e0d1 3cbd 84e6 95bd 5a97 5b3d
00000380: d75b c6bd 4db2 09bf 1fb3 ad3b 881e d3be
00000390: bd91 93bd ee77 193e e759 c2bd 1aca 5c3e
000003a0: c88b c6be 4fce 6cbe d3d8 b3bd 910e 2d3e
000003b0: 26a0 d1bd e00a 22bc 4cc2 7abe 2a1e 013f
000003c0: 06f9 84be 37a1 be3e 5d65 99be a3e4 adbc
000003d0: 04c5 5c3e 5c6c e33d b976 bb3d 62fe 73be
000003e0: 3f8a cabd aefe 213e c2d2 5abe 0705 3dbd
000003f0: 71ea 34bf ecf8 cabd a1e9 cd3c fb2b a23c

fc6.bias f4 [16]
0.32607242 -0.23095615 -0.28401446 -0.27192113 -0.68283516 0.29755408 -1.3859478 0.6513598
-0.28154677 -0.32357097 -0.12988341 -0.58110386 -0.36078802 -0.38588524 -0.30245742 0.41137177
00000000: f7f2 a63e c57f 6cbe 586a 91be 3f39 8bbe
00000010: 49ce 2ebf 0259 983e bd66 b1bf 84bf 263f
00000020: e626 90be 18ab a5be 2800 05be 39c3 14bf
00000030: 35b9 b8be c092 c5be b3db 9abe 529f d23e

fc7.weight f4 [16, 16]
-0.28648788 0.051204573 -0.07748853 -0.056000214 -0.06496296 0.1203451 -0.04049828 -0.2980915
-0.36519602 -0.014644228 0.08665246 0.20194136 -0.038850907 -0.16658701 -0.14382726 -0.20403953
-0.044830672 -0.3733277 -0.17677239 -0.28308046 -0.14388938 -0.049835302 0.1380056 -0.28150758
-0.37963352 -0.2795103 -0.21984354 0.36505312 -0.16905953 -0.1856021 -0.015832806 0.0062024803
0.4314694 -0.19498855 0.20643485 -0.58865327 -0.032597292 0.15887687 -0.002366662 0.018096648
-0.16995524 -0.31983793 -0.11966035 1.2436504 -0.07443862 -0.26929805 -0.10867588 -0.38590458
-0.027531536 -0.20372608 0.10228997 0.048792444 -0.1349902 -0.20415755 0.13049011 -0.24309848
0.093660824 0.023559665 0.13484865 -0.14798376 -0.1364289 0.034920752 0.03707211 -0.35016862
-0.05575931 -0.154221 0.13708135 -0.2721202 0.027928475 0.061066777 -0.14221165 -0.17274886
0.030774293 0.14091362 0.011649817 0.019376347 -0.007501194 0.19967987 -0.3274958 -0.1996446
0.08433086 -0.0768702 0.13080826 0.059670925 0.16029918 -0.16026689 -0.1731393 0.04483498
-0.13130775 0.06920624 0.19395864 0.058381967 -0.02431205 -0.16914183 -0.123058766 -0.024495766
0.27913386 0.074167795 0.16062665 -0.7373829 0.07847234 0.22302549 -0.250502 -0.16080546
-0.549567 0.06078426 0.24946815 1.146928 -0.2867408 0.015238754 -0.1718318 -0.4310835
-0.27746564 0.288187 0.021827966 0.017389705 -0.022113435 -0.25610778 0.42528322 -0.43686423
0.028813284 0.036809966 -0.085617065 0.0851358 0.36234263 -0.07695212 0.062171128 -0.07752206
0.5527502 -0.4378175 0.07533583 -0.005641827 -0.16504759 0.4180312 0.019470274 0.5590753
-0.17869744 -0.2372165 -0.008959979 0.90931195 -0.23483141 0.0010004789 -0.1394925 0.30520368
-0.21201731 0.0014764419 -0.010542238 -0.22163792 0.15683094 -0.3056976 0.2034764 -0.50622267
0.0650154 -0.4377877 0.056328535 0.20555529 -0.010560846 -0.00014898056 -0.17914116 0.015673136
-0.0065150256 -0.29614955 0.031021327 -0.3231993 -0.022241116 -0.26636994 0.019450944 -0.21129642
0.0036428126 0.043249417 0.12263462 -0.33066088 0.16095646 0.06606519 -0.2458938 0.10039268
-0.2642109 -0.11553681 -0.10989507 0.1243244 0.32388207 -0.006814452 -0.29190028 -0.055721976
-0.1820007 -0.15950516 0.15252104 -0.05214158 -0.09334606 0.16080558 -0.20048203 -0.047985572
-0.31690982 0.046863463 -0.15466437 -0.19597924 0.14565256 -0.19456093 0.117100775 0.05653242
-0.12546226 -0.16070749 0.13879862 0.298907 -0.105665326 0.0946744 -0.10823324 0.04916847
-0.1744438 -0.280966 -0.19070053 0.052627202 0.32129744 -0.06675606 0.9315372 -0.23612852
-0.045203317 0.089089945 0.23864278 0.02781386 0.07971573 0.016179321 -0.08231337 -0.37386668
-0.51893926 -0.46591133 -0.076637894 0.10716336 -0.49964336 -0.009514801 -0.1351317 0.14721103
-0.15329714 -0.103330135 -0.02326116 -0.05783028 -0.5078583 -0.036167264 -0.34989482 -0.051001858
0.15695031 -0.17730618 0.1532203 -0.34113383 -0.051705338 -0.13861614 -0.20420446 -0.010302789
-0.20394762 -0.08330547 0.18391636 0.70153636 0.046990156 -0.3507006 -0.4100023 -0.10805045
00000000: 8aae 92be e3bb 513d 4eb2 9ebd 7b60 65bd
00000010: 4d0b 85bd 7e77 f63d 86e1 25bd 739f 98be
00000020: f9fa babe 58ee 6fbc d876 b13d b7c9 4e3e
00000030: 2122 1fbd c995 2abe 7447 13be bdef 50be
00000040: 5ea0 37bd cf24 bfbe d203 35be ecef 90be
00000050: bd57 13be 1a20 4cbd 5751 0d3e c321 90be
00000060: 535f c2be f91b 8fbe aa1e 61be 3ee8 ba3e
00000070: f11d 2dbe 7a0e 3ebe cdb3 81bc 2d3e cb3b
00000080: 8fe9 dc3e 14ab 47be a863 533e fbb1 16bf
00000090: bd84 05bd 9eb0 223e 001a 1bbb 6c3f 943c
000000a0: bf08 2ebe ccc1 a3be 7c10 f5bd f02f 9f3f
000000b0: 4673 98bd 6fe1 89be 7691 debd 4995 c5be
000000c0: d189 e1bc 929d 50be 677d d13d 96da 473d
000000d0: df3a 0abe ad0e 51be 339f 053e cfee 78be
000000e0: 3fd1 bf3d 3300 c13c c415 0a3e 0e89 17be
000000f0: 04b4 0bbe 1009 0f3d edd8 173d 4d49 b3be
00000100: e063 64bd 1cec 1dbe 0e5f 0c3e 5753 8bbe
00000110: 42ca e43c 2821 7a3d ee9f 11be 14e5 30be
00000120: 5f1a fc3c a94b 103e e0de 3e3c 25bb 9e3c
00000130: 93cc f5bb e178 4c3e 88ad a7be a26f 4cbe
00000140: a8b5 ac3d 206e 9dbd 9af2 053e 8069 743d
00000150: 7825 243e 011d 24be 6e4b 31be e2a4 373d
00000160: 8a75 06be 00bc 8d3d 189d 463e ee21 6f3d
00000170: 102a c7bc 8433 2dbe 3c06 fcbd 58ab c8bc
00000180: a2ea 8e3e 49e5 973d 507b 243e 20c5 3cbf
00000190: 1bb6 a03d cb60 643e cc41 80be 30aa 24be
000001a0: 6cb0 0cbf ebf8 783d 9474 7f3e 89ce 923f
000001b0: b1cf 92be f8ab 793c adf4 2fbe fab6 dcbe
000001c0: fa0f 8ebe 3f8d 933e 90d0 b23c db74 8e3c
000001d0: 3c27 b5bc 8f20 83be b9be d93e abac dfbe
000001e0: d609 ec3c 0cc6 163d 0058 afbd ae5b ae3d
000001f0: f984 b93e 1399 9dbd 27a7 7e3d e3c3 9ebd
00000200: 0981 0d3f 9e29 e0be ac49 9a3d 13df b8bb
00000210: 3c02 29be 2f08 d63e 2080 9f3c 8f1f 0f3f
00000220: 76fc 36be e2e8 72be e0cc 12bc abc8 683f
00000230: a577 70be 8022 833a 1fd7 0ebe a843 9c3e
00000240: 111b 59be 2b85 c13a 5ab9 2cbc 0df5 62be
00000250: 4a98 203e 6584 9cbe 1e5c 503e cf97 01bf
00000260: cb26 853d b625 e0be c0b8 663d 167d 523e
00000270: 6607 2dbc aa37 1cb9 c870 37be f364 803c
00000280: ff7b d5bb eaa0 97be 7020 fe3c 617a a5be
00000290: 0033 b6bc a461 88be 9657 9f3c 175e 58be
000002a0: 41bc 6e3b 4d26 313d dc27 fb3d 624c a9be
000002b0: c5d1 243e 304d 873d 96cb 7bbe ad9a cd3d
000002c0: a746 87be 909e ecbd ab10 e1bd cb9d fe3d
000002d0: dfd3 a53e c44b dfbb f473 95be ba3c 64bd
000002e0: 645e 3abe 5255 23be 7a2e 1c3e 6992 55bd
000002f0: 382c bfbd 38aa 243e 294b 4dbe 858c 44bd
00000300: 0142 a2be e7f3 3f3d 5660 1ebe c8ae 48be
00000310: f225 153e fb3a 47be 88d2 ef3d 8a8e 673d
00000320: 2e79 00be 8190 24be 3a21 0e3e 570a 993e
00000330: 1067 d8bd a7e4 c13d 64a9 ddbd e164 493d
00000340: 65a1 32be c7da 8fbe 0047 43be 9f8f 573d
00000350: 1981 a43e 67b7 88bd 3979 6e3f adcb 71be
00000360: 1d27 39bd ca74 b63d c65e 743e e4d9 e33c
00000370: 0042 a33d 7f8a 843c ea93 a8bd 746b bfbe
00000380: 34d9 04bf ee8b eebe 54f4 9cbd 7778 db3d
00000390: 41d1 ffbe f8e3 1bbc f75f 0abe 7dbe 163e
000003a0: edf9 1cbe c09e d3bd 308e bebc 72df 6cbd
000003b0: 0003 02bf 2024 14bd 6a25 b3be 53e7 50bd
000003c0: 95b7 203e c08f 35be c8e5 1c3e 18a9 aebe
000003d0: fac8 53bd 64f1 0dbe f91a 51be 07cd 28bc
000003e0: a5d7 50be 0f9c aabd 9254 3c3e e397 333f
000003f0: c078 403d 078f b3be d2eb d1be 8e49 ddbd

fc7.bias f4 [16]
-0.03325444 0.015430728 -0.7208445 0.02811884 -0.31070042 -0.27651274 -0.29307774 -0.22140852
0.58146554 -0.039762374 -0.040994912 0.003950131 -0.22869866 -1.6724362 -0.20478858 -0.006545466
00000000: cf35 08bd 2ad1 7c3c 4489 38bf 7b59 e63c
00000010: 2014 9fbe 1493 8dbe 490e 96be eab8 62be
00000020: edda 143f dfdd 22bd 48ea 27bd 1a70 813b
00000030: fb2f 6abe 6412 d6bf 19b4 51be 597b d6bb

fc8.weight f4 [2, 16]
0.08553393 0.019116666 0.52320755 0.033862222 -0.23572703 0.041486364 0.34788123 -0.13813573
0.4009716 0.10332394 0.034627143 0.18028139 0.14855897 -0.012627475 0.0569193 0.028151805
0.014163198 0.04736696 -0.6735748 0.023277739 0.18209088 0.011626691 -0.46405888 0.27273688
-0.5131254 0.10425704 -0.17932858 0.17200266 0.21436109 0.41450804 0.07202904 -0.043670718
00000000: 6a2c af3d 8e9a 9c3c eef0 053f 1db3 0a3d
00000010: 6d62 71be 9bed 293d 7d1d b23e 7473 0dbe
00000020: 264c cd3e 809b d33d 31d5 0d3d af9b 383e
00000030: d81f 183e 78e3 4ebc 3624 693d 9d9e e63c
00000040: c20c 683c dc03 423d 666f 2cbf f5b0 be3c
00000050: 0876 3a3e e07d 3e3c 2099 edbe 2ba4 8b3e
00000060: 305c 03bf b784 d53d e9a1 37be 7721 303e
00000070: 7981 5b3e 663a d43e f683 933d 11e0 32bd

fc8.bias f4 [2]
0.19567236 -0.48091763
00000000: 565e 483e d63a f6be
