data/results/1731502232.pth (torch, 7588 bytes, 8 tensors)

fc1.weight f4 [16, 32]
000000 a1 30 d9 3c 0e 61 1d bd 7f 7c 08 3f 9b 33 c9 be
       0.026512446 -0.038422637 0.53314966 -0.39297184
000010 74 07 2d 3f c6 d9 c9 3d 91 b1 ab 3b 6f c2 3b 3f
       0.675895 0.0985599 0.0052396734 0.7334356
000020 dc 78 02 3f aa 28 d6 3d c1 d3 32 3f 88 0b d0 3d
       0.50965667 0.10456975 0.6985436 0.101584494
000030 46 fd 8c 3e 80 f6 63 3f 06 d4 9c 3f fd f4 09 bf
       0.27536982 0.89048004 1.2252204 -0.5388945
000040 b6 86 dd 3c 77 45 51 3f 22 5c 39 3f 8e bd 60 bf
       0.027041774 0.8174662 0.7240621 -0.8778924
000050 b0 3d fe be b1 ad 6b 3e fe cd 37 bf 1f cf 10 3f
       -0.4965644 0.23015477 -0.71798694 0.5656604
000060 21 a6 b6 3e 29 03 bd be e2 cb 89 3e 56 75 d5 be
       0.3567362 -0.36916474 0.26913363 -0.41691083
000070 d1 d6 b1 be 45 7e 9f 3f 0c 73 f9 3d fe 0a 8e be
       -0.34734204 1.2460409 0.121801466 -0.2774276
000080 f4 7d 8a 3d e1 33 fc bd 23 8d 6d bd 13 1e 14 3f
       0.06762305 -0.123145826 -0.057995927 0.5785839
000090 bb 4f 96 be 18 7e 8e 3e b3 04 4b be ad f5 a5 bf
       -0.29357705 0.27830577 -0.19826011 -1.2965599
0000a0 16 59 b4 3e e1 09 24 bf df 28 fc be 5c 83 cb 3d
       0.35224217 -0.64077574 -0.49249932 0.09937164
0000b0 fa 22 b9 be be 9a b7 3d c5 da 81 bf b1 e3 41 be
       -0.36159497 0.089650616 -1.0144888 -0.18934514
0000c0 6c a0 cb bd 40 76 22 3f 98 ab 5a bf 47 b3 3d 3f
       -0.099427074 0.63461685 -0.8541808 0.7410168
0000d0 fa 43 f1 bc 06 5f 97 be e1 71 48 3f cb be 09 bf
       -0.029451359 -0.29564685 0.78298765 -0.5380675
0000e0 ae 8d bf 3f bb 79 be be 67 3b b8 3d b1 5b 39 bd
       1.4965112 -0.37202248 0.08995705 -0.04525346
0000f0 ee 70 98 be d7 13 47 3f 9a e0 54 bf 4a ed 91 be
       -0.2977366 0.7776465 -0.83155215 -0.2850135
000100 3e d7 89 bc 0f b6 a3 3d 0c 63 92 3e df 07 7e 3e
       -0.016826268 0.07993709 0.28591192 0.2480769
000110 02 dd 2e 3e 11 2d 97 bf 0e 74 4e be 09 d1 a1 bf
       0.17076495 -1.1810628 -0.20161459 -1.2641917
000120 f6 fc 8b 3d 97 a6 10 bf fa 05 47 bf 3a 0b 95 3d
       0.06835358 -0.56504196 -0.77743495 0.07277532
000130 5a 58 8a 3f 46 91 26 3e d9 7d 07 bf 0e 12 bf be
       1.0808213 0.16266355 -0.52926403 -0.37318462
000140 1a 52 90 be a5 72 32 bf e5 08 81 bf 62 d8 8a 3f
       -0.2818764 -0.69706184 -1.0080839 1.0847285
000150 5e 00 74 3f 47 02 0d 3b 53 0a af 3e 38 97 2c 3e
       0.9531306 0.002151625 0.34187564 0.1685456
000160 c9 38 9c bf 16 bb 76 3e 68 fc 3d bf bd be f9 3e
       -1.220483 0.24094805 -0.74213266 0.48778334
000170 c6 31 00 3f 79 7d 86 be 71 ff 30 bf a6 c3 1c bf
       0.5007595 -0.26267603 -0.6913977 -0.61236036
000180 24 bb d8 3a 9f 04 1a 3c 1d 18 1a bf 92 96 ee be
       0.0016535264 0.009400516 -0.60193044 -0.4659925
000190 2a f8 39 3f 2a b0 9b be 15 0d 46 3f 24 c8 d9 be
       0.72644293 -0.3040784 0.7736371 -0.42535508
0001a0 c3 b9 61 bd b2 85 0e 3f 01 78 93 3f 5b e6 3b bf
       -0.055108797 0.5567275 1.1520997 -0.7339837
0001b0 02 ac 5b bf 01 ab ec 3e 38 ca 80 bf 54 b8 1f 3f
       -0.8580934 0.46224216 -1.0061712 0.6239064
0001c0 1c f2 8f bd 7e d2 4f 3f 46 9a 59 3f 84 1f 83 bf
       -0.070286006 0.8118056 0.8500103 -1.0243993
0001d0 df 3e 72 3f 79 4a e8 be 5d 91 88 3e ee 6e 15 3f
       0.94627184 -0.45369318 0.26673403 0.5837239
0001e0 83 ee 80 3f 47 95 bc be ae 53 15 be 48 e7 bc 3d
       1.0072788 -0.3683264 -0.14582703 0.09223801
0001f0 75 bc e6 bd 4a 81 27 bf ed d5 a1 be df 05 94 3f
       -0.11266414 -0.65431654 -0.31608525 1.1564292
000200 ec 00 47 bc 05 53 c0 3e 6b 83 50 bf 88 7f 71 3f
       -0.012146216 0.3756334 -0.8145053 0.9433522
000210 8d 5a ae bf 0e 1e 4a 3f 4b ec d5 be d6 a6 74 3e
       -1.3621384 0.7895211 -0.4178184 0.23891768
000220 c5 5f ea 3e ce 34 5d bb a0 d0 5f bf 24 10 b0 be
       0.4577619 -0.0033753398 -0.8742771 -0.34387314
000230 9f 15 b0 3b 0b 93 3a 3d b2 cf 94 3d 1c 36 41 3f
       0.005373671 0.045550387 0.07266177 0.7547319
000240 16 58 a0 be 8b 43 95 bf ad 7e c5 3d 1a f0 ac bd
       -0.31317204 -1.1661237 0.09643302 -0.08444233
000250 fc d4 15 3f 03 04 7c 3d 8f 1e 58 bf 81 94 8a be
       0.58528113 0.061527263 -0.8442163 -0.27066424
000260 8a e9 71 3f 37 e4 cb be 51 03 5f 3d 37 9c 54 3f
       0.9449698 -0.39822552 0.054446522 0.83050865
000270 ea dd 84 be 31 bf 5c bf dc 24 28 bd 0c f9 4e bf
       -0.25950557 -0.86229235 -0.041050777 -0.80848765
000280 dc e9 98 3d 90 9b 09 3e f8 e8 32 bf 3d e1 fc 3e
       0.0746648 0.13438249 -0.6988673 0.49390593
000290 d6 61 e0 3f 0d 05 ff be 2d 20 fb be fa b2 de 3e
       1.7529857 -0.4980854 -0.49047986 0.43495923
0002a0 0b 71 91 bd 08 47 d0 be ef 4f 74 3f 85 2c d4 be
       -0.07101639 -0.40679193 0.9543447 -0.41440216
0002b0 16 c0 89 be 34 16 4d bf 74 ca 7e bf f1 4f f1 be
       -0.26904362 -0.80112004 -0.9952767 -0.47131303
0002c0 9b 76 13 3d d8 db 27 3e 7b 3e bc 3e 53 26 c9 3f
       0.036001783 0.16392457 0.3676642 1.5714821
0002d0 5b 73 91 3f e2 8b 26 be 3a 63 41 be 72 a4 d5 bd
       1.1363329 -0.16264299 -0.18885508 -0.10431756
0002e0 06 2f 3b 3d bf b4 c1 3e 9f 30 46 bf 32 3f 8a 3e
       0.045699142 0.3783321 -0.7741794 0.2700134
0002f0 15 e4 b7 be 87 e4 9b 3e 90 ba d9 3d e0 5a 34 3e
       -0.359162 0.3044779 0.10631287 0.17612791
000300 32 f4 91 3d 79 67 27 3d 29 70 ef bf 58 77 26 bf
       0.07126655 0.040870164 -1.8706104 -0.65025854
000310 8f 63 b8 be 2c 75 a4 3e e2 b3 69 bf 4d 7a 47 3f
       -0.36013457 0.32120645 -0.91290104 0.7792099
000320 13 f9 34 3f 21 96 b4 3e f0 73 b3 bd b2 ab f2 3e
       0.7069256 0.3527079 -0.08762348 0.47396618
000330 65 2c 8c be 72 5e 1f 3f 07 d1 90 3d 77 88 35 3f
       -0.2737762 0.6225349 0.07071119 0.70911354
000340 cb ef b2 3e 85 9a 16 bf 04 df 4c bf 4d 0b 73 be
       0.34948573 -0.5882953 -0.80027795 -0.2373478
000350 ff e7 8b be 34 4c 4c 3e ef d1 a3 3f f8 33 8f bf
       -0.27325436 0.19950944 1.2798442 -1.1187735
000360 47 c1 17 3d c4 12 b5 be 41 74 ba be e1 9a eb 3e
       0.037049558 -0.3536588 -0.3641682 0.460166
000370 07 4d 1a bf 11 b6 fd 3e f0 cf 62 bf 6c 51 5e bf
       -0.60273784 0.49552968 -0.8859854 -0.8684299
000380 28 7c 6b 3d 34 bb 68 bc 7f ea a1 c0 ee 64 66 bf
       0.05749145 -0.014204789 -5.059875 -0.89997756
000390 8b 15 1c 3e f4 f6 42 3f f0 3f 4f bf 7d a8 05 be
       0.15242593 0.7615807 -0.80956936 -0.13052554
0003a0 9d c5 28 3f c7 67 a5 be d2 93 15 3f 54 c0 a5 be
       0.65926534 -0.32305738 0.5842868 -0.32373297
0003b0 df a7 21 3f a5 30 bb 3e 6e dd 8f 3e dc 47 02 be
       0.63146776 0.3656055 0.28098625 -0.12722725
0003c0 2f 4d 41 be 11 25 a4 be 7a 93 9b 3e e0 70 bf 3e
       -0.188771 -0.3205953 0.30385953 0.37390804
0003d0 cf 16 46 3f 59 98 0f 3f 7c b9 2b bf 18 b3 e4 3e
       0.77378553 0.5609184 -0.670799 0.44667888
0003e0 c4 51 67 be 7a c1 18 3e 01 f7 28 3e 4a 1e 22 be
       -0.22589785 0.14917555 0.16500475 -0.15831867
0003f0 28 b1 28 3e dd 72 f9 3d a5 dc 9d 3e d7 fe 62 be
       0.1647383 0.121801116 0.308324 -0.22167526

fc1.bias f4 [16]
000000 50 79 8c bf 91 cc af bd 01 c4 4c bf 9e 8a 14 bf
       -1.0974522 -0.0858394 -0.7998658 -0.58024013
000010 26 61 3b be 61 b9 a4 bf 9a d8 93 be 02 99 92 bf
       -0.18298778 -1.2869073 -0.2887619 -1.1452944
000020 f4 f1 bc bd cc ef 47 bf b9 ad f5 be 94 a1 fb be
       -0.092258364 -0.78100276 -0.47984102 -0.49146712
000030 55 d7 f0 bf 9f 01 18 bf 4b 7d aa be 17 e2 a8 bf
       -1.8815714 -0.59377474 -0.33298716 -1.3193997

fc2.weight f4 [16, 16]
000000 6a 39 8b be 09 76 93 3e cb f0 85 3d ea e3 4c bf
       -0.2719224 0.2880099 0.06540068 -0.8003527
000010 0f 0f 5f 3f 9e a7 7f 3f 45 f9 6e bf 42 08 37 c0
       0.8713235 0.9986514 -0.93349105 -2.859879
000020 99 7e 4b 3f e2 3b 96 3e 54 29 95 be 1d 9b 3c 3e
       0.7949005 0.29342562 -0.29133093 0.18418546
000030 db 8b 6e 3f 49 02 2c bf 41 eb 15 be 04 d7 b7 bd
       0.9318215 -0.67190987 -0.14640523 -0.08976558
000040 29 4d ed 3d ac 85 57 3e 69 6a 96 be 06 be 30 bf
       0.11586983 0.21047086 -0.2937806 -0.6903995
000050 d7 72 37 bf 4c 3f 80 3e ac 9c 6c bf 2a a8 52 3f
       -0.71659607 0.25048292 -0.9242656 0.8228785
000060 b0 c8 a0 3f 49 86 1e bf 37 bb 2e 3e df 48 b2 3d
       1.2561245 -0.6192365 0.17063604 0.08705305
000070 0a 21 17 be e1 0a b1 3e af 7f 02 3f 46 05 1d bf
       -0.14758697 0.34578612 0.5097608 -0.6133617
000080 1d f1 0c 3f 63 b6 38 3e 95 b5 33 bd da 2f 98 bf
       0.5505541 0.18038325 -0.043874342 -1.1889603
000090 99 63 10 3f 6c 6e f6 bf 3d 81 c3 be 25 00 44 3f
       0.56401974 -1.9252448 -0.38184538 0.7656272
0000a0 c3 e7 1b 3f 6f 49 b4 bf 62 92 b4 3e b7 d7 da bf
       0.60900515 -1.408491 0.3526793 -1.7097081
0000b0 1d fe 95 3e cd 23 56 bf 06 10 61 bd fa d2 a9 bf
       0.29295436 -0.8364838 -0.05494692 -1.326751
0000c0 b7 d7 06 be 38 bb 42 bf e2 2a 2c 3e 53 1d c3 bd
       -0.13168226 -0.76066923 0.16813233 -0.095270775
0000d0 2f bf 9e 3e 6c 18 13 3f ab da 53 3f f5 fd 94 bf
       0.31005237 0.5745914 0.82755536 -1.1640002
0000e0 49 f4 f0 3e 85 8b f9 3c 20 1a e5 be 2a 48 3c 3e
       0.47061375 0.030462036 -0.44746494 0.18386903
0000f0 80 35 56 bf a3 8b 2a c0 48 14 22 3f 00 8b b8 3d
       -0.83675385 -2.6647727 0.63312197 0.09010887
000100 75 83 87 3f 11 10 a3 3d 40 45 99 be 00 11 8b bd
       1.0586993 0.07962049 -0.29935646 -0.06790352
000110 80 a8 f0 be c1 1e c8 be bf 01 23 be aa 2e 15 be
       -0.47003555 -0.39085963 -0.15918635 -0.14568582
000120 79 12 03 3f b3 ca 33 3f 73 28 30 3f 33 68 00 bf
       0.5120006 0.7023117 0.6881172 -0.50158995
000130 ea 80 b9 bf bd 9a 28 3f 2f e8 38 3e 76 1e bb 3f
       -1.4492466 0.6586111 0.18057321 1.4618671
000140 00 71 1d be e7 34 9d bd 38 5a 7a 3f b1 0b ff 3e
       -0.15375137 -0.07676106 0.9779391 0.49813607
000150 b2 16 0b 3f ec fb 52 3f 67 08 7a 3e 9d 34 ad 3e
       0.54331505 0.8241565 0.24417268 0.33829203
000160 f4 8a c8 3e 66 29 e6 bd 4e 6f 26 c0 44 9e 84 be
       0.39168513 -0.11238365 -2.6005435 -0.25901997
000170 91 c4 e8 bd 2a 37 3d bf 07 c4 f3 3e b2 e1 ae be
       -0.11365617 -0.739123 0.47610494 -0.34156567
000180 21 0e 0f be 73 34 7b bf 01 58 d2 3e 70 df d6 bf
       -0.13970234 -0.98126906 0.41082767 -1.6786938
000190 13 b4 43 bf ef a1 42 3f 63 af 6c 3e 3f 2b e2 3d
       -0.76446646 0.7602834 0.2311378 0.11043405
0001a0 20 2d 76 be 29 73 4d 3f 27 1b 9d be b7 73 a8 3f
       -0.24040651 0.80253845 -0.30684778 1.3160313
0001b0 9f 6c b1 3e 89 8b 85 be 9d 90 ab 3e 79 13 a2 3e
       0.34653184 -0.2608302 0.3350877 0.3165548
0001c0 c8 b3 97 bd cc 98 d6 bd 86 d2 5c be 3c 6e 84 be
       -0.074073374 -0.104783624 -0.21564683 -0.25865352
0001d0 e1 91 c7 bd 42 7a 99 bd 5d de 1f be f8 97 1c bc
       -0.09744621 -0.07494022 -0.15612169 -0.009557717
0001e0 cb e9 7f be 5c 7b 46 3d 5d 73 a7 be ab 0c 35 be
       -0.24991529 0.04845749 -0.32705203 -0.17680614
0001f0 82 b5 4b be 12 58 9b be 39 83 74 3b d1 46 a1 be
       -0.19893458 -0.3034063 0.003730966 -0.3149934
000200 d4 09 1c bf f8 cd 51 be c6 b4 2c 3f 04 66 ee 3e
       -0.60952497 -0.20488727 0.6746334 0.46562207
000210 3c 1d 50 3f 30 d3 21 3f e1 41 3a be 83 ba be bf
       0.8129461 0.6321287 -0.18189193 -1.4900669
000220 30 d6 56 3c 0e 5f 20 3f 83 1b 4c c0 c3 e9 af 3c
       0.01311259 0.6264504 -3.1891792 0.021473771
000230 e5 da 03 3e 1f 5d fc be b8 ed 2b 3f 49 81 15 bf
       0.1287647 -0.49289796 0.67159605 -0.584004
000240 b9 e3 ed bf 3f e8 b8 3e b6 d6 74 3f 8f a0 cc 3e
       -1.858512 0.3611469 0.9564012 0.39966246
000250 18 fc bd 3e 4e 16 cb 3d c9 3d ff bf cc 62 9b be
       0.37106395 0.09916364 -1.994073 -0.30348814
000260 fa 3d bf 3e c6 ab 64 be 1b fb 53 bf c9 79 37 3d
       0.37351972 -0.22331151 -0.8280503 0.044793878
000270 56 2b 04 3f b4 a9 62 bf 5b 37 ed 3d d8 97 32 3f
       0.51628625 -0.88540196 0.11582824 0.69762945
000280 8e b5 80 be 13 b2 69 3f 88 49 bd be fc f0 13 bf
       -0.25138515 0.91287345 -0.36970162 -0.5778959
000290 4c 37 ce bb a6 70 98 3f f0 a6 fc be ae a0 47 3d
       -0.006293213 1.1909378 -0.49346113 0.04873722
0002a0 f5 d2 46 bf 1a 07 94 bf c4 cc 76 be 91 7f d1 bf
       -0.77665645 -1.1564667 -0.2410155 -1.6367055
0002b0 dd 58 ea be 5e 78 fa 3e 91 5d a7 be c9 75 61 bf
       -0.45770922 0.48919958 -0.32688573 -0.8807035
0002c0 13 e7 1f 3f 60 65 b7 bd 00 70 8e bf b5 5d e5 3e
       0.62461966 -0.089548826 -1.112793 0.44798055
0002d0 79 48 e0 3e cb 58 89 bf fc ab 52 3f 02 b2 8d 3f
       0.43805292 -1.0730222 0.8229368 1.1069949
0002e0 33 e5 d2 3e b4 cd a4 3e 22 3e a2 3e 90 78 3b 3e
       0.4119049 0.3218819 0.3168803 0.1830771
0002f0 b1 4d b0 bf 25 34 b9 bf 55 7e 4b bf 28 95 7b bf
       -1.377371 -1.4469038 -0.7948964 -0.9827447
000300 34 22 5b 3f 40 b5 29 3f 50 66 03 c0 ce fd 42 bf
       0.85599065 0.6629219 -2.0531197 -0.76168525
000310 72 8f ed bf 4d be bf bf b7 11 0d be fb 7b 53 3e
       -1.8559401 -1.497995 -0.13776289 0.20652764
000320 11 a8 f1 bd bb f9 bb bf b1 68 74 bf d1 f7 db 3d
       -0.11799634 -1.4685587 -0.95472246 0.107406266
000330 5e c5 a9 bf 5d b0 0a bf a7 da 63 3e cd 63 fa 3d
       -1.3263357 -0.5417536 0.22251378 0.12226067
000340 c3 99 27 be ae 9a 17 be 88 0c 4a bf 5c 2c 15 3f
       -0.16367249 -0.148051 -0.7892537 0.5827081
000350 dc b7 98 be 90 cb a2 3a 2f 27 67 3e ab 93 62 3f
       -0.29827774 0.0012420285 0.22573541 0.88506573
000360 4f f2 ad be 68 d5 b3 3d 54 c0 cb be 8b f3 40 bf
       -0.3397393 0.087809384 -0.39795172 -0.7537162
000370 c5 21 38 bf 3b 33 80 3b 50 f9 1d bf ae e1 07 3f
       -0.7192653 0.003912357 -0.61708546 0.53078735
000380 18 d9 88 3f a7 95 eb bf 50 80 ec bd 68 88 a2 3e
       1.0691252 -1.8405045 -0.11547911 0.31744695
000390 74 f6 71 3e b2 aa a0 3e 43 da 03 bf dc 67 d6 3e
       0.2362917 0.3138023 -0.51504916 0.41876113
0003a0 69 0c c6 be 89 ea cb 3d e5 ee 05 3f 5d 4f f8 3d
       -0.38681343 0.099568434 0.5231765 0.12124512
0003b0 e2 03 1e 3f bc 2f 3c bd 20 e0 c2 3d 98 1c 6e 3f
       0.61724675 -0.04594396 0.09515405 0.9301238
0003c0 13 42 04 bf 53 dd 6f bf 39 d1 26 3f fa 22 1b c0
       -0.5166332 -0.9369709 0.65163 -2.4240098
0003d0 21 d8 2a be bf 31 76 bf b5 e3 56 3e 85 83 c8 3e
       -0.16684009 -0.96169657 0.20985301 0.3916284
0003e0 bb 86 b7 3e 7c c9 ce 3e ef c2 3b bf ca 0e 5e be
       0.3584498 0.40388095 -0.7334432 -0.21685329
0003f0 4a 11 13 c0 47 59 13 3f 27 4c d3 3e 50 49 81 3f
       -2.2979302 0.575581 0.41269037 1.0100498

fc2.bias f4 [16]
000000 1a 7d 5e be 16 2c ca 3e 65 57 33 3f 28 a5 a1 3d
       -0.2172741 0.3948676 0.7005523 0.07892829
000010 fb 51 ac be ae 5e a9 3d 93 50 99 be 95 a0 a6 be
       -0.33656296 0.08270012 -0.29944286 -0.3254439
000020 91 2e 91 bf c3 0e b9 be 78 0d 52 bc 69 11 93 be
       -1.1342336 -0.36144075 -0.012820594 -0.2872422
000030 c9 8b 90 3f f5 67 df 3f 6a 65 f2 be 9a 85 3b bf
       1.1292659 1.74536 -0.47342998 -0.73250735

fc3.weight f4 [16, 16]
000000 1b 41 16 3d 8d 9a a5 3e 39 07 11 3f 08 cb 85 3f
       0.036683183 0.32344475 0.56651646 1.0452585
000010 9d a8 1a bf 31 57 bb be 22 35 1c bf 51 79 73 be
       -0.60413533 -0.3658996 -0.61018574 -0.23776747
000020 41 b8 27 3f be d8 83 bf ca d8 83 bf ef 2d 99 bf
       0.65515524 -1.030052 -1.0300534 -1.1967143
000030 18 90 33 bf 6a 74 b5 3b 6f 99 fe bf 80 79 2e bf
       -0.70141745 0.0055375593 -1.9890574 -0.68154144
000040 29 71 fc be 06 80 94 be 33 42 0a 3f 6a 88 90 3e
       -0.49305084 -0.29003924 0.5400726 0.28229076
000050 a9 6d d3 3e 92 d2 09 be c5 5a aa be f9 d4 79 3d
       0.41294602 -0.13459232 -0.33272377 0.060994122
000060 89 64 28 3f 59 cf a6 3e 28 30 0a 3d 2c b6 98 3e
       0.65778404 0.3258007 0.03373733 0.29826486
000070 fc 28 07 c0 da c0 8e 3e d6 ac 36 3d 5a c0 c8 3e
       -2.1118765 0.2788151 0.044598423 0.39209253
000080 4e c1 a7 be a1 90 a1 be dc 53 4f be 08 57 eb bd
       -0.32764667 -0.31555656 -0.20246834 -0.11491209
000090 91 e4 b6 be 66 37 4e be a7 92 f6 bd 20 33 3c be
       -0.35721257 -0.2013832 -0.120396905 -0.18378878
0000a0 00 18 0f be 29 8d a7 3d 68 5e 7f be 6e 42 84 be
       -0.13973999 0.08181221 -0.24938357 -0.25831932
0000b0 bb 4a 0e bd 24 c8 97 be da 92 a4 be 0f 32 b5 bd
       -0.034739237 -0.29644883 -0.3214329 -0.088474385
0000c0 a2 c5 10 bf 31 d5 ba 3e 8e 45 f4 be 60 7a 79 bf
       -0.56551564 0.36490777 -0.47709316 -0.97452354
0000d0 b9 b3 11 bf a2 03 a6 bf 0e 02 63 bf 2c ca 65 be
       -0.5691486 -1.2969859 -0.8867501 -0.22440404
0000e0 9a 58 f9 be 21 17 15 be 2b 60 54 bf 60 44 25 3f
       -0.4870041 -0.14559604 -0.8295924 0.64557457
0000f0 99 fb 07 be 25 37 9d bf 76 a0 77 bf a7 f6 2b bf
       -0.1327957 -1.2282454 -0.9672922 -0.67173237
000100 c9 47 2c bc 1d 1c e2 be 6a 00 cb be c1 5b fc bd
       -0.010515162 -0.44162074 -0.39648753 -0.12322188
000110 a5 b3 15 be c3 e0 2e be 84 48 88 be 48 a1 e2 3d
       -0.1461931 -0.17077927 -0.26617825 0.11065918
000120 2e 70 8d be a8 cf 88 3d 51 9f 5d be a9 ab 98 be
       -0.2762465 0.06680232 -0.21642806 -0.29818466
000130 6b ea 2f 3c 6a 12 88 be ce 7b fd be f5 71 72 be
       0.010737042 -0.2657655 -0.49508518 -0.23676284
000140 05 9f 86 3e fd 3a 5c bc 1d 9e e5 bf c4 a5 63 be
       0.26293197 -0.013441798 -1.7938877 -0.22231203
000150 ee 64 15 c0 09 f9 fe 3e 27 55 33 bf 1c 5d 77 3e
       -2.3342853 0.49799374 -0.7005181 0.24156612
000160 1d 26 3f 3f 3c ce a2 3f 9f c5 1c be da a1 dd be
       0.7466753 1.2719188 -0.15309761 -0.43287545
000170 db c6 42 bf b8 16 e2 bf 48 0f d5 bf 93 82 37 bf
       -0.7608468 -1.7663183 -1.6645288 -0.71683615
000180 d6 a2 0e c0 92 07 5c be d2 fe 58 bf ad 28 52 be
       -2.2286887 -0.21487263 -0.84763825 -0.20523329
000190 35 88 a5 3e 8a f1 66 bf be f6 96 bf 3b a2 b2 bc
       0.3233048 -0.9021231 -1.179405 -0.021805873
0001a0 79 a7 78 3d fe 22 29 bf 6c 7b f7 be ad c5 91 be
       0.06070659 -0.6606902 -0.4833635 -0.28471127
0001b0 36 10 25 3e 19 23 f4 3e 63 8a d9 3e 4c 5f 10 be
       0.16119465 0.47683027 0.42488393 -0.14098853
0001c0 e2 31 84 bf 14 de 0f bf 3b 81 da 3e f8 95 2e bf
       -1.0327723 -0.5619824 0.4267672 -0.68197584
0001d0 16 41 0a c0 cb 93 2b bf ff 8a 0f c0 40 8e b0 3c
       -2.1602225 -0.6702239 -2.2428586 0.021552205
0001e0 0d 3e 92 bf 3c d9 77 3f ec 3d ee 3e ff 55 c6 bd
       -1.1425186 0.9681585 0.46531618 -0.09684371
0001f0 44 95 04 3f 5b 4a 19 bf bf e9 06 bf 99 56 f0 be
       0.5179026 -0.5987908 -0.5270042 -0.4694107
000200 64 b4 01 be 1c 24 89 bf d7 c8 4d 3f e2 63 3a 3f
       -0.1266647 -1.0714145 0.8038458 0.7280866
000210 0b 6d d0 be d3 00 bd 3e 7d ba 9d bf 11 52 22 3d
       -0.40708193 0.3691469 -1.2322537 0.039629046
000220 d3 99 c7 be dc 30 3b 3f b6 9a 2d be a3 7d 04 bf
       -0.38984546 0.7312143 -0.16953549 -0.51754206
000230 5f 95 1d 3e 46 ea 3d 3f ef 9c e2 be 99 24 b9 bf
       0.15389012 0.741856 -0.44260356 -1.4464294
000240 86 2c 7e 3f 24 bc 4f be fc 46 43 bf 86 5f 28 bc
       0.9928669 -0.20286614 -0.7628019 -0.010276681
000250 87 ad a2 bf 12 b4 1c 3f 58 f9 90 bf 07 52 b3 bd
       -1.2709206 0.61212265 -1.1326094 -0.0875588
000260 43 ec e1 3e 0e e5 1c 3f 3c aa e5 bf df 1b fd bf
       0.44125566 0.6128701 -1.7942576 -1.977413
000270 d1 74 c8 be 91 c4 74 bf 33 c0 9c bd 40 45 88 bf
       -0.39151624 -0.95612437 -0.076538466 -1.0646133
000280 77 ac 8b bd eb ad f5 3e 6d 09 a8 bf da 3b 6e bf
       -0.068200044 0.4798425 -1.3127877 -0.93060076
000290 b7 9a 1d 3f ec 83 dd 3e db d2 75 3d 38 5f 93 bd
       0.615642 0.4326471 0.06001554 -0.07195896
0002a0 0e 42 2e 3f ac ea 48 3e ba 7c 5f c0 e8 c1 65 bf
       0.6806954 0.1962077 -3.4919877 -0.89749
0002b0 69 49 4d 3f f2 df a5 be e6 fd de be 07 83 46 bf
       0.8019014 -0.3239742 -0.43553084 -0.7754368
0002c0 65 6e b6 bf fb e3 93 bf e6 d0 fb 3e c6 37 2c 3e
       -1.425244 -1.1553949 0.49182814 0.16818151
0002d0 5a 87 aa bf e4 aa c1 be 45 4b 27 c0 9a c5 37 be
       -1.3322556 -0.37825692 -2.613969 -0.17946473
0002e0 f5 ee 9b bf ee 39 02 3f c5 76 71 c0 c0 c7 09 3f
       -1.2182299 0.50869644 -3.772874 0.5382042
0002f0 b0 2d 4c 3f b1 33 94 be b9 88 43 bf 31 15 21 bf
       0.79757214 -0.28945687 -0.763805 -0.6292296
000300 6c 03 d1 bf e2 ee e6 3d 5f 2a 0e bf c3 a1 4e bd
       -1.6329169 0.11276032 -0.55533403 -0.050447237
000310 18 86 44 3e 63 e3 f4 3e 78 64 32 bf 3a 41 46 3d
       0.19191778 0.47829732 -0.69684553 0.04840205
000320 c0 56 0d c0 f9 47 f2 3d 82 33 62 3e 62 26 25 bf
       -2.2084198 0.11830134 0.22089961 -0.6451169
000330 ae d8 58 3d 84 bf c5 3e 8e 0c 8f be fe ee ed bf
       0.052941017 0.38622677 -0.27939266 -1.858856
000340 35 26 ee 3e a8 b8 10 bf 00 f6 b3 3e 71 10 89 3d
       0.46513525 -0.56531763 0.3514862 0.06692589
000350 e8 62 ae be 96 23 f7 bd 23 ba b9 3e 15 bb b1 3d
       -0.34059834 -0.12067334 0.36274824 0.08678261
000360 99 8f 10 c0 64 76 64 bd 36 83 ec bf 82 25 d4 3e
       -2.2587645 -0.05577697 -1.8477542 0.41434866
000370 a8 b3 2d c0 3f 8e 6e 3e 56 12 08 3d a9 4f 78 3e
       -2.7140903 0.2329645 0.03322061 0.24249138
000380 46 c6 35 3f d7 ed a5 3e 67 f8 da bf 2a 33 c4 3e
       0.71005666 0.3240802 -1.7107056 0.38320285
000390 5a 39 8b bf fb c0 65 3e da d6 71 bf e0 91 56 be
       -1.0876877 0.22436897 -0.9446846 -0.20954084
0003a0 42 f1 82 3f 64 03 81 3f 1c 70 c2 be 98 60 23 bf
       1.0229876 1.007916 -0.37976158 -0.63819265
0003b0 02 a4 64 bf ca f5 9b be 50 55 0c bf 3f c9 09 bf
       -0.89312756 -0.3046096 -0.54817677 -0.538227
0003c0 0f 6e 93 3d d4 b1 a1 bf 3f c2 0e 3f 38 ab 89 bf
       0.071987264 -1.2632394 0.55765146 -1.0755377
0003d0 93 e6 36 be f0 06 1b bf 6a 98 d0 3e 38 b0 79 bd
       -0.17861395 -0.6055746 0.40741283 -0.06095907
0003e0 e0 85 12 bf 02 54 25 3e 92 d8 e2 3e 45 d2 a3 bc
       -0.5723553 0.16145328 0.44305855 -0.019997725
0003f0 e3 f4 1e 3f 8a 07 d4 3e 89 e5 e7 bd dc 45 3c be
       0.6209242 0.41412002 -0.11323077 -0.18386024

fc3.bias f4 [16]
000000 53 55 e3 3e 08 29 f8 3c c1 e4 8a be d9 8e 8e bf
       0.44401035 0.030293003 -0.2712765 -1.1137344
000010 94 3a ca be 44 36 07 bf 84 e0 83 3f 63 a2 8f 3e
       -0.39497817 -0.5281718 1.0302892 0.2805358
000020 25 58 37 3e c4 d6 00 3d 9e 1e e5 3d 5a fd e1 be
       0.17904718 0.031454816 0.111874804 -0.44138604
000030 c8 1c 73 3f 09 c4 93 3e ef 9a e4 bf 87 bc 08 3f
       0.9496579 0.288605 -1.7859782 0.5341267

fc4.weight f4 [2, 16]
000000 bb 9b c7 be e9 80 a7 3d 34 27 4f bd a7 2f 1f 3f
       -0.38986 0.081788845 -0.050574496 0.62182087
000010 42 b6 05 bd a8 ab 31 bf 8a f1 74 3e fc 87 72 be
       -0.032644518 -0.6940255 0.23920265 -0.23684686
000020 25 61 b8 be 24 60 b0 bf 5d c7 04 be fa ff 56 be
       -0.36011615 -1.377934 -0.12966676 -0.20996085
000030 c4 15 9f 3e b4 3f 2e 3e bf cf a8 bf 98 22 a3 3d
       0.31071293 0.17016488 -1.3188399 0.079655826
000040 0b 75 1b 3e 08 a9 ca bd 85 bf 6f 3e 51 59 1b bf
       0.15181367 -0.098955214 0.23412903 -0.6068316
000050 57 58 7f 3e 8e 91 47 3f 4d db 0a be c2 3e 9c 3e
       0.24936043 0.77956474 -0.13560219 0.3051663
000060 14 96 f7 3d 01 a9 9e 3f 44 52 97 3e a8 32 0c 3f
       0.12089172 1.2395326 0.2955495 0.54764795
000070 b8 87 cd bc c6 99 9d bd 7f ff 75 3f 7e 5d ca bd
       -0.02508913 -0.076953456 0.9609298 -0.098811135

fc4.bias f4 [2]
000000 34 58 87 be b3 d1 58 3e
       -0.2643448 0.21173744
