data/results/1731781908.pth (torch, 7844 bytes, 8 tensors)

fc1.weight f4 [16, 36]
00000000: 2000 dfbc 57ef 1ebd c55e fd3e 9b42 18bc
00000010: a008 2738 a00c c13e 66d8 643e 97ea 293f
00000020: ba26 e2bc 2a0f e8bb 4e35 003f 5c6a e33e
00000030: 3f81 14bf cb21 16bf 3705 8ebd dc46 e7be
00000040: 375f 313f 3088 cdbe d698 ae3f 207e f03e
00000050: 9b64 84be 8ce9 0d3e 615c 483e 2186 0a3f
00000060: 2ae1 063f 600c 023f 06fb e6be efdd 98be
00000070: 79b0 6cbe 1ee0 91be 25b5 24be a071 b43e
00000080: 11b3 c8bd 77d7 dfbe 7ff2 32bf 4ccd 843d
00000090: 8073 543e ee51 76be cb88 dc3e 3f6d 263e
000000a0: 4be9 953d 209e c8be 706b edbe 7abd a3bf
000000b0: 0e72 83be afe4 873e 7907 cbbc 57f6 033e
000000c0: 2dae 79be 6c34 9dbe fe6c c03e 54c5 3bbf
000000d0: d7ce f13d 3163 7ebd fcfe f33e b828 06bf
000000e0: 98f3 863e c32b 58bf 99ec 6d3e 2ad8 13be
000000f0: a6cd 8fbe 0702 81bf 7214 3c3d e00d 603f
00000100: 2545 2f3e f3a3 b83d 4705 5b3e 115e 06bf
00000110: 3979 633d 5ba6 9d3e 3858 ee3e 6ca9 dcbd
00000120: a63a 033c 5cce f93d 4e58 7e3e 1b92 93bc
00000130: 24b2 9f3d 5a4f 103c 2b63 273f 3e16 893f
00000140: ea16 eabe 4e1f 1b3f f966 1e3f 9d4c b2be
00000150: 0ca6 663f 2665 00be 9735 59be 3e3f b43e
00000160: a7aa 4ebd 2808 efbe ea73 603f 12a6 2fbf
00000170: 8674 0cbd 7b3f debe 06ff 1bbf 0da5 eebd
00000180: bc8c b1bf c950 b6be 22d7 e53c c6c1 10bd
00000190: 0cd3 0bbe 6e3f 103d cd1a 1fbf ea52 8c3e
000001a0: 3899 f63e 187e 77be 0a03 b8be fbd0 9bbe
000001b0: 4d84 bd3d e8fd 44bd c492 ff3e a821 f83d
000001c0: 66d0 cd3d 41b6 863f fd80 b13e 7307 b4bd
000001d0: aa6e 063f de5a a33e c038 88be 4817 b83e
000001e0: d59a ac3f 9024 5b3e 5d3b cd3d dc68 8ebe
000001f0: 5d8f 86be fd4b 2dbf f99e 8bbd 9a1f 01bf
00000200: 0277 28bd 546c 09bd 129c 1e3e 9a46 38bf
00000210: fb85 d83d bc3a 273f cfd7 8ebd 47bf 983e
00000220: b490 e23d 20b3 5abe 94cc fa3d f868 ff3e
00000230: 5a10 c2be 5019 29be 30e4 1e3e 50bf 04bf
00000240: 4bb8 e83c c260 f7bd eda1 14be c74f 133c
00000250: 4e8d f13c 2f32 6c3e 014b 1ebf 038d b4be
00000260: 717a 433f 6d9d c6be f830 083f 4e50 2f3d
00000270: bcaf 403f 6b44 8cbd 6d43 35bd bfb0 1ebf
00000280: af98 27be 26ba 91be b373 bb3e 2834 62be
00000290: 359f 7a3d 7b65 803e 5dbf c6be 2d4d 76bf
000002a0: b199 993e edf8 103d f7bb d3be c109 193d
000002b0: 7158 11be 389e 4dbd 903b 3fbe a748 58bf
000002c0: 58e7 163d 837e 723f a5ea 98be cef7 a03e
000002d0: 3c6a 7c3c c854 62bd 1add a3bf 0958 e93d
000002e0: ec6a 143d 3372 db3e ec8f 2bbf f895 ee3d
000002f0: 2166 ee3e bd23 56bf 8c65 083e b2e4 8abe
00000300: 1f43 7abd 9a9a 2ebc 982e 66be 35ba 513e
00000310: 0c4b 0b3f 9117 66be 0bc4 0abf c785 b73e
00000320: 7c2d 04bf e8ef de3e f4f5 99be 015a d53e
00000330: c215 e4be 324a 3b3f 66fe 853f a779 76bf
00000340: 4a4c 5bbe 5409 d6bd 4c1c c4be aaaa 9a3d
00000350: 72d8 5dbe 552c 023f aa12 743d ba5f 4d3e
00000360: c227 823d 44a8 f13c cde6 0e3f 08b3 0a3d
00000370: aecc 313a c822 df3f 3022 343d f5e5 c93e
00000380: 1267 8fbf 7196 cc3e 8aa5 6b3e 815b 4a3d
00000390: 55c8 31be 8a70 413e b536 30bf 2757 e43e
000003a0: 65ac c33c 3d68 3c3e 6825 453e ee8e ddbd
000003b0: 8acd a1bc acf1 97bf 0925 c33e 71c1 8ebe
000003c0: d46c 253e a03c 78bd a9fc 023f 4f41 033f
000003d0: 9602 04bf 0077 553d d761 9a3e b5c7 893d
000003e0: 5589 503e 05df b5bd 2ce0 17bf 8c83 03bf
000003f0: 9e4f a03b 65f8 9b3e 5a78 f13d 8a88 7b3e
-0.02722174 -0.03880247 0.49486366 -0.009293224 3.9823935e-05 0.37704945 0.22348174 0.6637358
-0.027606357 -0.007081886 0.50081336 0.44417083 -0.58009714 -0.58645314 -0.069345884 -0.4517125
0.6928591 -0.40142965 1.3640392 0.46971226 -0.25858006 0.13858622 0.1956649 0.54110914
0.52687323 0.5080013 -0.4511339 -0.29856822 -0.23114194 -0.284913 -0.16084726 0.3524294
-0.09799779 -0.43719074 -0.6990127 0.0648447 0.20747185 -0.24054691 0.43073115 0.16252612
0.07319888 -0.3918314 -0.4637103 -1.2792199 -0.25672954 0.2654166 -0.024783837 0.1288694
-0.24382849 -0.30704057 0.37583154 -0.73347974 0.1180703 -0.062106315 0.47655475 -0.5240588
0.26357722 -0.84441775 0.23234786 -0.14437929 -0.28086585 -1.0078744 0.045917936 0.8752117
0.1711622 0.09015646 0.21388732 -0.52487284 0.05553553 0.30790982 0.4655168 -0.10774502
0.008009588 0.12197563 0.24838373 -0.018014004 0.077976495 0.008807981 0.65385693 1.0709913
-0.45720607 0.6059464 0.61875874 -0.34824076 0.9009712 -0.12538585 -0.21211849 0.352045
-0.050455716 -0.4668591 0.8767687 -0.6861278 -0.034290813 -0.43407807 -0.6093601 -0.11652575
-1.3871074 -0.3560851 0.028056685 -0.035341047 -0.13654727 0.03521674 -0.6215027 0.27407008
0.48163772 -0.24169195 -0.3593982 -0.30432877 0.0925375 -0.048093706 0.4991666 0.121157944
0.100495145 1.052437 0.34668723 -0.08790483 0.5251261 0.31905264 -0.26605797 0.35955262
1.3484751 0.21400666 0.10021088 -0.27814376 -0.26281253 -0.67694074 -0.06817431 -0.50438845
-0.04112912 -0.033550575 0.15489224 -0.7198273 0.1057243 0.65323997 -0.06974756 0.29833433
0.11062756 -0.21357393 0.122460514 0.49884772 -0.379031 -0.16513562 0.15516734 -0.5185442
0.02840819 -0.12079002 -0.14514895 0.008991188 0.029486325 0.23066019 -0.61833197 -0.35263833
0.76358706 -0.3879198 0.5319972 0.042801194 0.7526815 -0.06848987 -0.044253755 -0.61988443
-0.16366838 -0.28462332 0.3661171 -0.22090209 0.061186988 0.25077423 -0.38817874 -0.9621151
0.3000007 0.035393644 -0.41354343 0.037362818 -0.14193894 -0.050199717 -0.18675065 -0.8448586
0.03684172 0.9472429 -0.2986652 0.3143906 0.015406188 -0.055256635 -1.280185 0.113937445
0.03623478 0.42860565 -0.6701648 0.11649698 0.46562293 -0.8364828 0.13319987 -0.27127606
-0.061099168 -0.010656977 -0.22478712 0.20481189 0.5441139 -0.22469927 -0.5420539 0.35844252
-0.51631904 0.4354241 -0.3007046 0.4167023 -0.4454785 0.7316009 1.0468261 -0.96279377
-0.2141582 -0.10450998 -0.3830284 0.07552083 -0.21664599 0.50848895 0.059588112 0.20056048
0.063552395 0.02949918 0.55820924 0.033862144 0.0006782514 1.7432489 0.043977916 0.39433256
-1.120333 0.39958528 0.23012367 0.04940367 -0.17361577 0.18890586 -0.68833476 0.44597742
0.023885915 0.18399139 0.1925255 -0.10818277 -0.019751329 -1.1870627 0.38114193 -0.2788196
0.16154796 -0.06060469 0.5116678 0.5127153 -0.51566446 0.05211544 0.3015277 0.06727544
0.20364888 -0.08880428 -0.59326434 -0.513726 0.0048923036 0.30462947 0.11790533 0.24563804

fc1.bias f4 [16]
00000000: e71f 9ebe e332 47bf 0c39 42bf 12f8 00be
00000010: 8f94 e5bf ddc9 563c eda1 1e3f e9df 173f
00000020: dea6 b73e 3513 e9be 37c0 9e3e c7ae a4be
00000030: 1766 49bf 4e9a afbd 8118 51bc 4044 d0be
-0.30883715 -0.7781202 -0.75868297 -0.12594631 -1.7935961 0.013109651 0.6196583 0.59326035
0.35869497 -0.45522466 0.31006023 -0.32164595 -0.786714 -0.08574353 -0.01276219 -0.4067707

fc2.weight f4 [16, 16]
00000000: 3bef a1bd 99c9 af3e 8024 96bf 6c75 40bf
00000010: a1b2 40bf 97c7 47bf a124 49bf 10bd f6bf
00000020: 0229 eebe ed55 133f f4a8 aa3e 7dea 193f
00000030: b2b3 f13e 86a9 a7be a8bc d8be 398a fd3e
00000040: c662 833e a485 3bbf 1be0 82bf 3893 39be
00000050: 799a 133f 8d81 c73e d430 883d dc3e 8bbd
00000060: 1e8b 1a3c e93b 64bf 4b73 fdbf 211e 873e
00000070: c5ac afbf 3a3a 11c0 5ba8 a83e 2053 b23e
00000080: f68f 89bf a9db 86bf 938f 6fbf fb50 1e3f
00000090: c51d 07be 5afb c93d ffa2 8b3e da06 bbbe
000000a0: f0bf 343e 6ca4 c2bf 561d 0a3f 7210 05be
000000b0: 982f 173e ec6d 05be f901 84be b11c e63d
000000c0: 5cb8 54be 04e5 e7be 1ded 423f 92fc ff3d
000000d0: 8fe6 413f c549 363e 815f 1d3e 932c 86bd
000000e0: bf1b 98bd 74fe 82be 16d1 173f 4858 cabe
000000f0: 7282 e1be a515 81bc efd7 e2be 3549 2fbe
00000100: 3a75 833d d200 d0be 01b1 2dbe d680 463e
00000110: 05f9 6c3b d61d 113f fa59 363f 055e 0f3f
00000120: e2e2 233f dfb0 fdbe ff0f f2be 9eb9 58be
00000130: c997 1cbe a0fc 103f e97b 903e 3833 49be
00000140: c9b4 a9bf 74b9 3bbe 0230 163f 62d3 a8bf
00000150: a663 2b3f 9128 033f 4351 a63e 6021 f03d
00000160: 02a8 8dbe 489c e1be 9912 333f 055c 8ebf
00000170: e21e 3cbf cbba 60bf dccf b3bf e83b a53e
00000180: eb45 503d 6c9a 86bd 4811 f53e bc5f 863e
00000190: d6f9 6c3e e38e 043f 5907 523f 40c2 5e3f
000001a0: b176 df3e d53f 5fbd e609 a83e 69b8 f6be
000001b0: b4ce aebe 0789 f13d fc93 2abd 3a0e 44be
000001c0: 2314 f13e a457 ab3e 5e8f ca3e bcad 8d3e
000001d0: 4877 133f 4dfe 323f fafe d8bd d2d0 cfbe
000001e0: cad6 c1be 1207 9bbe 12cf a03d 6673 00c0
000001f0: 850f 33c0 ff9d 1fbe 95fb c23e d5f6 b4be
00000200: 2212 71bf 200d 213e 9e35 a3bf 45c7 90bf
00000210: d564 863e 6ec4 10bf 28fa 023f 66cf 80bd
00000220: 48c4 7abf 72b3 7ebf fa2a 03bf c350 08bf
00000230: 44ab d9be 0618 933e 3a1d bb3e 6173 1bbf
00000240: 5e27 2dbf 9de0 c2bd 884f 903d ab9c ddbe
00000250: 44ab 25be b776 e0be ca00 a6be 259e a73d
00000260: 4872 e2bd b237 f23c 95f8 69be 03bd acbe
00000270: 22a6 f3be faaf ecbc 3e18 efbe d5c7 a8be
00000280: fd31 873e c03e 1abf e6cf 2a3d 0152 63be
00000290: fcd4 a53d e623 653e e9fa cf3e 769c 963e
000002a0: ee09 d33e 041c 09bf bf8c 30bd 220a 34bf
000002b0: 5b86 27bf c4f5 023f 753e 6cbe fdae 5bbf
000002c0: 59ac 18bf 185f cd3e 53be ac3e aa81 0a3e
000002d0: 2cef a2bf b89a 41bd 5e69 9cbd dff3 59be
000002e0: f019 d3be c78d 773e eb8d c53e de10 70bc
000002f0: 98cb c53e 5429 54be 4af0 113e de77 563e
00000300: ed8d a5be f98b 9bbd b2a0 47be ac4b 8fbe
00000310: 5b25 cdbd cf8f dabd b2d6 8cbe b5ac fcbd
00000320: 2317 9bbd 241c 24be 03f0 48bd fea1 99be
00000330: 9600 19be 73b3 163d a1b6 65be 328e 41be
00000340: 0d05 af3d 8ff4 e63e d044 dcbf 23d5 90be
00000350: 3988 b2bb f7a3 d13e 0075 bc3e 0479 c0be
00000360: 0928 f43c caf9 3a3e c533 d33e 457c 7f3e
00000370: 5928 a73e f292 76bd 8a45 a4be 6b6c 3e3f
00000380: 5641 3e3e 6d6d 31bf a8dd 333e d6b0 923e
00000390: b84d 523f 7868 963d b40a 2d3e a677 04be
000003a0: 1dcd 793e 2db6 81be 425d 20be 626f c6bd
000003b0: d50a 81be ebaf 963e 1ac6 42bc 484c 45bf
000003c0: 127e c5be 6628 533f b086 42be 1727 093e
000003d0: 14b7 d0bf cbc8 efbe a15d 3abf ff4c 85bf
000003e0: 666f bcbf 8a70 ae3e 4971 bd3e 28b4 1e3e
000003f0: 5d46 8a3e 119c 4abf 364a a23c 7928 b63e
-0.07906958 0.34333494 -1.1729889 -0.7517917 -0.75272566 -0.78038925 -0.78571516 -1.9276447
-0.4651566 0.5755299 0.33332026 0.60123426 0.4720741 -0.32746524 -0.42331433 0.49519518
0.25661296 -0.73250794 -1.0224642 -0.18122566 0.5765758 0.38966027 0.06649938 -0.06799099
0.009432582 -0.89153916 -1.980081 0.26390174 -1.37246 -2.2691789 0.32940945 0.34829044
-1.0747058 -1.0535785 -0.9357845 0.61842316 -0.1319495 0.09862395 0.27272794 -0.36528665
0.17651343 -1.5206428 0.53951013 -0.12994555 0.1476425 -0.13030213 -0.25782755 0.11235941
-0.20773453 -0.45291913 0.76143056 0.12499346 0.7574243 0.17801578 0.15368463 -0.065514706
-0.07427167 -0.25584757 0.59303415 -0.39520478 -0.44044834 -0.015757391 -0.4430537 -0.1711777
0.064188436 -0.40625626 -0.16962053 0.19385085 0.003615917 0.5668615 0.71231043 0.5600284
0.6401807 -0.49549004 -0.4727783 -0.21164557 -0.15292276 0.56635475 0.28219536 -0.19648445
-1.3258296 -0.18332464 0.58667004 -1.3189509 0.66948926 0.51233774 0.32483873 0.11725116
-0.27667242 -0.44064546 0.6995025 -1.1121832 -0.73484623 -0.87785023 -1.4047809 0.32272267
0.05084793 -0.065724224 0.47864747 0.26244915 0.2314218 0.5178053 0.8204246 0.8701515
0.43645242 -0.054504234 0.32820052 -0.4818757 -0.34142077 0.11793714 -0.041645035 -0.19146052
0.47085676 0.33465302 0.39562505 0.2767161 0.57603884 0.6991928 -0.10595508 -0.40589005
-0.37859184 -0.30278832 0.078519955 -2.0070434 -2.7978222 -0.15587614 0.38082567 -0.35344568
-0.94168293 0.15727663 -1.2750738 -1.1310812 0.26248804 -0.5654973 0.5116296 -0.06289558
-0.9795575 -0.9949256 -0.5123745 -0.5324823 -0.42513478 0.28729266 0.36545736 -0.6072293
-0.67638195 -0.09515498 0.070464194 -0.4328359 -0.16178614 -0.43840572 -0.32422477 0.081844606
-0.11056954 0.029567573 -0.22848733 -0.33737954 -0.47587687 -0.028892506 -0.46698183 -0.3296496
0.26405326 -0.60252 0.041702174 -0.22199251 0.08097264 0.22376975 0.40621117 0.29416245
0.41218513 -0.53558373 -0.043102976 -0.7032796 -0.65439385 0.5115626 -0.230707 -0.85813886
-0.5963798 0.40111613 0.33738956 0.13526025 -1.272924 -0.047266692 -0.07637285 -0.21284436
-0.41230726 0.24175178 0.38584837 -0.014652459 0.38631892 -0.2071889 0.14251819 0.20944163
-0.32334843 -0.07595057 -0.19494894 -0.2798742 -0.100168906 -0.106719606 -0.2750755 -0.12337629
-0.07572772 -0.1602636 -0.049057018 -0.30006403 -0.1494163 0.03679223 -0.22432949 -0.189019
0.08545885 0.45108458 -1.72085 -0.2828761 -0.005448368 0.40945408 0.36808014 -0.37592328
0.029804247 0.1825935 0.41250435 0.24949749 0.3264797 -0.06019873 -0.32084304 0.7438418
0.18579611 -0.69307595 0.17565024 0.2865054 0.8214984 0.073441446 0.16898614 -0.12936267
0.24394651 -0.25334302 -0.15660575 -0.09689213 -0.25203577 0.2943109 -0.011888051 -0.7706952
-0.38572747 0.8248352 -0.18996692 0.13393818 -1.6305871 -0.4683288 -0.72799116 -1.0414122
-1.4721496 0.34070235 0.37000492 0.15498412 0.27006808 -0.7914439 0.019810777 0.35577753

fc2.bias f4 [16]
00000000: 538b 003f 03d8 29bf 186a 3fbf 66f1 0abe
00000010: bdaa 5d3d 2ad9 c23d 9f6f 38bf 107c 2cbf
00000020: f03a 9fbe 4160 c2be deee 02bf 286a 423f
00000030: f497 71be 036e 673f d577 02bf d9d8 1c3f
0.5021259 -0.6634523 -0.7477126 -0.13568649 0.054117907 0.09514077 -0.7204532 -0.67376804
-0.31099653 -0.3796406 -0.5114573 0.7594323 -0.23593122 0.9040224 -0.509641 0.61268383

fc3.weight f4 [16, 16]
00000000: e766 fc3d 9cf6 693f 8328 a83e 5ffa a83e
00000010: a98c 4b3e c52c 00c0 09e5 4c3e 3dfd 873f
00000020: 2176 083f 89d9 0bbe 3152 bc3e da97 a5be
00000030: 7d9f 403e 72a6 4ebf ebf1 f83c 5bf1 43bd
00000040: 13c2 33bd 4059 493f f104 263d 8e3e 653e
00000050: a792 843b ba48 b4bf 4245 563e bd10 963f
00000060: e649 113e cfb9 1d3e cff3 ab3e a55a 40bf
00000070: bb26 943c 65cf a6bf 2927 c93e 4df7 5cbf
00000080: a552 e23f 8967 debe 825b 83be e298 52bd
00000090: 9863 4abe 6065 933f 7ef7 5dbe b95c 0bbf
000000a0: f069 0abf dc30 393e 82df 18be 3769 9c3e
000000b0: c45c 31bd df8e ed3e ffae 3cbd a33a 123f
000000c0: 9611 36bf 37d5 833f 486d 153f 5f3f 1b3d
000000d0: 16ee 8d3e e6fd a6bf 6dd1 8e3e 2730 853f
000000e0: d170 f63e ff15 60bd 8989 c13e 0577 4bbf
000000f0: 347a 403e 1466 23bf 751e 0c3d 5ff9 15bf
00000100: 2b12 c63e cabf 133f 28a4 023f 71ce 5c3e
00000110: 94c9 8c3d 0188 37bf 8819 51bd 0d35 1b3f
00000120: 73bd a43e 98b3 a9bb 5718 2d3e 96f3 33be
00000130: 6b5a 91be 8f6a c8bd 93f9 43be ddcc 4c3d
00000140: 920e 6fbe 702e 273e 9659 60bd bf37 32bd
00000150: 5fc8 68be 7bb0 033d 7743 10be 2dfd e6be
00000160: 989a 1cbd 5686 74be b6f4 1c3e 6308 28be
00000170: 4cb2 863d d20d 13be 0ce8 40be e8ca 93be
00000180: 2b39 bcbe 2b37 86be 148b 41bf 2ae6 f1be
00000190: a7c9 0a3f 0f98 0ebf f24a 0dbf e303 37bf
000001a0: 4ec1 b03d e958 9bbd 8b11 0fbe a7a9 2cbc
000001b0: 1e7a a0be 36c9 a9bf 662a 523e 277e 883d
000001c0: fc94 e23e c6a7 3c3f 1969 e33e 377d 073e
000001d0: 2fde 4b3e 84f7 2bbf 2f40 243d 8d3f 263f
000001e0: 42d3 8abe bf95 17be 09a9 d73d 300c 86be
000001f0: 1be9 04be 3892 8cbe 0a15 bc3d 9abb c63d
00000200: 7cff 643e 7ac4 ee3e 7a51 be3e 06c9 103e
00000210: 125d 263e 5819 1bbf 14c9 c9bd 1559 033f
00000220: 3524 d4bd ad40 1a3e 67a2 073e 39f6 0fbe
00000230: 31ab 8bbd cad2 cfbd af1d 17bc a081 f83d
00000240: 326d 173b d4ac b7be 9133 663c 7195 9ebe
00000250: bf6f d9bd dee4 29be 4e75 68bc e495 7fbe
00000260: 3278 34bd 22a2 30be ae85 d13b c88c 37be
00000270: 00a5 eb3d b512 483d 5281 a2be 0056 c6bd
00000280: f6df 933f b0bf 29bf ba41 8dbf 5458 85be
00000290: 4e03 e6be 0f89 b53f 1c49 54bf f2fd 87bf
000002a0: 9dc3 b8bd b4a6 863e 41fe 2c3f 9d37 523e
000002b0: 6ebf c5bd 76e4 903e ea15 893e c1af 963e
000002c0: 28f3 7e3e a0ca debe 103e 553e e4e9 0abf
000002d0: 5c7f 5ebf a496 3dbe 1dad aebe c609 073f
000002e0: 85bb 0abe 3078 77bd 141d dd3e 9166 37bf
000002f0: 9d88 40be d0a5 94be 638d 833e 33db cfbe
00000300: 0f90 213f 5f8a 5d3f 914c 493f 900e d93e
00000310: 9445 b83e f7e5 3fbf a22a db3e 4685 2d3f
00000320: bb00 093f 1f35 55be 752f aa3e 50b9 a7bd
00000330: 0d5d 74be f5a9 b0bd 96d2 0f3e 8bfe c03d
00000340: 051c 353c e3e8 8abe ce68 88be 92f8 6c3c
00000350: 30d8 bdbd 460a debc 9408 89be bc8b 4bbe
00000360: 4049 fc3d 6825 403e 6468 4ebe 4009 b7be
00000370: ec46 10be da0d 44bd f613 86be a3a5 31be
00000380: e155 65be 4496 01be b8d7 013e c230 2cbe
00000390: 69b5 efbe 6677 44be 8314 a2be 0015 36bb
000003a0: e6ce 70be cc1b 06be f8ed 7bbe d609 82be
000003b0: 0816 093e 084d 80be 03c8 3dbd 67d9 d0bd
000003c0: 4c82 7dbe 56f7 b2bd a4db 55be 433a 54bb
000003d0: 57b9 d9bd d4b7 0bbe 4f56 0ebe 3233 3abe
000003e0: 4d29 1c3e 9842 55be ae23 b3be 464d 98bb
000003f0: 8067 debc 9054 96be e134 46bc 7602 3fbe
0.123243146 0.9139192 0.32843408 0.33003518 0.19877876 -2.0027325 0.20009245 1.0624157
0.5330525 -0.13657202 0.36781457 -0.32342416 0.1881084 -0.80722725 0.030388793 -0.047837596
-0.043886255 0.7865181 0.040532056 0.22387144 0.0040458026 -1.4084694 0.20924857 1.1723858
0.14188346 0.15402912 0.3358445 -0.7513831 0.018084874 -1.3032042 0.3928769 -0.8631485
1.7681471 -0.43438366 -0.25655752 -0.05141533 -0.19764555 1.1515312 -0.21676442 -0.5443836
-0.540679 0.18085045 -0.14929011 0.30549023 -0.04330136 0.46398064 -0.046065327 0.5712072
-0.71120584 1.0299443 0.58369875 0.037902232 0.27720708 -1.3046234 0.27894154 1.040532
0.48132947 -0.054708477 0.37800243 -0.79478484 0.18796617 -0.63827634 0.034208734 -0.58583635
0.38685736 0.5771452 0.5103173 0.21563126 0.068743855 -0.716919 -0.05104974 0.60627824
0.32175788 -0.00517888 0.16903816 -0.1757339 -0.28389296 -0.097859494 -0.19138174 0.05000006
-0.23345402 0.16326308 -0.054772936 -0.043510195 -0.22732686 0.032150727 -0.14088236 -0.45115033
-0.03823337 -0.2387937 0.15327725 -0.1640945 0.06576976 -0.14360741 -0.18838519 -0.28865743
-0.36762366 -0.26213965 -0.7560284 -0.47245914 0.5421395 -0.55700773 -0.5519248 -0.71490306
0.0863062 -0.07585318 -0.13971536 -0.010538495 -0.31343168 -1.326453 0.20523986 0.06664687
0.4425429 0.736935 0.4441612 0.1323136 0.19908975 -0.67174554 0.040100273 0.6494072
-0.27114302 -0.14803217 0.10530288 -0.26181173 -0.12979548 -0.27455306 0.091837004 0.09703751
0.22363085 0.46634275 0.37171537 0.14139184 0.16246441 -0.60585546 -0.09852806 0.51307803
-0.103584684 0.15063734 0.13245545 -0.1405877 -0.068197615 -0.10147627 -0.009223386 0.12134099
0.0023105857 -0.35874045 0.01405038 -0.3097339 -0.10617017 -0.16591212 -0.014188124 -0.24959522
-0.04405994 -0.17249349 0.0063941097 -0.17924798 0.115060806 0.048845965 -0.3173929 -0.09684372
1.1552722 -0.66308117 -1.1035683 -0.26043952 -0.44924396 1.4182452 -0.82924056 -1.0624373
-0.09021685 0.2629906 0.6757546 0.20529027 -0.09655653 0.28299302 0.26774532 0.29430965
0.24897444 -0.43513966 0.20824456 -0.5426314 -0.86913085 -0.18514496 -0.3411645 0.5274929
-0.13548096 -0.060417354 0.43186247 -0.7164088 -0.18802114 -0.29032755 0.25693807 -0.40596923
0.6311044 0.8653926 0.78632456 0.42393923 0.35990584 -0.74960274 0.42805964 0.67781484
0.5351674 -0.20821045 0.33239332 -0.081896424 -0.23863621 -0.08626167 0.14045176 0.0942355
0.011054044 -0.27130803 -0.2664246 0.014463561 -0.0926975 -0.027104508 -0.26764357 -0.19877523
0.12318659 0.1876427 -0.2015701 -0.35749245 -0.14089555 -0.047864772 -0.26187104 -0.17348342
-0.22396041 -0.12654978 0.12679946 -0.16815475 -0.46818092 -0.19186172 -0.31656274 -0.0027783513
-0.23516425 -0.13096541 -0.24602497 -0.2539813 0.1338731 -0.2505877 -0.046333324 -0.10197716
-0.24756736 -0.08738582 -0.20884567 -0.003238336 -0.10631054 -0.13644344 -0.13900112 -0.18183592
0.1525013 -0.20826185 -0.3498816 -0.0046478836 -0.027148962 -0.2936139 -0.012097568 -0.18653283

fc3.bias f4 [16]
00000000: b177 493e 1f81 74be 601f b73e 29ae bbbf
00000010: 9d57 71be bfba 24be f611 033e 06ad 7ebe
00000020: 64d9 72be 6352 b1be df17 093c 5b8f cf3d
00000030: 04e4 31be 0e7d 07be aeb0 b1be 646e 35bd
0.19674565 -0.23877381 0.35766125 -1.4662524 -0.23568578 -0.16086863 0.1279982 -0.2487069
-0.2371574 -0.3463317 0.008367508 0.10134765 -0.17372137 -0.13231298 -0.34705108 -0.04429473

fc4.weight f4 [2, 16]
00000000: 7df8 babe cf56 2abf ab67 af3e efa6 a7bf
00000010: 1e9c bcbd 3a41 fd3d 9e6b c3be 4011 763c
00000020: d377 0b3e 8f09 96bd db1d 0c3f fc5d cc3d
00000030: 6c9f acbe 704f 01bc d4a9 5b3d ed93 ccbc
00000040: 62e8 a43d eeae b13e 4f6d 02be 1b8e b13f
00000050: 4b92 2b3d f126 48bd cb58 2a3f ef25 1f3e
00000060: 7c5e 713e 3716 5b3e ee81 00bf 25ca 93be
00000070: 93f8 183e 2eac 873d be18 403d 955e f0bd
-0.36517707 -0.6653871 0.3425878 -1.3097819 -0.092094645 0.123659566 -0.38168043 0.015018761
0.13619928 -0.07326042 0.54733056 0.099788636 -0.3371538 -0.0078924745 0.053628758 -0.02497288
0.08052136 0.34703773 -0.1273701 1.3871492 0.041887563 -0.048865262 0.6654174 0.15541814
0.23571199 0.21395193 -0.50198257 -0.28865162 0.14938574 0.066246375 0.046898596 -0.1173679

fc4.bias f4 [2]
00000000: 1abe 663d 4185 59be
0.05633364 -0.21242239
