data/results/1731510983.pth (torch, 14114 bytes, 16 tensors)

fc1.weight f4 [16, 32]
0	0x3e4666c6	0.19375142
1	0xbf5c7fb6	-0.8613237
2	0x3e4e36f5	0.20138152
3	0xbe03afa7	-0.12859975
4	0xbe1c4666	-0.1526123
5	0x3e8425d4	0.2581011
6	0x3e9e508f	0.30920836
7	0xbe1038ea	-0.14084211
8	0x3e857930	0.2606902
9	0xbf725a94	-0.9466946
10	0x3f2279fc	0.63467383
11	0xbdf57962	-0.119860426
12	0xbeea3967	-0.4574692
13	0x3e838c07	0.2569277
14	0x3f6267ce	0.88439643
15	0x3e4f3235	0.20233996
16	0x3edc88e4	0.4307319
17	0x3ecd3c15	0.400849
18	0x3e97c906	0.29645556
19	0xbf24f1c5	-0.6443141
20	0xbc685838	-0.014181189
21	0xbe89c0b6	-0.2690484
22	0x3f56528f	0.83719724
23	0xbf6c6624	-0.92343354
24	0x3dd8f3a1	0.105933435
25	0xbe38ba2b	-0.18039767
26	0xbda00488	-0.07813364
27	0x3f450163	0.7695524
28	0xbeadcddf	-0.3394613
29	0xbf4ac351	-0.7920428
30	0x3eaa73ac	0.33291376
31	0x3e002f17	0.12517963
32	0x3ddfc47a	0.10926147
33	0xbd88e01f	-0.06683373
34	0xbdf37143	-0.11886837
35	0x3d226807	0.03964999
36	0xbe86bece	-0.26317447
37	0x3f03f8b3	0.5155136
38	0x3faa8234	1.3320985
39	0x3f1ba606	0.60800207
40	0x3e431cfc	0.19054025
41	0x3f91a343	1.1377949
42	0x3df135da	0.117778495
43	0x3eeebc1f	0.466279
44	0xbe9947a9	-0.29937485
45	0x3f0178e8	0.50575113
46	0x3fc265a8	1.5187273
47	0xbf0ac873	-0.5421211
48	0x3f91bf0a	1.1386425
49	0x3ed6527d	0.4185981
50	0x3d7f6ae7	0.06235781
51	0x3ee7e043	0.45288286
52	0xbd5d5c24	-0.05404295
53	0x3f9c7f45	1.222634
54	0xbf4d9848	-0.8031049
55	0xbf49f4be	-0.7888907
56	0xbf501087	-0.8127522
57	0x3ef26f8e	0.47350734
58	0x3f6983f9	0.91217
59	0xbf1edcf5	-0.62055904
60	0xbd85be07	-0.065303855
61	0x3e61ed23	0.22063117
62	0x3f8a7fc2	1.0820239
63	0x3e994437	0.29934856
64	0x3ddcac62	0.10775067
65	0x3d0eb8eb	0.03484432
66	0x3e406139	0.18787088
67	0xc0383173	-2.8780181
68	0xbe96f9dd	-0.29487506
69	0xbee5d25a	-0.44887048
70	0x3f1c608d	0.61084825
71	0xbec6b45d	-0.3880948
72	0x3fa96c82	1.3236239
73	0x3f45ef71	0.77318484
74	0xbef41151	-0.4766946
75	0x3fa338ed	1.2751747
76	0xbd0370c4	-0.032089964
77	0xbe0ec6d8	-0.1394304
78	0xbeb77360	-0.35830212
79	0x3eccdd87	0.40012762
80	0x3eefa993	0.46809062
81	0x3e40aedc	0.18816704
82	0x3e0bdaf6	0.13657746
83	0xbf0ca94e	-0.5494584
84	0x3e9ac94c	0.30231702
85	0x3defd5b4	0.117106825
86	0xbf26d734	-0.65172124
87	0x3f1d4f9e	0.6144961
88	0xbf38e762	-0.7222806
89	0xbe76b4c0	-0.24092388
90	0x3edbc7e5	0.42925945
91	0xbed43a71	-0.41450837
92	0x3e8d86e5	0.2764198
93	0xbefe26f2	-0.49639088
94	0x3ec68eae	0.3878073
95	0x3f63e8e7	0.89027256
96	0x3d6fd3b3	0.0585515
97	0xbe7259b2	-0.23667029
98	0xc048e8f5	-3.1392186
99	0xbf6a267a	-0.9146496
100	0xbe489446	-0.19587812
101	0xbe124cac	-0.1428706
102	0x3e21d268	0.1580292
103	0xbdc4d310	-0.096105695
104	0xbf7859b4	-0.97011876
105	0x3f2cce38	0.67502165
106	0x3e77a108	0.24182522
107	0xbf102fb3	-0.56322783
108	0x3e114b37	0.14188848
109	0xbf268167	-0.650412
110	0xbf9b1a42	-1.2117388
111	0xbe733184	-0.23749357
112	0xbe40892b	-0.18802325
113	0xbf1611ce	-0.5862092
114	0xbea56baf	-0.3230872
115	0xbf1a7ba4	-0.6034491
116	0xbe9d971e	-0.30779356
117	0xbf0d16e6	-0.55113065
118	0xbf8fb9f9	-1.1228629
119	0x3f168d9d	0.58809835
120	0xbf5055cc	-0.81380916
121	0xbebad8dd	-0.3649358
122	0x3ee8596c	0.45380723
123	0xbe5d5295	-0.21613534
124	0x3d492e15	0.049116213
125	0x3e59d2d3	0.2127183
126	0xbebba5bf	-0.36649892
127	0xbe5bae77	-0.21453272
128	0x3d81e993	0.06343379
129	0xbdb3bf8a	-0.087767676
130	0xc04a8fe3	-3.1650321
131	0x3f41e1c7	0.75735134
132	0xbf0260b9	-0.5092884
133	0x3ea52fdd	0.3226308
134	0x3dc7d4a5	0.097573556
135	0x3f0524d1	0.520093
136	0xbe1d5901	-0.15365984
137	0xbe32a0af	-0.17444108
138	0x3f9a4616	1.2052639
139	0xbf72c9c1	-0.948391
140	0x3f8b5798	1.0886106
141	0x3f9a9ef2	1.2079756
142	0x3f79bd04	0.9755404
143	0xbefbca63	-0.49177846
144	0x3f1ad6d4	0.6048405
145	0xbe81cf27	-0.25353357
146	0x3ee3dc59	0.4450405
147	0x3e0a0ddd	0.13481851
148	0xbf0bd98f	-0.54628843
149	0x3eee1a9c	0.46504676
150	0xbdadee46	-0.08492713
151	0x3f259869	0.64685684
152	0x3da0ba66	0.07848053
153	0xbe8a76a8	-0.27043653
154	0x3f772da8	0.9655404
155	0xbee93500	-0.45548248
156	0x3b0dc9ef	0.0021635254
157	0x3e437060	0.19085836
158	0x3f856917	1.0422696
159	0xbd4e801a	-0.050415136
160	0x3e866138	0.26246047
161	0xbedf45f9	-0.43608072
162	0xbefa0aef	-0.48836467
163	0xbeffbb1d	-0.49947444
164	0x3f363612	0.71176255
165	0xbfaf45dc	-1.3693194
166	0x3f1ca6c1	0.61191946
167	0xbf69b278	-0.91287947
168	0xbdd8547d	-0.1056299
169	0xbf25fb93	-0.64836997
170	0xbf2feb5d	-0.6871851
171	0x3801c340	3.0937837e-05
172	0xbd177e5e	-0.036985748
173	0x3da46516	0.08027093
174	0xbe8b8216	-0.27247685
175	0x3f269a2f	0.65079015
176	0xbe5eb75e	-0.21749637
177	0xbf47dc13	-0.7807018
178	0x3ea02cf2	0.3128429
179	0x3f4cb65d	0.79965764
180	0x3f1039e4	0.56338334
181	0xbec56a03	-0.38557443
182	0xbf890a85	-1.0706335
183	0xbfc32ab8	-1.5247412
184	0xbec95554	-0.39322913
185	0xbe837ee1	-0.25682738
186	0x3e8c657c	0.27421176
187	0xbc876143	-0.01652587
188	0x3ee289bd	0.4424571
189	0x3e3bfcad	0.18358107
190	0xbf30c17f	-0.6904525
191	0xbda9590c	-0.082689375
192	0xbc4d012b	-0.0125124855
193	0x3d938d92	0.07204737
194	0xc08621d7	-4.191631
195	0xbe12747d	-0.14302249
196	0x3dbb96f7	0.09159654
197	0x3e976139	0.29566363
198	0x3eee5cdb	0.46555218
199	0x3e5ad58e	0.21370527
200	0x3f7d6799	0.989862
201	0x3e5bc2e6	0.21461067
202	0xbe7a04fd	-0.24415965
203	0x3f1c030a	0.6094214
204	0xbf5ff04c	-0.8747604
205	0x3ebc6343	0.3679448
206	0xbf76d0ea	-0.9641253
207	0x3e7c70ac	0.24652356
208	0xbd819edc	-0.06329128
209	0xbfb0aa59	-1.3801986
210	0xbf0acd37	-0.54219383
211	0x3eb3d3af	0.3512244
212	0xbddeb579	-0.10874457
213	0xbda4353d	-0.08017967
214	0x3f975d47	1.1825341
215	0x3edf36a3	0.43596372
216	0xbe8f996b	-0.28046736
217	0xbe58a66b	-0.21157233
218	0x3ea98973	0.33112678
219	0xbf19897a	-0.599754
220	0x3ec9282c	0.3928846
221	0x3d4b5817	0.049644556
222	0xbdd890f5	-0.10574523
223	0x3f3bda8e	0.73380363
224	0x3dfd6b74	0.12374011
225	0x3e1512a0	0.14557886
226	0xc0a37858	-5.1084404
227	0xbf82d5d2	-1.0221503
228	0x3d2ff62f	0.04295939
229	0x3f2158aa	0.63025916
230	0xbf801fd3	-1.0009712
231	0x3eb98d67	0.36240694
232	0x3fa78ae2	1.3089259
233	0x3c4247b1	0.011857913
234	0x3f0df1d4	0.55447125
235	0x3f1d076c	0.6133945
236	0x3e044e9d	0.12920614
237	0x3e222db4	0.15837747
238	0x3f4e6d61	0.8063565
239	0xbe401692	-0.1875861
240	0x3f660b3f	0.8986091
241	0x3f0bc77b	0.5460126
242	0x3d517727	0.051139023
243	0xbd777b86	-0.060420536
244	0xbec2ceac	-0.38048303
245	0x3ecccf63	0.40001974
246	0x3e3c641c	0.18397564
247	0x3e78c054	0.24292117
248	0x3d956e40	0.07296419
249	0xbc9ea23a	-0.019364465
250	0x3e8c5b4f	0.27413413
251	0xbe3f8269	-0.18702091
252	0x3f043aa8	0.51652
253	0xbe8d82b7	-0.2763879
254	0x3f2e3f80	0.68065643
255	0x3de7ae52	0.11312546

fc1.bias f4 [16]
0	0xbf42429a	-0.75882876
1	0xbf2e26c4	-0.680279
2	0xbf865b90	-1.0496693
3	0x3e2c4d60	0.16826391
4	0xbd834fd7	-0.064117126
5	0x3e9b5bab	0.30343375
6	0xbf390942	-0.7227975
7	0xbe0e4c8b	-0.13896386
8	0xbf88c59d	-1.0685307
9	0xbf393361	-0.72344023
10	0x3f4aff5c	0.792959
11	0xbf724088	-0.94629717
12	0x3e810c52	0.25204712
13	0xbeaaa2b2	-0.33327252
14	0xbe9a2aef	-0.3011088
15	0xbf9fe085	-1.2490393

fc2.weight f4 [16, 16]
0	0xbdc41409	-0.09574134
1	0x3f6a9cc3	0.9164545
2	0x3d2d0fdd	0.042251457
3	0xbd75f4aa	-0.060047783
4	0x3ca54d6c	0.02017852
5	0xbe32d6ef	-0.17464803
6	0x3f0ac8fa	0.54212916
7	0x3e1ef3b3	0.15522651
8	0x3f3dd805	0.74157745
9	0x3fabe5a2	1.3429453
10	0xbf7d61e8	-0.9897752
11	0xbe4608a7	-0.19339238
12	0x3e914f17	0.28380653
13	0xbfc4dc60	-1.5379753
14	0xbe2b1c4b	-0.16710012
15	0xbe7fbfb6	-0.24975476
16	0x3f2f3b48	0.6844983
17	0x3b8a45e2	0.0042197565
18	0xbffc68e8	-1.9719515
19	0xbcee3bc4	-0.029081233
20	0xbdfb27a2	-0.12263419
21	0x3f17ec56	0.59344995
22	0xbd68ed85	-0.05686714
23	0xbef82745	-0.4846746
24	0xbe1c301d	-0.15252729
25	0x3e4ec4c2	0.20192245
26	0x3fa101d6	1.2578685
27	0xbf209abb	-0.627361
28	0x3e96f08c	0.29480398
29	0x3f147e89	0.5800558
30	0xbe3c7750	-0.18404889
31	0xbf045743	-0.5169565
32	0xc003cc57	-2.059347
33	0x3ef0ed51	0.47056058
34	0x3e0766a4	0.13222748
35	0x3e883e4b	0.26610026
36	0xbfbd9c6e	-1.4813364
37	0xbeffbd70	-0.49949217
38	0x3ec46aff	0.38362882
39	0xbf21b669	-0.6316896
40	0xbeb33ba7	-0.3500645
41	0x3f53ebd0	0.82781696
42	0x3ef01c04	0.46896374
43	0x3ea44a4c	0.32087934
44	0xbee594c0	-0.4484005
45	0x3f19fb6a	0.6014925
46	0xbf25b4e6	-0.64729154
47	0x3f9af182	1.2104952
48	0xbdacff85	-0.08447174
49	0x3eda3800	0.4262085
50	0x3fbb8c09	1.465211
51	0xbe98e076	-0.2985875
52	0xbce64668	-0.028109744
53	0x3f268f18	0.65062094
54	0xbe91542e	-0.28384537
55	0x3f1bb44b	0.6082198
56	0xbf3c7c9e	-0.7362765
57	0xbf491531	-0.7854796
58	0xbd397e86	-0.045286678
59	0xc014f6e8	-2.32757
60	0x3cb8f404	0.022577293
61	0x3ea74d9c	0.326764
62	0xbf587aea	-0.8456255
63	0x3f0f2163	0.5591032
64	0xbe31dd65	-0.17369612
65	0xbfcd8fdd	-1.6059529
66	0x3f0e6809	0.55627495
67	0xbf8b103f	-1.0864333
68	0xc026f1e7	-2.6085145
69	0xbfb93714	-1.4469934
70	0xbde67e7d	-0.112545945
71	0x3f6cd611	0.9251414
72	0x3ec6986a	0.38788158
73	0xbf909e87	-1.1298379
74	0x3e306fac	0.172301
75	0x3f5dc51b	0.86628884
76	0xbf09d2b2	-0.5383712
77	0x3ede84a5	0.43460575
78	0x3ca12a2d	0.019673431
79	0x3e0e3d93	0.13890676
80	0x3e67f0f7	0.22650515
81	0xc07780ad	-3.8672287
82	0xbe498847	-0.19680892
83	0xbf2f63e9	-0.68511826
84	0xbfbb366f	-1.4625987
85	0xbe584883	-0.21121411
86	0xc00a4ecf	-2.16106
87	0x3f866db0	1.0502224
88	0x3cfbb111	0.03072408
89	0xbf9182fc	-1.1368098
90	0xbd1a88fc	-0.037728295
91	0xbe1b8772	-0.15188387
92	0xbded7607	-0.115947776
93	0x3f293a66	0.66104734
94	0x3e9f0101	0.31055453
95	0x3f4ef572	0.8084327
96	0x3efea8f7	0.49738285
97	0xbfc3e6b2	-1.5304778
98	0x3d9aab6f	0.075522296
99	0x3f318667	0.69345707
100	0xbf356d9a	-0.70870364
101	0x3f3b3402	0.7312623
102	0xbdf3af97	-0.118987255
103	0xbeccff95	-0.40038744
104	0xbcd34608	-0.02579023
105	0xbf43cc50	-0.7648363
106	0x3e9d8338	0.30764174
107	0xbd71b263	-0.059008013
108	0xbf301358	-0.68779516
109	0x3eb97e0b	0.36228976
110	0x3f1b4132	0.60646355
111	0xbcc7482d	-0.024326408
112	0xbd8c7c4e	-0.06859647
113	0x3e835bee	0.25656074
114	0x3f603a5f	0.8758907
115	0x3e858499	0.26077726
116	0x3ece0e97	0.40245506
117	0xbe384422	-0.1799474
118	0x3f189f10	0.5961771
119	0x3fa4cbf5	1.2874743
120	0x3f3f40d6	0.74708307
121	0xbf257b9d	-0.64641744
122	0x3ecd4b07	0.40096304
123	0xbeb97e88	-0.36229348
124	0xbebd9061	-0.37024215
125	0xbf77dafb	-0.9681851
126	0xbe03d1ea	-0.12873045
127	0x3fb4f384	1.4136815
128	0x3dc9e5cf	0.09858286
129	0x3f23e898	0.64026785
130	0x3ea937c0	0.33050346
131	0x3f556e61	0.8337155
132	0xbe90d509	-0.28287533
133	0xc001fb6d	-2.0309708
134	0xbda2848a	-0.07935436
135	0xbe3348ec	-0.17508286
136	0xbf7d8f2b	-0.9904658
137	0x3f2a69d8	0.66567755
138	0x3ef2d8e8	0.4743111
139	0xc0236732	-2.5531735
140	0x3d9cb942	0.076525226
141	0xbf36644b	-0.71246785
142	0xc001c776	-2.0277991
143	0xbfc0389d	-1.5017277
144	0x3f09c208	0.53811693
145	0x3d96caee	0.073629245
146	0xbeed940f	-0.46402022
147	0xbe4c15b4	-0.19930154
148	0xbfcfb350	-1.6226597
149	0x3f00e851	0.50354487
150	0xc021d748	-2.5287647
151	0xbf8abd42	-1.0839007
152	0xbdbbb32a	-0.09165032
153	0xbdf8026c	-0.12109837
154	0xbe88685b	-0.26642117
155	0x3e1fd175	0.15607245
156	0xbf72eb2e	-0.94890106
157	0xbfc45189	-1.5337383
158	0xbfabcbd3	-1.3421577
159	0x3f3d3d72	0.73921883
160	0xbdf14554	-0.117808014
161	0xbf740842	-0.953251
162	0xbe66319d	-0.22479863
163	0xc061f041	-3.530289
164	0xbf2f1751	-0.68394953
165	0x3e5c1c9f	0.21495293
166	0x3f446f2f	0.7673215
167	0xbfff0b88	-1.9925394
168	0x3e9f6b3a	0.31136495
169	0x3efece26	0.49766654
170	0x3f3c5ded	0.7358082
171	0x3f1cb5c3	0.61214846
172	0xbe9d974a	-0.30779487
173	0x3e98ec72	0.29867893
174	0xbe020b39	-0.12699594
175	0x3da26289	0.0792895
176	0x3e4525f6	0.19252762
177	0xbe247819	-0.16061439
178	0x3e9a69c8	0.3015883
179	0x3eea0e87	0.45714208
180	0x3f7d6e3c	0.9899633
181	0xbdf08e41	-0.11745883
182	0x3f459d6f	0.7719335
183	0x3f1cec2f	0.6129789
184	0xbf717d32	-0.9433166
185	0x3f49957e	0.7874373
186	0xbed21044	-0.41028035
187	0xbf02d400	-0.51104736
188	0xbd8044f0	-0.06263149
189	0xbd9031e7	-0.07040768
190	0xbdb13ce4	-0.08654192
191	0xbf3ef906	-0.7459873
192	0x3dc5553f	0.096354
193	0x3e568486	0.20948991
194	0x3ea1de85	0.3161508
195	0x3e9da56a	0.30790263
196	0x3e33b6eb	0.17550246
197	0x3e101add	0.14072748
198	0x3f972911	1.1809407
199	0x3ea4b865	0.32171932
200	0xbf718b5a	-0.9435326
201	0x3e94cba2	0.2906161
202	0xbfceb1f1	-1.6148053
203	0x3e7d0687	0.24709521
204	0xbfcd819e	-1.6055181
205	0xbea9cc14	-0.33163512
206	0x3b8ad968	0.0042373426
207	0xbb84f141	-0.00405708
208	0x3e39ce98	0.18145216
209	0x3f271f8a	0.652825
210	0xbecc475c	-0.39898193
211	0x3f13e2ee	0.5776814
212	0x3e43c552	0.1911824
213	0x3c105131	0.00880842
214	0xc013664c	-2.3031187
215	0x3eb4c00e	0.35302776
216	0xbf467410	-0.7752085
217	0x3f2b565f	0.66928667
218	0x3f0e599e	0.55605495
219	0xbf179510	-0.59211826
220	0xbcaeffdf	-0.021362243
221	0xbf214858	-0.6300101
222	0xbfb3f972	-1.40605
223	0x3fba4aee	1.4554117
224	0x3d76dffe	0.06027221
225	0xbf5da34c	-0.86577296
226	0x3d9774ee	0.073953494
227	0x3f34c994	0.70620084
228	0x3f1f872f	0.6231565
229	0x3e8ea2ff	0.2785873
230	0xbfe1c4f5	-1.7638232
231	0xbe057565	-0.13033064
232	0x3e743214	0.23847228
233	0xbe2bd856	-0.16781744
234	0x3f619d31	0.8813048
235	0xbefecdb9	-0.4976633
236	0xbf21203d	-0.62939817
237	0x3e72fe02	0.23729709
238	0x3e575c28	0.21031249
239	0x3e59207b	0.21203797
240	0x3f1d1e10	0.61373997
241	0xbf917002	-1.1362307
242	0xbfcca4a0	-1.598774
243	0xbf64178e	-0.8909844
244	0xbe77e853	-0.24209718
245	0x3f478c11	0.779481
246	0xbf0553a4	-0.5208075
247	0x3f2dc489	0.67878014
248	0x3ed76c97	0.42075035
249	0x3e12e7f5	0.14346297
250	0x3ec3d0b1	0.38245156
251	0xbccf4341	-0.025300624
252	0xbfe1bdb7	-1.7636021
253	0xbd0b8487	-0.034061935
254	0x3e6e95f2	0.23299387
255	0xbe921d59	-0.28538015

fc2.bias f4 [16]
0	0xbfab45ed	-1.3380715
1	0xbf211860	-0.6292782
2	0x3e9ae947	0.302561
3	0xbffcb980	-1.974411
4	0xbefc05c6	-0.49223155
5	0xbe77fde7	-0.2421795
6	0x3f88866d	1.0666023
7	0xbe960700	-0.29302216
8	0xbf9d518c	-1.2290511
9	0x3facfb07	1.3514107
10	0xbee5a897	-0.44855186
11	0xbe738e52	-0.2378476
12	0xbf0470aa	-0.5173441
13	0xbf512d59	-0.8170982
14	0xbf02731f	-0.5095691
15	0x3f3c73b7	0.73614067

fc3.weight f4 [16, 16]
0	0xc0184994	-2.3794909
1	0x3f166ee1	0.5876294
2	0xbc874688	-0.016513124
3	0xc02898c1	-2.6343234
4	0x3ecbb72f	0.39788195
5	0x3f152272	0.58255684
6	0xbf105f58	-0.56395483
7	0x3e20bc65	0.15696867
8	0xbf0ee9ed	-0.5582569
9	0x3fa2f019	1.2729522
10	0x3f08a263	0.5337278
11	0xbf6f1bfc	-0.93402076
12	0xbf9d5b69	-1.2293521
13	0xc04b9860	-3.1811752
14	0x3decdfee	0.11566149
15	0x3eb70790	0.35747957
16	0xbf635541	-0.8880196
17	0x3e4800ec	0.19531602
18	0x3f8fdce6	1.1239288
19	0x3f46a7c6	0.7759975
20	0xc0159c64	-2.3376703
21	0x3f5c7747	0.861195
22	0xbf07929c	-0.52958083
23	0xbe069c95	-0.13145669
24	0x3f9b3326	1.2124984
25	0xbf2bd7d4	-0.671262
26	0x3e94270e	0.28936046
27	0x3e8ba302	0.27272803
28	0x3ea3d95f	0.32001778
29	0xbc7d04bc	-0.015443023
30	0xbf207a6a	-0.6268679
31	0xbd12abec	-0.03580849
32	0x3eb79df1	0.35862687
33	0x3ec10dc7	0.37705824
34	0xbea4096b	-0.32038435
35	0x3dbf7e05	0.09350208
36	0xbee0190a	-0.43769103
37	0x3f9a8ce9	1.2074252
38	0xbfbc8f6a	-1.4731266
39	0xc02a118e	-2.6573215
40	0xbf8c8c6b	-1.0980352
41	0x3f79c89c	0.9757173
42	0xbce352d9	-0.027749466
43	0x3ef9e332	0.4880615
44	0xbe486e2a	-0.19573274
45	0xbf9af9c8	-1.2107477
46	0xbee2689a	-0.4422043
47	0xbf2ba4f2	-0.6704856
48	0x3ed75c39	0.42062548
49	0xbe96aec6	-0.29430217
50	0x3ef0546b	0.46939406
51	0xbffd5869	-1.9792606
52	0x3f878f0e	1.0590532
53	0x3d093c4e	0.033504777
54	0xbe9c418d	-0.3051876
55	0xbeee9941	-0.46601298
56	0xbe887e54	-0.2665888
57	0xbf4fd242	-0.811802
58	0x3fd657e8	1.6745577
59	0x3e591b7c	0.2120189
60	0xbf885316	-1.0650356
61	0x3eaf6b70	0.34261656
62	0x3f09401b	0.5361344
63	0xbe58614d	-0.21130867
64	0x3de860f7	0.113466196
65	0x3e5d5d93	0.21617727
66	0x3eabd9d9	0.33564642
67	0xbfa5c6b5	-1.2951266
68	0x3eb5a0dd	0.3547429
69	0x3de74f58	0.112944305
70	0xbdf63b1e	-0.120229945
71	0xbd9299a0	-0.07158208
72	0xbf74ad66	-0.95577085
73	0x40339fe7	2.8066347
74	0x3ebcfc3e	0.36911196
75	0x3ea118ef	0.31464335
76	0xbf4ae9a7	-0.79262775
77	0xbe36fe50	-0.1787045
78	0x3e89715b	0.26844296
79	0x3f8fe4d7	1.1241711
80	0x3f174020	0.5908222
81	0xbfd1752e	-1.6363885
82	0x3e7ffdb6	0.24999127
83	0x3ecc6007	0.39917013
84	0xbf85fc79	-1.0467674
85	0xbfd93446	-1.6969078
86	0xc03ab83a	-2.9174943
87	0x3dc62f56	0.09676997
88	0xbd978f66	-0.07400398
89	0xc01653c5	-2.348863
90	0xbf5d8d11	-0.86543375
91	0xbd0c008f	-0.03418022
92	0x3e7ec117	0.24878345
93	0xbe8837f9	-0.26605204
94	0xbf9fd972	-1.2488234
95	0xbe224839	-0.15847863
96	0x3f06c367	0.5264191
97	0x3ebb2a76	0.36555833
98	0xbe892123	-0.26783094
99	0xc01c6a96	-2.4440055
100	0xbefcbc7e	-0.49362558
101	0x3f5666de	0.8375071
102	0x3f45bb2a	0.77238715
103	0xbe9e294f	-0.3089089
104	0xbfdc1309	-1.7193309
105	0x3f8342a8	1.0254717
106	0x3f337c12	0.7011119
107	0x3ec8bc77	0.39206287
108	0xbfd3e31f	-1.6553687
109	0xc05aa263	-3.4161613
110	0xbe3ec7be	-0.18630883
111	0x3dbb4127	0.09143286
112	0x3ea91a81	0.33028033
113	0x3f13eb82	0.5778123
114	0xbfa5ee03	-1.296326
115	0xbfce78bb	-1.6130594
116	0x3eec3a98	0.46138453
117	0x3f863877	1.0485982
118	0xbe8ec0d0	-0.2788148
119	0xbf16a8ed	-0.5885151
120	0xbf433a6d	-0.76261026
121	0x3e774180	0.2414608
122	0x3e008f0d	0.1255457
123	0xc035e7ca	-2.8422723
124	0xbdd30fba	-0.10305734
125	0xbf20e13c	-0.6284368
126	0x3eb48bd4	0.3526293
127	0x3f906bcc	1.1282897
128	0xbf032833	-0.51233214
129	0xbfb4b944	-1.4119039
130	0xbcd640c9	-0.026153939
131	0x3e7d2b0a	0.2472345
132	0x3f41c85c	0.7569635
133	0xbf106c3e	-0.56415164
134	0xbe34a626	-0.17641506
135	0x3e8a3e46	0.27000636
136	0x3f85b0fe	1.0444639
137	0xbf1f70f0	-0.62281704
138	0xbfc952f1	-1.5728437
139	0x3f22e245	0.6362651
140	0x3f3eb321	0.7449208
141	0x3f24b09f	0.64332
142	0xbec62546	-0.38700312
143	0x3e35bd6a	0.17748037
144	0x3e0088cd	0.12552185
145	0x3dfb28bc	0.12263629
146	0x3f20281f	0.6256122
147	0xbf201284	-0.6252825
148	0xbe38b845	-0.18039043
149	0x3f8915f7	1.0709828
150	0x3f2306ec	0.63682437
151	0xbe5409ad	-0.20706816
152	0xbde4969b	-0.11161538
153	0x3fe85942	1.8152239
154	0x3fae3616	1.3610256
155	0xbd94b09d	-0.07260249
156	0xbf71ff35	-0.9453004
157	0xbe670d56	-0.22563681
158	0x3eedc850	0.4644189
159	0xbe0960a8	-0.13415778
160	0xbf8d7f2f	-1.1054438
161	0x3ef037a7	0.4691746
162	0x3f2e24a3	0.68024653
163	0x3fa604ae	1.2970178
164	0xbed756f5	-0.4205853
165	0xbfb3236e	-1.3995187
166	0x3ea7d584	0.32780087
167	0x3e970860	0.29498577
168	0x3f3e476e	0.74327743
169	0xbf0aa379	-0.5415569
170	0xbf0f8469	-0.56061417
171	0xbeb59c2f	-0.3547072
172	0x3f139119	0.57643276
173	0x3f129ac5	0.5726741
174	0xbefcb32b	-0.49355444
175	0x3f9985db	1.1993974
176	0xbfdfb447	-1.7476891
177	0xbf92239a	-1.1417115
178	0x3f71eee9	0.9450517
179	0x3ee2ed33	0.44321594
180	0xc00147b9	-2.0200026
181	0xbea8e2e6	-0.3298561
182	0xbf70ff29	-0.94139344
183	0xbe0c12da	-0.13679066
184	0x3f9f4af4	1.2444749
185	0xbfa538c5	-1.290795
186	0xbf39ad30	-0.7252989
187	0xbf0bab40	-0.5455818
188	0xbe3326ef	-0.1749532
189	0x3f266d9d	0.65011007
190	0xbfc741ce	-1.5566957
191	0xbf122fb6	-0.5710405
192	0xbf88c100	-1.0683899
193	0xbf486e71	-0.7829352
194	0x3eb3323d	0.34999266
195	0x3f8c2d53	1.0951332
196	0xbe913624	-0.2836162
197	0xbf3df550	-0.7420244
198	0xbe804150	-0.2504983
199	0xbf54edf5	-0.83175594
200	0x400700fc	2.109435
201	0x3fe2fc4e	1.7733247
202	0xbfc6d532	-1.5533812
203	0xbfae5e21	-1.3622476
204	0xbe9d2aa3	-0.30696592
205	0x3f10ea89	0.5660787
206	0xbfc343f2	-1.525511
207	0x3edcc951	0.43122342
208	0xbcb51327	-0.02210386
209	0x3ecbc68e	0.39799923
210	0xbeea9695	-0.4581801
211	0xbdbde51c	-0.09272215
212	0x3f898d9a	1.0746338
213	0xbe84c641	-0.25932506
214	0xbf150369	-0.5820833
215	0x3f81b3d3	1.0133003
216	0xbf64c37f	-0.89360803
217	0xbb8b8045	-0.0042572343
218	0xbe2a1e2d	-0.16613074
219	0x3cb99db8	0.022658214
220	0xbf7656a3	-0.9622595
221	0x3f39107f	0.72290796
222	0xbe2762e5	-0.16346319
223	0xbebeb157	-0.37244675
224	0xbf8e832c	-1.113378
225	0x3e3c31bf	0.18378352
226	0xbf595c1f	-0.8490619
227	0xbfe1d7cd	-1.7643982
228	0xbf133230	-0.57498455
229	0x3e4b5367	0.19856034
230	0x3e96124d	0.29310837
231	0xc0016a30	-2.0221062
232	0xbfe0d37d	-1.7564541
233	0x3f830ba8	1.0237932
234	0x3f97a4e0	1.1847191
235	0xbebc4cf1	-0.36777452
236	0x3e03a7ec	0.12857026
237	0xbf25c512	-0.6475383
238	0x3f07a2fb	0.52983063
239	0xbf0e563c	-0.55600333
240	0xbcf34f14	-0.029700793
241	0xbed889b1	-0.4229255
242	0xbdcedfc0	-0.10101271
243	0x3dd70e1f	0.1050074
244	0xbbf01e6d	-0.007327846
245	0x3da3396b	0.07969936
246	0xbdaf9e4d	-0.08575115
247	0xbe6ece05	-0.23320778
248	0xbe624eea	-0.22100416
249	0x3da07ab4	0.07835904
250	0x3be76ce7	0.0070625427
251	0xbee361d0	-0.44410563
252	0xbe18008e	-0.14843962
253	0xbe1d45d9	-0.15358676
254	0xbe81d91c	-0.25360954
255	0xbe42cbce	-0.19023058

fc3.bias f4 [16]
0	0xbd803f7b	-0.06262108
1	0x3fcfec21	1.6243936
2	0xbf93933b	-1.1529306
3	0xbb3dc72a	-0.0028957822
4	0x3ec305e3	0.3809043
5	0xbf33731e	-0.7009753
6	0xbe9162d9	-0.28395727
7	0xbf01b7eb	-0.5067126
8	0xbe18741a	-0.14888039
9	0xbdbdd461	-0.09269024
10	0x3cef294c	0.029194497
11	0xbfac2bde	-1.3450887
12	0xbf378ad9	-0.7169624
13	0xbf247623	-0.6424276
14	0x3f634f3e	0.8879279
15	0xbefd9913	-0.4953085

fc4.weight f4 [16, 16]
0	0xbf8dc282	-1.1074984
1	0x3dffde53	0.12493577
2	0x3f26ed70	0.6520605
3	0x3f536233	0.82571715
4	0xbf2d7f33	-0.67772216
5	0xbeb0efb8	-0.3455789
6	0xbf20cb4c	-0.62810206
7	0x3f006ec0	0.5016899
8	0xbf9281fe	-1.144592
9	0xbe60347c	-0.21895021
10	0xbec358ef	-0.38153788
11	0xbd9f5746	-0.07780318
12	0x3dd6febc	0.104978055
13	0xbedfd3af	-0.4371619
14	0x3f8d6571	1.1046582
15	0xbd02c8c8	-0.03192976
16	0xbe64d776	-0.22347817
17	0x3dc43eba	0.09582277
18	0xbe931cdd	-0.28732958
19	0xbcde4082	-0.02713037
20	0xbe5aee9e	-0.21380088
21	0xbe6cf42b	-0.23140018
22	0xbe91303e	-0.28357118
23	0x3dd4a890	0.10383713
24	0xbeea0cb9	-0.45712832
25	0xbee39a98	-0.44453883
26	0xbea069f4	-0.31330836
27	0xbe887111	-0.26648763
28	0x3c60ea60	0.013727754
29	0xbe9518e4	-0.29120553
30	0xbe08e1fa	-0.13367453
31	0xbdef1184	-0.11673263
32	0xbcf4fe24	-0.02990634
33	0x3e18c2e8	0.14918101
34	0x3f1517b2	0.5823928
35	0x3ee6853b	0.45023522
36	0x3efc0d10	0.49228716
37	0xbf56a98c	-0.8385246
38	0x3ecd2110	0.40064287
39	0xbf8aadab	-1.0834249
40	0xbf930157	-1.1484784
41	0x3f0c5de4	0.54830766
42	0xbf27d874	-0.65564656
43	0x3f8c9256	1.0982158
44	0xbf8fcd50	-1.1234531
45	0xbe3a2339	-0.18177499
46	0x3f54e385	0.8315967
47	0xbea91ecd	-0.33031312
48	0x3f7e2668	0.99277353
49	0xbf2f5408	-0.68487597
50	0x3e8d9c7d	0.27658454
51	0x3ef2bfd4	0.47411978
52	0x3f02d5ab	0.5110728
53	0xbf9e9f16	-1.2392299
54	0x3f2b53bd	0.6692465
55	0x3f77e82f	0.9683866
56	0x3d9ac3ad	0.075568534
57	0x3eaff3bc	0.34365642
58	0x3e587255	0.21137364
59	0xbf258f1b	-0.64671487
60	0xbf1e55e0	-0.61849785
61	0xbec1c06c	-0.3784212
62	0x3e2e2391	0.17005755
63	0x3e2c54c0	0.16829205
64	0x3f8e6fe0	1.1127892
65	0xbfbb1672	-1.4616225
66	0xbf9efadc	-1.2420306
67	0xbe5b3fe3	-0.2141109
68	0xbe5cfbc3	-0.21580414
69	0xbf87e6de	-1.061733
70	0x3fcbf5fa	1.5934441
71	0x3fd34512	1.6505454
72	0xbe387edb	-0.18017142
73	0xbd12cfac	-0.035842583
74	0xbf035fbd	-0.5131796
75	0xbda66cf6	-0.081262514
76	0xbf8eef3b	-1.1166757
77	0x3e0579d2	0.13034752
78	0xbe8bf29a	-0.27333528
79	0xbe7ff533	-0.2499588
80	0xbe8dfb1d	-0.27730647
81	0x3f81eaf9	1.0149833
82	0xbec7b434	-0.39004672
83	0x3e3a9c0e	0.18223593
84	0xbdee5462	-0.116371885
85	0xbea230f2	-0.31677967
86	0xbdafa7e8	-0.085769475
87	0x3f2772dc	0.65409636
88	0x3e313f0e	0.1730921
89	0xbf2ac202	-0.6670228
90	0x3ee474de	0.44620413
91	0x3f4b4b66	0.79411924
92	0x3fc0a140	1.504921
93	0x3e24a62d	0.16079016
94	0xbfe8acd0	-1.8177738
95	0x3da71cb8	0.081597745
96	0xbf8d542c	-1.1041312
97	0x3eae4873	0.3403965
98	0x3b8ff6ec	0.004393449
99	0xbeefe420	-0.46853733
100	0xbeb18de6	-0.34678572
101	0xbed5a9b1	-0.41731027
102	0xbf0e6145	-0.5561717
103	0x3e831612	0.25602776
104	0xbfbb7deb	-1.4647802
105	0xbe4e19f7	-0.20127092
106	0xbef4884a	-0.4776023
107	0xbe59014d	-0.21191902
108	0x3e58ac4c	0.21159476
109	0xbd5611e6	-0.052263163
110	0xbf8c7740	-1.0973892
111	0xbda21928	-0.079149544
112	0x3e62b190	0.22138047
113	0x3d9768b9	0.07393021
114	0x3f1e7ab3	0.61905974
115	0x3f32d3ba	0.6985432
116	0x3f1b5ec8	0.606915
117	0xbfbcfc5d	-1.4764515
118	0x3f14ebdb	0.58172387
119	0xbe9502fe	-0.29103845
120	0xbf24f2a3	-0.64432734
121	0x3e83e067	0.25757143
122	0x3ebc0676	0.3672368
123	0x3f30f4c3	0.69123477
124	0xbf8ff0ea	-1.1245396
125	0xbc56a57c	-0.013100978
126	0x3f261d89	0.6488882
127	0xbec2c471	-0.38040498
128	0xbc01f3ab	-0.00793163
129	0xbde5cfbd	-0.112212636
130	0x3c28011f	0.010254174
131	0xbe279f62	-0.16369393
132	0xbce42c5c	-0.027853183
133	0xbe9fee28	-0.31236386
134	0xbe4ab9cf	-0.19797443
135	0x3c8deb2a	0.017324049
136	0xbe7c6fde	-0.24652049
137	0xbdfef2ac	-0.1244863
138	0xbe92874b	-0.28618845
139	0xbdc50680	-0.096203804
140	0x3d3067f3	0.043067884
141	0xbe1d63b2	-0.15370062
142	0xbd92020f	-0.07129299
143	0x3d3ecfc0	0.046584845
144	0x3c6f282c	0.01459698
145	0x3ea34cfb	0.3189467
146	0xbf1522a6	-0.58255994
147	0x3f464a8e	0.7745751
148	0xbefffefd	-0.49999228
149	0x3deb44ad	0.11487708
150	0x3ed920a0	0.42407703
151	0x3fb08427	1.379033
152	0xbe49679c	-0.1966843
153	0x3eb5187b	0.3537024
154	0x3e0d5945	0.13803585
155	0x40252440	2.5803375
156	0x4023fd58	2.5623379
157	0xbfbee608	-1.491395
158	0xc005bcf6	-2.0896583
159	0xbc74ab2d	-0.01493339
160	0x3f4ee54c	0.8081863
161	0xbfc363ba	-1.5264809
162	0xbf9a2ff3	-1.2045883
163	0x3ecb7671	0.397388
164	0xbe09223e	-0.13391969
165	0xbd7f644f	-0.06235152
166	0x3e3a0833	0.1816719
167	0x3fcd1387	1.6021584
168	0xbfad239c	-1.3526492
169	0xbe6a58fb	-0.22885506
170	0xbf0d9073	-0.55298537
171	0xbe33ac30	-0.17546153
172	0x3ef63f3f	0.48095128
173	0x3ea86946	0.32892817
174	0x3fd495b1	1.6608182
175	0x3dac29b9	0.084063955
176	0x3fc03e2f	1.5018977
177	0xbecf0c14	-0.40438902
178	0xbfc9a5a6	-1.5753677
179	0x3e9726ea	0.29521877
180	0x3e28b68d	0.16475888
181	0xbfa8db51	-1.319193
182	0x3e523e2b	0.20531528
183	0x3dcd878e	0.10035621
184	0xbf517924	-0.8182547
185	0xbdcbdd36	-0.09954302
186	0xbfc71b19	-1.5555145
187	0xbe5d4b8b	-0.21610849
188	0xc06721d6	-3.6114402
189	0xbedf4d97	-0.43613884
190	0x3f81d443	1.0142902
191	0xbeb2d561	-0.3492842
192	0xbd8a9c88	-0.06768137
193	0xbd562b36	-0.052287303
194	0xbd88eff5	-0.06686393
195	0xbe899fed	-0.26879826
196	0xbea6bb76	-0.32564896
197	0xbed4a383	-0.41531
198	0xbdd0eff0	-0.102020144
199	0x3de4e06c	0.111756176
200	0xbee4980c	-0.44647253
201	0xbcd91a6b	-0.026501855
202	0xbd965d5c	-0.07342026
203	0xbcafdbec	-0.021467172
204	0xbec2d8ed	-0.38056126
205	0xbdde137a	-0.108435586
206	0x3c61ee40	0.013789713
207	0xbd9e30c0	-0.07724142
208	0x3f91d2b1	1.1392423
209	0xbfb31981	-1.3992158
210	0xc03fba49	-2.995745
211	0xbe555215	-0.20832093
212	0xbd20b4e4	-0.03923501
213	0xbf1d7e4e	-0.6152085
214	0x3f6a4830	0.915164
215	0x3fb8cb98	1.4437132
216	0xbf388fcb	-0.7209441
217	0x3e24dc39	0.16099633
218	0xbfc25a4b	-1.5183805
219	0xbe43a5d9	-0.19106235
220	0xc014fdb6	-2.3279853
221	0xbf8fb01e	-1.1225622
222	0x3f1bbac0	0.6083183
223	0x3de5af0e	0.1121503
224	0xbe3ae118	-0.18249929
225	0xbec471a8	-0.38367963
226	0xbd87d050	-0.06631529
227	0xbe1c6fb0	-0.1527698
228	0xbda5bf1f	-0.08093094
229	0xbe406d0e	-0.18791601
230	0x3d56b37b	0.05241726
231	0x3dcf1be7	0.10112744
232	0xbe6b7808	-0.22995007
233	0xbe1e4086	-0.15454301
234	0xbce13d95	-0.027495185
235	0xbe031942	-0.12802604
236	0xbde5bcc4	-0.11217645
237	0xbe64b99f	-0.22336434
238	0x3d93fc99	0.072259136
239	0x3cc2d2b0	0.023782104
240	0xbeb7732e	-0.35830063
241	0xbd13f0e9	-0.03611842
242	0xbecf92d3	-0.40541705
243	0xbe10ff52	-0.14159897
244	0xbe0ae632	-0.13564375
245	0xbe092f41	-0.13396932
246	0x3e33d474	0.17561513
247	0xbd053b4f	-0.032527264
248	0xbe2f4a2b	-0.17118137
249	0xbe922599	-0.2854431
250	0xbe5dffc0	-0.21679592
251	0x3ce2b80c	0.027675651
252	0xbe80e155	-0.25171915
253	0xbe0250ff	-0.1272621
254	0x3dbfd916	0.09367578
255	0xbddb700c	-0.107147306

fc4.bias f4 [16]
0	0xbebca818	-0.36846995
1	0xbeaf08cd	-0.34186402
2	0xbdc4337e	-0.09580134
3	0x3f74ea40	0.9566994
4	0xbf08a87d	-0.5338209
5	0xbf29cb0b	-0.66325444
6	0xbf8c3e35	-1.0956484
7	0x3ee7762d	0.45207348
8	0xbeba67db	-0.3640736
9	0x3f4939d7	0.7860388
10	0xbe04fec3	-0.12987809
11	0x3f6a0cef	0.91425985
12	0xbed35a36	-0.41279763
13	0xbeb304fd	-0.34964743
14	0xbeb80357	-0.35940048
15	0xbeebf859	-0.46087912

fc5.weight f4 [16, 16]
0	0xbd6127b9	-0.054969523
1	0xbdba26d1	-0.09089435
2	0x3eda91ab	0.4268926
3	0x3eb1f494	0.3475691
4	0x3e54f988	0.20798314
5	0xbe270b78	-0.16312969
6	0xbeb08816	-0.34478825
7	0x3ef33ac7	0.4750578
8	0xbe1d0e67	-0.15337525
9	0xbefb4209	-0.49073818
10	0x3f18dce1	0.59712034
11	0x3f8b919b	1.090381
12	0x3db28da5	0.08718423
13	0x3f7119ee	0.9418019
14	0x3dc8cb2a	0.098043755
15	0xbdb5e0ac	-0.088807434
16	0xbe664c81	-0.22490121
17	0x3e83c32a	0.25734836
18	0xbf298988	-0.6622548
19	0x3cf172a7	0.029473616
20	0x3ec4a5e4	0.38407815
21	0xbf434eab	-0.7629191
22	0x3e0ef98b	0.1396238
23	0xbee02f93	-0.43786296
24	0x3e4c295c	0.19937652
25	0x3d9d6de6	0.07686977
26	0xbdd9db9d	-0.10637591
27	0x3eeb1171	0.45911744
28	0xbe7b281e	-0.24527022
29	0x40199f08	2.4003315
30	0x3d4a7577	0.04942843
31	0x3e90398c	0.28168905
32	0xbf55a3cb	-0.83453053
33	0x3d27bbb3	0.04095049
34	0xbe9edd6e	-0.31028312
35	0x3cc235a1	0.023707213
36	0xbe00b4d7	-0.12568985
37	0xbee85e3b	-0.45384392
38	0xbe29c55c	-0.16579193
39	0xbcb76ab1	-0.022389742
40	0x3d945d1d	0.072443224
41	0xbe2b6fe2	-0.16741899
42	0xbd516039	-0.051117156
43	0xbf13bd06	-0.577103
44	0xbe34e622	-0.17665914
45	0xbecb642a	-0.39724857
46	0xbd9d0a52	-0.07667984
47	0xbe4cb54a	-0.19991031
48	0x3ec07aea	0.37593776
49	0x3d982248	0.07428414
50	0xbf244919	-0.6417404
51	0xbf942cef	-1.1576213
52	0xbf1a4957	-0.6026816
53	0x3dd1021c	0.102054805
54	0x3f048e93	0.5178005
55	0xbf948ef0	-1.1606121
56	0x3e1d2de4	0.15349537
57	0xbf6cbb54	-0.9247334
58	0xbe867506	-0.26261157
59	0xbd9c48dd	-0.07631085
60	0xba74259e	-0.0009313467
61	0x3e12b150	0.14325452
62	0xbe465e0a	-0.1937181
63	0xbdfb1d6b	-0.122614704
64	0xbf6ca59f	-0.9244022
65	0xbe0f3aae	-0.13987228
66	0x3e02142e	0.1270301
67	0xbfb5e395	-1.4210078
68	0xbe30b63f	-0.17257021
69	0xbf87f93e	-1.0622938
70	0xbe70bb4d	-0.2350895
71	0xbe80def8	-0.25170112
72	0xbdfae4d0	-0.12250674
73	0x3d07a723	0.03311838
74	0xbed7c606	-0.42143267
75	0xbf34336a	-0.7039095
76	0x3e34be24	0.17650658
77	0xbf06a1d0	-0.52590656
78	0x3e49fd52	0.1972554
79	0xbbe3fd00	-0.00695765
80	0x3d88b0fa	0.066743806
81	0x3cb66e10	0.022269279
82	0xbf11489f	-0.56751436
83	0xbf41678c	-0.75548625
84	0xbedeac3d	-0.43490782
85	0xbec90173	-0.39258918
86	0x3dc4f78b	0.096175276
87	0x3dcf4ca0	0.10122037
88	0x3e1a802e	0.15087959
89	0xbefc00c9	-0.4921935
90	0x3d5c0cd1	0.05372316
91	0xbe878aa4	-0.26472962
92	0xbccc4120	-0.024933398
93	0xbe488606	-0.19582376
94	0x3ce285f0	0.027651757
95	0xbe7de4da	-0.24794331
96	0xbf93a53c	-1.15348
97	0xbd089b03	-0.033350956
98	0xbf66e375	-0.9019082
99	0x3ee2b1ce	0.4427628
100	0x3f02cb13	0.51091117
101	0xbf920194	-1.1406732
102	0x3c4aa89c	0.012369301
103	0xbe17c73a	-0.14822093
104	0xbd376b20	-0.044779897
105	0xbfa3d720	-1.2800026
106	0xbedfd8be	-0.4372005
107	0x3fa6ef79	1.3041831
108	0xbe5496b8	-0.2076062
109	0x400c942b	2.1965435
110	0xbc63035e	-0.013855783
111	0xba101ba7	-0.00054972846
112	0xbf6316b4	-0.8870652
113	0x3e904299	0.2817581
114	0x3d85c6d8	0.06532067
115	0x3f1e3d1d	0.61812
116	0x3fa3fa6f	1.2810801
117	0xbe9d60c9	-0.30737904
118	0xbd5af29d	-0.05345403
119	0xbdeb5e20	-0.11492562
120	0x3e06b49d	0.13154836
121	0xbfe07fdf	-1.7539023
122	0x3f3058a4	0.68885255
123	0x3f7394dc	0.95149016
124	0x3b99ceaa	0.0046938257
125	0x400bb906	2.183168
126	0x3d74afdf	0.059738036
127	0xbd47f91b	-0.04882155
128	0xbf1efed0	-0.62107563
129	0xbc565196	-0.013080975
130	0xbfb24e12	-1.3930075
131	0x3b0e2102	0.0021687155
132	0x3f0b4a99	0.544107
133	0x3e7834d9	0.2423891
134	0xbe46aef9	-0.19402684
135	0xbf0e8cea	-0.5568377
136	0x3dac612f	0.08416974
137	0x3f3f98d5	0.7484258
138	0xbedc2dd9	-0.4300373
139	0x3f07bfe7	0.53027195
140	0xbe70f5db	-0.23531286
141	0x3ed62750	0.41826868
142	0x3cf999eb	0.030468902
143	0x3e28b9c7	0.16477118
144	0x3dab8e19	0.08376712
145	0xbdf251c0	-0.11831999
146	0x3ee8ad4b	0.45444712
147	0xbe34c2e3	-0.17652468
148	0xbee76769	-0.45196083
149	0xbf43218a	-0.7622305
150	0xbcf52442	-0.029924516
151	0xbe242ab6	-0.16031918
152	0xbde9261b	-0.11384221
153	0x3d5512f0	0.052020013
154	0x3eb32c37	0.3499467
155	0x3f561472	0.8362495
156	0x3d244b43	0.040110838
157	0x3f9fb9d5	1.2478586
158	0x3e2b061c	0.1670155
159	0xbc77df6c	-0.0151289515
160	0x3f1f8485	0.62311584
161	0x3db80781	0.08985806
162	0xbe16be59	-0.1472105
163	0x3e23284f	0.15933345
164	0x3f30928b	0.68973607
165	0xbea64a0e	-0.32478374
166	0xbf90aefb	-1.13034
167	0x3eba9052	0.36438233
168	0xbe354ef1	-0.17705895
169	0xbfef4ffe	-1.8696287
170	0xbdaa7108	-0.0832234
171	0x3fb1f5e2	1.3903162
172	0x3e15b98d	0.14621563
173	0x3fdd7634	1.7301698
174	0xbe2f64dd	-0.1712832
175	0xbdb49560	-0.088175535
176	0xbe025d8c	-0.12730998
177	0x3db21127	0.08694678
178	0x3db019cf	0.085986726
179	0xbe0f98b4	-0.14023095
180	0x3ecba590	0.39774752
181	0xbe60ccc2	-0.21953109
182	0xbef3e302	-0.4763413
183	0x3e4b5170	0.19855285
184	0x3d5abb88	0.0534015
185	0x3eef49f2	0.46736103
186	0x3e8c79b9	0.27436617
187	0x3f37f7fa	0.7186276
188	0x3dd30049	0.10302789
189	0x3f8cee55	1.1010233
190	0x3e46caa3	0.19413237
191	0xbe498f7d	-0.19683643
192	0x3e7f7564	0.24947125
193	0x3dcf52fc	0.1012325
194	0xbf03bdaa	-0.5146128
195	0xbedb623b	-0.4284838
196	0xbf030ae8	-0.51188517
197	0xbd6ea1eb	-0.058259886
198	0xbf1966e0	-0.599226
199	0xbed27ed0	-0.41112375
200	0x3da50b7c	0.08058831
201	0xbeb31c1b	-0.3498238
202	0x3e281d20	0.1641736
203	0xbe4a0bf5	-0.19731124
204	0x3d57bf18	0.052672476
205	0xbee33a0d	-0.44380227
206	0x3e1da84a	0.15396228
207	0xbdc57163	-0.096407674
208	0x3d56923c	0.052385554
209	0x3e78fdb6	0.24315533
210	0xbd9acc91	-0.07558549
211	0xbc46bb83	-0.012129667
212	0xbe4c2b98	-0.19938505
213	0xbe818095	-0.25293413
214	0xbe3c3690	-0.18380189
215	0xbeb00f2d	-0.34386578
216	0xbe37f298	-0.17963636
217	0xbe8a3e84	-0.2700082
218	0xbec77c31	-0.38961938
219	0xbac7d600	-0.0015246272
220	0xbdfe31dc	-0.12411854
221	0x3c643660	0.01392898
222	0xbd58af88	-0.052901775
223	0x3d3ce65f	0.046118136
224	0x3ee1bb00	0.44087982
225	0xbe2c1b2f	-0.16807245
226	0xbe8a065f	-0.26957986
227	0x3cd01d1d	0.025404507
228	0x3e6f68d5	0.23379834
229	0xbe9f6430	-0.31131124
230	0xbe6d1e21	-0.23156025
231	0xbe52cf6f	-0.20586942
232	0xbdc7c8a2	-0.097550645
233	0xbea829ca	-0.32844383
234	0xbe9aa2c1	-0.30202296
235	0x3f3298ab	0.697642
236	0x3d1a232c	0.0376312
237	0x40201a51	2.5016062
238	0x3e784d30	0.24248195
239	0x3de75413	0.11295333
240	0xbf6a0a21	-0.91421705
241	0xbe193fa6	-0.14965686
242	0x3e9d08fc	0.30670917
243	0x3e925e35	0.285875
244	0x3e2418db	0.16025107
245	0xbe9986f8	-0.29985785
246	0xbe659e96	-0.22423777
247	0x3f07545b	0.5286309
248	0x3e63a6db	0.22231619
249	0xbf615ed2	-0.8803531
250	0x3f08e1e4	0.5346968
251	0x3f823ceb	1.0174841
252	0xbea23d1f	-0.31687257
253	0x3fa95926	1.3230331
254	0xbe484d49	-0.19560732
255	0xbe893453	-0.26797733

fc5.bias f4 [16]
0	0x3f060e5c	0.5236566
1	0xbfc7ae96	-1.5600154
2	0xbebfd535	-0.37467352
3	0xbe133e51	-0.1437924
4	0xbf02abe5	-0.5104354
5	0xbf743838	-0.95398283
6	0x3ed25152	0.41077667
7	0x3f043d2c	0.5165584
8	0xbf436032	-0.7631866
9	0x3ee759eb	0.4518579
10	0xbbd67068	-0.0065441616
11	0x3ed715ce	0.42008823
12	0xbf6d75e4	-0.9275801
13	0xbeb54061	-0.3540068
14	0xbfbb35e9	-1.4625827
15	0x3eff7f0f	0.49901626

fc6.weight f4 [16, 16]
0	0xbc60f406	-0.013730055
1	0xbda890b8	-0.08230728
2	0xbec745a3	-0.38920316
3	0xbefe5faa	-0.4968236
4	0x3e7aebfe	0.24504086
5	0xbe7b6272	-0.24549273
6	0xbe43594a	-0.1907703
7	0xbe5ea982	-0.2174435
8	0xbdb8bd00	-0.09020424
9	0xbe6ea550	-0.23305249
10	0xbe2358c0	-0.15951824
11	0xbe9a474a	-0.30132514
12	0xbd35cac5	-0.04438283
13	0x3cfcab30	0.030843347
14	0xbd250f8a	-0.040298022
15	0xbdd238be	-0.10264729
16	0xbebdf032	-0.37097317
17	0x3c4048b0	0.01173608
18	0x3dab5224	0.083652765
19	0xbf0d1c5c	-0.551214
20	0xbe14f048	-0.14544785
21	0x3b8d9c50	0.0043216124
22	0xbe6becb9	-0.23039521
23	0xbf3edb3a	-0.74553263
24	0xbf6a0c6b	-0.914252
25	0x3c7b5dce	0.015342189
26	0xbedd67d3	-0.43243274
27	0xbe53f2c4	-0.20698076
28	0x3e9d9ca2	0.30783564
29	0x3dc5f351	0.096655495
30	0x3cae9849	0.02131285
31	0x3c361224	0.0111127235
32	0xbe86ddea	-0.26341182
33	0x3ed2968b	0.4113048
34	0xbef7e436	-0.484163
35	0xbc121f4c	-0.008918595
36	0xbe261b9e	-0.16221473
37	0x3ea08cca	0.31357414
38	0x3dca5b75	0.09880725
39	0xbe80c0b2	-0.25147015
40	0xbf43b4c0	-0.7644768
41	0xbeae64b8	-0.34061217
42	0x3e48419d	0.1955628
43	0xbd7320e6	-0.059357546
44	0xbeab9b03	-0.33516702
45	0x3d554d41	0.05207563
46	0xbe06689b	-0.13125841
47	0xbe01e6a6	-0.12685642
48	0xbe1785cd	-0.14797135
49	0x3fb3555c	1.4010425
50	0xbf33fd96	-0.70308816
51	0xbf488c5b	-0.78339165
52	0xbca8f77b	-0.02062582
53	0xbf0b5d67	-0.54439396
54	0x3e2e4e5c	0.17022079
55	0xbd7344e6	-0.05939188
56	0xbce4e61b	-0.027941754
57	0xbe08d6b5	-0.13363154
58	0xbcaf9174	-0.021431662
59	0xbed62527	-0.4182522
60	0xbee06558	-0.4382732
61	0x3c9bd560	0.019022644
62	0x3f5e1b11	0.8676005
63	0xbe2248d1	-0.1584809
64	0x3dc2280d	0.09480295
65	0x3f4e3f48	0.8056531
66	0xbded6aa8	-0.11592609
67	0xbd1db30a	-0.038500823
68	0xbe87783b	-0.26458916
69	0x3e6c57b1	0.23080327
70	0x3f6a3c82	0.9149858
71	0x3f0383b4	0.5137284
72	0x3ea64e4c	0.3248161
73	0x3d5af1da	0.053453304
74	0x3e9b3fdb	0.30322155
75	0x3e4ac0ad	0.19800062
76	0xbe00975b	-0.12557738
77	0xbe7add71	-0.24498536
78	0x3f262b54	0.64909863
79	0x3ecadb17	0.39620277
80	0xbebbf779	-0.36712244
81	0xbc4840a4	-0.012222443
82	0xbe7206fd	-0.23635478
83	0xbe5a74cc	-0.21333617
84	0xbd224e48	-0.039625436
85	0xbe3a6219	-0.18201484
86	0x3da43eb6	0.08019774
87	0xbe57ea67	-0.21085511
88	0xbeeb288d	-0.45929375
89	0xbba160f2	-0.004924887
90	0x3ccff51d	0.025385434
91	0xbeaff284	-0.34364712
92	0x3e50890b	0.20364778
93	0xbd9e74e0	-0.07737136
94	0xbe88aa4f	-0.26692435
95	0x3da49d61	0.0803783
96	0x3e6e89f8	0.23294818
97	0x3f84ec18	1.038455
98	0xbe0a722b	-0.13520114
99	0xbf737aec	-0.9510944
100	0x3e801946	0.25019282
101	0xbc975dae	-0.018477287
102	0x3f4985f9	0.7872005
103	0x3edbfd89	0.4296687
104	0xbe59d842	-0.21273902
105	0x3e5c8a1c	0.2153706
106	0x3ec7a785	0.38994995
107	0xbc06effc	-0.008235928
108	0x3d6034e2	0.054737933
109	0xbea29126	-0.31751364
110	0x3f0020a8	0.5004983
111	0x3eb01282	0.3438912
112	0xbeeb27f1	-0.4592891
113	0x3fb1b4d9	1.3883315
114	0xbe0431f7	-0.12909685
115	0x3dd6d61e	0.10490058
116	0x3d9d7f53	0.07690301
117	0x3f0ab372	0.5418006
118	0x3e762069	0.24035801
119	0xbeb00b8f	-0.34383819
120	0xbe82dcf4	-0.255592
121	0xbf0b46b8	-0.54404783
122	0x3e62a553	0.22133379
123	0xbf0be629	-0.5464807
124	0x3f87e6ca	1.0617306
125	0xbdaa271f	-0.08308243
126	0x3f893d4c	1.0721831
127	0xbf0eb1c0	-0.55739975
128	0xbe903a30	-0.28169394
129	0xb9707f5d	-0.0002293563
130	0xbdb49d28	-0.08819038
131	0xbe5afbb4	-0.2138508
132	0xbe2782e2	-0.16358522
133	0xbe6a5012	-0.22882107
134	0xbe094829	-0.13406433
135	0xbec3bb24	-0.38228714
136	0xbe20bbce	-0.15696642
137	0xbe354b60	-0.17704535
138	0xbdd4260a	-0.10358818
139	0xbd90fbc4	-0.070792705
140	0xbe47ce20	-0.19512224
141	0xbddae4ec	-0.10688195
142	0xbd2fa912	-0.042885847
143	0xbe2af093	-0.16693334
144	0xbece81ff	-0.40333554
145	0xbd386658	-0.045019478
146	0xbe28365e	-0.1642699
147	0x3d69ff90	0.05712849
148	0xbe2fe7de	-0.17178294
149	0xbdb50393	-0.08838572
150	0xbe377caa	-0.1791865
151	0xbe2d5992	-0.169287
152	0xbe919670	-0.28435087
153	0x3cc2bad0	0.02377072
154	0xbddf05c0	-0.108897686
155	0xbde5ece0	-0.11226821
156	0xbe290f82	-0.16509822
157	0x3e36c66c	0.1784913
158	0xbe2a9632	-0.16658857
159	0xbdd73a94	-0.1050922
160	0x3ec12cc5	0.3772947
161	0x3f8c1b29	1.0945789
162	0xbd27e39b	-0.040988546
163	0xbe7155b6	-0.23567852
164	0x3eef9714	0.4679495
165	0xbdd0319d	-0.10165713
166	0xbce1fb33	-0.027585601
167	0x3e99c653	0.30034122
168	0xbea9772b	-0.3309873
169	0x3e5216ff	0.20516585
170	0xbede6977	-0.43439838
171	0x3e08cecc	0.13360137
172	0x3e28a9be	0.16471002
173	0xbd5975ae	-0.053090744
174	0x3e9cb631	0.3060775
175	0xbbb0feb1	-0.0054014553
176	0xbee00d20	-0.43760014
177	0xbdf8bf6d	-0.121458866
178	0xbd7e0b34	-0.062022403
179	0xbf9a3cee	-1.2049844
180	0x3d324bb4	0.043529227
181	0x3db8ecf9	0.09029574
182	0xbedab9e8	-0.4271996
183	0xbec7c141	-0.3901463
184	0xbf342b2f	-0.7037839
185	0x3f0960d0	0.5366335
186	0xbf7104eb	-0.9414813
187	0xbd7f4814	-0.0623246
188	0x3d2a0c70	0.041515768
189	0x3e350050	0.176759
190	0xbf101016	-0.56274545
191	0xbee44056	-0.44580334
192	0xbcfd8ff3	-0.03095243
193	0xbe290efe	-0.16509625
194	0x3e107298	0.14106214
195	0x3d367bcc	0.044551656
196	0xbe38f55e	-0.1806235
197	0x3e6400f7	0.22265993
198	0x3c4d02a5	0.012512838
199	0x3d998cdc	0.0749757
200	0xbe196105	-0.14978416
201	0xbdda6ee6	-0.106656834
202	0xbd8fa141	-0.070131786
203	0xbd609689	-0.05483106
204	0x3a1e1d51	0.000603159
205	0xbe0f44be	-0.13991067
206	0xbee68cc8	-0.45029283
207	0xbea9c280	-0.33156204
208	0xbeb3b199	-0.35096434
209	0x3e04f4a2	0.12983945
210	0x3e18a8c8	0.14908135
211	0x3d192f8b	0.037398856
212	0x3e2e18e8	0.17001688
213	0xbd16c48a	-0.036808528
214	0x3d4e6449	0.050388608
215	0xbe6d8dca	-0.2319862
216	0xbe89becb	-0.26903376
217	0xbe2028ee	-0.15640613
218	0xbc9651b0	-0.018349499
219	0xbd2b2313	-0.041781496
220	0xbd340df8	-0.043958634
221	0x3e05da16	0.13071474
222	0xbdb0ad9b	-0.086268626
223	0xbd8dabbe	-0.06917523
224	0xbe63441c	-0.2219395
225	0xbd1d4c25	-0.038402695
226	0x3db79edc	0.08965847
227	0x3cbb1470	0.022836894
228	0xbd99d2dd	-0.07510922
229	0xbe3d5476	-0.1848925
230	0x3df15f44	0.117857486
231	0xbe92f0ce	-0.28699344
232	0xbe2a2504	-0.16615683
233	0xbce55b1b	-0.027997544
234	0xbe85b87b	-0.2611731
235	0xbe7bd09f	-0.24591301
236	0xbdc39244	-0.09549382
237	0x3e417606	0.18892679
238	0x3bd53a6e	0.0065072095
239	0xbe9de943	-0.30842027
240	0xbec0c641	-0.37651256
241	0x3e4bdf08	0.19909298
242	0xbc8d507c	-0.017250292
243	0x3d9777bd	0.07395885
244	0xbde3abec	-0.11116776
245	0xbe07a4d3	-0.13246469
246	0xbdc88ca8	-0.09792453
247	0xbe8e9ca9	-0.27853897
248	0xbe678fd4	-0.2261346
249	0xbe0849af	-0.13309358
250	0xbe980006	-0.29687518
251	0x3a4f35b0	0.00079044234
252	0xbd3fa54a	-0.04678849
253	0xbdc3eea8	-0.095670044
254	0x3d234f91	0.039870802
255	0x3d899738	0.06718296

fc6.bias f4 [16]
0	0xbe913896	-0.28363484
1	0xbcd4996f	-0.02595207
2	0xbe474190	-0.19458604
3	0xbfc32437	-1.5245427
4	0xbf963abf	-1.1736678
5	0xbe80f065	-0.25183406
6	0xbe0c306e	-0.1369035
7	0xbfaff255	-1.3745829
8	0xbe9ecaf4	-0.31014216
9	0xbf0f487b	-0.5596997
10	0x3f15f568	0.58577585
11	0xbd51ff69	-0.05126897
12	0xbeb63fb2	-0.3559547
13	0xbe917086	-0.2840616
14	0xbeafa641	-0.3430653
15	0xbe81e482	-0.2536965

fc7.weight f4 [16, 16]
0	0xbe659cdd	-0.2242312
1	0x3df2746c	0.11838612
2	0x3e8fae39	0.2806261
3	0x3e494d2e	0.19658348
4	0xbd683230	-0.056688488
5	0x3b80c8b2	0.0039301747
6	0xbe947f22	-0.29003245
7	0x3cb5eb5c	0.022206955
8	0x3d1bb4b5	0.038014133
9	0xbc89ae6f	-0.01680681
10	0xbe29d4b5	-0.16585048
11	0xbc74bfe8	-0.014938332
12	0x3d0dbf27	0.034606125
13	0x3dcc61a9	0.09979565
14	0xbd9d5947	-0.07683044
15	0xbe383dae	-0.17992279
16	0xbe7ff464	-0.24995571
17	0x3e9345a1	0.2876406
18	0xbd00a271	-0.031404916
19	0x3dadf443	0.08493855
20	0xbe67e8d0	-0.22647405
21	0xbe8928c9	-0.2678893
22	0x3e0212b7	0.12702452
23	0xbd24ce58	-0.040235847
24	0xbe6e4ea9	-0.23272194
25	0xbe60328a	-0.21894279
26	0x3aa4374e	0.0012528689
27	0xbdf33bfc	-0.118766755
28	0x3e01ea01	0.12686922
29	0x3da34220	0.07971597
30	0x3d6fd43f	0.058552023
31	0xbd876879	-0.066117235
32	0x3e3089b4	0.1724003
33	0xbdf5268d	-0.119702436
34	0xbd985178	-0.07437414
35	0xbea7f5fd	-0.32804862
36	0xbe0ebd62	-0.13939431
37	0xbe5ba9a5	-0.21451433
38	0xbeafb07e	-0.3431434
39	0x3d5a6b50	0.053324997
40	0x3d9457e4	0.07243326
41	0x3e233d18	0.15941274
42	0xbdcf372f	-0.10117947
43	0xbd8d470a	-0.06898315
44	0x3de531bc	0.11191127
45	0x3db79f20	0.089658976
46	0xbda8c5b0	-0.08240831
47	0xbe081674	-0.13289815
48	0xbdd5207c	-0.104065865
49	0xbe9b0f61	-0.3028517
50	0xbd95c9d2	-0.07313885
51	0xbea17bdf	-0.3153982
52	0xbf08e28e	-0.53470695
53	0x3d94207b	0.07232758
54	0xbfbc5d22	-1.4715922
55	0x3e0c2c6d	0.13688822
56	0xbe0a21f0	-0.13489509
57	0x3aa12725	0.0012294991
58	0xbf7f0537	-0.9961733
59	0xbf03d58c	-0.5149772
60	0xbe28dd89	-0.16490759
61	0x3e7f2712	0.24917248
62	0xbd3946c8	-0.045233518
63	0x3da4034a	0.0800844
64	0xbe29f99c	-0.16599125
65	0xbbe6c380	-0.0070423484
66	0xbdf290b8	-0.11844009
67	0x3dcaeb08	0.0990811
68	0xbe4e4d38	-0.20146644
69	0x3d76c2b8	0.060244292
70	0xbe539b71	-0.20664765
71	0xbe4ce076	-0.200075
72	0xbe10851e	-0.1411328
73	0x3d4cb198	0.049974054
74	0xbdc92d58	-0.09823102
75	0xbe747e6f	-0.23876356
76	0xbe2280a2	-0.15869382
77	0xbe11ece0	-0.14250517
78	0xbe3c924a	-0.1841518
79	0xbd5faf88	-0.05461076
80	0x3dd15750	0.10221732
81	0x3e13c8f1	0.14432122
82	0xbd5c2b2d	-0.053752113
83	0xbd10ee99	-0.035383794
84	0xbe71e800	-0.23623657
85	0x3c264700	0.010148764
86	0xbe5bc314	-0.21461135
87	0xbe4dd43e	-0.20100495
88	0x3d0bbc50	0.034115136
89	0xbe6e1fda	-0.23254338
90	0xba879361	-0.0010343605
91	0xbe0fb5c5	-0.14034183
92	0x3e3da417	0.18519627
93	0x3e1dd426	0.1541296
94	0xbe60c6ee	-0.21950886
95	0x3dce8424	0.100837976
96	0x3d5fe565	0.054662127
97	0xbf5c9cde	-0.8617686
98	0xbebe5c9e	-0.37180036
99	0x3e0460ae	0.12927505
100	0xbeb66854	-0.3562647
101	0xbc9a8283	-0.018861061
102	0x3ecf8b08	0.4053576
103	0x3ecdee4c	0.4022087
104	0x3dd5142c	0.10404238
105	0x3e193aaf	0.14963792
106	0xc00a871d	-2.1644967
107	0xbf8ef0fb	-1.1167291
108	0x3d51a1b5	0.051179606
109	0x3d84c60d	0.06483088
110	0x3e520ac6	0.20511922
111	0x3e2764a8	0.16346991
112	0xbd609b35	-0.054835517
113	0xbcb84e88	-0.022498384
114	0xbadec4ca	-0.0016995904
115	0x3e7564e5	0.2396427
116	0x3ea0b6b7	0.313894
117	0xbe21f3d5	-0.15815671
118	0x3e6587a9	0.22415031
119	0x3eb08bc0	0.3448162
120	0xbda058bc	-0.07829425
121	0x3d5d1ab2	0.053980537
122	0x3aad2aac	0.001321157
123	0xbeb98546	-0.36234492
124	0x3d7eb168	0.062180907
125	0xbdb6ea5d	-0.0893142
126	0x3db7d1f7	0.089755945
127	0xbe751b25	-0.23936136
128	0xbe3b092a	-0.18265215
129	0xbe56c2ad	-0.209727
130	0x3e34838a	0.17628303
131	0xbda74af2	-0.081685916
132	0xbd187889	-0.037224326
133	0xbe59f140	-0.21283436
134	0x3da714d6	0.08158271
135	0x3e880dd6	0.26573056
136	0x3e79c83d	0.24392791
137	0x3b630f49	0.0034646562
138	0xbec0564e	-0.37565845
139	0xbd7ba2e8	-0.061434656
140	0xbd023348	-0.031787187
141	0xbe2aecaa	-0.16691843
142	0x3d8fbb60	0.07018161
143	0xbe19dfd9	-0.15026797
144	0xbd2c3718	-0.04204473
145	0xbed3f9c6	-0.414015
146	0xbec85776	-0.39129227
147	0xbba2604a	-0.004955326
148	0xbee1952a	-0.44059116
149	0x3dd699f5	0.10478584
150	0xbf00786d	-0.50183755
151	0xbc873918	-0.016506717
152	0xbe73e95a	-0.23819485
153	0xbde6443f	-0.11243486
154	0xbf45a390	-0.772027
155	0xbf50714e	-0.8142289
156	0x3dcd8d6b	0.10036739
157	0x3dcaee91	0.09908784
158	0xbe190346	-0.14942655
159	0xbd2820d0	-0.041046917
160	0xbe5fb7fa	-0.21847525
161	0xbe747ff1	-0.23876931
162	0xbe184d02	-0.14873126
163	0xbe41f350	-0.18940473
164	0xbe7cf8df	-0.24704312
165	0xbe3db7da	-0.18527165
166	0xbebee237	-0.37281963
167	0xbe5efd92	-0.21776417
168	0x3e58997a	0.21152297
169	0x3d9c4c24	0.0763171
170	0xbd44d187	-0.048051383
171	0xbe865be0	-0.2624197
172	0x3d9809c0	0.07423735
173	0xbc10ba6e	-0.008833511
174	0xbcb9f7d0	-0.022701174
175	0xbe30651c	-0.1722607
176	0x3e582f40	0.21111774
177	0xbe1d4b74	-0.15360814
178	0x3b3fb133	0.0029249906
179	0x3df60686	0.12012963
180	0xbdfd3f45	-0.12365583
181	0x3c1a6229	0.009422817
182	0xbf1eadad	-0.6198376
183	0x3f5dd309	0.8665014
184	0xbe17b1cc	-0.14813918
185	0xbdabd2e8	-0.083898365
186	0xbed92a2b	-0.42414984
187	0xbe9a74a9	-0.3016713
188	0xbe151053	-0.14557008
189	0xbe1b350f	-0.15156959
190	0xbe5aade8	-0.21355402
191	0xbd42a947	-0.047524717
192	0x3d4a9398	0.049457163
193	0xbd945a51	-0.07243789
194	0x3d1a895d	0.037728656
195	0x3e51a27c	0.20472139
196	0xbc94849d	-0.018129641
197	0xbe2bfd62	-0.16795877
198	0xbd1a2b46	-0.037638925
199	0xbdad8384	-0.0847235
200	0xbe419da8	-0.18907797
201	0xbe1169d8	-0.14200532
202	0xbe1fb9c7	-0.15598212
203	0xbbfaaf0f	-0.007650263
204	0x3d92a111	0.07159627
205	0xbd4a4085	-0.049377937
206	0x3e09523a	0.13410273
207	0x3e4b03ae	0.19825622
208	0xbe746952	-0.23868302
209	0x3c45c672	0.012071239
210	0x3d86692c	0.06563029
211	0x3e17ad5c	0.14812225
212	0xbd54e7ac	-0.051978752
213	0x3e72884a	0.23684803
214	0x3ddddadc	0.1083276
215	0xbe155a6d	-0.14585276
216	0xbe35657c	-0.17714494
217	0xbe7b8fa8	-0.2456652
218	0xbef04e08	-0.46934533
219	0xbe74b3b3	-0.23896675
220	0xbe344a18	-0.1760639
221	0x3e7792da	0.24177113
222	0xbe288940	-0.16458607
223	0xbcd94098	-0.026520059
224	0xbe2710be	-0.1631498
225	0xbdb35fb4	-0.08758488
226	0x3ddab9c5	0.10679964
227	0x3e12274a	0.142728
228	0xbe8c5abf	-0.27412984
229	0x3e48d7f2	0.19613627
230	0x3c2ab0e5	0.0104181515
231	0xbe02afe2	-0.12762406
232	0x3d41d6cc	0.047323987
233	0xbc52c28b	-0.0128637655
234	0xbad9426d	-0.0016575583
235	0xbe57f982	-0.21091273
236	0x3de82093	0.11334338
237	0x3e40fbb9	0.18846025
238	0xbd15e1d0	-0.036592305
239	0x3de2153d	0.11039207
240	0xbe03530a	-0.12824646
241	0xbe87ff01	-0.2656174
242	0xbd9dfcb4	-0.07714215
243	0xbea067d7	-0.31329224
244	0xbee5dbe1	-0.44894317
245	0xbbefdcdc	-0.0073200297
246	0xbe18ab3c	-0.1490907
247	0x3dfc6421	0.123237856
248	0x3cec6700	0.028857708
249	0xbe1d6ab8	-0.15372741
250	0xbe44a338	-0.19202888
251	0xbe9545ed	-0.29154912
252	0xbda4e6b8	-0.080518186
253	0x3e4b414a	0.19849125
254	0xbe764e0c	-0.2405321
255	0xbe39aa8d	-0.18131466

fc7.bias f4 [16]
0	0x3f7b6d38	0.9821353
1	0xbe72310f	-0.23651527
2	0xbeca12cd	-0.3946747
3	0x3ec7d4a3	0.39029416
4	0xbe74f7e8	-0.23922694
5	0xbdbed402	-0.09317781
6	0x3ecc7551	0.39933255
7	0xbe80622d	-0.25074902
8	0xbeee5335	-0.46547857
9	0x3f23e7cb	0.64025563
10	0xbeae980e	-0.34100384
11	0x3f722f30	0.9460325
12	0xbeb1bd4f	-0.34714743
13	0xbf049305	-0.51786834
14	0xbd9dc8b5	-0.077042975
15	0xbeacaa2d	-0.33723584
