data/results/1731780974.pth (torch, 14370 bytes, 16 tensors)

fc1.weight f4 [16, 36]
00000000: b0f3 593e 015a 633d c7a0 883f 6b51 94be
00000010: e9f5 5f3c 85c1 163f 1ea5 1dbe 2e44 1b3f
00000020: ab26 52bf 239a 343f d80f a13f 3fda 863e
00000030: 037f cdbf d6f4 edbd 01b6 79be df43 9c3d
00000040: 46c0 543f f952 db3e fe0f 393f 7593 f4be
00000050: c8a0 e7be ea3c 9d3f a642 a23e cfec 963e
00000060: 2b5c aa3e e192 c23d a9d9 c6bd 1486 88bd
00000070: 98a5 62be c29f 8ebe bbdf 1c3f 94ab 803f
00000080: 9334 d5be 5cc6 eebf 0442 02be a18b 29bf
00000090: 6a27 6e3e fa93 d33d bab4 633f 0b4f 91be
000000a0: ab66 8abd 3507 cf3e 7d35 f73c dfdd cebe
000000b0: d56c 38bf f8ba 82bf a342 9a3f cdba e4be
000000c0: b8e1 06bf e055 54bf 25b9 21bf 1c49 b63f
000000d0: de57 81bf 7e45 45bf 0f8a 7f3f 57e5 a1bf
000000e0: 03cd dcbe 92dd 09bf 885a 65bf ed1c 00bf
000000f0: 607f a6bc 2cca 463f 241d 6fbf f0ff 0f3f
00000100: 6baf 05bf 19e5 21bf 06a2 a4be 795d 34be
00000110: 928b d33e 4f13 123f bfe6 c83c da00 8abf
00000120: c2bc ae3e 5c6c bcbe cdac 983f 513c 02bd
00000130: 1c00 b5bc 56e4 ba3f 22df 733e f9d0 85bf
00000140: 31da 8e3e ab3a 873f 6d90 523f db38 8bbe
00000150: 6a50 24bd 8925 a43e 76a9 e8ba 69bf cebe
00000160: 98fb 8abe 1650 25bf 9609 aa3f f9c8 24be
00000170: ae38 4e3d e463 56bf fa06 d5bc b642 afbf
00000180: 9e50 9bbe c2dc 543f ad9b b33f 832e e4be
00000190: e818 1cbf efe4 583e 113f 1d3f 87b1 1d3f
000001a0: e7c3 53bf 8958 4bbd ff5d ad3e 91c4 9ebf
000001b0: f8f0 743e 772a eebd fd03 21bd e2fa 94bd
000001c0: 780b 053e 9af4 a13f cd5b 643d b3dc 8abe
000001d0: 5340 e43e 957d 95bf 7cc6 c03e 61c7 56be
000001e0: 18c7 08be d562 af3d 89e1 55bf 7a22 8c3f
000001f0: fd5b 93be be5f e23e 851d dcbf fd1d 9dbf
00000200: b03f 9bbf 955d 773e ad93 d9be e475 39bf
00000210: 18ab 78bd 67a7 d1bc 53b2 e13f 1cd7 efbf
00000220: 4d22 4fbf bc46 da3d 71e6 7ebf 98c4 413e
00000230: 0343 1dbe 3fe3 383e 261e 153f a138 22bf
00000240: 048c ca3d e4f9 c43c b2a6 203e f060 59bd
00000250: b4e4 bdbc af44 943e 71a1 dc3f 1802 0440
00000260: 3cf4 34bf 67b6 dcbf 1d80 bbbf 20c2 47bf
00000270: 5c03 ea3e 760e 773e 5fa6 153e f640 bdbe
00000280: 110c a7be 9b56 aabd 36e7 0b3f c898 c83e
00000290: d5c7 68bf 5a11 8cbf 376e 46bf fdbf b7bf
000002a0: 4208 04bf 00e8 f5be bd3c 0ebf 2a58 87bf
000002b0: 0842 79bf 44e1 4ebf 15e6 d9bf edb7 5f3f
000002c0: 2c7e 0dbe e872 e0be 21cc f0bd 0460 82be
000002d0: 731f c73d c616 87be 013b 83bd 17e4 28bc
000002e0: 95fe 2c3d b084 553f fce4 a13e af6b ca3f
000002f0: 4289 833e bf2e 4fbf 8640 683f f91f c0be
00000300: 46fa 903f 2f53 0ebf 95f8 8f3c 7316 18bf
00000310: 6668 213f b6ea 79be 30d3 023f 79bb 4f3e
00000320: 720b 02be b8b1 de3f 4cf7 a73c 05d3 fe3d
00000330: e8ca a9bf c4c1 9e3f e008 7e3e de39 f23e
00000340: 74a1 9fbe b9aa 043d 90af afbe 5bf7 89be
00000350: e13d b43e 1f54 523f 0531 d1be c223 5bbf
00000360: 6bbf 09bf b0b9 203f cb91 343f a9ea e03d
00000370: 5577 61be 7819 e23f 49ae ab3d 5ad7 4c3b
00000380: f280 16bf 4f27 d73e 8924 323f 7bf6 9dbe
00000390: 62de b6bf 101c 773e 351b 153e 0e4d 36bf
000003a0: 726e c7be 6353 d0be b3fc 033f 927c e0bd
000003b0: a54a cebc 029e ff3e 7324 07bf f61d f1be
000003c0: 9944 92bf 9fca 5f3f d746 f73f 951b dcbd
000003d0: e9f1 c5be b679 8a3d db42 86be fe0d a5be
000003e0: fea5 a13e 2045 bebd 8923 6a3e bdee b93d
000003f0: 6e36 113e 364a 143e 573f ba3d 26ac ccbd
0.21284366 0.055505756 1.0674065 -0.28968367 0.013669469 0.5888904 -0.15395018 0.6065091
-0.8209025 0.70547694 1.258296 0.26338384 -1.6054386 -0.116189644 -0.24385835 0.07630133
0.83105886 0.4283674 0.7229003 -0.4776875 -0.45239854 1.2284214 0.31691474 0.29477546
0.33273444 0.09500671 -0.09709484 -0.066661984 -0.22133482 -0.2785626 0.61278886 1.0052361
-0.41641673 -1.8654284 -0.12720495 -0.6622868 0.23257223 0.10330959 0.8894764 -0.28380617
-0.067578636 0.40435186 0.030176872 -0.4040365 -0.72041065 -1.0213308 1.2051586 -0.44673768
-0.5268817 -0.82943535 -0.63173133 1.4241061 -1.010494 -0.7705916 0.99820036 -1.2648114
-0.43125162 -0.53853714 -0.89591265 -0.5004414 -0.020324409 0.7765224 -0.9340384 0.56249905
-0.5222079 -0.632402 -0.32154864 -0.17613782 0.4131742 0.5706071 0.02452409 -1.078151
0.34128386 -0.36801422 1.1927735 -0.031795803 -0.022094779 1.4600933 0.23815587 -1.0454398
0.27900842 1.0564779 0.82251626 -0.27191815 -0.04011575 0.32059887 -0.0017750699 -0.4038041
-0.27145076 -0.64575326 1.3284175 -0.1609229 0.050347023 -0.8374617 -0.026004303 -1.3692234
-0.30334944 0.8314935 1.4031883 -0.44566736 -0.60975504 0.21181081 0.61424357 0.6159901
-0.827208 -0.04964498 0.33860776 -1.2403737 0.23920047 -0.11629193 -0.039310444 -0.072744146
0.12992656 1.2652771 0.05575161 -0.27121505 0.44580325 -1.167895 0.37651432 -0.20974495
-0.13357198 0.085637726 -0.83547264 1.0948021 -0.2878112 0.4421367 -1.7196509 -1.2274777
-1.2128811 0.24156792 -0.4249548 -0.7244551 -0.060710043 -0.025592519 1.7632545 -1.8737521
-0.80911714 0.10658023 -0.99570376 0.18922651 -0.15357594 0.18055438 0.5824913 -0.6336766
0.09889987 0.024044938 0.15688589 -0.053070962 -0.023180343 0.2895865 1.7236768 2.0626278
-0.7068517 -1.7243165 -1.4648472 -0.78030586 0.45705688 0.2412661 0.14614247 -0.36963624
-0.32626393 -0.083173 0.54649675 0.39179063 -0.9092992 -1.0942795 -0.77511925 -1.4355465
-0.515751 -0.48028564 -0.5556143 -1.057378 -0.9736638 -0.8081248 -1.702334 0.87390023
-0.13817662 -0.43837667 -0.117576845 -0.2546388 0.09722795 -0.26384562 -0.064077385 -0.010308287
0.042234976 0.8340559 0.31620014 1.5814112 0.25690657 -0.80930704 0.90723455 -0.37524393
1.1326377 -0.5559568 0.017574588 -0.59409255 0.63049924 -0.24405941 0.51103497 0.20286359
-0.12699679 1.7397985 0.020503663 0.124425925 -1.3265047 1.2402883 0.24808073 0.47309774
-0.31177866 0.032389376 -0.3431363 -0.2694653 0.3520346 0.8215961 -0.4085771 -0.8560144
-0.53807706 0.62783337 0.7053496 0.10982258 -0.22018178 1.7664022 0.08382852 0.003125629
-0.58790505 0.42022178 0.69587 -0.30852112 -1.4286616 0.24131799 0.1456116 -0.71211326
-0.3895145 -0.4068862 0.51557463 -0.1096126 -0.025182078 0.49925238 -0.5278999 -0.4709317
-1.1427184 0.8741855 1.9318494 -0.10747448 -0.38661125 0.06761496 -0.26222882 -0.32237238
0.31571954 -0.09290528 0.22865118 0.09078739 0.1418092 0.14481434 0.09094112 -0.09993772

fc1.bias f4 [16]
00000000: e538 bdbf eaef 243f 44e7 2bbe a116 14be
00000010: 09e0 503f 49d4 44bf 156e a4bb 2c01 33bf
00000020: a059 3cbf 348e 523f a75d 80be 9439 343d
00000030: eb51 86bf ea37 9dbf e6f0 dfbf a2f8 183f
-1.4782988 0.6442858 -0.1678744 -0.14461757 0.8159185 -0.7688642 -0.0050180056 -0.69923663
-0.73574257 0.82248235 -0.2507145 0.044000223 -1.0493749 -1.2282689 -1.7495391 0.59754384

fc2.weight f4 [16, 16]
00000000: 1644 683f a013 9cbe 75cb c83d 8a9b 8c3f
00000010: e47a b23e 56ab 883e 86b2 babf f88c 5abf
00000020: 4fba babf fcc6 543f 4351 9abe d02b d43e
00000030: 682f bebe 5e13 c4be a30e 42bf 9155 98bf
00000040: 49d9 07be c526 80be 2520 363c 566d 11be
00000050: 7562 a8be 63d2 8cbd d766 52be 30f0 a1be
00000060: ee62 2cbe 5834 0bbe 874d cabd 5583 68be
00000070: 8e0c a8bc deb0 bcbd 02d8 5d3d 06e9 a3be
00000080: 8137 a83e 3e7c 803e f05e 1cc0 7d27 ad3e
00000090: 5451 14c0 d455 093f 9d54 0d3f 253f 0ebf
000000a0: 9338 2c3f c4a2 c5bf 799b 453f 108e 323f
000000b0: b09d 713f bd03 ae3e 95e9 113f 0559 c0bd
000000c0: d737 a9be 6376 2a3f 057b 383f f7f8 8dbf
000000d0: 6562 0f3f c68d 3dbe e546 3abe 0094 59bf
000000e0: 7962 5ac0 8d1d 573f 0f5a 8a3f 0d6e 9e3d
000000f0: 8d0d 3cbe cb4a 52be fa21 d8bf 9737 bbbe
00000100: 74eb 1a3f a5fc c93e 0d4b 4cbf 807f 94be
00000110: c648 573f 8b40 e9be b7eb 5a3f 2458 a0bf
00000120: dff0 1bbf 8420 273f 0064 1c3f a59e 00bf
00000130: 0ecc 1a3f 6a60 b7bf 3ab0 debf dc7a dbbe
00000140: a4c3 7a3f 9196 a9bf 42ba a33e 812f 9e3f
00000150: 5164 86c0 b5a3 18c0 a463 733d 00e9 edbe
00000160: 6c48 17c0 3850 ac3e 7579 10c0 9695 fdbe
00000170: a2b0 25be 6fa9 16bf 1e2e 3bbf 8dd8 453e
00000180: 9a72 e2be 0cda bc3e 7a00 86bf bd2b 37c0
00000190: 3a16 a7be db61 873f 6a01 d3bd 2def b6bf
000001a0: bf20 4e3c ca9a bebe 4118 493e 7de3 7c3f
000001b0: 7d9a 30bf 1fcf 063f 8333 973f daf0 24bf
000001c0: 7c74 3e3f d770 813e e38b 113f ecb7 0f3f
000001d0: 3615 b33d 87a0 d53e b2c3 603f 6c57 a3be
000001e0: 65ee 473f 05dd e83e e70a a23e 383f cf3e
000001f0: ef9e 783f 3153 02bf a141 713f d70e 87bf
00000200: a429 11bf ab3b 213e 217b fabe 4c76 5bbf
00000210: 92c8 d83c 100f e0bf 88c4 8ebe 4ece 8a3f
00000220: ac59 e8ba cfe0 a4bd 393e 42be 993a 54bf
00000230: 7c93 73bf 81ee 503f 366f 31be 3f7b 033f
00000240: ec9a a73e 7d07 4d3f 63f4 563e 9694 d03e
00000250: 607b 1d3f 7b29 d33e 9e21 cbbe 5faf 21c0
00000260: 7306 6f3f 8fff 79bf c7bd 6f3f 24ad 55be
00000270: 285d afbf 6161 a3bf f991 35bf 321c 2dbf
00000280: 60f9 3f3f 514e 763e 88e5 2f3f 0fd1 9e3f
00000290: e4b0 be3e 8a69 5f3e 9108 383f 03d5 efbd
000002a0: 69a2 fb3e 3128 053f cc2e 383f 9293 103f
000002b0: 84eb 9d3f a46e e4be 0564 133f 54b9 bcbe
000002c0: a083 663f b476 ee3e 5d7d 2d3f 2e20 f13e
000002d0: 1eac 0b3f 3e49 bebd e694 463f 5f4c 30bf
000002e0: ccce c93e 3e01 6b3f 04c4 51bf 4781 14c0
000002f0: 700a a1bf a759 debf 3c8b cd3c 6591 8bbe
00000300: 0151 8e3f a943 d0bf 54e5 f63e 9b34 d03e
00000310: 4306 32be d435 f4bf 21dd db3e cb8d 613e
00000320: c037 41c0 3722 bebe d767 7f3e a6b8 d03e
00000330: 2746 403f 9380 133e a14d 9dbf f632 39bf
00000340: efe1 a5bd 98c1 91be 9e4a c2bd 7622 f7be
00000350: faaf a2be b726 c33d a218 80be d0d8 16bf
00000360: 9d76 22bf b219 41bf cd58 81be 37fb 15be
00000370: 36f3 00bf 4f43 6fbe c340 0bbf dae6 93be
00000380: 0368 053f 0336 92bd 77a4 46bd 810a 2c3f
00000390: 818e 8dbd 5f89 ba3e 2ae6 783e c136 04bc
000003a0: 741f e43e 4397 343f 4cd4 163f 24c3 283e
000003b0: c20b 893f 1b73 d5be 8053 733f 3ac6 2cbf
000003c0: a95a 103f fca2 a8bf 755d 3fbf 31c9 363f
000003d0: 8483 243f be8f 303e a793 aabe 8d85 e0bf
000003e0: 73be 143f 70ef d6be bc9d 94bf 228e 8a3f
000003f0: ed5b 70bf 2d19 a5bf 5466 a1bf e477 cdbe
0.9072889 -0.30483723 0.09804431 1.0984967 0.34859383 0.2669322 -1.4585731 -0.8537135
-1.4588107 0.83116126 -0.30140123 0.41439676 -0.37145543 -0.38296026 -0.75803584 -1.1901113
-0.13266481 -0.2502958 0.011116062 -0.14201865 -0.32887617 -0.068760656 -0.20547043 -0.3162856
-0.16834614 -0.13594186 -0.098780684 -0.22706349 -0.020513799 -0.09213422 0.05416108 -0.3201372
0.32854846 0.2509479 -2.4432945 0.3381919 -2.3174639 0.5364659 0.55207235 -0.555651
0.67273825 -1.5440297 0.7719036 0.6974802 0.9438124 0.33987227 0.5699704 -0.09391979
-0.33050415 0.66586894 0.7206271 -1.1091603 0.56009513 -0.18511114 -0.18191107 -0.84991455
-3.4122603 0.84029466 1.0808734 0.07735834 -0.18364544 -0.20536344 -1.6885369 -0.3656585
0.6051552 0.39450565 -0.7980202 -0.29003525 0.8409542 -0.45557055 0.8551592 -1.2526898
-0.60914415 0.6528399 0.6109009 -0.5024207 0.6046761 -1.4326298 -1.739753 -0.42867172
0.97954774 -1.3249074 0.3197804 1.2358247 -4.1997457 -2.384992 0.059421197 -0.46466827
-2.3637953 0.33654952 -2.2574131 -0.49528188 -0.16180661 -0.58852285 -0.73117244 0.19320889
-0.4422806 0.36885107 -1.0468895 -2.8620446 -0.32634145 1.0576738 -0.10303004 -1.4291741
0.012581049 -0.3722747 0.19638158 0.9878462 -0.6898573 0.5265979 1.1812595 -0.6443001
0.7439649 0.25281402 0.56854075 0.5614002 0.0874428 0.41724035 0.8779861 -0.31902635
0.78098136 0.45481125 0.31648943 0.4047792 0.97117513 -0.5090819 0.94240767 -1.0551404
-0.56704164 0.15745418 -0.48922065 -0.8572738 0.026462827 -1.7504597 -0.27884316 1.0844209
-0.001772692 -0.08050691 -0.18969049 -0.8290191 -0.9514692 0.8161393 -0.1732758 0.51359934
0.32735384 0.8008955 0.20991664 0.40738362 0.6151638 0.41242585 -0.39674085 -2.5263288
0.93369216 -0.97655576 0.9364895 -0.20866829 -1.3700304 -1.2764093 -0.7092586 -0.6762115
0.7498989 0.24053313 0.6870961 1.240755 0.37244332 0.21817604 0.7188807 -0.11710551
0.49147347 0.5201445 0.71946406 0.56475174 1.2337499 -0.44615662 0.5757449 -0.36860144
0.90044594 0.46574938 0.67769414 0.47094864 0.54559505 -0.092913136 0.7757095 -0.68866533
0.39415586 0.9179877 -0.8193972 -2.3203905 -1.258131 -1.737111 0.025090806 -0.27259365
1.111847 -1.6270648 0.48221838 0.40665135 -0.17385201 -1.9078927 0.42942145 0.22026746
-3.0190277 -0.3713548 0.24941956 0.40765876 0.75107044 0.14404516 -1.2289315 -0.72343385
-0.08099734 -0.28468013 -0.09486888 -0.4826848 -0.31774884 0.09528869 -0.25018793 -0.5892458
-0.6346224 -0.7542983 -0.25263062 -0.14646612 -0.5037111 -0.2336552 -0.54395694 -0.28887063
0.52111834 -0.07139208 -0.04849669 0.6720353 -0.06911946 0.3643293 0.2430655 -0.008069695
0.44555247 0.7054331 0.5891769 0.1648069 1.0706713 -0.4168938 0.95049286 -0.6748997
0.56388336 -1.3174739 -0.7475198 0.71400744 0.64263177 0.17242333 -0.33315775 -1.7540756
0.581031 -0.4197955 -1.1610637 1.0824625 -0.9389027 -1.2898308 -1.2609353 -0.40130532

fc2.bias f4 [16]
00000000: a17e f4be cb17 c1bc 79ba a0bf fd88 33be
00000010: 05ab c33e 3516 1ebf f785 39bf 7c01 febf
00000020: c333 ba3e ec50 0ebe 9e38 3a3f 87e2 eb3e
00000030: ce3f 80bf fb4b ccbe 3467 1d3f 512c 41be
-0.4775286 -0.023570916 -1.2556907 -0.17532726 0.38216415 -0.61752635 -0.7247004 -1.9844203
0.36367616 -0.13898057 0.7274264 0.46071264 -1.0019472 -0.39901718 0.614856 -0.18864562

fc3.weight f4 [16, 16]
00000000: 9986 a53e fcb9 803e eda7 783f 7f03 3f3f
00000010: eb5c 353f 733f efbf efcc 193f dc2e dd3d
00000020: dab4 94be 5c5a 823f 08dc 033f 6295 0f3f
00000030: c02e 113f 3647 113d 2c3a ea3d 5bcb 753f
00000040: f604 b43e d72a bbbd b575 ef3e a039 8ebc
00000050: 8cab d23e 4b3a 0ac0 420b 543f 2694 cb3e
00000060: 2952 c8be 98d8 9f3f a615 273e 079a e13e
00000070: 3e3a d9bd beb7 103e 1851 0f3e 7290 f93e
00000080: c926 3ebc 6222 d0bd 7b65 3ebf 14dd 5e3d
00000090: bae4 b5be 8bda 3cbf 14c8 a6bc 530d 743e
000000a0: b95b 8dbf 522a 9a3f 4e16 10be 65f9 9b3e
000000b0: 4c67 ebbd b803 e4bc 9980 d9be 8690 23bf
000000c0: fd47 003f ccc3 6a3c 0d1a c9be 3e8d 253f
000000d0: 9aef 283f a697 90bf 0280 3a3f 4053 8abd
000000e0: 8eea e8be 82f7 a53f f5fc 0ebf 62c7 a83e
000000f0: 280b 91be d715 64be 56ea 6cbf a15e 5c3f
00000100: 43f6 da3f fa8a a8bd a0b8 4d3f 1418 033f
00000110: 4375 5d3f 65ce 87bf de2b 2e3f a4dc 89bd
00000120: 16ec 88be 8618 583f c968 c43e 21d3 2e3f
00000130: e618 523f 205a 853e 6762 3e3e 2bd2 543f
00000140: 57d6 bcbd 3086 b13c 76bf 85bc dedc 76be
00000150: 82a9 89be 5498 6ebe 2a29 92bc f86e 9ebd
00000160: fa87 69be ad3b 0ebe e5fe 8cbe 0dad 8cbe
00000170: 507b c1bc 58a6 063e 7e8c bdbd 107b e73d
00000180: c168 9b3e 21dd 213d fe5d f93d b07d 8d3f
00000190: f39b fa3e 2d96 c3bf d146 10bf b367 aa3f
000001a0: 14ba bbbf add9 743f a10e 09bf fcd0 af3e
000001b0: 44a3 003f 292e 173e 9ee3 24be 29ae 623e
000001c0: 83c8 023e 66f2 14bd 127c 58bd 19e0 03bd
000001d0: 2932 ea3e 1d00 f5bf 2274 3a3f 0ed7 873e
000001e0: ab7c fabe c3c0 793f 457e 533e efde d43e
000001f0: 05a0 d93e 863c fe3b f8ef 213e d52d b93e
00000200: 39ff b7be c94a 303e 7066 05bf 05d0 74bf
00000210: e9f8 b3bf f97f 2340 d108 8ebe 75ee 88be
00000220: 9185 b73e b5be 84bd 1cca 96bf d434 8bbf
00000230: 621d c13e c666 2ebd f3e7 99bf 232f c33e
00000240: f71a 19bf 2159 2b3e 1b6b a73d 5959 1abf
00000250: e63d 923e 8635 173d 1bb5 b4be 20dd 21bf
00000260: 4687 4fbd 95d6 72bf 9aea 76be 788c a5bd
00000270: 02b7 02bf 7d9a 29bf 96ca 72bf 7438 f8bd
00000280: cf9f 863e 4049 663d 44a4 273e d6b1 923f
00000290: 5e58 a13e 37a7 c3bf d107 78bf 5f8d 283f
000002a0: 8627 01bf 34ba 36be fc08 d2bd 70a6 553e
000002b0: 89f4 313f 1b5a 9b3b a5f6 60bf 0b01 763e
000002c0: 3ee6 123f fc0d 263e 9749 febd ffe2 f0be
000002d0: 18af e83d 3ef5 943e ebfd a6be be86 db3d
000002e0: 6b4b 64bf d076 a5be e0e8 91be 9d5d 513e
000002f0: 3464 8c3d e052 c33c 8e4a 94bd dca5 42be
00000300: 3207 f33d 075c 50be 95e5 513c 0290 82b9
00000310: ef96 a7be b644 e1bc 6ada a4be bf41 093d
00000320: f6ee 91be ace9 1abf 82db 73be a412 42be
00000330: 5c63 82be 65f3 42bd cf8a f9be e7e7 02bd
00000340: 624c 0a3e 22de 34bd c7cb a73e d07f 0abe
00000350: c96f 633e 106f febf cff2 18be 1941 4a3f
00000360: 400a 94bf b031 9d3f fe39 7f3d ac82 0d3f
00000370: 5069 0ec0 b972 033e 278f 723e 9c54 cabc
00000380: a081 543f 43dd 8bbd 6dbb e53e 8c8b cfbd
00000390: 52c5 d03e 9e49 80bf af47 563f 0172 893f
000003a0: 229f babf 2071 b23f a001 02be 7b75 ba3e
000003b0: 6eca 193f 7a9c c83e 5fbf 94bd 3e96 353f
000003c0: 123f 9a3f 988a 6ebe c7e4 65bf dcd4 8cbe
000003d0: acbb 283f bb97 6ebf 05f1 37bf c338 793f
000003e0: cf88 85bf 7ae4 d13f 51e7 24be a595 973e
000003f0: b8fb 4fbf 7d29 4ebd 7d7a 9cbd c711 34bf
0.32329252 0.25141895 0.97131234 0.7461471 0.70844907 -1.8691238 0.6007833 0.10799953
-0.2904423 1.0183825 0.51507616 0.56087315 0.5671196 0.035468303 0.11436877 0.9601342
0.35160035 -0.091390304 0.4676949 -0.017361462 0.41146505 -2.159808 0.8282968 0.39761466
-0.39125183 1.2487974 0.16316852 0.44062826 -0.10606812 0.14132592 0.13995779 0.48743016
-0.011605927 -0.10162808 -0.74373597 0.054410055 -0.35526067 -0.7377097 -0.020359077 0.23833208
-1.1043617 1.2044165 -0.14071009 0.3046371 -0.11494312 -0.027833804 -0.42480925 -0.638924
0.50109845 0.014328908 -0.39277688 0.64668643 0.659906 -1.129628 0.72851574 -0.0675416
-0.4549145 1.2966158 -0.5585473 0.32964617 -0.28328824 -0.22273956 -0.9254507 0.8608189
1.7106403 -0.08229633 0.8035984 0.51208615 0.8650705 -1.0609862 0.68035686 -0.06731537
-0.2674262 0.8441242 0.38361195 0.6829091 0.8206924 0.26045322 0.18592225 0.8313319
-0.092205696 0.02167043 -0.016326647 -0.24107692 -0.26887137 -0.23300296 -0.017841894 -0.07736009
-0.22805777 -0.13889952 -0.2753822 -0.27475777 -0.02361837 0.13149393 -0.092553124 0.11302769
0.30353358 0.039517526 0.12176131 1.1053982 0.48947105 -1.5280205 -0.5635806 1.3312896
-1.4666162 0.95644647 -0.53537947 0.3433913 0.50249124 0.14763702 -0.16102454 0.2213675
0.12771802 -0.03636398 -0.052852698 -0.032196138 0.45741394 -1.914066 0.72833455 0.2653126
-0.4892324 0.97559756 0.20653637 0.41576335 0.42504898 0.00775868 0.15814197 0.3616778
-0.35936907 0.17216028 -0.5210943 -0.9562991 -1.4060336 2.5546858 -0.277411 -0.26744428
0.3584409 -0.06481687 -1.1780429 -1.0875497 0.3771773 -0.04257848 -1.202391 0.381219
-0.5980677 0.16733219 0.081747256 -0.60292584 0.2856285 0.03691628 -0.35294423 -0.63228035
-0.050666116 -0.94858676 -0.24112931 -0.08083433 -0.510605 -0.66251355 -0.9484037 -0.121201426
0.262938 0.0562222 0.16371256 1.1460521 0.3151273 -1.5285405 -0.96886927 0.65840715
-0.5045093 -0.17844468 -0.1025562 0.20864272 0.69513756 0.004740966 -0.8787635 0.24023835
0.5738257 0.16216272 -0.1241638 -0.47048184 0.113615215 0.29093355 -0.326156 0.107190594
-0.8917758 -0.3231721 -0.28497982 0.20445867 0.0685505 0.023843229 -0.07240783 -0.19008583
0.11866607 -0.20347606 0.012811084 -0.00024902826 -0.3273234 -0.027498584 -0.32197887 0.033509966
-0.28502625 -0.60512805 -0.23814204 -0.18952423 -0.2546643 -0.0475954 -0.48738715 -0.03195944
0.135057 -0.044157155 0.32772657 -0.13525319 0.22210611 -1.9877644 -0.14936374 0.7900558
-1.1565628 1.2280788 0.062311165 0.55277514 -2.2251778 0.12836732 0.23687421 -0.024698548
0.8301029 -0.06829312 0.44869557 -0.10134038 0.40775543 -1.0022466 0.8370313 1.0737916
-1.4579813 1.3940773 -0.12695932 0.36417755 0.6007451 0.39181882 -0.07263064 0.70932376
1.2050498 -0.23295057 -0.8980221 -0.2750615 0.65911365 -0.9320027 -0.7185214 0.97352237
-1.0432376 1.639785 -0.16103865 0.29606357 -0.8124347 -0.050332535 -0.0764055 -0.70339626

fc3.bias f4 [16]
00000000: 0644 d2bb e746 0cbf 5a15 34bf e9fb c7be
00000010: 34ca ec3c be4f 90be 4974 f7bf 1d5b d13d
00000020: 15dd c93e facc 08bf e206 97bf f327 bdbe
00000030: fb4f d0be 37be b1bf 378b 0ac0 a681 05bf
-0.0064168004 -0.5479569 -0.7034508 -0.3905938 0.028905012 -0.28185838 -1.9332362 0.102224566
0.39426485 -0.5343777 -1.1798975 -0.3694454 -0.4068602 -1.3886174 -2.164747 -0.5215095

fc4.weight f4 [16, 16]
00000000: 61ea 64be 8bb3 f3bd 0f3e 8bbe a4f7 673d
00000010: 4f24 c1be 775b b13d 7c15 5e3f 54bc 95be
00000020: c683 32bf eae3 d0be 1e38 173f ba56 553d
00000030: e165 0fbc 3b10 ff3e a6d6 3d3f efce da3c
00000040: e1c7 e7be 6359 86be ca2b 183e bbe8 66be
00000050: d598 74be f4ee 06be 0a24 bf3d 2a77 b83d
00000060: fa94 3bbf d02f 02bf 2543 8dbe 79eb 7b3e
00000070: d62f 16be da08 2abe 0454 063e e8bc 393b
00000080: 325a 64bf ee1c f9be 58db 3cbe 26c5 c6be
00000090: 6e29 e1bf 5838 1ebd afdc c3bd edfe 613f
000000a0: 2f3f a53f 7a4a e6bd db2a 83be e4fe b4be
000000b0: fd74 67bd ba22 51be 07f1 4ebd 4eba 3ebe
000000c0: 74fc 60bd 18ba cebe cd47 a33c fcfa 08bf
000000d0: 68cb 9cbe 80c4 39be b753 103d 458e 9f3d
000000e0: d7bf e6be a0f1 aabc 772e 11bc 092e d43d
000000f0: d8b2 313e d117 33bd 519e 44bc 1d39 85bd
00000100: b2ed fbbd d330 e0bc 5b89 3ebd cc35 c2bd
00000110: c306 81bd 916c 0a3e 81de 58bd 707d 88bc
00000120: eae2 2bbf af85 c8be 69d3 a13d 8ff0 90be
00000130: 1bac 1cbd e021 f4bd 50d8 413e 4cef c6bd
00000140: a03e a03e ff45 a73e e4eb c93e 586c 843e
00000150: f031 253e 204e 77be aeea 8a3f 4339 da3d
00000160: 24fc c83d b369 603e 3d28 003f 5bf4 0a3d
00000170: 061e 01be 818d 183f 6ba9 aa3f 801d 203f
00000180: 1d69 62be b096 e9bc e0d3 a8bc 208a dc3c
00000190: d939 13be 327f 133e d8f4 26be 203d 51be
000001a0: 1c48 32be 8060 72bd 6023 8c3c 88fb f33c
000001b0: d431 13be a8e6 453d d719 383e 0eaf 4abe
000001c0: bc59 acbe 8ffd aabe c850 4dbb a44a 293d
000001d0: 6622 6bbc 1690 0ebe 1dd0 33be 6a8f 38be
000001e0: 0156 06be 6220 5f3c 68d4 9abc 00d6 393a
000001f0: 425b 74be c8df 1abe 0c14 0cbd 6c2a 70bd
00000200: 0456 2bbd 6dd7 c53b f432 a73d 192b ebbe
00000210: 1ab2 cdbd 623a 563e a1ad 2a3d 825c d4be
00000220: 5153 463d f168 2bbd 22ed 88be e2b1 043d
00000230: c7d5 623d f32a 253d 65df f2ba 378c 40be
00000240: fd19 943e 064a 8e3d 1370 343e 0b3e a23e
00000250: 316f f93e ae12 d1bd 04dc 76be fb25 653e
00000260: 2909 82be de30 ce3d bc67 8e3e f386 e93e
00000270: cae7 9f3e 19b2 373e 33fa 52be 89eb 6ebc
00000280: a45e 56bf 84c4 a2be 1d78 5b3e 2426 54be
00000290: 05ac 94be e06d 40be 0bc7 32be 2bc5 b23e
000002a0: ec5e 6d3f e4ea 0d3e edf7 68be eb0d 71be
000002b0: f02d b8bd 7894 543e d817 30bf 3c7d 9fbd
000002c0: 76b9 c3bd e865 b3be 5a95 79be f774 e9bd
000002d0: a48c 93be c0d5 593e a282 4abe c09d 53be
000002e0: ed55 adbd 7045 343d 4fa1 213d 3035 1dbd
000002f0: 5225 43be 8030 7bbd 00ea 0bbe 804c 37be
00000300: 360a e3be 5f66 a7be 509c 2f3e cbeb 443e
00000310: 6c75 1bbf e260 95be 1211 b63f 096d 0abf
00000320: 8ac6 2bbf 8d59 283e 7afb cf3e 9f65 973d
00000330: 0b83 bc3d 176c dd3e 6230 ab3f 341c c93e
00000340: 30bf 2ebe 3830 d33d 529b 88bd c00d b5bd
00000350: b9e8 47bd a492 673e 19b6 f5bb 6b66 3abe
00000360: b06e 033d 3b02 fbbd 21d6 24be 61ff 13be
00000370: 9000 c03c d4d6 fabc 793f 843d 6fd8 423c
00000380: 9a73 13bf 4723 78be 7a76 803e c162 f53e
00000390: 1fd1 aabe f3b0 a73d ce59 593f bcaa 6dbe
000003a0: 26ca bebe ed76 073e 95f6 753e 64f8 6ebe
000003b0: 83ac 70be 02b9 fe3e 3a8f 7e3f d4a9 ca3e
000003c0: 0b8e ebbe e2be d6bd b8df 363e 2c00 2dbd
000003d0: 8ef6 dbbd 1aad 80be 3f14 5c3e be78 c3bb
000003e0: d3e2 28bf aa9c 17be 47f2 69bd ca0f a43d
000003f0: 0de7 b73d 60b6 fa3d a5a5 9bbe 09e6 dfbd
-0.22355033 -0.118994795 -0.27195784 0.056632653 -0.37723014 0.08660024 0.8675153 -0.29245245
-0.6973232 -0.40798885 0.59070003 0.052084662 -0.008752317 0.4981707 0.7415565 0.026710002
-0.45269683 -0.26240072 0.14860454 -0.22549717 -0.23886426 -0.13177091 0.09333046 0.09007104
-0.73274195 -0.50854206 -0.2759029 0.24601544 -0.14666685 -0.16604939 0.13117987 0.0028341357
-0.8920013 -0.48654884 -0.18443048 -0.38822287 -1.7590768 -0.038627952 -0.095635764 0.8827961
1.2909907 -0.11244674 -0.25618634 -0.35350716 -0.056508053 -0.20423403 -0.05052283 -0.18625757
-0.054928258 -0.40376353 0.019931698 -0.5350797 -0.30623937 -0.18141365 0.035236087 0.07790808
-0.45068237 -0.020867169 -0.008861176 0.10360343 0.1735338 -0.043723885 -0.012000636 -0.06505034
-0.12301196 -0.027367031 -0.04651771 -0.09482917 -0.06300118 0.13517977 -0.05294657 -0.016661376
-0.6714312 -0.39164492 0.079016514 -0.28308532 -0.03825007 -0.11920524 0.18930173 -0.09713611
0.3129778 0.3267059 0.39437783 0.2586391 0.16132331 -0.24150896 1.0852869 0.10655453
0.09813717 0.21915321 0.500614 0.03392444 -0.1260911 0.5959092 1.3332952 0.62545013
-0.2211041 -0.028514236 -0.020608842 0.026921332 -0.14377536 0.1440399 -0.16304338 -0.20433474
-0.1741032 -0.05917406 0.017106712 0.029783025 -0.14374477 0.048315674 0.17978607 -0.1979334
-0.33662212 -0.33396575 -0.0031328667 0.04133095 -0.014351463 -0.13922152 -0.17559858 -0.18023458
-0.13118745 0.0136185605 -0.018900111 0.00070890784 -0.23862937 -0.15124428 -0.034198806 -0.058634207
-0.041830078 0.0060376436 0.081640154 -0.45931318 -0.10043736 0.20920709 0.04166949 -0.41476828
0.0484193 -0.041848127 -0.26743418 0.032396205 0.055379655 0.040324163 -0.0018529712 -0.18803488
0.28926077 0.069477126 0.17620878 0.3168796 0.48717645 -0.10208641 -0.24107367 0.2237777
-0.25397614 0.100679144 0.27813518 0.4561077 0.3123153 0.17939033 -0.20603256 -0.014582523
-0.8373816 -0.31790555 0.21432538 -0.20717674 -0.2903749 -0.18791914 -0.17458741 0.34916052
0.92722964 0.13859135 -0.22750826 -0.23540466 -0.08993137 0.20759761 -0.6878638 -0.077875584
-0.09556858 -0.35038686 -0.2437338 -0.113992624 -0.28818238 0.21272945 -0.19776395 -0.20665646
-0.08463655 0.044011533 0.039460476 -0.0383808 -0.19057205 -0.06132555 -0.13663483 -0.17900276
-0.44343728 -0.3269529 0.17149472 0.19230573 -0.60726047 -0.29175478 1.422396 -0.54072624
-0.6709982 0.16440411 0.4062155 0.073924296 0.09204682 0.43246529 1.337414 0.3927933
-0.1706512 0.10311931 -0.0667025 -0.08840513 -0.048805926 0.22614533 -0.0074985144 -0.18203132
0.03208798 -0.12256285 -0.16097309 -0.14452888 0.023437768 -0.030620016 0.06457419 0.011892422
-0.5759827 -0.24232207 0.2509039 0.47926906 -0.33362672 0.08188047 0.84902656 -0.23209661
-0.37263602 0.1322896 0.24019845 -0.23336941 -0.23503308 0.49750525 0.99437296 0.39582694
-0.46006808 -0.10485627 0.1785878 -0.042236492 -0.10740386 -0.25132066 0.21492098 -0.0059653213
-0.65971106 -0.14805856 -0.05711582 0.08010824 0.08979616 0.122418165 -0.30399814 -0.109325476

fc4.bias f4 [16]
00000000: 1de3 68be 51d1 893e 6557 a73d 2720 64be
00000010: ee88 46bd 7c48 19bf 8b34 5fbe ca77 debd
00000020: 2248 babe aa64 41bd 96f0 253f 8f21 91be
00000030: a863 87be 5dd5 ccbe 8d5e 6fbf 4eaf 35be
-0.22742887 0.26917508 0.08170966 -0.2227789 -0.04847043 -0.5987623 -0.21797387 -0.10862692
-0.36383158 -0.04721514 0.6482023 -0.28345916 -0.2644322 -0.40006533 -0.9350365 -0.17742655

fc5.weight f4 [16, 16]
00000000: d8f1 e6bd 2c05 623e eaf2 2f3e 10a8 903c
00000010: 0807 dc3d 8046 4ebc da93 113e a001 be3d
00000020: 4452 6bbe d4e1 6dbe e776 35be f0c5 adbc
00000030: 141c a93d f7bb 613d 5c1f dcbd 60f8 38bc
00000040: f099 2ebf 7463 63be 24d5 e53e 408d dfbd
00000050: b287 30bf c50a ccbb baf5 603e 3e90 1bbe
00000060: f119 9ebc 51c0 5cbf de57 6a3e 7eab 463e
00000070: 8fc7 0abf d186 d03d 4078 143d e0a9 58be
00000080: 0449 c2be 27d8 0cbf 123c a3be 9a51 5f3e
00000090: 5427 fd3b 6362 b8be 647e cabd 1470 e1ba
000000a0: 3468 8ebe 1411 91be 4311 a23d 3073 b33d
000000b0: c592 523d 8ed1 42be 2c38 793d 8c58 9c3d
000000c0: 68e7 07bd 40cc 5b3d ba42 48be 24ab 18be
000000d0: 96c7 123e ce74 20bd 18a3 c6bd 20aa ff3c
000000e0: a2d2 74be fed2 3abe f4fb 74be c043 9bbb
000000f0: e12f 25bd 9aa5 0b3e 0ed0 7dbe 0359 13bd
00000100: 1bab 243d 9d6a 16be 00e1 57bd 7e34 34be
00000110: 995a 0cbe 4f89 acbe 48d9 473d 0c84 ab3d
00000120: a035 1d3c 5775 9abc 9572 2bbe ae0a 643e
00000130: 1540 8fbe 842e bc3d 66a4 aabe 9824 42bc
00000140: 2d63 4cbf 6c88 d4be 1732 703f a945 293d
00000150: 2115 85bf 9375 b3be 20f0 5dbe 2609 b33d
00000160: 21cf 85be 34fc 89bf 7af0 ce3e 64c1 9ebd
00000170: e466 14bf fff4 80be ac33 75be d745 c9be
00000180: 80dd 63be 7ba2 12be f41e 30bf 919f 2a3e
00000190: 5a8e dd3d ae38 8cbe 188c 02bd 821b 51bc
000001a0: 39c0 0bbc ba29 63be d606 e1be dc53 0d3d
000001b0: 2e0a cebe 57bc 05be b9a2 5b3d 2e62 1f3e
000001c0: fe3a b6bd 7c3d 88be 5461 64be 930d b73c
000001d0: f30a 5d3d 113b b03e 70f4 3f3e bc48 d73d
000001e0: 843e 2a3e 68b1 aa3e b064 15bf 89e6 a7bd
000001f0: 6e5f 39bf c890 913d feeb bdbe a61a 42be
00000200: 7c20 183e d41e 19bf 44df 90b9 0737 263e
00000210: e7c7 a2ba 5a67 f03e 5f2a 933c 3997 9f3d
00000220: 7458 983e 2dbf a4be 4c80 c1be 3e07 7b3e
00000230: 398f a93d 9488 1e3e 4bf7 953e ad35 9a3c
00000240: 3b8d 0b3f 1f8e 8bbe e085 2fbe ac78 943e
00000250: 2c61 59be eddb f23d 96c0 efbd 8e1b 303e
00000260: 5ee5 a63d 0de1 b6be 8e16 103e 3f2b 793e
00000270: 5232 283f d84d 6e3e c7a3 243f 3170 ea3c
00000280: 2c4a a5bc 64c9 e73b 0651 a5be caa9 143e
00000290: 85b4 b43d 5857 c13d eacb 183d 9d1e 54bd
000002a0: f97f 10be 5250 74be 6367 22bf 0d49 fb3d
000002b0: 7831 72bd 6e46 70be b061 30be 3b8c 573d
000002c0: d983 26bd 2bc0 523d 114e 9abe c759 2b3e
000002d0: ae82 d3bc 2e60 fc3d ec23 07bd e729 c5bd
000002e0: 4eac 64be df7c 933e e0c2 06bf 293f 283e
000002f0: 05a0 cdbe 05c1 30bd 020d 38be 0287 8bb9
00000300: 24ac 6b3d 0a04 943e 63bc 383f 6351 c53c
00000310: cec2 92bc 6fe7 22bf b07c efbd 9490 d8bd
00000320: 8316 8e3e 6396 b6be 9c18 103f 0694 fdbd
00000330: 66e6 a63e 3b40 53bd 1259 37be 12b8 8ebe
00000340: 0eff a63c 6762 9bbe a8a9 bebe 63bf db3c
00000350: 83ac 4cbd a502 b5be e4c2 a1bd 2621 0e3e
00000360: e921 abbb 26c5 91bc 9190 37be 2186 ac3e
00000370: b117 a2be ef11 0e3b 8e13 03be 163f 28be
00000380: 096e b4be 054f 933d 5318 f4be 91ec 743e
00000390: 079b 19be 57ca 13be c491 583e 99f2 7c3e
000003a0: fce7 113e 3f17 d2be d2a3 81be 3e88 773e
000003b0: 5726 e83d c4ad 0c3b 12fa 1dbc f87f 413e
000003c0: 13c7 adbd 853a b4be 6850 45be a2e5 163d
000003d0: ca2d 5c3d 34e2 19bc c246 7fbe 0ebd 62be
000003e0: 76b1 6dbc 0674 83be d9fe 67be b0c3 05bd
000003f0: cf31 c8be a0bc 70be cabd b03b c5ad 633d
-0.11276597 0.22072285 0.17182508 0.017658263 0.107435286 -0.012590051 0.14216557 0.09277654
-0.229806 -0.23230678 -0.17721139 -0.021212548 0.082573086 0.055110898 -0.10748169 -0.011289686
-0.6820364 -0.22205907 0.44889176 -0.10915613 -0.68957055 -0.0062268698 0.21968737 -0.15191743
-0.01929948 -0.8623095 0.22885081 0.19401357 -0.5421075 0.10181964 0.03624749 -0.21158552
-0.37946332 -0.5501732 -0.31881768 0.21808472 0.0077256355 -0.36012563 -0.09887388 -0.001719954
-0.27813876 -0.28333342 0.07913449 0.08762205 0.0514095 -0.19025251 0.060844585 0.076340765
-0.03317967 0.053661585 -0.19556704 -0.14909035 0.14333948 -0.039173894 -0.096990764 0.031209052
-0.23908475 -0.1824455 -0.23924237 -0.004738301 -0.040328864 0.1363739 -0.24786398 -0.03597356
0.04020224 -0.14689107 -0.05270481 -0.17598149 -0.13706435 -0.33698508 0.0487912 0.08374795
0.009595305 -0.01885478 -0.16742928 0.22269699 -0.27978578 0.0918856 -0.3332855 -0.011849545
-0.7983883 -0.41510332 0.9382643 0.0413262 -1.0397073 -0.3505064 -0.21673632 0.08741979
-0.2613459 -1.0780091 0.40417844 -0.0775173 -0.579695 -0.25186917 -0.23945493 -0.39311096
-0.22252464 -0.14319794 -0.6879723 0.16662432 0.10818167 -0.27386993 -0.031871885 -0.012762906
-0.008529716 -0.22183886 -0.43950528 0.034503803 -0.4024214 -0.13060127 0.05362198 0.15564796
-0.088979706 -0.2660941 -0.22302753 0.02234534 0.05396552 0.34420064 0.1874559 0.1051192
0.1662541 0.33338475 -0.5835676 -0.08198268 -0.7241124 0.07107693 -0.3709411 -0.18955478
0.14856142 -0.59812665 -0.00027632166 0.16231929 -0.0012419195 0.4695385 0.01796454 0.07792515
0.29754984 -0.32177106 -0.37793195 0.24514481 0.08279271 0.15481788 0.29290232 0.018824423
0.54512376 -0.27256867 -0.17140913 0.28998315 -0.21228474 0.11858354 -0.11706655 0.17198011
0.08149217 -0.35718575 0.14071104 0.24332903 0.6570178 0.23271883 0.64312404 0.02861795
-0.02017697 0.007073568 -0.32288378 0.14517894 0.08823494 0.094404876 0.037303843 -0.051787008
-0.14111318 -0.23858765 -0.63439006 0.12269793 -0.05912921 -0.23464367 -0.17224765 0.05262397
-0.040653083 0.051452797 -0.30137685 0.16733466 -0.025819149 0.12323032 -0.032993242 -0.09627133
-0.22331354 0.28806207 -0.52641106 0.16430344 -0.40161148 -0.043152828 -0.17973712 -0.00026612735
0.057537213 0.28909332 0.72162455 0.02408666 -0.017915156 -0.6363439 -0.11693704 -0.10574451
0.2775155 -0.3566161 0.5628755 -0.12381749 0.32597655 -0.051574927 -0.17905071 -0.2787481
0.020385291 -0.30348513 -0.37238812 0.026824659 -0.049969207 -0.3535358 -0.078985006 0.13879833
-0.0052225483 -0.017794203 -0.17926241 0.33696082 -0.316587 0.002167817 -0.12800428 -0.16430315
-0.352402 0.07192806 -0.47674808 0.23918368 -0.15000544 -0.14432655 0.21149355 0.24701919
0.14248651 -0.4103336 -0.25320297 0.24173066 0.11335438 0.0021465877 -0.009642141 0.18896472
-0.08485236 -0.35200897 -0.19268954 0.03684009 0.053754605 -0.00939231 -0.24929336 -0.22142431
-0.014507642 -0.25674456 -0.2265581 -0.032657325 -0.391005 -0.23509455 0.0053937184 0.05558564

fc5.bias f4 [16]
00000000: 9ae3 96be 396b 1dbf a41d 58be af14 ebbd
00000010: 9fe9 77be 8fca 14bf dc83 483d 3f11 9a3e
00000020: 2603 29c0 5b83 98bf 4555 343e 015d 613e
00000030: ee4e 573f bfee 7ebc e6d3 1a3c fed4 85be
-0.2947052 -0.61491734 -0.21105057 -0.114785545 -0.24210213 -0.5812158 0.048953876 0.30091283
-2.6408172 -1.1915087 0.17610653 0.22008134 0.8410481 -0.015559851 0.009449935 -0.26139063

fc6.weight f4 [16, 16]
00000000: fefa 6dbe 5970 433f cb60 e3bd 5c24 80be
00000010: faaa 7f3d 7b78 a03f 055b ca3c 50e5 0bbe
00000020: 937c 5fbc 3711 aabc b0d3 aabe daea 0a3d
00000030: 2483 5fbe 60c9 4abe c751 5f3c d7a4 913e
00000040: ae90 08be dbc0 56be 248c 073d 4b24 f0bd
00000050: 3afb c7be 696a 29bf 1032 c6be 57db c3be
00000060: e09a 043f 65cc a53d 69a7 eabd bf7f 0fbe
00000070: eba2 a6bc 862d 5b3e 3432 0b3d 4b68 483e
00000080: d8b2 08bd da0a 713e 8ae1 a43e 6f6e 15be
00000090: 0337 acbd bda8 06bd d612 cf3d b5af 79be
000000a0: 39a2 623e c5b8 ea3d ee24 bfbd 0373 d7bd
000000b0: b8ce 13bf e651 873e 104d 583e ef2a 64bd
000000c0: 0cf7 d73d 20e6 3ebe 48c7 4ebe 54bd 1fbe
000000d0: ac59 5cbe 6c04 cb3d 9c9d 023d 618c 1e3b
000000e0: 9d13 913c 1c8d a3be 16f6 fb3b 55b3 1ebe
000000f0: 0609 30be e632 fbbd 3ec9 b23c ac15 51be
00000100: c89d 2d3e 1d87 5dbe 7979 183d 52f5 68be
00000110: 7eef 2abc 984b 7cbf fa95 4cbe 9e69 09be
00000120: 7abb 4b3c eece 9fbd f748 afbe 76e2 b7bc
00000130: 925f 2bbe 3306 023e 39a4 39bd fc10 493e
00000140: 242c 85bd 1a45 e9bd 8424 5ebe 3c1a adbd
00000150: 5c22 4d3e 8b12 b53d 66dc 92be d6ff a1be
00000160: 7cd6 4cbe 709c 09be c406 d3bd 3fa4 42be
00000170: 6574 d0be 99f2 5d3d 1e57 d63d 00fb ddba
00000180: 155e 71be ead9 a2bd f420 b13d a08f 6fbd
00000190: 0817 23be 643e febd b46e fbbd 5b2a 96bd
000001a0: 0f56 153d 69e2 48bd c92b d4be 41af 96be
000001b0: fc95 06be 4362 8cbc 33cf 8cbe 56eb 3fbe
000001c0: 7803 c23d 94af 95bd 9222 66be b60f 63be
000001d0: 7044 293d 304f 83bd c627 083e c85c 43be
000001e0: 2762 4abd 3207 50bd 8a5b 7abe ace6 923d
000001f0: ce5f 29be 6805 52be a030 1e3d 6e54 793e
00000200: 9c02 be3d 86f7 113e 304f 86bd 7669 66be
00000210: 98bc 3ebd bc20 223d afd1 4ebe da72 9dbe
00000220: 3346 6a3c 4c59 cf3d 3db4 00bd ef5a 4a3b
00000230: e2f7 64be 3068 dfbd c068 f5bb 8ec6 60be
00000240: 252c 593d 3ebd 173e 615e 1dbc 2bb1 97bc
00000250: 5ce2 18be d385 9a3d 33ba 303e e751 c7bd
00000260: 8d34 62bd 7c81 ddbc 3c63 283e b103 28be
00000270: 76c0 b3be 1d79 83bd 39aa 4fbe bd15 633e
00000280: 54f6 c2bd 760a da3e 12d5 36bd 88df 33be
00000290: 0476 c4bb 2c9f 223d efe9 a6bc 1df3 ca3e
000002a0: b291 b13f f0cd 013f ef01 e73c 564f 873e
000002b0: cdec 09bf 8d90 c1bc 9da4 543d d3c3 193c
000002c0: 60e0 74bd 38c8 a7bd 1233 debd ec83 183e
000002d0: 521c 323e 2298 383e f4a6 6ebe db00 a0be
000002e0: 5023 413b b826 d7bd 580a 18be 1234 babd
000002f0: c3d9 e1be 6b86 1fbe 4d1b 2bbd abe7 0a3d
00000300: fa65 41be 8e73 55be 42aa 27be 5e6a 5bbe
00000310: dca3 86bd e8c3 893d f4c3 18be 8689 43be
00000320: c176 873d 044c 3abd 62a7 0fbe f4f8 80be
00000330: e06e 3abd 70fc 90bc 90e1 4cbd cedc 5b3e
00000340: d852 19be e698 013e fad0 973e 10d5 6c3d
00000350: d9d6 433e eb59 a13f 1f94 733d 3360 15bf
00000360: e13a ab3d 2efd b03e 2e97 60bd 96ce b3be
00000370: 2280 623e 5ef4 f93e 59a8 1b3f 9574 2a3e
00000380: fcb8 c43d b3ff 92bb 4aa3 6dbe 7055 c0bc
00000390: 48e3 633e 70f2 92bd e0ee 9fbe 9ad5 8dbe
000003a0: f249 87bc f1f2 bbbd e3d0 3bbe ebfd 85be
000003b0: abf2 f4be c42b bdbd 6d23 943d 0627 623d
000003c0: 4aef 523e 6b83 30be 639b 683e 1628 873e
000003d0: e7be 3dbe 02e9 ecbe f604 873d 237c dabd
000003e0: 14aa 37be c7f4 eb3d 41b6 4fbe f2f5 be3d
000003f0: 20d6 bdbd 0f35 b23d 6324 073d 70b4 8b3e
-0.23240277 0.76343304 -0.11102446 -0.2502774 0.062418915 1.2536768 0.024701605 -0.13661695
-0.013640541 -0.020760162 -0.3336463 0.03391538 -0.2182737 -0.19803381 0.013630337 0.28446075
-0.13336441 -0.20972006 0.033092633 -0.11725672 -0.39058858 -0.66177994 -0.3871007 -0.3825328
0.5179882 0.08095626 -0.11457712 -0.14013575 -0.020341357 0.21404085 0.033983424 0.19571035
-0.033373684 0.23539296 0.32203323 -0.14592908 -0.0840893 -0.032875765 0.101110145 -0.24383433
0.22132196 0.11461023 -0.09333216 -0.105199836 -0.577373 0.2642967 0.21123147 -0.055705007
0.10545167 -0.18642473 -0.20193207 -0.15599567 -0.21518582 0.09912953 0.03188859 0.002419256
0.017709548 -0.31943595 0.007689248 -0.15498097 -0.17190942 -0.122655675 0.021824475 -0.20418423
0.1695472 -0.21633573 0.03722522 -0.22749832 -0.010433076 -0.98552847 -0.19979087 -0.13419196
0.012434835 -0.078031406 -0.34235355 -0.022446852 -0.16735676 0.12697677 -0.04532263 0.19635385
-0.0650256 -0.11390133 -0.21693617 -0.084522694 0.20032638 0.088414274 -0.28683776 -0.316405
-0.20003694 -0.13438582 -0.10304025 -0.19007967 -0.40713802 0.054186437 0.10465835 -0.0016935766
-0.23571046 -0.0795172 0.086488634 -0.05848658 -0.15926754 -0.12414244 -0.12276974 -0.073322974
0.036459025 -0.049044047 -0.41439655 -0.29430583 -0.13143152 -0.017136699 -0.2750183 -0.18742117
0.09473318 -0.073088795 -0.22474125 -0.22173962 0.041325033 -0.06411588 0.13296422 -0.19078362
-0.04941001 -0.050788112 -0.24448982 0.071729034 -0.16540453 -0.20509875 0.03862059 0.24348614
0.092778414 0.14254579 -0.065580726 -0.22501168 -0.046566576 0.039582 -0.20197175 -0.30751687
0.014298963 0.10124454 -0.03142189 0.0030876955 -0.22360185 -0.10908544 -0.007489294 -0.21950743
0.053020615 0.14818284 -0.009605021 -0.018517097 -0.14930099 0.07545056 0.1725853 -0.097324185
-0.055225898 -0.027039282 0.16444105 -0.16407658 -0.35107774 -0.06419585 -0.20279779 0.22176261
-0.095196396 0.42586106 -0.044636793 -0.17565739 -0.005995514 0.03970258 -0.02037522 0.39638606
1.3872588 0.5070486 0.028199164 0.26427716 -0.53876954 -0.023628497 0.0519148 0.009385067
-0.059784293 -0.081924856 -0.10849585 0.14894074 0.17393616 0.18026784 -0.23305875 -0.31250653
0.002947051 -0.10505432 -0.14847696 -0.09091963 -0.44111452 -0.1557862 -0.041774083 0.033912342
-0.18886557 -0.20844862 -0.16373542 -0.21427295 -0.065742224 0.06726819 -0.149185 -0.1909543
0.066144474 -0.04548265 -0.14028695 -0.25189936 -0.045515895 -0.017698497 -0.0500198 0.21470949
-0.14973009 0.12655982 0.29651624 0.05782038 0.19124927 1.2605566 0.05946743 -0.58349913
0.0836084 0.3456816 -0.054831676 -0.3511855 0.22119191 0.4881925 0.60803753 0.16646035
0.096055955 -0.004486048 -0.23206821 -0.02347824 0.2225467 -0.071751475 -0.31236935 -0.27702028
-0.016514752 -0.09177197 -0.18341403 -0.26170287 -0.4784139 -0.09236863 0.072333194 0.055212997
0.20599094 -0.17237632 0.22715525 0.2639777 -0.18529855 -0.4627152 0.06592743 -0.106682085
-0.17935973 0.11521297 -0.20284368 0.09324254 -0.09269357 0.087015264 0.032993685 0.272861

fc6.bias f4 [16]
00000000: 35fe d6be a847 c83e 4b53 983e f9eb c4be
00000010: da46 cb3c 546a 393d 60e5 06bf 1daa 29be
00000020: f0e2 bdbe 44e7 91be 9cd6 673f 00be 8dbe
00000030: e133 26be 0441 15bf 9d7e 8bbd 7d3f 8abc
-0.4199082 0.3911717 0.29751047 -0.38461283 0.024814058 0.045267418 -0.5269375 -0.165688
-0.37087202 -0.28496754 0.9056184 -0.2768402 -0.16230728 -0.5830233 -0.06811259 -0.016875977

fc7.weight f4 [16, 16]
00000000: 4863 4bbd 9c2f e3bd eced fa3d e027 433e
00000010: d0ac e2bc 709d 70be 00c3 7e3d c0cc 12be
00000020: aa63 1cbe 2435 f53d f2aa 10be e002 6bbe
00000030: 3e89 4e3e 208c f1bd ecca 70be 2442 403e
00000040: 9089 dfbc 17af 5bbe dbd6 ccbe 40d0 50be
00000050: 610b d7be b644 0abe 62bf c73c 21b5 56be
00000060: 7031 823d 9530 04be 6d59 f73d f7f9 a7bd
00000070: 517f 5a3e 7842 7bbe 7411 483d 1dd1 063c
00000080: b8db 183e 0089 473b 545f 993d c053 b0bb
00000090: b850 6bbd 3426 3f3e 8892 6fbe 1084 c53d
000000a0: 367b 5e3e 62c0 4bbe 16ed 2dbe f671 573e
000000b0: 64f6 693e 6e67 67be 603e 42bd 204a 37be
000000c0: 5078 083d 6c73 19be fa2e 0a3e de3c 4abe
000000d0: 8821 1e3d b8bb 823d 5ab4 003e 7e81 723e
000000e0: 00aa 41bb ac20 fe3d 6e2d 5fbe 52cc 103e
000000f0: 52fe 393e 560f 5dbe 9c82 88bd 70a5 e2bd
00000100: c7e2 e93c 4cc0 bdbe c021 70be 0067 e6ba
00000110: 689d 0dbd 9061 b23d 901a 12be 1884 283e
00000120: c493 df3d d0f2 763d c1fb c3be 345f 603e
00000130: d200 573e 8abd ddbd 486d 5dbe c6e0 6c3e
00000140: 40bd ef3b c8d2 203e 4c9b bebd 1c8d 31be
00000150: c81a 14be b218 2e3e 187e 193d 3644 17be
00000160: e6f9 793e e8cd 153e 54ed 07be 800c 8f3c
00000170: 30c1 48be f8a8 b0bd 3297 4b3e 6083 1fbd
00000180: 6e84 66be 693a f1be c491 dabd dd31 b5bd
00000190: 62b0 36bf f829 75bd 0221 1f3e 7077 d7bd
000001a0: 40b1 353c 14b6 d5bd f3a8 70bd 3497 1a3c
000001b0: 0811 2e3d 47a3 83bf 88f8 61bd e5aa cbbe
000001c0: 6528 503e 9df6 0a3e a559 753e e70f 7cbc
000001d0: e8fe c1be 6edb 68be 1459 bcbd 3c22 67be
000001e0: 5096 35be 8a3e 543e f848 3dbe 1266 91bc
000001f0: d824 05be 403b 18bf 10cf 80bc 0775 db3d
00000200: dec8 aabd 44a9 6bbe ac4c a8bd ef2d e1be
00000210: be7f ffbd a03b 843d 8a65 1c3e dbdb d23d
00000220: d07f 3d3d 4a4c d0bb 7a69 783e f632 37bc
00000230: cfe2 11bd 98e5 56be 4a73 df3e a42e 49be
00000240: ee01 bcbd 6806 60bd b8e8 99bd d4a7 44be
00000250: 4cc2 a53d 1099 b13c af4f 8a3d 408c ac3b
00000260: 6e51 4ebe 69ff 14be 3c33 3cbe be6f 083e
00000270: dc2a d83d b613 5fbe de19 74be ce67 283e
00000280: a0bb c8bc a88a 84be d1e9 1b3e 67dc 273d
00000290: 3d56 b8be ab79 6d3e 2a9e 1ebe 7696 4e3e
000002a0: 38e3 9e3d e0fd 7dbd 61d9 b5be 5fdb 5abe
000002b0: 84bf 7abe c43f 87bf e2cf 573e 6536 fcbd
000002c0: 3ee2 1f3c 583c d43d 59b6 3fbe d202 43be
000002d0: b839 c1bd b3d5 85be 202b 603d d071 91bd
000002e0: a0f1 f83c 0000 743e 05d9 eebc d46c c2bd
000002f0: bec4 753e 46f0 38be d6cf 4f3e 9cf5 33be
00000300: 46da 1a3d f233 723e 3449 59be e655 17be
00000310: 67e1 25bd 58f4 1c3e ca5c 0f3e 2041 613e
00000320: bf28 783e ae10 79be b72d 65bd 5813 dd3d
00000330: 2664 14be 73b5 85bd 7c7e bfbd 915a e6bd
00000340: c570 823e 80f9 18be 0c0e 32bd 746e b33d
00000350: 9c95 75bf 1ea0 46bd 90dc f0bd e6e9 163e
00000360: 720a 2e3e 75ba 21bc 30ae 04be e475 0fbd
00000370: 30d7 a1bd c170 c6be ad35 1a3e 774f fb3b
00000380: bc4d cc3d 5242 49be 9473 bb3d b895 d53d
00000390: 9c20 c73d 7663 50be 2cc7 38be 8ad0 183e
000003a0: 80b1 d2bd 59ba ccbc 114b bbbc 2ca1 163e
000003b0: 48a7 a33d 500b 3dbe 4ef0 94be e300 63be
000003c0: a3e2 89be c2b0 e43d f8e0 3c3e bea6 ebbd
000003d0: 0fc7 903e 2245 063e 8add 333e 052f 23be
000003e0: fcd6 373e 7042 fa3d d4fb 213f a64c 243d
000003f0: d47d febd 330d 23be b81c 51bc 0197 fb3d
-0.04965523 -0.11093065 0.12252411 0.1905818 -0.027670294 -0.23497558 0.062197685 -0.14335918
-0.15272394 0.119730264 -0.1412771 -0.22950315 0.20169541 -0.11794305 -0.23514909 0.1877523
-0.027287275 -0.2145351 -0.40007672 -0.20391941 -0.4200087 -0.13502774 0.02438325 -0.20967533
0.06357086 -0.12909158 0.120776035 -0.08201974 0.2133763 -0.24537075 0.04884477 0.008228567
0.14927566 0.0030446649 0.074888855 -0.0053810775 -0.057450026 0.18666917 -0.23395741 0.096443295
0.21726689 -0.19897607 -0.16984972 0.21039566 0.22847897 -0.22598049 -0.047422767 -0.1789937
0.033317864 -0.14985436 0.13494483 -0.19749781 0.038606197 0.06383461 0.12568799 0.2368221
-0.002955079 0.124085754 -0.21794674 0.14140442 0.18163422 -0.21587881 -0.06665537 -0.11066711
0.028550519 -0.37060773 -0.23450375 -0.0017578304 -0.034573942 0.08710015 -0.14267945 0.1645664
0.10916856 0.060290158 -0.3827801 0.21911317 0.20996407 -0.10827167 -0.21623719 0.2313262
0.0073162615 0.15705407 -0.09306964 -0.17338985 -0.14463341 0.17001608 0.037473768 -0.14772114
0.24411735 0.14629328 -0.13274127 0.017462015 -0.19604945 -0.08625978 0.19881895 -0.03894365
-0.22511455 -0.47114876 -0.10672334 -0.08847401 -0.7136289 -0.059854478 0.15539935 -0.10520828
0.011089623 -0.10435119 -0.058754873 0.009435464 0.04249671 -1.0284203 -0.05516866 -0.3977882
0.2032791 0.13570638 0.23959978 -0.015384651 -0.3788979 -0.22739956 -0.09196678 -0.22571653
-0.17733121 0.20726982 -0.18484867 -0.017748866 -0.13002336 -0.5946541 -0.015723735 0.107156806
-0.083390936 -0.23013788 -0.08217749 -0.43980357 -0.12475537 0.06456685 0.15273109 0.1029584
0.04626447 -0.0063567506 0.24258986 -0.011181584 -0.035616692 -0.2098602 0.43642646 -0.19646698
-0.091800556 -0.05469361 -0.07515091 -0.19204646 0.080937 0.021679431 0.0675348 0.0052657425
-0.2014825 -0.14550556 -0.1837892 0.13323876 0.1055505 -0.21784863 -0.23837993 0.16445848
-0.02450353 -0.25887036 0.15225913 0.040981676 -0.36003295 0.23190944 -0.15490022 0.20174584
0.07758182 -0.062009692 -0.3551741 -0.21372746 -0.2448712 -1.0566335 0.21075395 -0.123150624
0.00975853 0.10363072 -0.18721904 -0.19044045 -0.09434837 -0.26139602 0.054728627 -0.07101786
0.030388653 0.23828125 -0.029156217 -0.094934136 0.24000832 -0.18060407 0.20294127 -0.17574161
0.037805818 0.23652628 -0.21219331 -0.14778861 -0.040498164 0.15327585 0.1400024 0.219975
0.24234293 -0.24322769 -0.0559518 0.10794705 -0.14491329 -0.06528749 -0.09350297 -0.11247743
0.2547666 -0.14938927 -0.043470427 0.08761302 -0.9593141 -0.048492543 -0.11760819 0.14737663
0.16996172 -0.009871115 -0.12957072 -0.03502454 -0.07902372 -0.387579 0.15059538 0.007669385
0.09975764 -0.19654205 0.09152904 0.10428947 0.097230166 -0.20350441 -0.18044728 0.14923301
-0.10287762 -0.024991201 -0.022862943 0.1470992 0.07990891 -0.18461347 -0.29089588 -0.22168307
-0.26930723 0.111665264 0.18445194 -0.11506413 0.2827687 0.1311231 0.17564979 -0.15935905
0.17953104 0.12219703 0.63274884 0.04011216 -0.124263436 -0.15923004 -0.012763195 0.12284661

fc7.bias f4 [16]
00000000: 50cc dfbd 6d3b 603f 8816 29be 400e 2bbc
00000010: 0fdf fcbc 9c0f 02be cda8 0dbc 77c7 25be
00000020: e773 5a3f 6a71 8ebe 392d 44bd f200 8dbd
00000030: 0d38 f5bd 2ef4 e0bb 16d9 c0bd 1dd0 9c3f
-0.109276414 0.87590677 -0.16512501 -0.010440409 -0.030868081 -0.12701267 -0.008646202 -0.16189371
0.853331 -0.27820903 -0.04789469 -0.06884946 -0.119735815 -0.006865046 -0.09416406 1.2251011

fc8.weight f4 [2, 16]
00000000: 605d 37bc 402e d1be 20e7 bcbc 9c78 aebd
00000010: e362 8bbe c0d9 693d 2718 9ebd c98a 3bbe
00000020: 54a9 1ebe 391a c93b 2bd6 34be 2f40 2b3e
00000030: 1e6b dcbd f6f9 263e e0b7 70bd 3a41 29bf
00000040: e073 023c d55a 3b3e ec0f 543e 9c1d a7bd
00000050: 2f4e 09be 00a7 2f3d 90c8 0f3c 8374 a53d
00000060: b7ef fa3e 6c86 eb3d f232 c23c cc7c 4cbe
00000070: e460 ae3d dc79 b23d 29e8 e1bd c04a f33e
-0.011191696 -0.40855598 -0.023059428 -0.08519098 -0.27223882 0.05709243 -0.077194504 -0.18314661
-0.15494281 0.006137159 -0.17659824 0.16723703 -0.107626185 0.1630629 -0.058769107 -0.6611515
0.007962197 0.18296368 0.20709199 -0.081599444 -0.13408731 0.042883873 0.008775845 0.080788635
0.49011013 0.11500248 0.023705933 -0.19969481 0.08514574 0.08714649 -0.11030609 0.47517967

fc8.bias f4 [2]
00000000: 255e 0b40 1e7e fabf
2.1776211 -1.9569738
