data/results/1731781616.pth (torch, 7844 bytes, 8 tensors)

fc1.weight f4 [16, 36]
00000000: 7594 87bd b53e 82bb 8a1b 533e 57f5 053e
00000010: f004 5ebe d248 0ebf 28d3 5ec0 b753 89be
00000020: 79bc 6b3d e225 803e 7b02 28bd 7616 603e
00000030: 24c7 2dbe 82eb a53c 0ed5 953d 0716 503e
00000040: eb98 56bd 4839 26be a7b4 ccbe cb94 053d
00000050: 2232 c83c 2959 8a3e b3a3 71be 823a ed3a
00000060: 1ace a13c c697 df3d 42e4 f7be 7905 283e
00000070: baad 6b3e e610 31be e1c7 8c3d a4a2 8fbd
00000080: ef15 123e f085 9e3d ac81 a63e 907a e2be
00000090: dd10 9c3d c1d1 093e 7554 69be 882e 0bbe
000000a0: 4cbe d1bc e406 6cbe f390 52be 382e 7b3e
000000b0: b1e5 443f d3d5 48bf 3f00 16bf 766b 0abf
000000c0: da19 ae3e c0e0 95be 0430 67be 9395 94bf
000000d0: 1e41 11bf 4b38 0cbf 673e 29bf 076a 6f3f
000000e0: 0c85 04bd 16cc 76bf 5041 87be 7990 903e
000000f0: e3df 45bf 8b68 843e 828f ad3d 4b66 be3e
00000100: 237b bcbe 055a 2e3e 4a63 9d3d 8111 2f3f
00000110: 4cf6 2cbe fe58 13bf a646 79be 0612 cfbd
00000120: c0eb b53d 1e39 47bd dc20 c23e 36d2 3abd
00000130: eeca 95bc c211 c2be f865 42bf 917f d0be
00000140: 8f2b 26be 723e 803f 4de2 a5be cfab 8dbe
00000150: 2829 5bbe 10b7 85be 1a52 b13b 9b03 14bf
00000160: a40d 673e 2a28 c2be 37d2 cdbe 135a b83e
00000170: 6aef fb3d a95e 023f 0787 15bf 82e7 2ebe
00000180: 5c99 c7bc 6a53 9bbf c632 2e3f a67b 323f
00000190: 5758 b0bb 0812 a8be 0886 383e a084 71be
000001a0: 081d 9dbd 027c 133f 63ae 513e 3b56 03be
000001b0: edcc a8bd 032c 0f3e 57bc 9c3d d1fa 2e3e
000001c0: c0d1 64bd c21d 003f fbd0 933e b01e 71be
000001d0: c222 81be 9180 a43c bcf9 c0bd f175 fe3e
000001e0: 2681 fabe b12d 1b3e ae09 b0be d46d 1e3f
000001f0: c193 c2bc ff78 52be e0cb b13e 0da5 70be
00000200: 5a71 d5be c869 a8bf be5b 4c3e 03cc 843d
00000210: 3699 45bf 6f97 ee3e 4208 3a3e d454 bbbe
00000220: 7e3a 56be 5e2b edbe b453 cebe 0eba 2b3f
00000230: b88e 1a3d 3b67 b7be 257b 6abe c577 ccbe
00000240: a7b7 91bb 035e c8bd a473 51bf 0dd1 393e
00000250: 388d 203d 5466 403f 3336 56be b78c 9abf
00000260: 46cd a93e 0f39 05bf 3d5f 353e 920e 91be
00000270: 9573 a7be 5f6e b2bd ddb5 f7bd ea8f 4e3f
00000280: fd64 0bbe 477c 213d a08f 2bbe f49c 1ebf
00000290: a143 8dbe 35b9 753e d56e 4cbe 9548 803d
000002a0: ba2b e3be ab8b d13e d245 6f3f 3450 54bf
000002b0: 09a7 c8be 2664 433c ff3b 183f 757d d43e
000002c0: 9e59 79bf 941c 663a a39d 0d3f 5833 2cbe
000002d0: b756 49bc f9b2 3f3d d0c3 dd3d 34cf 793c
000002e0: 0bce 893c 9d30 56be 9875 0f3f 4b0b 0ec0
000002f0: 7cfe 083f 2362 8e3e 3d10 3c3e e9fb 363e
00000300: 7b63 db3e 84d3 22bc 6579 f43d 6794 193d
00000310: 809e 773e 8909 453e 2b8d 3b3f 652c 03bf
00000320: 02e2 203e 2688 4fbf 62b3 a23e e80d 843d
00000330: c7b5 d13e 2e91 05bf 54dc 003f b3ab b43d
00000340: d81b 183d 39c8 80bd fe76 ea3e b459 3bbe
00000350: 3f44 91bd 1942 1d3c 8fc6 1d3e 8780 1dbf
00000360: 7ee9 73bc 7ead c0bc 2e8a 773e 9487 a2bc
00000370: f0e7 253d cf50 0a3f ec7b 153f 30cd 863f
00000380: c80e 41be 5ed0 8e3e 5a77 44be 94bc 4cbe
00000390: 9583 813f 0691 053e 3001 4dbe e335 22bf
000003a0: 658e 0ebf ddbc 18bf 81fd bf3e ecf4 46bd
000003b0: 1d30 9c3c 8d46 113f 58fe db3e df81 44bf
000003c0: 5669 88bf 22cc 90be 97ed 283f 82cf 953e
000003d0: 6464 7f3e 2793 76be d53f d13d 21c9 063e
000003e0: b639 babd a037 28be de25 81bd e05d a3bc
000003f0: 3d69 c6bc 8c12 0b3d f558 a93d 7ee2 553e
-0.06620113 -0.0039747604 0.20615974 0.13081871 -0.21681571 -0.55579865 -3.481638 -0.26821682
0.05755279 0.25028902 -0.04101799 0.21883568 -0.16970497 0.0202539 0.073160276 0.20320903
-0.052391928 -0.16232789 -0.39981577 0.032612603 0.024437968 0.2702115 -0.23597603 0.0018099102
0.019751597 0.1091762 -0.48416334 0.16408338 0.2301549 -0.17291602 0.068740614 -0.07013443
0.1426618 0.0774039 0.32520807 -0.44234133 0.07620404 0.13458921 -0.22786124 -0.13591969
-0.025603436 -0.23049504 -0.20563106 0.2452935 0.7691298 -0.7845127 -0.58594126 -0.5407022
0.34004098 -0.29273033 -0.2257691 -1.1608146 -0.56739986 -0.54773396 -0.66110843 0.9352116
-0.032353446 -0.9640516 -0.26417017 0.28235224 -0.7729475 0.2586101 0.084746376 0.37187418
-0.36812696 0.17026527 0.076849535 0.68386084 -0.1689083 -0.57557666 -0.24343356 -0.101108596
0.08882856 -0.048638456 0.37915695 -0.04561063 -0.018285241 -0.37904173 -0.7593684 -0.40722325
-0.16227554 1.0019057 -0.32399216 -0.27670142 -0.21402419 -0.26116228 0.0054113986 -0.57818
0.22563797 -0.37921268 -0.40199444 0.3600622 0.12301524 0.5092569 -0.5840916 -0.170805
-0.02436512 -1.2134831 0.68046224 0.6971992 -0.0053816247 -0.32826257 0.18019879 -0.23585749
-0.07671553 0.57611096 0.2047668 -0.12825863 -0.082422115 0.13981633 0.076531105 0.17087866
-0.055864096 0.50045407 0.28870377 -0.23546863 -0.2522183 0.020080836 -0.09422633 0.49699357
-0.48926657 0.15154149 -0.34382385 0.61886334 -0.023752095 -0.20553969 0.34725857 -0.23500462
-0.41688043 -1.3157282 0.19956872 0.06484225 -0.77186906 0.4659991 0.18167213 -0.36588156
-0.2092075 -0.4632215 -0.40298235 0.6708077 0.037733763 -0.35820946 -0.22898538 -0.39935127
-0.004446942 -0.09783556 -0.8181708 0.18146153 0.039197177 0.7515614 -0.20919113 -1.2074193
0.33164424 -0.5204019 0.17712112 -0.2833143 -0.3270537 -0.08712458 -0.120952345 0.80688345
-0.13612743 0.03942516 -0.16754007 -0.6195824 -0.2759066 0.23996432 -0.19964154 0.06263844
-0.44369298 0.4092687 0.9346591 -0.8293488 -0.39189938 0.011925733 0.59466547 0.41501966
-0.9740237 0.0008778062 0.5531866 -0.16816461 -0.012288741 0.04680154 0.10828364 0.015247155
0.016821882 -0.20916982 0.5603881 -2.2194393 0.5351331 0.27809247 0.1836557 0.17869534
0.42849335 -0.009938125 0.11937217 0.037495043 0.24181557 0.19241919 0.7326228 -0.51239616
0.15711215 -0.8106712 0.31777483 0.06447965 0.40958998 -0.5217465 0.50336194 0.088218115
0.03713593 -0.062881894 0.4579391 -0.18295938 -0.07093095 0.009598278 0.15407775 -0.6152424
-0.014887212 -0.023520228 0.24173805 -0.01984004 0.040504396 0.54029554 0.58392215 1.0531368
-0.18853295 0.27893347 -0.19186154 -0.19993812 1.0118281 0.13043603 -0.20019984 -0.63363475
-0.55686027 -0.5966318 0.37498096 -0.04857342 0.019065911 0.56748277 0.42967486 -0.7676067
-1.0657146 -0.2828074 0.65987533 0.29259878 0.2494064 -0.24079572 0.10217253 0.13162662
-0.09093039 -0.16427469 -0.06306051 -0.019942224 -0.024220103 0.033953235 0.0826892 0.20887181

fc1.bias f4 [16]
00000000: 199b c5be 744c 983d 8ecd 303e 8dad f43e
00000010: a358 a8bf 0740 95bf 837b 3a3e b9fd 9abe
00000020: 2b4f 143e d0e0 0cbf 8b15 87bf a600 45bf
00000030: 9b95 d93e 192a 09be 201b 63bf 6967 5a3e
-0.38594893 0.07436457 0.17265913 0.4778866 -1.315205 -1.1660165 0.18211178 -0.302717
0.14483325 -0.55030537 -1.0553449 -0.76954114 0.42496952 -0.13394965 -0.88713264 0.2132851

fc2.weight f4 [16, 16]
00000000: 8a90 353f 63d3 dabe 9869 063e 1677 573d
00000010: 2418 7bbf ce20 633f 388a 553f 5f38 40be
00000020: 84a6 fbbe bdfb f33d 314d 36be 54d8 e3be
00000030: 60f8 91bd 5ff6 8abf 4a15 2abf 3a4e adbd
00000040: 9103 593d 3180 3e3e b13c 07bf 90d0 c9be
00000050: dc8b c33e f3fe 293e 11f8 083f 24b7 bfbe
00000060: 46ce d73c 5d64 9fbe 7495 d7be 4702 d23d
00000070: c9ea 5d3f 5df5 a53d 1886 713f 3cf3 2c3f
00000080: 0d3f 923d bdc6 283c 930f f03d 33d5 8cbf
00000090: a6fa 253f 1363 09c0 67e3 013f b77c e23d
000000a0: 6915 5cbf b9f5 ef3e 8d9c 773e 84c5 e5bf
000000b0: 2815 d93d 5806 523e 4732 e83e a1fd 83bf
000000c0: e223 ff3e d80c ad3d c7e2 15bf 89b6 24be
000000d0: f0bc 6ebe a608 1cbf 4dcf 883d e8bc 58be
000000e0: f86e c03e 0512 77be 9e0f 30bf 7652 58bf
000000f0: d86a 06bd fb7e a7bf fa8d 75bd 380d 8a3e
00000100: 0cea b8be 947a 31bf 1153 e4be ac17 023f
00000110: d61c ac3c de1f d1bf 6d8c fe3e f767 2b3e
00000120: bf25 c63e a316 cebf 00ac eabe 21c8 213e
00000130: da2d 83bd 5e94 273e 3cc7 44bf a0d4 ab3c
00000140: ffac 09bf 96b0 dabe 2fe9 c3bf bba9 583e
00000150: 8657 52bc 67c7 bdbc de42 0b3f 496b a13e
00000160: b50f cb3e 3b5c ac3e a88e 7dbf 84b8 943d
00000170: c3d4 353f 194c 50be 03e1 bb3e f6af 9b3e
00000180: 7900 7b3d cac1 083f 1968 873e 8026 06be
00000190: 888b d1bf 26d2 08bb 930a 3ebf 5842 073e
000001a0: b6d1 f5bb b36b 9f3e 3d3f 2e3f 9dd0 193e
000001b0: 7890 02c0 cbed 1cbc 72c5 b0be c7e1 503c
000001c0: 760d 813e d92c 79bd 3e1a 1ebd cc90 833e
000001d0: 3034 433d d6a3 f43e 2c2a 13be c0db d83e
000001e0: d68e 4bbf 05dd 8a3f 14da b13d 2228 eebe
000001f0: f9ed 563e c622 bbbe f053 593d 2d08 9cbe
00000200: b735 5bbf a7ac 423f e673 4bbf 92ae d83e
00000210: 8afa 673d 0e2e 9fbf 4b2a 833e 90f8 ff3c
00000220: bc8a f9be 0b4e c23d 4300 74be 1717 3abf
00000230: 7128 09bf fccf 803e 8e54 133f 494e ab3e
00000240: c76e 76bf 7895 23bf 0f1a 55bd 2912 8e3e
00000250: df13 b2bc 45e3 51bf da25 db3c a275 42bf
00000260: 12d0 b53e 1769 cb3e 6366 45bf d740 b63e
00000270: 74c2 d13e 8b3a da3d 0bbc 183e c409 c03e
00000280: bd0d 2e3d b949 113f 6021 6e3e a584 6dbd
00000290: 34ff 0f3e a32f bf3d 2c49 61bf ebc2 573e
000002a0: 49be 25bf 839d cb3e 1962 d53e ced5 a4bc
000002b0: 5ee8 d3be 1dc8 db3b ccf0 b3be 5409 8abe
000002c0: a2a9 4dbd 408f 76be a3ea 0c3e 23c8 473e
000002d0: 8a3e 913e 7614 14bf 2836 093f 80e6 54bd
000002e0: 9d3f 013e ef53 c6be c440 0c3e f999 053f
000002f0: 53d1 333f 9fdb 293e 0c1c 913e 25b3 b83e
00000300: ba7d a3bd c7d2 7fbf 93e5 c2bf 97f0 1bbe
00000310: e253 4a3d 0e69 833e ee16 b6bc 8fce 25bf
00000320: 1002 c23e 52e6 f33e 3e8b 5c3f 7a7f d43e
00000330: 41a3 a2be e453 263f 90eb e2bd c0e3 ea3d
00000340: fe9a dcbe e7cf a8be 05ba 033e b172 053f
00000350: b9c1 633e 5f01 90bd 2fc1 883e 4681 0abe
00000360: 5b67 353e 888c a7bf e9dc 2dbf d57d 523e
00000370: 794d 9a3e 350e 0b3f 01b9 41bc b31d e8be
00000380: ec8f 0dbe ad2d 093f 8489 493e 3f43 bfbe
00000390: e0f1 62bf 805d f83c ed45 69bf 6ba8 c23e
000003a0: 3280 113e 2d55 ce3d 5c80 623e ba63 dabe
000003b0: dec4 223e 4f41 db3e 05f2 1fbf ffe8 4bbe
000003c0: 68cf 1a3f f278 063f 5dcf 083e 7cee 0a3e
000003d0: 7657 42bf 090a d13e d98e 8abe 1841 273f
000003e0: 948c 763d 2482 e93e 7fd0 f43e 3695 2e3e
000003f0: 76ab ddbe 3bf1 dabe 8753 a9be 598b 08be
0.70923674 -0.427394 0.13126218 0.052603804 -0.9808371 0.8872193 0.8341403 -0.18771504
-0.4915048 0.1191325 -0.17802884 -0.44500983 -0.07127452 -1.0856436 -0.66438735 -0.08462186
0.052981917 0.18603589 -0.5282698 -0.39416933 0.38192642 0.16601162 0.5350352 -0.37444413
0.026343476 -0.3113126 -0.4210621 0.102543406 0.8668638 0.0810344 0.94345236 0.67558646
0.07140932 0.010301289 0.117217205 -1.1002563 0.64835584 -2.146672 0.50737613 0.11058944
-0.8597017 0.4686716 0.24180813 -1.7950902 0.10599738 0.20510232 0.4535086 -1.0311776
0.49832064 0.084497154 -0.5854916 -0.16085257 -0.23314261 -0.60950696 0.066801645 -0.21165812
0.37584662 -0.24127968 -0.6877383 -0.84500825 -0.032816738 -1.3085626 -0.059949853 0.2696321
-0.36116064 -0.69327664 -0.44594625 0.5081737 0.021009844 -1.633785 0.4971651 0.16738878
0.38700673 -1.6100658 -0.4583435 0.15799 -0.0640523 0.16365191 -0.7686651 0.020975411
-0.53779596 -0.4271285 -1.5305537 0.21158497 -0.01283825 -0.023166372 0.54398906 0.31527165
0.3966042 0.33664116 -0.990458 0.07261756 0.71027774 -0.20341529 0.36695108 0.30407685
0.061279748 0.534207 0.26446608 -0.13100624 -1.6370707 -0.0020877211 -0.74234885 0.13208902
-0.007501806 0.31136855 0.68065244 0.15020986 -2.0400677 -0.009578179 -0.3452564 0.012749142
0.25205582 -0.060833786 -0.038599245 0.2569641 0.04765719 0.47781247 -0.14371556 0.42355156
-0.79514825 1.08487 0.08684173 -0.46514994 0.20989217 -0.36549968 0.053058565 -0.30474988
-0.8562884 0.76044697 -0.7947372 0.42320687 0.056635417 -1.243593 0.25618204 0.031246454
-0.48738658 0.09487542 -0.23828225 -0.7269148 -0.53577334 0.2515868 0.57550895 0.33458164
-0.9626278 -0.63899946 -0.052026805 0.2774823 -0.02173799 -0.8198741 0.026751447 -0.75960743
0.35510308 0.39728615 -0.77109355 0.35596344 0.40968668 0.106556974 0.14915483 0.3750745
0.04249357 0.56753117 0.23254919 -0.057987828 0.14062196 0.09335258 -0.88002276 0.21070449
-0.6474348 0.3976861 0.41676405 -0.020121481 -0.4138822 0.006707205 -0.3514465 -0.26960242
-0.050210603 -0.24078083 0.13761382 0.1950994 0.28368026 -0.5784372 0.5359826 -0.051977634
0.12621923 -0.3873591 0.13696581 0.5218807 0.7024128 0.16587685 0.2834171 0.36074176
-0.07982965 -0.99930996 -1.522631 -0.15228496 0.049396403 0.25666088 -0.02222773 -0.6476831
0.378922 0.47636658 0.86149967 0.41503507 -0.31765178 0.64971757 -0.11080086 0.11469221
-0.43087 -0.32971117 0.1286393 0.5212813 0.22241868 -0.070315115 0.26709887 -0.13525876
0.17715208 -1.3089762 -0.6791521 0.20555814 0.30137232 0.54318553 -0.0118238935 -0.4533516
-0.13824433 0.5358532 0.19681364 -0.37355992 -0.8865032 0.030318022 -0.91122323 0.38019118
0.14209059 0.1007484 0.22119278 -0.4265421 0.15895411 0.42823264 -0.6247867 -0.199131
0.60472727 0.525283 0.13360353 0.13567537 -0.75914705 0.4082797 -0.2706211 0.653337
0.06019266 0.45607102 0.4781532 0.17049107 -0.43294877 -0.4276217 -0.3307154 -0.13334407

fc2.bias f4 [16]
00000000: 24b3 45bf 2de6 40be 6360 2abe f2be 1a3f
00000010: 5561 ba3e 15cf 9ebe 63e0 9bbe f897 1a3f
00000020: 5a56 f1bd 370e 79bf 9243 11be 811c c33e
00000030: af0f e4be 7058 1a3e 0e6b 1e3f 6b04 af3c
-0.7722647 -0.18837805 -0.16638331 0.6044761 0.36402383 -0.31017366 -0.3044463 0.60388136
-0.117840484 -0.97287315 -0.14185932 0.38107684 -0.44543216 0.15072799 0.618821 0.021364411

fc3.weight f4 [16, 16]
00000000: 2ec6 53bf 2578 ccbe 1d71 653f a974 1bbe
00000010: 2836 a3bf 5a4c 38bf dd67 ff3e 05ce 573e
00000020: 7370 68bf 89fd 0fbe 1c37 ab3c 7b42 f9be
00000030: efa3 87bf 495d ae3e 5c43 a13e c122 2f3d
00000040: 1ab1 333f 61fa afbf 7d01 873f 82f2 77bf
00000050: a020 dcbe 7336 87bf 6bea 203f 73ac 963e
00000060: 0899 6bbf fa33 03bd 36a6 533e 529c 5abf
00000070: 946c 31bf 6573 c7be 32d1 983d 6cd3 833e
00000080: 659c abbf c72c e23d 6470 89bf 88ec ad3e
00000090: 7f60 b83e 1b9f 403c 406d e03e ca9d c9be
000000a0: 60a5 303f f44c 083f da16 54be 7821 b93d
000000b0: 3aab 9b3e 7650 b33e fedf 1abf 4e00 40bf
000000c0: b88c 21be 091f 493e fc31 f23d e10e 0d3c
000000d0: 3549 9e3f 601b febd 0c00 29bf d25d 13bf
000000e0: 4c6e e23d 6346 363e 8e27 62bd 45a3 64bd
000000f0: bebe 003f bc6b cfbd d799 b73e ea34 dcbe
00000100: 3e83 c63e f951 25be a198 063f 3ffe 5abe
00000110: 8e86 223d cb27 c4be e32c ff3e 3f88 6d3e
00000120: 7000 a7be c9a8 0bbe 0b05 0a3e 6768 b3bd
00000130: 6239 8ebe c2c9 65be 12c8 8d3d a46c 9b3e
00000140: df49 01c0 9a16 d83e ce02 3fbf ae7b 9c3e
00000150: 24b6 af3f c53e a53e 0360 c5be 4400 9dbf
00000160: ff3f 683f 27ef 383f cfa3 7abf 74f6 d1bd
00000170: 65aa 843f 21e8 cf3e f7e7 e6be a10c 9ebf
00000180: 7299 fd3e 7663 05be 2c44 aa3e 77ed 223c
00000190: 1f02 2fbf bd09 90be 1683 7c3e ec26 03bc
000001a0: efc5 e7be 44e8 a23d 1b04 873d 21bf f4bd
000001b0: da58 c53c 5708 86be cb09 b33e 1e41 d5bd
000001c0: 0354 443f a55c 02be ede8 0a3f 8812 17be
000001d0: 04f5 9ebd b58e c8be 78f1 d03e e9e8 d03e
000001e0: e754 b0be 23ef 59be 64b2 353e 9959 71bd
000001f0: 490e 85be a9c4 62be 29e0 b43d d14a c03e
00000200: e88d 4fbe 764c a0be 77ec 47bd 290d e6bd
00000210: 549e 0f3e e438 91be afd3 77be 1800 41bb
00000220: 11cd b13c 2cf7 6c3e 636b d9bd 2ce3 46be
00000230: 4492 3abe 6500 80bd bfed 933d 1736 80be
00000240: 9b03 d0bd 1ee3 723d 060a c33d 8aef 09be
00000250: 90a6 69be 8607 423e 1797 43be f023 33be
00000260: 44e6 c3bd c5f4 8bbe 3edd da3d 840f d0be
00000270: 6971 9cbd 5f3b d3be e712 f93d 4e69 b6be
00000280: 491f abbe 1a36 04bf ab29 423f baaa 22bf
00000290: 7411 7d3e 796d 20bf f045 043f e3e4 9d3e
000002a0: 4030 12bf b9b0 9abf 2640 1c3e ee73 01bf
000002b0: b50c 77be fccb 52bf 60df b338 f410 f23d
000002c0: 433b 6fbe 1d30 25be 8dc8 813d 9099 a83a
000002d0: 586f 0fbe 6ef5 f2be 5c49 95be f17a 59be
000002e0: f749 b83e 24e7 afbe bd80 2dbe 640e 59be
000002f0: cfd7 96be 9f0f 08bf 19c8 3ebe 6062 e8be
00000300: 8802 56be ee71 863e 2332 0bbf 0882 fc3d
00000310: 781a a03f aabd e13e 3b28 8abe a481 15be
00000320: 6cc8 e03e 8545 be3e 3ca0 243d b331 a83e
00000330: 2b99 0c3f 7f84 e63e 4fa6 c6bd fbf9 94be
00000340: 6f23 4a3f ab98 3bbe 1ce0 b93e 3c29 063e
00000350: 59ec 58be 3d54 dabd f09e 013f 6753 cb3d
00000360: bfa7 3ebf ac0f 023f 8ea8 9abe 23f5 3b3d
00000370: 91e3 c6be 0b98 99be eb00 bb3e 1bcc 513e
00000380: 0cfd 8dbe 0e30 513e c1bd 80be dffd 393e
00000390: 74c8 873f f10e 9d3e beb6 d4be 328d 38be
000003a0: 7d71 473e 112f c43e 236a 873d b5c9 0e3e
000003b0: c8bf de3e 0af3 6f3e 4c5d fd3c 6fa3 7dbe
000003c0: 645c a1be 28bb 61bd a837 77bf 02e4 353f
000003d0: d1a8 f33e 8661 89bf 7a57 cbbe 250f 15bf
000003e0: c06e db3c ed23 25be 4008 26bf bd19 183c
000003f0: ba48 a8bf 9157 1f3e 06c8 a7bf d322 67ba
-0.82724273 -0.39935413 0.8962572 -0.15181221 -1.2750902 -0.71991503 0.4988393 0.21074684
-0.90796584 -0.1406156 0.020900302 -0.48683533 -1.0596904 0.34055546 0.31496704 0.042757753
0.7019211 -1.3748285 1.0547329 -0.9685441 -0.4299364 -1.0563492 0.62857693 0.29428443
-0.9203038 -0.03203199 0.20668873 -0.85394776 -0.693063 -0.38955227 0.07461776 0.2574724
-1.3407103 0.11043697 -1.0737424 0.33969522 0.3601112 0.011756684 0.4383335 -0.39378196
0.6900234 0.5324242 -0.20711842 0.09039587 0.30404073 0.35022324 -0.60498035 -0.75000465
-0.15776336 0.19640745 0.1182594 0.008609504 1.2366091 -0.12407565 -0.66015697 -0.57565033
0.11056194 0.17800288 -0.055213504 -0.05581977 0.5029105 -0.101279706 0.35859558 -0.4300912
0.38772005 -0.16144551 0.52576643 -0.2138605 0.039679103 -0.3831161 0.49838933 0.23196505
-0.3261752 -0.13638605 0.13478486 -0.087601475 -0.27778155 -0.22440246 0.06922926 0.30356324
-2.0201337 0.42204744 -0.74613655 0.3056311 1.372746 0.32274452 -0.38549814 -1.2265706
0.9072265 0.7223992 -0.979062 -0.10252085 1.03645 0.40606788 -0.4509885 -1.2347604
0.49531132 -0.13026223 0.33255136 0.009944311 -0.6836261 -0.2813243 0.2465938 -0.008004885
-0.452682 0.079544574 0.0659258 -0.119505174 0.02409022 -0.26178238 0.3496841 -0.10412811
0.7669069 -0.12730654 0.54261667 -0.14753163 -0.07761577 -0.39171377 0.40809226 0.40802696
-0.34439775 -0.2128263 0.17743832 -0.058923338 -0.2598746 -0.22145332 0.08831818 0.3755708
-0.20268977 -0.31308335 -0.048809495 -0.11232979 0.14025241 -0.28363717 -0.24201845 -0.0029449519
0.021704229 0.23141164 -0.106161855 -0.19422597 -0.18219858 -0.06250075 0.07223081 -0.25041267
-0.10156938 0.059298627 0.09523396 -0.13470283 -0.22817445 0.18948182 -0.19100605 -0.17494178
-0.09565404 -0.27335182 0.1068673 -0.40636837 -0.07638819 -0.41256234 0.121618085 -0.35627216
-0.33422306 -0.5164505 0.7584483 -0.6354176 0.24713689 -0.6266704 0.51669216 0.3083869
-0.57104874 -1.2085181 0.15258846 -0.5056752 -0.24125941 -0.82342505 8.576992e-05 0.1181964
-0.2336245 -0.16131635 0.0633708 0.0012863148 -0.14007318 -0.47452873 -0.2915753 -0.21238305
0.3599393 -0.34356034 -0.16943641 -0.21196896 -0.29461524 -0.53148836 -0.18631019 -0.45387554
-0.20899403 0.26258796 -0.5437338 0.12329489 1.2508078 0.44090015 -0.26983818 -0.14600235
0.4390291 0.37162414 0.040191874 0.32850417 0.54921216 0.45022961 -0.096996896 -0.2909697
0.7896032 -0.18319957 0.36303794 0.13101667 -0.2118391 -0.106605984 0.50633144 0.09928017
-0.7447471 0.50805163 -0.30206722 0.045888077 -0.38845494 -0.29998812 0.36524138 0.20488016
-0.27732122 0.20428488 -0.2514477 0.1816325 1.0608048 0.30675462 -0.4154567 -0.18022612
0.19476886 0.3831716 0.06612041 0.13944133 0.43505692 0.23432556 0.030928276 -0.24769376
-0.315158 -0.055110127 -0.965693 0.7105104 0.47589734 -1.0732887 -0.39715177 -0.58226234
0.026786208 -0.16126986 -0.6485634 0.00928348 -1.3147194 0.15560748 -1.3107917 -0.000881714

fc3.bias f4 [16]
00000000: 2a59 9b3e ba4a 5fbe 9f26 f03e 72ca 9ebe
00000010: 7971 e8bc cbcc 91bf 39d7 613e 3130 2a3e
00000020: 5dbd b5bd 32d0 bdbe 54d9 b63e e890 babe
00000030: 8001 4a3d 9fec b93d c183 91be 790c 4a3f
0.30341464 -0.2180585 0.46904466 -0.3101383 -0.02837442 -1.1390623 0.22054757 0.16619946
-0.08874009 -0.37072903 0.35712683 -0.3643868 0.049317837 0.09078335 -0.28420833 0.7892528

fc4.weight f4 [2, 16]
00000000: 62cf e33e 11c7 bd3f fb9c 38be 7281 2bbe
00000010: 2898 d93d 131e 42bf 5b56 a73d 664f e93d
00000020: 10e0 413e 9838 103e 8a35 b93e 4857 4f3e
00000030: ccd2 11be ed72 183e b5a4 31be 0972 babe
00000040: 9220 eabe 428d a6bf 7e23 4f3e 98b3 5e3d
00000050: c897 03bd c52c 0c3f ea29 15bb 399e 0dbe
00000060: 0fb2 b33d 0cca 15be 450e 7a3c 2041 e03d
00000070: 79cd cf3d 559e 82bd ef21 9bbd 0fe9 c03e
0.44494158 1.4826375 -0.18028633 -0.16748598 0.106247246 -0.7582714 0.08170768 0.11392097
0.1893313 0.14084089 0.3617366 0.20248139 -0.14240569 0.1488759 -0.17347987 -0.36415127
-0.45727974 -1.3011858 0.20228383 0.054370493 -0.03212717 0.5475581 -0.0022760578 -0.13829888
0.08774196 -0.14627856 0.015262191 0.109499216 0.10146613 -0.06377856 -0.07574832 0.3767781

fc4.bias f4 [2]
00000000: a41f 92bd c3fc f4bd
-0.07134941 -0.11962273
