data/results/1731511461.pth (torch, 14114 bytes, 16 tensors)

fc1.weight f4 [16, 32]
000000 07 4f 4f 3e 49 7b a1 be 7c 9c ef be 62 e3 3f 3e
       0.2024499 -0.31539372 -0.46799076 0.18739083
000010 b9 44 96 3f e1 91 be bd f8 69 d8 3e f5 21 1b be
       1.1739722 -0.09305168 0.42268348 -0.15149672
000020 75 29 89 3f f9 5c ca be cc 44 98 3f a4 65 eb 3e
       1.0715777 -0.39524058 1.1895995 0.45975983
000030 7e 7e 26 bf 14 4b 48 3f 8e 75 a6 bf 4a 82 1c be
       -0.6503676 0.7823956 -1.3004625 -0.15284076
000040 ca 16 bb 3e 74 47 0f bf 29 5c 31 3f c4 44 30 3d
       0.36540824 -0.55968404 0.6928125 0.04303433
000050 be e0 4d 3f 2b e1 73 be 26 ee 71 3e 5a 78 42 3e
       0.80421054 -0.23816364 0.23626003 0.18991223
000060 fa 83 92 3e c4 e0 30 be 1a 63 28 3e 1a d6 36 be
       0.28616315 -0.17273241 0.16444054 -0.17855111
000070 d6 6e 80 3e b7 12 ba bf 9a 5a 11 3d fe ce 40 3f
       0.2508456 -1.4536961 0.035486795 0.75315845
000080 28 f0 24 be 89 5f 43 3d 06 03 1c 40 94 02 ee 3e
       -0.16107237 0.04769853 2.4376845 0.46486342
000090 9d 62 58 3f b7 0d 8b 3d 78 e9 44 bf 4a f4 22 bf
       0.8452547 0.06789725 -0.76918745 -0.63654006
0000a0 14 f2 1f 3f 52 8a 1d be 25 b6 67 bf 4f 26 41 3e
       0.62478757 -0.15384796 -0.90512305 0.1886227
0000b0 3a fb bf 3e f3 c2 ed 3e 79 1a 11 3e 35 b2 20 bf
       0.37496358 0.46437797 0.14170255 -0.6277192
0000c0 32 24 bb 3e e5 22 9f 3d b7 28 f5 be 32 be 71 3f
       0.36551052 0.077703275 -0.47882625 0.9443084
0000d0 a1 42 22 be bd ad b0 be fe cc b5 3e d3 87 13 be
       -0.1584573 -0.34507552 0.3550796 -0.14407282
0000e0 47 e6 b7 bf bc e8 58 be 1f 46 e0 bd 96 09 2c be
       -1.436715 -0.21182531 -0.109508745 -0.16800532
0000f0 e0 05 fa 3e e1 ea 96 be 17 91 b0 3e b1 5c 26 be
       0.48832607 -0.29476073 0.34485695 -0.16246296
000100 b9 27 92 3e 73 a8 73 bf 6a 86 b9 be 03 00 8e 3f
       0.2854593 -0.9517891 -0.36235362 1.1093754
000110 94 73 e3 3e ed 32 90 bf aa c2 73 bf 50 e9 df 3d
       0.44424117 -1.1265541 -0.9521891 0.10933173
000120 c0 ae 12 bf d9 97 89 bf 17 d2 06 bc 8b 13 ec bd
       -0.572979 -1.0749465 -0.0082288 -0.11527165
000130 a5 82 32 bf e0 a7 55 3d 7b 45 19 3f 2e 4b 58 bd
       -0.697306 0.05216205 0.59871644 -0.052806072
000140 f0 35 d9 be 8a 83 e4 be 8f 62 ac bd 93 fe bb 3e
       -0.42423964 -0.44631606 -0.08417236 0.36717662
000150 ba b3 d1 3f d3 c9 c0 3e 5b a0 03 3d b3 3c 94 be
       1.6382973 0.3765398 0.03213535 -0.2895256
000160 c6 9f 3e bf 71 40 45 3f c7 82 6b bf f4 20 52 3f
       -0.74462545 0.77051455 -0.91996425 0.8208153
000170 4a e9 6f bf e5 73 90 be 99 2c b2 3b d0 ee 95 be
       -0.93715346 -0.2821342 0.0054374454 -0.29283762
000180 d8 f2 15 be 35 e8 91 be c8 cc 1d 40 b4 60 07 be
       -0.14643419 -0.28497472 2.4656239 -0.13220483
000190 ed 4e 3e 3f 91 97 3d 3f 86 7b d3 3f 24 bd 5c 3e
       0.7433918 0.74059397 1.6522071 0.21556526
0001a0 dd d5 f2 3d ff dc b6 bd 88 4d 51 be 35 9b a7 bd
       0.118571974 -0.089288704 -0.20439732 -0.081839
0001b0 69 d0 3a 3f b5 94 d9 be 81 25 9e bd 99 e1 e9 be
       0.7297426 -0.42496267 -0.07721997 -0.4567993
0001c0 5f e6 ed 3e 2b 5a d3 be 8f f7 d0 be e6 0c a4 be
       0.46464822 -0.4127973 -0.40813872 -0.3204109
0001d0 84 78 86 3f d7 dc 77 3e f1 46 61 3f b4 70 7b 3f
       1.0505528 0.24205337 0.87998873 0.98218846
0001e0 59 bf 04 3e d4 87 16 be 43 67 1e bf 81 d3 95 3e
       0.12963618 -0.14700252 -0.61876315 0.29262927
0001f0 c2 40 f0 be a8 17 1b 3f 5f 0a 78 3d 7a 09 b2 3c
       -0.46924406 0.6058297 0.060556766 0.021733034
000200 cc 17 f6 bc 34 c4 09 bf 07 27 b7 3f 4b f1 59 3f
       -0.030040644 -0.5381501 1.4308785 0.8513381
000210 28 43 b9 3e 68 0a 17 bf 52 1e f1 bf 60 a9 25 bf
       0.3618405 -0.59000254 -1.8837378 -0.6471157
000220 04 60 2c bd e9 26 90 bf dd c6 90 bf 17 b0 53 3e
       -0.042083755 -1.1261874 -1.1310688 0.20672642
000230 bc bb 57 bf d5 59 6a bf ce d1 f2 3e c9 62 9d 3f
       -0.84270835 -0.9154332 0.47425693 1.2295772
000240 5b 41 2e be 4a 2d 09 bf a3 3e dc 3e 7b 70 48 bf
       -0.17017119 -0.5358473 0.43016538 -0.7829663
000250 1f 37 91 3e 8d 2d ef be 93 cd 5b be 52 1d f5 bd
       0.28362367 -0.4671444 -0.21465139 -0.11968483
000260 b9 ce 98 bb fd 7e 27 bf b6 f3 75 bf 0e b0 41 be
       -0.004663315 -0.65428144 -0.96075 -0.18914816
000270 72 b0 f7 3e 75 dd b2 3e a6 c9 47 bf 91 39 21 3e
       0.48376805 0.34934583 -0.78042066 0.15744616
000280 c3 68 85 bd c1 0c 82 be ae 05 47 3d 82 ce cc bd
       -0.06514122 -0.25400355 0.0485894 -0.10000326
000290 a5 15 10 bf d1 26 23 3f 13 f3 f5 3e ed 4b 96 bf
       -0.56283027 0.63731104 0.48037013 -1.1741921
0002a0 73 2d 84 be 09 32 a8 3d 98 4a 3c bf aa 6d a6 be
       -0.25815925 0.082126684 -0.7355132 -0.32505542
0002b0 1b 07 78 3e 00 12 33 3f 8d 5f 5c 3f f2 40 03 bf
       0.2422146 0.6994934 0.860833 -0.51270974
0002c0 f6 af 8a 3e 44 a1 69 bf 5a e4 29 bf 4b 8f f7 be
       0.27087373 -0.91261697 -0.6636406 -0.4835151
0002d0 1e 2d 4b 3e 2e 3c a8 be 99 36 dc bf 93 a7 ab be
       0.1984143 -0.32858413 -1.7204162 -0.33526286
0002e0 c9 7f 84 3f 4f f7 d7 bd 1d 81 f7 bb 49 b3 17 3f
       1.0351497 -0.10545217 -0.0075532333 0.5925794
0002f0 78 b9 a4 bd 37 12 34 bf 94 6f 5d be d4 f6 f3 be
       -0.08043188 -0.70340294 -0.21624595 -0.47649252
000300 ec 0e 1e be 1b 40 4a be c7 c6 8c bd 95 ae 65 3d
       -0.1543538 -0.19751017 -0.06873851 0.056074698
000310 e8 fb 62 3e 2b aa 52 3f e4 df 82 3e f0 db 37 bf
       0.22166407 0.82290906 0.2556144 -0.71819973
000320 58 28 a9 3e 87 a1 22 bf d0 2a a7 bd 3e 19 85 3e
       0.33038592 -0.6352772 -0.08162463 0.2599582
000330 7a a8 1a bf 23 51 6d be 7b e0 44 bf 17 2f 15 bf
       -0.60413325 -0.23175482 -0.7690503 -0.5827498
000340 43 31 a0 be cc 31 89 3f 4f fc 09 bf 68 28 36 3e
       -0.31287584 1.0718322 -0.5390062 0.17788851
000350 a5 22 bb 3f 46 83 b8 be 2a 5c 51 bf 4b f1 96 3e
       1.4619948 -0.36037654 -0.81781256 0.29480967
000360 40 f9 ff bd 04 d4 05 bf bf ca 5c bf 4d 1d ab bf
       -0.124987125 -0.52276635 -0.86246866 -1.3368317
000370 4e 85 8c 3f 12 f2 d9 3e c5 5a 88 bf 29 4d 9d 3d
       1.0978181 0.42567497 -1.0652701 0.07680733
000380 ff b5 34 3d 74 63 24 bf f8 d7 4d 3e aa 47 d1 3e
       0.044118878 -0.64214253 0.20101917 0.40874988
000390 a6 59 a8 be b6 0f 68 bc b4 dc c4 3d e0 8a 52 bd
       -0.32880896 -0.014163902 0.09612408 -0.051401973
0003a0 86 b3 df be 41 65 8a 3e 6e f5 df 3f 35 e5 48 3e
       -0.43691653 0.27030376 1.7496774 0.19618686
0003b0 8c a5 2e 3f 3a 05 b2 3e 34 19 8c 3f 4a 08 95 be
       0.68221354 0.34769613 1.0945191 -0.29107887
0003c0 ae b4 9d 3e d2 83 5f bf c4 9a f7 3d 7c a3 79 3f
       0.3080191 -0.87310517 0.12090066 0.9751508
0003d0 ed c6 78 bc 67 a7 17 3e 4c de 20 bf c0 2b 9e bd
       -0.015184146 0.14809953 -0.628392 -0.077231884
0003e0 33 93 66 bf d8 df 9b 3e b9 9f c4 3e 21 82 e3 be
       -0.9006836 0.30444217 0.3840311 -0.44435218
0003f0 13 a9 8e 3e 23 05 85 3e 15 98 72 3e 86 d1 8c bf
       0.27863368 0.25980482 0.23690827 -1.1001441

fc1.bias f4 [16]
000000 17 cc e1 bf 62 51 72 bf a9 9a c1 3d 9a 5d 91 bf
       -1.7640408 -0.9465543 0.09453327 -1.135669
000010 57 90 a0 bd ab 4d 8b bf 19 99 e4 be a2 e9 c1 be
       -0.07840031 -1.0883077 -0.44648054 -0.3787356
000020 07 94 8c bf ab e8 34 bf 9c 29 03 bf f1 37 2b bf
       -1.0982674 -0.70667523 -0.51235366 -0.66882235
000030 4c 8c 16 be 5f fb bc bf d3 0f 05 bf b6 63 9a bf
       -0.14701957 -1.4764212 -0.5197727 -1.2061679

fc2.weight f4 [16, 16]
000000 90 da 62 3f 24 69 1c 3f cb 49 5d 3e 70 5f 04 bf
       0.8861475 0.6109793 0.21610181 -0.51708126
000010 d0 7f 53 bf c3 bc 0b 3f 16 09 12 3f 48 0f 59 3d
       -0.826169 0.545849 0.57045114 0.05299309
000020 cc 69 62 3f fc 50 01 bf bc f9 f1 3e 1a e2 d2 bf
       0.88442683 -0.505142 0.47260845 -1.6475251
000030 2b 68 01 c0 56 ea b8 be f5 e8 97 3e a8 27 bf bf
       -2.021983 -0.36116284 0.2966992 -1.4933977
000040 87 5b cd 3f 8f 3f f3 bd 58 dc 67 3d 19 88 1a 3f
       1.6043557 -0.11877357 0.05660662 0.6036392
000050 59 bf 18 be f6 51 57 be 32 02 0e 3f ce bf 3a bf
       -0.14916743 -0.2102736 0.554721 -0.7294892
000060 22 00 2f bf 83 da 44 3f ab 30 55 3f 90 43 97 bd
       -0.6835958 0.7689592 0.83277386 -0.073859334
000070 03 0d b0 bf 3e 7b bf 3e 92 8e a9 be 3b 3b 86 bc
       -1.3753971 0.37398714 -0.33116585 -0.016385665
000080 34 a1 5b 3f b8 14 6c bf e2 20 99 3e fb a4 c4 3e
       0.8579285 -0.92219114 0.299079 0.3840712
000090 3b 10 29 3f 25 b3 04 3e 62 fb 4c 3f 3c 73 8f bf
       0.6604039 0.12958963 0.8007108 -1.1207042
0000a0 58 44 65 3f f4 50 3b 3f cc b0 ac be e0 81 00 3e
       0.8955741 0.731704 -0.33728635 0.12549543
0000b0 12 ab be bf 2e 3f c6 3e f4 03 ef be a0 7d 9d 3e
       -1.4895957 0.38720077 -0.46682703 0.30759907
0000c0 51 97 60 3f 21 d4 87 be f1 c4 9b 3e e2 db 12 bf
       0.8773089 -0.2652903 0.30423692 -0.57366765
0000d0 ef 87 56 bf 02 13 09 c0 ca 0d dc 3d c1 9f a6 bd
       -0.8380117 -2.1417851 0.107448176 -0.081359394
0000e0 16 f4 49 3f 05 4c b0 3e 9c 53 18 c0 a1 48 a6 3f
       0.7888807 0.34432998 -2.380103 1.2990915
0000f0 b5 3a 89 be 52 f2 6c 3f d8 8e e4 be 81 0d cf bd
       -0.26802602 0.9255725 -0.4464023 -0.101099975
000100 c7 4b 97 3f ea 9e 99 3e 06 07 0a be 3b c6 8f be
       1.182 0.30004054 -0.13479242 -0.28080925
000110 7a be 4e 3f 3e fb 07 3e 65 33 a6 3f c0 d2 33 3e
       0.80759394 0.13279435 1.2984434 0.17560863
000120 5d 7a a0 3e b7 bf f8 3d 56 cd 3b bd 4f b6 e1 bf
       0.31343356 0.12145942 -0.04585012 -1.7633761
000130 ae c1 2a be fe 21 6f 3d 09 04 f4 bf 4c 44 9c 3e
       -0.16675445 0.058382027 -1.9063731 0.30520856
000140 86 b9 28 3f 4b e5 a2 be 45 5c 05 3f 08 38 78 3f
       0.65908086 -0.31815562 0.5209392 0.96960497
000150 4d 4c 94 3e 92 93 1d bf 26 71 57 bf a4 dc 27 bf
       0.28964463 -0.615533 -0.84157026 -0.65571046
000160 6e 5d ce 3c 5b 25 4c bf b7 2a 7c 3f bd 24 d8 bf
       0.025191035 -0.797445 0.9850268 -1.6886212
000170 55 62 42 3f 7f e0 0f 3d 3f e8 9e be df cb 16 bf
       0.7593129 0.035126206 -0.31036565 -0.5890483
000180 52 0d 8b 3f a4 ca c3 bf a5 8a 71 bf a4 69 20 bf
       1.086344 -1.5296216 -0.9435218 -0.62661195
000190 25 c0 08 3e 42 55 a9 be 07 ed 08 3f 0e ec a7 bf
       0.13354547 -0.3307286 0.53486675 -1.3118913
0001a0 32 61 ee be 1b 84 37 be bf e8 16 3c 2d 77 95 3e
       -0.4655853 -0.17921488 0.009210764 0.29192486
0001b0 08 e5 bd 3e 1b 87 cf bf 40 3c 83 3f f5 00 7c bd
       0.370888 -1.6213106 1.0252762 -0.06152435
0001c0 50 57 9d 3e 18 a0 6e be 49 de 7b be d4 de 08 c0
       0.30730677 -0.23303258 -0.24596514 -2.1386003
0001d0 69 cf 98 3f 52 3a d6 bf 29 02 0f bf 5b a0 45 bf
       1.1938297 -1.6736548 -0.5586267 -0.7719781
0001e0 2f b4 c9 bf 1d 07 4d 3e dc 1b 77 3f 84 5b 87 be
       -1.5758113 0.20022245 0.96526885 -0.26437008
0001f0 b0 4f 1b 3f 55 07 27 bf 11 68 02 3e 96 e7 a3 3d
       0.6066847 -0.6524556 0.1273501 0.08003156
000200 be 45 c3 3e e1 6b a3 3e bd 35 4c bf e5 e7 9f bf
       0.38139147 0.31918243 -0.797695 -1.2492644
000210 0a 2b db be 41 9d 38 3f 30 a6 0e 3f 35 e7 44 3f
       -0.42806274 0.7211495 0.5572233 0.76915294
000220 2b e4 14 c0 91 59 ac be a5 0e f2 be 52 99 bf 3e
       -2.3264263 -0.33662084 -0.47276798 0.37421662
000230 d3 af e0 be 5e f3 7a bf 0d c0 db 3e 39 e2 8f bf
       -0.43884143 -0.980276 0.4291996 -1.1240913
000240 dd 52 bd bc ae 01 3d bf 4b 3a 65 3f e6 77 15 3e
       -0.023110801 -0.7383069 0.89542073 0.14596519
000250 bc 02 f5 3e c5 be 06 3e 32 a2 74 3f 57 a4 85 3e
       0.4785365 0.1315871 0.9555999 0.26101944
000260 79 97 e7 3d 98 64 9d bf 6d 12 da bd d1 4f d2 be
       0.11308188 -1.2296324 -0.10648046 -0.4107652
000270 fd 95 fe 3e 0f fc 75 be 0e d1 ca be cd 9a 47 bf
       0.49723807 -0.24021934 -0.3961262 -0.7797058
000280 c1 50 ac bf 08 45 7c be a8 f3 26 bc 8c fb cb bd
       -1.3462144 -0.24635708 -0.010189928 -0.09960088
000290 bc a6 9b 3f 39 e1 b1 be ae 12 98 3e 2b ca e2 be
       1.2160258 -0.34742144 0.2970175 -0.44294867
0002a0 39 61 f4 3e 9f e9 98 3f 0f e3 6d be a7 df 4f c0
       0.47730425 1.1946295 -0.23231147 -3.2480257
0002b0 f6 71 e4 3e 4c 0f 31 bf fc 56 1d 3f 83 38 50 bf
       0.44618195 -0.69163966 0.6146085 -0.8133623
0002c0 66 47 07 3f 79 da 28 3e 2a ca e9 3e 66 bb 95 be
       0.5284332 0.1648959 0.4566205 -0.29244536
0002d0 39 4f cc 3e ee 74 b7 3e f3 d2 21 3f e8 30 1e c0
       0.39904192 0.35831398 0.6321251 -2.471735
0002e0 1e 31 c0 bd 0a e3 8c bd 09 75 d3 3e 2f 0b cf 3e
       -0.09384368 -0.06879242 0.41300228 0.4043822
0002f0 7f 27 85 bf 40 e0 59 3f bd 17 dd bf 15 9e 8a be
       -1.0402678 0.85107803 -1.7272869 -0.27073732
000300 ab 34 b6 3e d7 9d d2 bf 22 ad 34 3f a4 4d ae bf
       0.35587057 -1.6454419 0.7057668 -1.3617444
000310 5c 23 53 3e de 5b 7f 3e 7b 3f be bd fd 57 f3 bd
       0.20618957 0.24937388 -0.09289452 -0.11882017
000320 98 29 bc bf 09 16 49 bf 8f 66 ce bf 74 81 3e 3f
       -1.4700193 -0.7854925 -1.6125048 0.7441628
000330 93 15 c1 3e 73 73 28 c0 b4 cd 57 3f b3 f6 20 bf
       0.37711772 -2.6320465 0.84298253 -0.62876433
000340 7a ee 20 bf 22 f8 01 3f 20 2c 1d bf 68 05 ae 3f
       -0.62863886 0.50769246 -0.61395454 1.35954
000350 4c 3f 7e 3d 00 2e 24 c0 84 74 1e 3f 22 2c 3a bf
       0.062072083 -2.5653076 0.6189654 -0.7272359
000360 2f 80 5d bf d0 26 3f bf 22 ab da 3e 20 c4 79 bf
       -0.8652372 -0.746686 0.4270869 -0.9756489
000370 96 63 0a 3f 5f 98 d5 3d 5f 37 3d bf 24 85 1b bf
       0.54058206 0.10429453 -0.73912615 -0.6075003
000380 48 aa 07 3f d9 91 00 3f 17 3b 0c 3f 98 4e 6a bf
       0.52994204 0.50222546 0.54777664 -0.91526175
000390 9b aa ec 3d 2e e2 bd 3d 22 03 6b 3f aa ae e4 3e
       0.11555978 0.09271656 0.91801655 0.44664508
0003a0 70 eb bd 3e ec b0 91 3e 1e a9 41 be 7f 25 3f 3f
       0.37093687 0.28455293 -0.1891217 0.7466659
0003b0 33 2b 61 bf b7 4c 0c 3e 63 96 a5 bd 0e bf 48 3f
       -0.8795654 0.1370114 -0.080853246 0.78416526
0003c0 94 82 27 3e b2 09 1f 3e aa 33 85 bf 22 d2 85 bf
       0.16358405 0.15531042 -1.0406392 -1.0454752
0003d0 18 aa e8 bf 97 ee c8 3d 83 de 88 bf df 58 f1 bd
       -1.8176908 0.098111324 -1.0692905 -0.11784529
0003e0 cc 78 f2 3e 4e 7f 89 bd a8 5f 76 3f 14 c6 a0 3e
       0.47357786 -0.067137346 0.9623971 0.31401122
0003f0 4d 22 18 3f cc 58 4a bf 70 57 97 bf eb 07 95 bf
       0.5942734 -0.79041743 -1.1823559 -1.1643041

fc2.bias f4 [16]
000000 b5 d9 11 bf 5f f5 8b bf ee be 89 be 19 d5 82 3f
       -0.5697282 -1.0934256 -0.2690348 1.0221282
000010 d9 de 01 bf 05 56 ed be 94 5d 21 3e c6 4e d8 3e
       -0.50730664 -0.4635469 0.15758353 0.422476
000020 1e d3 b0 3e c5 4e 99 be 91 9a 7f bf 7b 39 f9 bd
       0.3453607 -0.2994291 -0.99845225 -0.12169167
000030 fc 60 29 3e 67 02 2b 3f 32 69 89 be e5 fa 88 3d
       0.16540903 0.6680054 -0.2683807 0.06688479

fc3.weight f4 [16, 16]
000000 26 e4 d8 3d 79 64 5a 3f 3a 78 22 3e 30 63 39 c0
       0.10590391 0.8530956 0.15866175 -2.896679
000010 10 27 24 3f 55 a6 77 3e d4 cd 82 bf 64 2f c3 3c
       0.64122105 0.24184544 -1.0219064 0.023826309
000020 0e 4a cf be 09 de ef 3e ef 16 b6 bf 95 d1 7c be
       -0.40486187 0.46849087 -1.4225749 -0.24689324
000030 2e 17 20 bd 0d 39 a7 bf 6b c7 f4 3e a8 56 86 be
       -0.039084606 -1.3064286 0.47808394 -0.26237988
000040 70 41 59 3f e3 d8 aa bd a2 38 7a 3e fb 4f a2 bf
       0.84865475 -0.08342149 0.24435666 -1.2680658
000050 48 0f 4e 3f 3c 62 78 3f be cd aa bf 56 4a 29 3d
       0.8049207 0.97024894 -1.3344038 0.041330658
000060 56 1d 76 3e 12 f5 8f 3e 36 c1 1c bf 69 7c 7f 3f
       0.24034628 0.2811666 -0.61232316 0.9979921
000070 11 0c 4b bf 0e ed a0 bf 5a 7f 03 be b7 b8 44 bf
       -0.79315287 -1.2572343 -0.1284155 -0.7684435
000080 cc 16 f2 3f c9 96 74 3e 84 a9 6b 3f ce f0 1c 3f
       1.8913207 0.23885645 0.92055535 0.6130494
000090 4f c6 d6 3e b7 99 22 3f ca 86 df bf b2 be e6 bf
       0.41948172 0.635158 -1.7463009 -1.8026946
0000a0 ca d3 3d 3d a2 06 b8 3d 1a 0a f0 3e 2b 30 5f bd
       0.046344556 0.0898564 0.46882707 -0.054489296
0000b0 ed 17 ae bf 48 aa 17 bf a9 e5 4d bf 7c 37 1f bf
       -1.3601052 -0.59244204 -0.8042856 -0.6219404
0000c0 e4 b9 03 3e df 74 02 bf 8c f9 73 3d f9 1f 5e be
       0.1286388 -0.5095958 0.05956416 -0.21691884
0000d0 68 bd 74 be f8 e9 76 be 7d a3 9a be b7 7a 0b be
       -0.23900378 -0.2411269 -0.30202857 -0.13621031
0000e0 6d 22 f8 bc 26 0f 82 be 65 f4 88 bd 65 9e b4 3e
       -0.030289853 -0.25402182 -0.066872396 0.35277095
0000f0 62 e0 07 bf 69 63 87 bd 68 33 f8 bd 4b 30 49 be
       -0.53076756 -0.06610758 -0.1211918 -0.19647329
000100 00 f5 a0 bf 96 f9 d7 3e a1 1a 26 3f 4d 93 ec 3e
       -1.2574768 0.42182606 0.6488438 0.46206132
000110 e3 5a bd bf ed 48 a8 be 4f e0 09 3f 56 9d 1f 3e
       -1.4793361 -0.32868138 0.5385789 0.15587363
000120 8b eb 59 bf ca cc a7 3e 91 91 81 bf 9e e4 ef bc
       -0.85125035 0.3277343 -1.0122548 -0.029283818
000130 96 49 81 3e da 94 31 bf 77 fd 82 bf f8 39 4f 3f
       0.25251454 -0.69367754 -1.0233601 0.8094783
000140 87 d9 da bd 91 96 71 be 40 44 fa bd 91 2d f7 3e
       -0.10686021 -0.23592593 -0.12220049 0.48276952
000150 2b bb 1e 3d 64 1d 41 3e 57 db 11 bf 2e 54 4a be
       0.038752716 0.18858868 -0.5697531 -0.19758675
000160 58 1a 1e be 77 1a 25 bd b0 5f b9 3f 2b 71 99 3f
       -0.15439737 -0.040308442 1.4482327 1.1987661
000170 e9 71 ea be 04 72 e7 bf e5 b9 cc 3d da f5 d4 be
       -0.45790032 -1.808167 0.09996394 -0.4159382
000180 36 16 eb 3c 87 6d 55 bc ce 0c 56 be d8 57 55 bd
       0.028697114 -0.013026602 -0.20903322 -0.052085727
000190 96 13 e0 3d 96 fc b2 be bc 01 26 be 9e ad 75 be
       0.10941236 -0.34958333 -0.16211599 -0.23992011
0001a0 9f d6 ad bd 91 1f 96 be ad 36 7e be e4 30 11 bc
       -0.08488201 -0.29320958 -0.24825545 -0.008861754
0001b0 f4 25 be bd 7e 4e 23 be 39 a5 9a be a8 9a df bd
       -0.09284583 -0.15947911 -0.3020418 -0.1091817
0001c0 21 19 24 c0 e2 0c 9e bf f6 5a d6 3d ed 58 d1 bf
       -2.5640337 -1.2347682 0.10466568 -1.6355263
0001d0 28 67 2b 3f e8 1e 47 3e 95 b8 df bf fe 78 0e bf
       0.6695428 0.19445384 -1.7478205 -0.5565337
0001e0 f4 da 9b be d7 23 e6 3e 47 7d 1f c0 7f bb 94 bf
       -0.30440485 0.4494922 -2.4920213 -1.1619719
0001f0 ee 25 b9 bf ab cf 87 3e c5 0b 35 bf f6 c9 af 3d
       -1.44647 0.26525626 -0.70721084 0.08583443
000200 c4 1e 27 bf 84 62 91 bf ed 55 30 3e 5b a6 c1 3e
       -0.6528132 -1.135819 0.17220278 0.37822232
000210 17 4f 19 bf 98 a5 5d c0 42 d0 d5 bd 03 b4 8b bd
       -0.59886307 -3.463232 -0.10440113 -0.06821444
000220 f1 b5 12 3e c5 db 41 bf 87 31 25 3f a7 bd 59 3f
       0.14327218 -0.75725967 0.645287 0.8505501
000230 e1 42 69 3f b2 1b 62 3e 78 1d 44 bf 5b e8 42 bf
       0.91117674 0.22080877 -0.76607466 -0.76135796
000240 d6 49 92 3f 1e 58 3f 3f 6c 62 ac bd 9d 19 28 c0
       1.1428783 0.7474383 -0.0841721 -2.6265633
000250 24 2f 22 3f 66 e9 25 bf d0 e0 58 be 69 ad 09 c0
       0.6335318 -0.6480926 -0.21179509 -2.151209
000260 ad 3f 24 bf 64 b2 bb bf 93 20 0e 3e a9 eb 79 3f
       -0.6415966 -1.4663815 0.13879614 0.97625214
000270 94 8f 9f bf df f9 2c bf 97 a2 29 bd cc 7c 8b be
       -1.2465692 -0.67568773 -0.041414823 -0.2724365
000280 91 a4 10 3f 07 68 99 3f 9f 00 92 3e 90 75 89 3d
       0.5650111 1.1984872 0.285161 0.067118764
000290 4d f7 81 3e 36 bc 45 3e 36 38 07 bf 9a 1b 85 bf
       0.25383988 0.19310078 -0.52820146 -1.0399048
0002a0 f3 22 40 3f 84 b0 ba bd eb 96 14 bf 9f b0 ea bd
       0.7505333 -0.09115699 -0.5804278 -0.11459469
0002b0 13 b3 80 bf ca 31 21 c0 83 83 bb be b1 db 30 c0
       -1.0054649 -2.518664 -0.36623773 -2.763409
0002c0 63 8a d4 3e 3b fb 98 3e 55 a1 f1 3e 7a 60 77 bf
       0.4151183 0.29879174 0.471934 -0.96631587
0002d0 81 a9 96 3f 7b be 94 3e 0b 95 99 bf e4 02 3b bf
       1.1770478 0.29051575 -1.1998609 -0.73051286
0002e0 af f9 b9 bf 89 52 37 be 3f fe f2 bc e7 74 5f 3f
       -1.4529322 -0.17902578 -0.02966225 0.87287754
0002f0 f6 54 05 bf 60 f4 90 be e2 d9 ce be 39 8e 71 3f
       -0.52082765 -0.28311443 -0.40400606 0.9435764
000300 75 3c 62 3d 95 30 6e be 5c 0f 91 3d 9f 72 b7 be
       0.055233438 -0.2326072 0.07083008 -0.35829636
000310 37 6f 36 3d 26 91 3a be 68 80 54 be 09 c2 50 be
       0.044539656 -0.18219432 -0.20752108 -0.20386519
000320 83 9a 74 be 35 55 75 bd df 93 90 bc 6f 49 82 be
       -0.23887067 -0.059895713 -0.017648635 -0.2544665
000330 51 cb 41 be 4d 1e 2d bd 38 9d 07 be 72 94 95 be
       -0.18925215 -0.042265225 -0.13243568 -0.29214817
000340 cb e7 b6 be 84 48 02 be 0c 31 8c be 23 0a 01 bf
       -0.3572372 -0.12722975 -0.2738117 -0.5040609
000350 b8 59 1b be ce f1 ab bd 07 08 bd bd 36 09 ce bd
       -0.15170944 -0.0839573 -0.09230047 -0.100603506
000360 64 76 68 be 1a f6 b6 be 3f 65 77 be e7 70 c0 bd
       -0.22701412 -0.35734636 -0.24159716 -0.093965344
000370 82 bf 4d be 6c 36 a0 be 5e 8b 35 be 79 45 1c be
       -0.20092586 -0.3129152 -0.17728946 -0.15260877
000380 93 e7 b6 3f 81 4d 20 bf 88 d3 67 3f cb 27 a1 bf
       1.4289421 -0.6261826 0.90557146 -1.2590269
000390 b3 69 6a 3f 4a 48 23 be fe be 78 bf c9 45 d6 bf
       0.91567534 -0.15945545 -0.9716643 -1.6740047
0003a0 af 8a e9 bf 05 60 d3 be 47 0a 59 3d 0d 6c 12 3f
       -1.8245448 -0.41284195 0.052988317 0.5719612
0003b0 4e d1 b4 bf 44 28 9d be ef 9c 08 3e 41 ec 65 bf
       -1.4126375 -0.30694783 0.13341115 -0.8981362
0003c0 3a 4f fb bd 13 f1 73 3e 99 cf 1a 3f 85 c8 3c bf
       -0.12270971 0.23822431 0.6047302 -0.7374347
0003d0 24 d0 79 3f 1f 25 e3 3e 8f 1b 1d c0 b0 f5 f3 bf
       0.9758322 0.4436426 -2.454807 -1.9059353
0003e0 dd 82 a8 be 7a 65 01 3f e9 71 74 bf fa ec 0b 3f
       -0.3291234 0.50545466 -0.95486313 0.5465847
0003f0 f3 fb 8c be b2 b7 82 bf 44 8a 9a be 50 a8 a7 bf
       -0.27535972 -1.0212309 -0.30183613 -1.309824

fc3.bias f4 [16]
000000 21 83 80 bd 9f 39 83 be ec 18 88 bd 9c 7b 9d be
       -0.06275011 -0.256299 -0.066453785 -0.3075837
000010 65 df e9 3e c0 17 56 bf 35 ca 96 be e9 2f ca 3e
       0.4567825 -0.8362999 -0.29451147 0.39489678
000020 44 e1 64 3f e3 6d d6 bc 0d 0b 16 bf 2c 84 07 bf
       0.8940623 -0.026175445 -0.5861061 -0.52936053
000030 69 27 b4 be 87 a7 65 be c3 d2 05 bf ba c2 25 be
       -0.35186318 -0.22427188 -0.5227472 -0.16187564

fc4.weight f4 [16, 16]
000000 55 06 6e be 31 96 f8 bf bf 82 83 bf 2a 51 76 bd
       -0.23244603 -1.9420835 -1.0274276 -0.060135998
000010 86 c5 01 3f 3a 07 22 be 18 4b bc 3d 20 96 58 bf
       0.5069202 -0.15823069 0.091940105 -0.8460407
000020 7d ed d5 3e b1 1d 86 be 90 fb 96 bf 61 46 15 be
       0.41782752 -0.26194528 -1.1795521 -0.14577629
000030 ea b2 7b 3e 9b fe 11 be c0 e4 c2 bf d0 46 06 3b
       0.24579969 -0.1425728 -1.5226059 0.0020488985
000040 f2 f4 32 bf 1c 16 c2 bf c4 c5 d5 bf 6e ee 6e bc
       -0.69905007 -1.5162997 -1.6700978 -0.014583213
000050 d0 20 b7 bd c5 69 02 bf 8e 6d 47 3e bf a5 57 bf
       -0.08941805 -0.5094264 0.19475386 -0.84237283
000060 97 ee 9c 3e 00 4a 1b bf bf 7b 97 be a8 2e 0f 3f
       0.3065078 -0.6065979 -0.29586598 0.55930567
000070 c6 e5 0f be 6b cf 6a be 3c 09 6b bf d3 85 4f bf
       -0.14052495 -0.22930686 -0.91810966 -0.81063575
000080 15 0e 5a 3e 84 fc 3e 3e 21 37 2b 3f 99 50 ba 3d
       0.21294434 0.18651015 0.66880995 0.09097404
000090 e1 76 7f bf e4 8c 86 3e 3c 3d cf bd 76 9e 4b 3f
       -0.9979077 0.26279366 -0.101191014 0.7953867
0000a0 c9 77 3f bf 17 74 ee 3d 55 df 12 3f a6 c2 46 3f
       -0.7479215 0.11643236 0.5737203 0.7764076
0000b0 a7 82 4b be 13 8e 5a bd 79 5c e8 3f 56 3e 02 3f
       -0.19874059 -0.05335815 1.815322 0.5087637
0000c0 39 22 b3 bf 8b 3f 64 bf 9c 9c 70 3e 59 1c 9f 3d
       -1.3994819 -0.8915946 0.23497242 0.07769079
0000d0 f8 af d9 be d3 7f 6c bf f0 72 53 bd b4 b3 10 bf
       -0.42517066 -0.92382544 -0.051623285 -0.56524205
0000e0 8e c6 5a 3f b5 8b a3 be 60 b0 7f 3e 78 3b 49 3f
       0.8545922 -0.31942526 0.24969625 0.7860637
0000f0 be cd 2e be eb b0 69 bd db 9b 1b c0 16 7d cb bf
       -0.17070672 -0.057053488 -2.4313877 -1.5897548
000100 03 4a 0f bf a7 cc 08 bf fe 5a b9 3d f5 39 f5 be
       -0.5597231 -0.53437275 0.090505585 -0.4789578
000110 12 13 84 be e9 b6 8c bf 48 e6 55 3d a6 00 93 3b
       -0.257958 -1.099332 0.052221566 0.0044861613
000120 3d 3c 55 3e 75 d0 c9 bd dd 7d f5 be b2 e2 02 bf
       0.2082376 -0.09854213 -0.4794759 -0.5112716
000130 8d 73 86 3e 8e ed 35 bd a3 23 1f bf 16 95 8a be
       0.26260033 -0.044416003 -0.6216375 -0.2706687
000140 84 ac 05 bf 4c db 99 bf de 67 f6 be 37 cc 42 3d
       -0.5221636 -1.2020049 -0.4812612 0.047558036
000150 8b ff b8 3e f7 45 8a be f6 ac 6c 3e 56 e1 ac 3e
       0.36132464 -0.27006504 0.23112854 0.33765668
000160 e3 2c 3c 3f 33 cd c4 be 6a 69 2c bf 1f b8 f1 bf
       0.7350599 -0.38437805 -0.6734835 -1.8884314
000170 48 fa 4a 3e 25 db 89 be 64 e2 c7 3e 57 83 a1 be
       0.19822037 -0.26925007 0.3903991 -0.31545517
000180 99 54 26 bf 57 84 2b 3e 78 79 20 3f 8b 70 1c 3d
       -0.64972836 0.16749702 0.62685347 0.038193267
000190 54 6f 94 3e 70 c8 c9 be ec a0 af bd 64 a4 fb 3e
       0.28991187 -0.39410734 -0.08575615 0.49148858
0001a0 53 88 a4 3e f0 f8 8c be 5f f7 ec bf 91 62 db be
       0.32135257 -0.27533674 -1.8512992 -0.42848638
0001b0 b6 4a db bd 34 64 88 3e 75 bc 80 3e eb f7 70 bf
       -0.10707609 0.2663895 0.2514378 -0.9412829
0001c0 57 91 f5 be 68 99 01 bd df 70 84 3f 53 bd f1 bd
       -0.47962448 -0.03164044 1.0346946 -0.11803689
0001d0 8d 0b 49 bf e8 af 40 be 94 f6 2a 3e 2d 71 44 3f
       -0.7853325 -0.18817103 0.16695625 0.7673519
0001e0 ea 11 fe bf 96 86 94 3f 99 65 94 3e c0 bf 83 be
       -1.9849217 1.1603572 0.28983763 -0.2573223
0001f0 b9 22 66 bc 50 1b 23 bd f8 3f a9 3f 87 ca 89 3e
       -0.014046364 -0.03982097 1.3222647 0.2691233
000200 8c dc bb be e5 f3 6d be be 1a ad be c0 b0 c9 3e
       -0.366917 -0.2323757 -0.33809465 0.39392662
000210 cb 57 e8 bd 4f ac d0 bd 9e 25 44 be b3 75 d0 bd
       -0.1134487 -0.10189115 -0.19154975 -0.10178699
000220 72 b6 d8 be 9f 95 a8 be 96 53 a3 be 4d f3 d1 be
       -0.42326695 -0.32926652 -0.31899709 -0.41005936
000230 62 ff 43 3e f2 70 50 3e 6d 0a a1 3d 36 7e ee bd
       0.1914039 0.20355585 0.07863317 -0.116451666
000240 ec 5e 1d be 81 fc e5 bd 7b 88 4b 3a ac df 6c be
       -0.15368241 -0.11229802 0.00077641726 -0.23132199
000250 e1 d8 06 bd 49 16 c3 be 00 7a e6 3a 20 86 bf bd
       -0.032921676 -0.3810294 0.0017583966 -0.09351754
000260 5f b4 75 be 6c 24 ee bc 49 af 84 be bc 16 28 bc
       -0.23994587 -0.029070102 -0.25914982 -0.010259327
000270 10 81 e5 3d f4 7e 28 be 6c 86 6f be 4c 8a 53 be
       0.11206257 -0.16454679 -0.23391122 -0.20658225
000280 48 27 0a bf 17 22 2c 3e 1b 77 81 3f 2d 32 dd 3d
       -0.5396619 0.16809879 1.0114473 0.10800586
000290 93 5c 61 3e bb 5c 08 bf 40 c3 97 3e 75 57 82 3f
       0.2200797 -0.53266495 0.2964115 1.018294
0002a0 2b 1c 0b bf 50 d4 91 3e 3d 95 74 3e 51 85 2f 3e
       -0.54339856 0.28482294 0.23885055 0.171407
0002b0 0b 6e 48 be b3 d3 b4 bd 42 8f a3 3f 6e 22 33 3f
       -0.19573228 -0.08829441 1.2778094 0.6997441
0002c0 1b c2 2d bf af d0 13 bf 13 11 91 bf f6 d3 f2 3e
       -0.67874306 -0.577403 -1.1333336 0.47427338
0002d0 b1 35 19 3e cf bc 92 bf d8 33 47 3d e5 0e d2 be
       0.14961888 -1.146387 0.048633426 -0.4102699
0002e0 88 26 58 3f d7 37 46 be 21 21 cc 3c f6 2e 96 be
       0.84433794 -0.19357239 0.02491814 -0.29332703
0002f0 7a af e3 3d 4b c5 7a 3d 9d 79 33 bf 1e 80 21 c0
       0.11117454 0.06122331 -0.7010744 -2.5234447
000300 d9 ea 82 be de 6d dd bd 0d 13 6c be e4 f0 52 bd
       -0.255698 -0.10811971 -0.23054142 -0.051499262
000310 82 5d 0b be e0 88 6f be d0 0a 8a bd 0f fb ba bd
       -0.13609889 -0.23392057 -0.067403436 -0.09129917
000320 12 60 01 be 71 e7 03 bd c8 90 2a be fd 39 86 be
       -0.12634304 -0.03220314 -0.16656792 -0.26216117
000330 0c b6 dd bd 45 05 47 3e 70 ca 5e be 73 09 2d ba
       -0.10825738 0.19435604 -0.21756911 -0.00066008343
000340 3b 46 b8 be ea 12 bc bc 39 66 6f be 42 bc 38 3d
       -0.35991082 -0.022958238 -0.23378839 0.04510141
000350 5e e1 04 bf 9b 50 fd bd 20 ac 0f 3e 07 1f 34 bd
       -0.51906383 -0.1236889 0.14030504 -0.043974902
000360 e1 02 0d 3d 76 6e c1 3c f1 fa d7 be 9e 5c 95 bd
       0.034426574 0.023612242 -0.4218364 -0.07293056
000370 0c 4d 04 bd 83 8c 93 3d 36 cc eb bd a3 5a 14 be
       -0.03230004 0.07204535 -0.115135595 -0.144877
000380 9d df d4 be bd a5 3d be 4b f4 fd bd ea 48 4d bd
       -0.41576853 -0.18520255 -0.12400111 -0.050118364
000390 6c 6d a4 bd d4 aa 9d bd 1a 9b 18 3e 26 71 58 be
       -0.08028683 -0.076985985 0.14902917 -0.21136913
0003a0 5f d9 9c 3c 89 6e d6 bd 40 70 fb bc 0d 7a 5d ba
       0.01914662 -0.10470302 -0.030693173 -0.0008448668
0003b0 8c d2 57 3e 84 32 55 3d d1 ab b7 bd 48 84 55 3d
       0.21076411 0.05205013 -0.08968318 0.052128106
0003c0 bd f5 9f bc 84 67 29 bd 78 0a 33 3f 3e e5 52 be
       -0.019526357 -0.041358486 0.6993785 -0.20595261
0003d0 63 fc 18 bf fc f3 59 bf d8 4d 3d be c4 23 86 3f
       -0.5976011 -0.85137916 -0.18486726 1.0479665
0003e0 82 ed e9 3e af e8 90 bf 58 e3 f6 bf 3c cc ad be
       0.45689017 -1.1321009 -1.928813 -0.3394488
0003f0 2a 3f 83 bd 5f da 0f 3c bc 5d b8 be da 82 fd bf
       -0.06408532 0.008780091 -0.36009014 -1.9805558

fc4.bias f4 [16]
000000 99 d4 1c 3f 76 f4 34 3f 41 ba af be 1d 42 1d bf
       0.612619 0.7068552 -0.34321788 -0.61429006
000010 53 e5 00 bd d6 2f 4d 3f 89 4b 87 3f 01 13 4a bf
       -0.0314687 0.80151117 1.0569927 -0.7893525
000020 62 65 a6 be 20 15 18 bf 2b 82 d9 be 35 78 b0 3e
       -0.32499224 -0.59407234 -0.42482123 0.3446671
000030 92 b5 db be 8a 5a 2a bf 05 4e b6 be ed 0e 82 be
       -0.42911965 -0.665444 -0.356064 -0.25402012

fc5.weight f4 [16, 16]
000000 ca 28 03 bf 51 fb e8 be a5 e5 33 be cf e2 93 bf
       -0.51234114 -0.4550424 -0.17568071 -1.1553591
000010 5d cc ed 3d 56 d6 eb 3e 4d ec 4c bf 0f f2 d5 be
       0.11611245 0.46061963 -0.80048066 -0.4178624
000020 d2 4b 86 3d 1f 33 6f 3e fb 1d 47 be 89 ea a2 3e
       0.0655743 0.23359345 -0.1944503 0.3181956
000030 a0 1d 12 3e ca c6 2b 3e 6f 87 85 3c 74 5d 34 bf
       0.14269114 0.16775051 0.016299931 -0.704551
000040 5c f8 ff 3d 4a 9b 2e bf c9 22 a3 3d b2 0a 24 bf
       0.12498543 -0.682057 0.07965619 -0.6407882
000050 14 82 40 be 19 b3 a9 be fe 1d 46 bf 9a 11 e8 be
       -0.18799621 -0.33144453 -0.77389514 -0.4532593
000060 ec 50 68 be b3 98 ae 3d 7c 93 bf 3e d5 16 f4 3e
       -0.22687119 0.08525219 0.3741721 0.4767367
000070 ca 78 f5 3b 6d 4b 5f 3e 5f 22 94 3e 90 c0 01 bf
       0.007491206 0.21806116 0.28932473 -0.5068445
000080 92 07 05 bf 73 ab a9 bf bb af 09 3f ad 4b ea be
       -0.51964676 -1.3255447 0.5378377 -0.4576086
000090 b7 ac a0 be 45 30 8e bf 67 29 11 bf ef 7a 9e 3e
       -0.3138177 -1.1108481 -0.567038 0.30953166
0000a0 d6 61 fb 3e 27 6f c1 3c 25 d4 dc 3e bd eb 5a be
       0.4909808 0.023612572 0.43130603 -0.2137899
0000b0 c7 a3 8e bd df a3 36 bd 41 c7 04 3d fe 7c 24 bf
       -0.06964832 -0.044589873 0.032416586 -0.6425322
0000c0 bc e7 ba be 5b 05 12 bf 9b 26 7f 3e 2c 3e 58 bf
       -0.36504924 -0.5703942 0.2491707 -0.84469867
0000d0 a5 0e 80 bd 72 f8 d7 be 49 59 a8 be ff 2b 65 be
       -0.06252793 -0.42181736 -0.3288062 -0.22380064
0000e0 f9 8c 4c 3e 8d f4 2c 3e 34 20 0b 3e cb b9 0e bf
       0.19975652 0.16890164 0.13586503 -0.5575225
0000f0 cb ae dd bd fa 48 40 bd 3c d9 48 3d 3a 05 99 bf
       -0.10824355 -0.046944596 0.049035296 -1.195472
000100 54 87 74 bd d4 ed e5 bd b2 b2 7a be 78 01 6f be
       -0.05969937 -0.11227003 -0.2448223 -0.23340404
000110 b4 33 a9 3d c0 9f 66 be f0 84 f1 bc e0 e3 8f 3c
       0.08261815 -0.22521877 -0.029482335 0.017564714
000120 54 dc 25 3e f2 c8 31 be 34 9e 80 bd a6 33 4c be
       0.1619733 -0.17361811 -0.06280175 -0.19941577
000130 70 ec 4e bd 1c ca 47 be 50 84 c5 3c 10 8e e0 3c
       -0.050518453 -0.19510692 0.024110943 0.02741149
000140 7b 6d 2f be 00 ab 0a be c3 8d 00 3d ac ed c7 bf
       -0.17131607 -0.13541794 0.031385195 -1.5619407
000150 8e d5 b1 3d bd 7e b2 bf 08 f4 85 bf 33 3d 17 3f
       0.086833104 -1.3944927 -1.0465097 0.5907776
000160 41 e4 01 3e 4b 63 84 bd c2 e9 1b 3e 24 73 af 3e
       0.12684728 -0.06464251 0.1522589 0.34267533
000170 8c 98 2b be 33 da c1 3b 92 cd a3 3e 88 20 50 be
       -0.16757411 0.005915904 0.31992775 -0.2032491
000180 ff 48 c0 bd 8c 0f fe be 87 3f ae 3e 02 80 c6 bf
       -0.09388923 -0.49621236 0.34032843 -1.5507815
000190 fa 86 5a 3e 89 b7 48 bf fa 01 73 bf 8d ef 2f 3f
       0.21340552 -0.7840505 -0.9492489 0.687249
0001a0 5d 36 eb bd da dd 8a 3d 1a b7 11 3e 02 48 2d bf
       -0.11484978 0.06780596 0.14230004 -0.67688
0001b0 a0 3b 40 3d 0e 73 09 3e b0 f2 56 b9 d6 71 b6 bf
       0.046931863 0.13422796 -0.00020499039 -1.425349
0001c0 7d 6a b9 3c e1 20 8a bd e0 02 a0 be 23 c2 b7 3d
       0.022633785 -0.067445524 -0.31252193 0.089725755
0001d0 c4 ae 73 3e ad ac d8 3d 34 f3 05 bd a8 90 d7 bd
       0.23797137 0.1057981 -0.03270264 -0.10525638
0001e0 da 37 02 3e f8 97 1e bd 76 42 b6 be 38 fb 3f 3d
       0.12716618 -0.038719147 -0.3559758 0.04687044
0001f0 a6 c6 52 3e 4a 96 04 3e 9f 76 7b 3e 9a 90 55 3d
       0.20583591 0.12947956 0.24556969 0.052139856
000200 3c c6 5e bf 8f 15 02 bf 52 27 a1 bd 86 62 92 bf
       -0.8702123 -0.50814146 -0.07868828 -1.1436317
000210 b3 67 e9 3d 7a 36 a3 bd 90 a1 47 3f b8 07 36 3e
       0.11396732 -0.07969375 0.779809 0.17776382
000220 c8 36 d3 bd ef 85 b4 bc 8c 6c ac bf 73 6b 87 bf
       -0.10313183 -0.02203652 -1.3470626 -1.0579666
000230 f3 04 80 3d de 66 0d bc ac a7 8c 3d e3 15 81 bf
       0.06250944 -0.0086304825 0.06867918 -1.0084804
000240 28 41 5f be 29 ec f7 be 4d 37 c3 be 86 d5 92 3d
       -0.21802199 -0.48422363 -0.3812813 0.071696326
000250 79 fb 33 bf f0 13 0a bf 9a 48 81 be 35 11 c2 bc
       -0.7030559 -0.5393667 -0.25250703 -0.023689846
000260 58 85 7d be a0 de 48 be 6e 2a a4 be 29 70 a1 be
       -0.24757898 -0.19616175 -0.3206362 -0.31530884
000270 14 e8 8e be d2 b5 0d 3e 54 92 b7 bd f4 f1 4b be
       -0.27911437 0.1383889 -0.08963457 -0.19916517
000280 9c fd ac bd ec 9d 9f bd d6 0c 60 be 38 57 94 3d
       -0.0844681 -0.07793793 -0.21879897 0.07243198
000290 e8 f8 0e 3d 44 d4 65 be 31 50 67 be cc 4c e9 bd
       0.034905344 -0.22444254 -0.22589184 -0.11391601
0002a0 5e 41 74 be 68 4d ea bd cc 4b 31 be 5d e4 a7 3c
       -0.2385306 -0.11440545 -0.1731407 0.020494634
0002b0 88 19 33 be ac 95 a0 3d 20 86 6e 3e f0 48 d0 3c
       -0.17490208 0.07841048 0.23293352 0.025425404
0002c0 1c 0f aa be 24 f5 3a 3e 19 e2 24 be 73 e9 52 be
       -0.33214653 0.18257576 -0.16101874 -0.20596866
0002d0 d7 bf 38 3e e4 6e 21 be 42 92 76 3d 5e 97 b5 bd
       0.18041931 -0.15764958 0.060198076 -0.088667616
0002e0 3c 8d 8c 3d ac 6c 67 be 84 61 c5 be 4b f2 75 3d
       0.06862876 -0.22600049 -0.3855096 0.06004552
0002f0 26 2b 1a 3e 76 98 d4 bd d8 64 5b bd a8 c1 97 bd
       0.15055522 -0.10380642 -0.05356297 -0.07409984
000300 6e 33 04 bf 75 00 c3 be 2f 68 66 3e a5 f2 9b bf
       -0.51640975 -0.38086286 0.2250068 -1.2183424
000310 f3 eb 29 be 17 df 67 be 9b 85 b0 bf d9 20 3a 3f
       -0.16593914 -0.22643696 -1.3790773 0.7270637
000320 c9 31 35 be 10 26 70 be f2 13 cb be 98 9d 3c be
       -0.17694773 -0.2345202 -0.39663655 -0.18419492
000330 b2 fe 60 bd eb 92 4b 3e c9 34 c2 3c 76 af 2d bf
       -0.054930396 0.19880264 0.02370681 -0.6784586
000340 f4 0d 46 be 90 24 25 3d 85 5f 4c bd b2 43 74 be
       -0.1934126 0.04031807 -0.049895782 -0.23853949
000350 00 12 44 3d a0 47 c4 bd 02 10 18 be c5 cc 96 bd
       0.04786873 -0.09583974 -0.14849856 -0.073632754
000360 16 e6 17 be bc 6f 65 3e ab d4 95 be 1a 74 f2 3c
       -0.14833865 0.22405905 -0.29263815 0.029596377
000370 7e a0 68 3e c8 4f 11 3d 04 fc 70 be de 4b 57 be
       0.22717473 0.035476476 -0.23533636 -0.21025035
000380 37 bd 9a 3e 64 5a 3d 3f ba 66 39 bf 1a ec db 3d
       0.30222484 0.7396605 -0.72422373 0.10738392
000390 e2 fe 02 bd e8 17 30 3f 06 ae 98 3e c4 3a 4c be
       -0.031981356 0.6878648 0.2982027 -0.19944292
0003a0 7e d8 27 3e 42 04 f9 bd 6b 49 05 bf f5 c9 3f bd
       0.16391179 -0.12159015 -0.5206515 -0.04682346
0003b0 3a b3 20 3e 54 ef 1d be e4 1e 19 3e 6a 59 03 3f
       0.1569337 -0.15423328 0.1495319 0.5130831
0003c0 2f 48 f4 3e a2 2a c0 3e c3 73 a4 bf af 42 ab be
       0.47711322 0.37532526 -1.2847828 -0.33449313
0003d0 22 7f 60 bd 37 6e f9 3e f6 75 1b 3f 23 f5 45 be
       -0.054808743 0.487169 0.6072687 -0.19331793
0003e0 60 13 b5 3d d0 9d a4 bc 5b df d4 bf 36 43 ea 3e
       0.08841586 -0.020094782 -1.6630663 0.45754403
0003f0 8e aa 83 3c 88 36 e3 3d be 33 1a be 54 0a b3 3d
       0.016072538 0.110943854 -0.150588 0.08742204

fc5.bias f4 [16]
000000 d1 73 03 3e 1e 9c 9a bf cf c9 73 bd d4 fe 89 be
       0.12837149 -1.2078893 -0.05951863 -0.2695223
000010 e2 5d 85 be 45 52 c3 bf 51 f3 69 be 32 93 64 bf
       -0.2604819 -1.5259482 -0.22846724 -0.892871
000020 48 a9 c7 be b7 95 ad bd 48 5c 29 be 73 80 b1 be
       -0.3899634 -0.084758215 -0.16539109 -0.3466831
000030 cd 41 e4 be 7f c9 a3 be e6 9b e0 3e a8 40 58 3e
       -0.44581452 -0.31989667 0.4386894 0.21118414

fc6.weight f4 [16, 16]
000000 3e ce 04 be 21 0d 87 be 5c eb b7 bd a3 70 15 bd
       -0.129693 -0.26377204 -0.08980438 -0.036484372
000010 dc 8c a3 3d 42 38 97 bc c0 f9 9b bd 58 1e aa 3d
       0.07985851 -0.018459443 -0.076159954 0.08306569
000020 52 28 4c bc 48 02 71 3e 10 04 f1 bc 80 ac 23 3c
       -0.012460785 0.23536026 -0.029420882 0.009989858
000030 cf 7c a4 bd cc f8 69 3e 59 a9 58 be fe 6c fd 3d
       -0.08031618 0.22848815 -0.21158351 0.12374304
000040 32 89 b9 3d 7a e4 27 3f 60 87 cf be ac f7 5f 3c
       0.09059371 0.65583 -0.4053297 0.013669889
000050 a8 d0 35 3e 81 30 40 3e 77 db 1c bc 38 94 3d 3d
       0.17755377 0.18768503 -0.009573809 0.04628393
000060 a0 5f 53 3f 94 50 1d bd 55 1a 0a be 23 4c 86 bd
       0.8256779 -0.038406923 -0.13486607 -0.06557491
000070 5a 2f dc bd 84 ea 95 bd ff a7 a3 3e 45 96 3c 3f
       -0.10751219 -0.07320121 0.31964108 0.73666793
000080 10 80 cc 3d 2c 3d 02 be ec 67 30 be ff f1 91 be
       0.099853635 -0.12718648 -0.17227143 -0.2850494
000090 90 04 30 be 77 dd f2 3d 0b c9 8c be 18 3d 98 be
       -0.1718924 0.11858647 -0.27497134 -0.2973411
0000a0 94 0b 92 bd 9a da d8 bd 2c 3b c7 3d 46 7b 22 3e
       -0.071311146 -0.1058857 0.09728083 0.15867338
0000b0 2b 1c 9b bd 3a 88 5f 3e 9c ab e6 be 0e ee 5e be
       -0.07573732 0.2182931 -0.45052803 -0.21770498
0000c0 70 e5 02 bf 3d 05 ad 3f 73 43 6d bf 44 99 00 bf
       -0.51131344 1.3517224 -0.92681044 -0.50233865
0000d0 b9 0c 48 be 9f 01 0a 3f 17 dc 2b bf 1a 70 a0 3d
       -0.19536103 0.53908724 -0.67132705 0.07833882
0000e0 cd 0d 80 3f 35 e9 53 be 48 1b 31 3d cb 95 52 bd
       1.0004212 -0.2069443 0.043238908 -0.051412385
0000f0 2c 67 9a bc fa f8 85 3e 24 0a cc 3e 4a e9 25 3e
       -0.018848024 0.26166517 0.39851487 0.16202274
000100 30 94 57 3d e6 09 33 bd df bd 71 be c4 cb 11 bc
       0.052631557 -0.04371061 -0.23607586 -0.008898679
000110 ae f6 40 be 4c 92 39 bd 4f 4b 1b be b0 2e b9 bd
       -0.18844101 -0.045305535 -0.15165447 -0.09042108
000120 f0 f2 68 3d 18 80 47 3e f4 1c ba bd f4 0c f7 3d
       0.05687231 0.19482458 -0.090875536 0.120630175
000130 3f 31 be 3c 7c a5 a5 bd 10 87 cc be 63 74 b9 bc
       0.023216842 -0.08088204 -0.39946795 -0.022638505
000140 a4 a1 fd 3e bb 75 a2 3e b8 31 98 bc 1f 93 63 3b
       0.49537385 0.31730446 -0.018578395 0.0034725142
000150 da 01 74 be f7 e5 8f 3f b3 2f 4b 3d e0 34 4a bd
       -0.23828831 1.1242055 0.049606036 -0.04936683
000160 87 3e 30 3e 51 c5 52 be 18 10 b0 bd d6 79 79 3e
       0.17211352 -0.20583083 -0.0859682 0.24362883
000170 b3 96 3f 3e e2 e5 02 3d 3f 26 14 bc 13 39 83 3d
       0.18709831 0.031957515 -0.009042322 0.064073704
000180 e9 98 65 bc b2 ea af bd f9 82 a5 3d 53 13 dd 3c
       -0.014013507 -0.085896865 0.08081622 0.026986754
000190 f8 be ee 3d e4 9b 8e 3e 3d d4 a5 3e 9f 93 be 3d
       0.11657518 0.2785331 0.32388487 0.093055
0001a0 a9 0e 46 be d1 8c 43 3e e4 a8 9c 3d 08 90 42 bd
       -0.1934153 0.19096686 0.07649401 -0.04750064
0001b0 48 57 91 3e a1 8b 29 3e a6 93 35 bf 32 c8 ce 3e
       0.28386903 0.1655717 -0.7092842 0.40387112
0001c0 ad 49 42 bd 9d ff e0 3c be d0 1d bd 1d ef c7 be
       -0.047433544 0.027465636 -0.03852915 -0.39049616
0001d0 30 de dc bd b6 cb 4c be f6 0d 59 be b4 f8 79 3e
       -0.107845664 -0.19999585 -0.21196732 0.24411279
0001e0 32 79 97 bd 3f 53 52 3e 40 11 4b bd f3 c8 29 be
       -0.07396163 0.20539568 -0.049576998 -0.16580562
0001f0 a5 bb 7b 3e 62 70 0d 3e 14 66 d2 bd cc 84 dd 3c
       0.245833 0.13812402 -0.10273376 0.027040862
000200 c5 96 15 be 5f 9b b4 bd 0e b0 d6 3e 31 45 2e 3e
       -0.14608295 -0.08818697 0.41931194 0.17018582
000210 58 4b 52 3d 92 8c 14 3f ad 9a 04 3f f9 f4 18 be
       0.051341385 0.58026993 0.51798517 -0.149372
000220 71 49 ca be bc 7a 53 be 60 ed 85 3c 34 90 12 bd
       -0.39509156 -0.20652288 0.01634854 -0.035782054
000230 04 dd f8 3e 4b c5 32 be b5 ec 7e be cc fe 43 3e
       0.48606122 -0.17458074 -0.24894984 0.19140166
000240 de 7f 07 3e 1d d4 c7 be 42 6b 31 bf 61 c5 92 be
       0.13232371 -0.39029017 -0.6930429 -0.28666213
000250 a6 04 28 3e dc aa db 3e f0 98 ee be c0 62 13 be
       0.16408023 0.42903793 -0.46601057 -0.14393139
000260 84 80 21 3f 98 e4 85 bd 27 f9 a9 bc 7b d8 de bd
       0.63086724 -0.065377414 -0.020748688 -0.10881134
000270 d1 47 fb be 97 28 d8 3d 31 36 2d 3c 7e b7 52 3c
       -0.4907823 0.10554617 0.010572002 0.012861131
000280 b0 fd 87 3d a1 43 cd 3b d3 d4 80 be fc 12 4b be
       0.06640184 0.0062641655 -0.25162372 -0.1983146
000290 00 e0 79 38 58 bf 55 3d f0 aa a8 bc f4 e4 0f be
       5.9574842e-05 0.052184433 -0.020589322 -0.14052182
0002a0 70 aa 6f 3d 4c 75 b5 3d 60 ad 04 3c 80 60 e0 3b
       0.05851215 0.08860263 0.008097976 0.006847441
0002b0 58 3c 1a bd 34 a0 d3 bd e0 89 0d 3c 69 18 72 be
       -0.037655205 -0.10333291 0.008638829 -0.23642124
0002c0 fa 27 5e 3e 92 62 16 bd 42 cb 3f be 27 bd 1c 3d
       0.21694937 -0.036715098 -0.1872988 0.038266327
0002d0 18 25 86 3d b2 70 78 be 62 db 75 be e0 d1 54 3d
       0.06550044 -0.2426174 -0.24009469 0.051957965
0002e0 30 f4 dc bc b8 1a 58 3d 52 1a 02 be d0 66 f4 bc
       -0.026971906 0.052759856 -0.12705353 -0.029834181
0002f0 80 61 49 be 52 38 23 be c4 6e fd bd 00 47 28 bc
       -0.196661 -0.15939453 -0.123746425 -0.010270834
000300 ea e4 41 3e ff ac 21 be c6 78 c6 bc be 80 10 bf
       0.1893498 -0.15788649 -0.024227511 -0.56446445
000310 e8 42 5b be 2d 84 05 3e 04 51 51 bf e3 51 cf 3c
       -0.21412241 0.13038702 -0.81764245 0.025307601
000320 b5 03 ee be 53 4a 88 bc 00 a7 32 be 80 14 6d bc
       -0.46487203 -0.016637003 -0.17446518 -0.01447022
000330 b2 9a 77 be d6 f8 49 be 81 62 4a bf 79 0b c8 be
       -0.24180105 -0.1972383 -0.79056555 -0.39071253
000340 59 6e 85 3e 9c 21 2b 3e 87 fd 25 be 42 e5 3d bc
       0.2606075 0.1671204 -0.16209994 -0.011590304
000350 d8 0a 12 be 88 4d 25 3f 53 a3 d2 be 39 02 49 3c
       -0.14261949 0.6457143 -0.41140231 0.012268596
000360 64 a0 a0 3d 1f 7a 58 3e f8 01 63 3d a0 08 49 bc
       0.07843092 0.21140336 0.0554218 -0.012270123
000370 95 b5 5d be 49 ad 38 be 03 8a 75 be 7c 3a 84 3d
       -0.216513 -0.18034853 -0.23978429 0.064564675
000380 00 56 9f 3a 9a fb 36 bd 62 ee 9a be eb f3 3e 3c
       0.0012156367 -0.04467354 -0.30259997 0.011654834
000390 d8 90 46 be 91 ab 02 be 79 6d d7 bd ec d9 af bd
       -0.19391191 -0.1276076 -0.10518927 -0.08586487
0003a0 70 2b 3c 3d f9 0c f9 bd d4 34 6b be b0 f0 05 be
       0.045939863 -0.121606775 -0.22969371 -0.13080096
0003b0 0d 67 3e 3e 64 c3 24 be 98 d6 fe bd 1b 3a ee bd
       0.18593998 -0.1609016 -0.12443274 -0.116321765
0003c0 93 3f 2a 3e 47 ab c1 bd 03 d6 20 bf 0c c5 b1 be
       0.16625814 -0.09456497 -0.62826556 -0.34720647
0003d0 c8 10 19 bd e7 5c 7e bd 6d 38 76 be 6b 56 98 3d
       -0.03736952 -0.062100317 -0.24044962 0.07438358
0003e0 d7 41 11 3f 38 5b 4b be 6b 90 82 bd 5b 38 0c bd
       0.5674109 -0.19859016 -0.06375202 -0.034233432
0003f0 6b e1 5f 3d f6 46 20 be c3 02 9a bd 51 bb d5 be
       0.054658335 -0.1565207 -0.07520058 -0.41744474

fc6.bias f4 [16]
000000 fe f7 41 be 8e 5c c7 3e ee 60 3c be 6c 41 19 3e
       -0.18942258 0.389378 -0.1839635 0.14966363
000010 22 57 86 be 37 df 0e c0 e9 48 20 be b2 57 39 be
       -0.26238352 -2.232374 -0.15652813 -0.1809986
000020 02 2b 5b be c3 96 50 be 66 d8 4a be 3f d8 c3 be
       -0.21403125 -0.20370011 -0.19809112 -0.3825092
000030 86 7d b2 be f6 23 b5 bf c4 3d f8 bd c0 79 26 be
       -0.34861392 -1.41516 -0.12121156 -0.16257381
