data/results/1731506920.pth (torch, 14114 bytes, 16 tensors)

fc1.weight f4 [16, 32]
-0.014822648 -1.2067398 0.9064548 0.42485136 0.36858878 -0.560186 -0.58592635 0.80200434
-0.1660922 -0.17580675 -0.64880174 -0.37563008 0.026910342 -0.5492915 1.5769184 0.07598
-0.12931986 0.1251017 -1.0879815 0.095156424 1.0234492 0.34873053 0.15632638 0.22556219
-0.48312142 -0.19965358 -0.4940143 -0.48170796 0.625428 0.4493667 0.20373467 -0.34575513
0.7481136 -1.4542546 -0.0074028373 -0.37009093 0.43671706 -0.4075228 0.34381565 0.15802896
-0.29460734 -0.34894377 0.75948083 -0.16308422 0.37475884 0.3400325 -0.44708616 0.0049185995
-0.13003093 -0.30733785 0.048486568 0.58514005 1.2246577 -0.20654082 1.0563444 -0.6548199
-0.5747733 0.20063017 0.10418006 0.04550893 -0.623355 0.3587805 0.30649868 -1.5627464
-0.023556266 -0.018746842 0.43546596 1.2071619 0.10506148 0.18719262 -0.17873023 -0.09825554
-0.4019419 0.03968091 -0.03603784 -0.30189094 0.016070297 -0.69531375 -0.5201147 0.46595898
-0.4170276 -0.17919867 0.6287415 0.2139229 1.5673742 -0.1879677 0.8346413 -0.30265784
1.4854214 0.57284546 -0.033857785 0.6401001 -0.20923151 -0.6916974 -0.4010142 -0.21820992
-0.013893304 0.14914098 -1.59468 1.4961823 -0.33703288 0.706203 -0.5960037 0.67889386
-0.46536946 0.34643364 -0.6923216 -0.10053224 0.23805545 -0.57492673 -0.6470909 0.32957456
0.09819277 0.5649821 0.17124532 -0.45607147 0.46488908 0.6387822 -0.22313978 0.02001235
0.20552927 -0.11281871 -1.4852332 -0.18495192 -0.18384859 1.0695568 -0.26312134 0.066825524
0.17696227 0.044155043 0.55979323 1.0166688 0.5778483 -0.96410036 -0.87885416 -0.5169515
-0.54267544 0.07563254 -1.5215988 -0.6265058 1.0005981 -0.027967107 -0.18192115 -0.20759031
-0.105772056 -0.20954007 -0.18118997 0.659834 0.72489655 -0.28111327 -1.3916986 -1.4070793
-0.80755234 -0.2031323 -0.6986559 0.5431521 -0.5344222 0.3146535 -0.4530669 -0.21515845
-0.06862001 -0.038633745 1.0436233 0.098622896 1.6061528 0.40313414 -0.40982342 -0.38865203
0.0051302677 -0.82276046 1.035331 0.35236531 -0.13255858 -0.075817145 -1.5304397 0.47935754
0.57340723 -0.77680224 0.87530476 -0.6012836 0.5469099 -0.2526634 -1.0431384 0.75633425
0.3982139 -0.24041645 -0.060999833 0.08172532 0.15551282 -0.43731323 0.076456316 0.3258916
-0.14099336 0.051566437 -0.10778642 -0.25957492 0.93386567 -0.88728005 0.49771875 -0.16958977
0.30182353 0.5200734 0.8801466 0.20082116 -0.8466163 0.91623443 -1.9939477 -0.3740361
-0.33955452 -0.16454853 1.0454582 1.1277344 0.07435843 0.33613834 0.36283353 0.624589
0.044998612 0.0034102758 -0.56676 -0.8113218 0.33900815 0.5040301 -0.01891726 0.8073618
-0.03198138 -0.24949488 0.18749486 -0.5564004 0.5411291 -0.7776343 0.57826465 -0.6855096
0.06507433 -0.54367065 -0.3836545 0.2281658 0.69504046 0.026487347 -0.3037297 -0.48697007
0.009234875 0.57797086 0.16262375 0.091839306 1.4878057 0.10797914 -0.32770675 -0.61089593
0.69331276 -0.14320762 -0.76091504 -0.9047278 0.84335446 0.37030038 -0.07509771 0.23086274
00000000: b1da 72bc 7376 9abf 6c0d 683f 1e86 d93e
00000010: abb7 bc3e 5a68 0fbf 45ff 15bf 2850 4d3f
00000020: 1314 2abe af06 34be df17 26bf 9652 c0be
00000030: 1473 dc3c 5e9e 0cbf 76d8 c93f 679b 9b3d
00000040: 6d6c 04be a91a 003e fa42 8bbf 5fe1 c23d
00000050: 6200 833f cf8c b23e 0614 203e c6f9 663e
00000060: b15b f7be fd71 4cbe 71ef fcbe 6da2 f6be
00000070: 0d1c 203f 6413 e63e d29f 503e d106 b1be
00000080: 5f84 3f3f 0425 babf 8093 f2bb 8f7c bdbe
00000090: 6199 df3e d4a6 d0be 9b08 b03e 58d2 213e
000000a0: c6d6 96be c2a8 b2be 566d 423f 8dff 26be
000000b0: 64e0 bf3e bd18 ae3e 7ae8 e4be 342c a13b
000000c0: d426 05be 635b 9dbe da99 463d bdcb 153f
000000d0: 95c1 9c3f 707f 53be 4b36 873f 47a2 27bf
000000e0: 5824 13bf ff71 4d3e 5b5c d53d 9267 3a3d
000000f0: 3194 1fbf 14b2 b73e 65ed 9c3e 1308 c8bf
00000100: 12f9 c0bc fa92 99bc 65f5 de3e 4884 9a3f
00000110: 792a d73d 6caf 3f3e 0f05 37be 333a c9bd
00000120: 54cb cdbe 7388 223d 6a9c 13bd 7391 9abe
00000130: dba5 833c 1500 32bf 3d26 05bf 2d92 ee3e
00000140: a484 d5be db7f 37be 34f5 203f 9b0e 5b3e
00000150: b89f c83f 9b7a 40be 0dab 553f f8f5 9abe
00000160: 4a22 be3f 00a6 123f 76ae 0abd 9add 233f
00000170: c940 56be 1513 31bf bc51 cdbe 6c72 5fbe
00000180: bea0 63bc 6ab8 183e 791e ccbf e782 bf3f
00000190: 938f acbe b8c9 343f b393 18bf fdcb 2d3f
000001a0: e844 eebe c05f b13e fd3b 31bf d9e3 cdbd
000001b0: cfc4 733e 662e 13bf c0a7 25bf ffbd a83e
000001c0: 4a19 c93d aba2 103f ef5a 2f3e 3382 e9be
000001d0: f105 ee3e 3b87 233f c17e 64be f1f0 a33c
000001e0: 4476 523e 7f0d e7bd 1f1c bebf 0964 3dbe
000001f0: ce42 3cbe 3de7 883f d7b7 86be d2db 883d
00000200: 9935 353e ebdb 343d 9c4e 0f3f 3422 823f
00000210: deed 133f 48cf 76bf 96fc 60bf ef56 04bf
00000220: c7ec 0abf 3ce5 9a3d c0c3 c2bf af62 20bf
00000230: 9913 803f 461b e5bc 8a49 3abe 8e92 54be
00000240: 059f d8bd ac91 56be dd89 39be e2ea 283f
00000250: d292 393f 14ee 8fbe 2e23 b2bf 2d1b b4bf
00000260: c0bb 4ebf ea01 50be 1ddb 32bf 040c 0b3f
00000270: e5cf 08bf 431a a13e 62f8 e7be 7f52 5cbe
00000280: a688 8cbd 6b3e 1ebd 7395 853f cdfa c93d
00000290: 6a96 cd3f 9967 ce3e 60d4 d1be 66fd c6be
000002a0: ce1b a83b 6ea0 52bf ba85 843f 3a69 b43e
000002b0: 70bd 07be 0546 9bbd 73e5 c3bf 5a6e f53e
000002c0: d1ca 123f 83dc 46bf f913 603f b9ed 19bf
000002d0: 4a02 0c3f 195d 81be 8f85 85bf 1f9f 413f
000002e0: b1e2 cb3e bb2f 76be f6da 79bd 9b5f a73d
000002f0: c13e 1f3e 85e7 dfbe 2195 9c3d 44db a63e
00000300: 9060 10be 5437 533d 20bf dcbd 01e7 84be
00000310: d211 6f3f c924 63bf fed4 fe3e f1a8 2dbe
00000320: 9d88 9a3e 8823 053f 4a51 613f 10a4 4d3e
00000330: d9bb 58bf 578e 6a3f ae39 ffbf a981 bfbe
00000340: 17da adbe 697f 28be 93d1 853f 9a59 903f
00000350: 3c49 983d 531a ac3e 51c5 b93e 11e5 1f3f
00000360: 7750 383d ef7e 5f3b 2f17 11bf c9b2 4fbf
00000370: 7a92 ad3e 1e08 013f 5ff8 9abc 43af 4e3f
00000380: e8fe 02bd 967b 7fbe a7fe 3f3e 4270 0ebf
00000390: 7087 0a3f 0b13 47bf 2709 143f 8f7d 2fbf
000003a0: b145 853d 002e 0bbf 5d6e c4be 4ca4 693e
000003b0: 2cee 313f fefb d83c 7682 9bbe 2454 f9be
000003c0: e04d 173c e6f5 133f d786 263e 3f16 bc3d
000003d0: 6b70 be3f 2b24 dd3d 2ec9 a7be ad63 1cbf
000003e0: f27c 313f 05a5 12be 54cb 42bf 3e9c 67bf
000003f0: 14e6 573f 0398 bd3e d4cc 99bd 4867 6c3e

fc1.bias f4 [16]
-0.42759076 -1.082581 -0.18251948 -0.7347997 -0.9183317 -1.2346001 -1.0389875 -1.0730417
-0.58119226 -1.3499866 -0.76677936 0.42866087 -0.61091554 -0.38546264 -0.39401948 0.1570499
00000000: 2ded dabe 0492 8abf 63e6 3abe d51b 3cbf
00000010: c917 6bbf 6007 9ebf 8bfd 84bf 6e59 89bf
00000020: 04c9 14bf 5ccc acbf a74b 44bf 7079 db3e
00000030: f664 1cbf 5c5b c5be ecbc c9be b0d1 203e

fc2.weight f4 [16, 16]
-9.045657e-05 0.8356308 -0.049863085 0.6485919 0.43854427 -0.61471736 -0.48267168 0.15447468
0.29774857 1.4779427 0.83498096 0.22546141 0.16061564 0.052263778 0.26003462 0.16500008
0.5588871 0.057909768 0.023061117 -2.8939106 0.2718803 0.037696753 0.09765477 0.23198795
-3.070091 0.34140524 0.5623678 0.97957724 -0.33252868 -0.7189017 -1.1778513 -0.30652937
0.5733053 -0.049310148 -1.8488384 0.05636948 -0.2628747 0.86269784 -1.4680117 -0.77926975
0.6584603 0.16016875 0.32682908 1.2178093 -0.32740945 -0.5057472 0.71562386 -0.7405994
0.40474728 -0.92665714 0.65889764 0.7020152 -0.092711665 0.01738447 -0.26731712 1.3352913
-1.3526673 0.5245882 -1.214995 -0.18301968 0.084109336 0.6553511 -1.4998612 -0.4193445
-0.91800696 -0.1721363 0.6318379 -1.2274132 -1.7318109 -1.9479914 -0.6890885 -0.48615107
-0.26869407 1.0781147 0.3639172 -0.09809445 0.6881913 0.6796754 -0.6731456 0.3698925
-0.5141356 -0.43766534 -0.7013849 -0.023700831 -1.3502795 0.70315075 -0.5270732 -0.11298078
-0.40421635 0.18556355 -0.58588123 0.6290613 1.3644575 0.7264972 0.1166528 -0.18497229
0.6711603 -0.023547525 -0.09959887 0.04581297 0.010718699 0.6900969 0.7723352 0.9542544
0.23908246 0.8830513 0.4248652 0.49532765 -0.22397393 -0.113790445 -0.70376956 -1.4151909
-0.11335225 -0.2943223 -0.56449866 0.3731744 -0.8964766 -0.3548655 -0.6209674 -0.22290903
-2.2678483 0.7453611 0.90230364 -0.10340205 0.9534251 0.48721707 1.2393922 -0.7958719
0.14814499 0.037284464 -0.2899291 0.16171837 -0.046485957 0.4842388 1.3148562 0.16232136
0.6754765 -0.479219 -0.33027655 -1.0629538 -1.1212466 -1.8760626 0.19299583 -1.0315561
0.25546408 0.43683347 0.20309572 -1.0799879 0.27059838 -0.23136525 0.66730076 0.11563581
0.24647576 -0.2633999 0.1310276 1.3326905 -0.5270588 0.4027266 -0.093410715 -0.43343252
0.15574901 -0.02131577 0.26576266 -2.0190651 -2.0631347 0.14272207 0.7487843 1.1263264
-0.39109406 -0.19952404 -0.01331729 0.42371646 -1.2923692 -0.0010500925 0.4543955 0.1431751
0.38352993 0.65999186 0.27163798 0.43860057 0.02338901 0.6606358 -0.1522525 0.007272925
0.37498322 -1.9780283 0.36269176 -0.30725962 0.3296758 0.30097756 -2.104574 0.1903005
0.63057655 0.086484976 -0.25623062 -0.58907354 0.7599399 0.5836808 -0.2549683 0.59414876
-1.6990807 -1.1696362 -1.0659919 0.1702512 -0.5527962 0.94492376 -0.51106316 -1.5702261
0.6783318 -0.44385397 0.00036804326 0.12128751 -0.33336613 0.17501056 0.85505855 0.238437
-1.401344 0.27375087 0.7591419 0.44335848 0.49211016 0.861279 -2.9274435 -0.19415115
-2.0764089 -0.50599885 -1.4337589 -0.42520067 -1.4613065 -1.6915178 0.63490826 -0.7528721
0.3630984 0.31053028 -1.5456508 0.54832786 -0.011690159 0.8440058 -0.11504143 -0.05048488
0.83855426 0.2600843 0.42466563 -0.122469105 -0.7655797 0.07073222 0.77466655 -0.076213725
0.0493392 0.67624986 -0.6931557 0.3512272 -3.2151668 0.30171043 -1.5465286 -3.0497677
00000000: 80b3 bdb8 e6eb 553f 3c3d 4cbd 1e0a 263f
00000010: e088 e03e 1e5e 1dbf be20 f7be 9c2e 1e3e
00000020: 8072 983e 3a2d bd3f 50c1 553f 5bdf 663e
00000030: 6d78 243e 8b12 563d 4223 853e c8f5 283e
00000040: 3a13 0f3f cb32 6d3d abea bc3c d535 39c0
00000050: e533 8b3e e967 1a3d 39ff c73d 408e 6d3e
00000060: 5f7c 44c0 abcc ae3e 56f7 0f3f 93c5 7a3f
00000070: 3341 aabe f109 38bf d5c3 96bf 6bf1 9cbe
00000080: 23c4 123f 70f9 49bd bda6 ecbf afe3 663d
00000090: 8397 86be c4d9 5c3f cfe7 bbbf 397e 47bf
000000a0: db90 283f 4703 243e 2456 a73e 2de1 9b3f
000000b0: 36a2 a7be a678 01bf 2033 373f ec97 3dbf
000000c0: 093b cf3e 6739 6dbf 84ad 283f 45b7 333f
000000d0: 9ddf bdbd e069 8e3c cadd 88be d3ea aa3f
000000e0: 3424 adbf 6a4b 063f f584 9bbf 8369 3bbe
000000f0: 8441 ac3d 17c5 273f 74fb bfbf 53b4 d6be
00000100: 8102 6bbf 8044 30be 21c0 213f e01b 9dbf
00000110: fbab ddbf c857 f9bf 1b68 30bf cbe8 f8be
00000120: 4592 89be aaff 893f 5b53 ba3e bee5 c8bd
00000130: 4e2d 303f 35ff 2d3f 4553 2cbf 8d62 bd3e
00000140: 649e 03bf ac15 e0be f68d 33bf 3f28 c2bc
00000150: f5d5 acbf b001 343f 45ee 06bf 7862 e7bd
00000160: 72f5 cebe 5f04 3e3e 50fc 15bf 290a 213f
00000170: 8ba6 ae3f b8fb 393f aae7 ee3d 6069 3dbe
00000180: 29d1 2b3f bde6 c0bc 7efa cbbd 61a6 3b3d
00000190: 7b9d 2f3c 31aa 303f c2b7 453f 044a 743f
000001a0: 08d2 743e a60f 623f ee87 d93e 969b fd3e
000001b0: 6c59 65be f70a e9bd 3e2a 34bf fa24 b5bf
000001c0: 3925 e8bd 6ab1 96be fc82 10bf b710 bf3e
000001d0: 7e7f 65bf eeb0 b5be b8f7 1ebf 4442 64be
000001e0: 6d24 11c0 fccf 3e3f 5ffd 663f 74c4 d3bd
000001f0: ab13 743f 8474 f93e 67a4 9e3f 43be 4bbf
00000200: 52b3 173e 98b7 183d 9671 94be 8099 253e
00000210: 0f68 3ebd 26ee f73e 354d a83f 9237 263e
00000220: 07ec 2c3f 315c f5be 021a a9be df0e 88bf
00000230: 0285 8fbf d222 f0bf b3a0 453e 080a 84bf
00000240: 30cc 823e a3a8 df3e 53f8 4f3e 0b3d 8abf
00000250: df8b 8a3e 03eb 6cbe 39d4 2a3f 78d2 ec3d
00000260: 2464 7c3e 5adc 86be 192c 063e 9a95 aa3f
00000270: 53ed 06bf 2e32 ce3e 1e4e bfbd deea ddbe
00000280: ab7c 1f3e 699e aebc 0b12 883e 5d38 01c0
00000290: 660a 04c0 bc25 123e 54b0 3f3f 772b 903f
000002a0: 7b3d c8be 0850 4cbe c330 5abc 5df1 d83e
000002b0: 5b6c a5bf 42a3 89ba 87a6 e83e 7e9c 123e
000002c0: 095e c43e 3af5 283f 2214 8b3e 4190 e03e
000002d0: 4f9a bf3c 6e1f 293f 14e8 1bbe b851 ee3b
000002e0: cdfd bf3e 0830 fdbf bcb2 b93e 2251 9dbe
000002f0: 44cb a83e bb19 9a3e 57b1 06c0 22de 423e
00000300: 776d 213f 091f b13d a930 83be 86cd 16bf
00000310: 6c8b 423f 1b6c 153f 348b 82be 221a 183f
00000320: 7a7b d9bf a4b6 95bf 6c72 88bf 5556 2e3e
00000330: 0d84 0dbf 86e6 713f 09d5 02bf 2bfd c8bf
00000340: 27a7 2d3f d440 e3be eef5 c039 9665 f83d
00000350: f7ae aabe f835 333e 1ee5 5a3f d428 743e
00000360: 3d5f b3bf 1329 8c3e 2057 423f e2ff e23e
00000370: ddf5 fb3e c87c 5c3f 3c5b 3bc0 8fcf 46be
00000380: e2e3 04c0 2489 01bf 6985 b7bf e7b3 d9be
00000390: 170c bbbf a883 d8bf 5989 223f 3abc 40bf
000003a0: 09e8 b93e d3fd 9e3e e3d7 c5bf 375f 0c3f
000003b0: 1588 3fbc c410 583f d79a ebbd 3cc9 4ebd
000003c0: 7eab 563f c529 853e c66d d93e 15d1 fabd
000003d0: 08fd 43bf 0edc 903d 8c50 463f f115 9cbd
000003e0: e717 4a3d b61e 2d3f a772 31bf 0dd4 b33e
000003f0: 4bc5 4dc0 ca79 9a3e a6f4 c5bf 652f 43c0

fc2.bias f4 [16]
-0.70432585 0.6007759 -0.14482343 -0.64346176 -0.25267464 -1.0487291 -0.5054778 0.27655494
0.85583997 -1.3761157 -0.14157623 -1.3337312 -0.32848153 -1.5062227 -0.25912222 -0.18543814
00000000: b34e 34bf 73cc 193f 984c 14be e9b9 24bf
00000010: 925e 81be c13c 86bf fe66 01bf 9c98 8d3e
00000020: 5418 5b3f 8f24 b0bf 5cf9 10be b4b7 aabf
00000030: bb2e a8be e8cb c0bf abab 84be 7fe3 3dbe

fc3.weight f4 [16, 16]
-1.7412597 0.24840358 0.21654229 -0.30503315 0.7792774 0.31715348 -0.876569 0.41250008
-0.88726425 -1.0931927 1.1668615 0.2808178 -1.170844 -0.42274094 0.86723214 -0.23761119
-0.023710843 0.73153293 -1.0981551 0.72384167 -1.4453318 0.48995808 0.19777553 -0.5545127
-0.6996873 0.8864676 0.25257146 -0.4182491 0.31989667 -0.25535697 0.11257998 0.88608015
0.32813752 0.3953037 -1.1158725 -0.79147243 -1.4822106 -0.6501141 0.2521148 -1.0533931
-0.24857898 -0.0039748773 0.73511165 -1.2114669 0.52392054 0.037200503 0.49786726 1.615827
0.20238447 0.2643334 -1.0293943 -0.55410177 -1.1475667 -3.175906 -0.056020334 -0.42921993
-2.671633 -0.021519838 1.0001391 0.5995968 0.4669839 0.9176715 -1.0259763 0.99126583
0.0056933565 -0.8113336 0.6819337 -0.39574692 1.0666562 0.049355783 0.6543011 0.22015503
1.6433975 0.26624933 0.22297104 -0.641395 -1.1832223 0.120322034 0.5091675 0.5798991
-0.31245458 -0.20614232 0.92802095 -2.6868749 0.11483223 0.5676669 -1.1401244 -0.84276235
-0.57240903 0.347983 0.35589498 -0.30426067 0.12975968 1.543471 0.59027874 -0.84828484
0.033031005 -0.49723887 -2.7311246 0.11608956 -0.05476267 -1.1884239 0.49591243 -3.2374017
-0.7208909 0.05535641 0.2888524 -0.35512605 0.7181649 1.3637718 -1.1968678 0.20646076
-0.18166825 0.051095724 -0.027912533 -0.0241642 -0.019320266 -0.10199152 0.05044998 -0.26511532
-0.25479835 -0.27580544 -0.18627062 -0.21097094 -0.10226806 -0.17738065 -0.07841325 -0.12576093
0.20906724 -1.4405631 -0.88617855 0.91900027 -0.2697985 0.51797014 -1.0996866 -0.17247067
0.3667437 -2.3055797 0.23649631 -0.33943558 0.1125661 -2.2427826 1.1751562 -1.2052294
0.46241403 0.15512984 -0.51319504 0.13469015 -0.7789676 -1.925966 -0.2833578 -2.1010494
-0.33578536 0.068722375 -0.90169543 0.2441429 0.51529527 0.4552528 -0.06638403 0.32564473
-0.53952837 0.61192846 0.22112969 0.60190916 -1.073728 -1.8673261 0.621294 -1.4691439
-3.0039046 -0.31335354 0.6918566 -0.32273954 -0.25790298 0.26642722 -0.046785958 0.67235506
-1.3885983 -1.085272 -0.620642 0.2161685 0.7924187 -2.6389396 0.67352897 -0.16341043
-0.6624991 -0.8396991 -0.047049187 -1.0313889 -3.0068223 0.79595524 -0.71101975 0.83565986
-0.1296894 -0.27976978 -0.15771128 -0.013488884 -0.22180697 0.0029235422 -0.34408674 -0.281583
-0.004158522 0.038615197 -0.2521946 -0.26128376 -0.40741318 -0.066934645 -0.13226333 -0.36335117
-1.4132107 -1.0797747 0.5516786 -1.3741472 0.2741491 0.821998 0.47232628 0.61422503
0.57068706 -0.4374933 -0.15238738 -0.2685778 -0.53005797 -0.39884388 0.90671986 0.3822637
-0.43124306 -1.6290556 -2.2891245 0.5892166 0.20474806 -0.22038591 0.27294433 -1.8369313
-1.0407113 -0.7523033 0.12279072 -0.068923235 1.3521179 0.6708234 -1.1340879 0.7976062
-0.26316372 1.1646669 -0.043371804 -0.7498129 -1.9120941 -0.2016395 0.3679946 -0.41298646
-0.17677212 0.33912218 0.2276974 1.0228121 0.15550414 0.032939684 -1.4961729 0.7882403
00000000: 99e1 debf 825d 7e3e 43bd 5d3e 4e2d 9cbe
00000010: b97e 473f f161 a23e d366 60bf 3633 d33e
00000020: c023 63bf bded 8bbf b85b 953f 5ac7 8f3e
00000030: 37de 95bf 8071 d8be ed02 5e3f 5950 73be
00000040: 3e3d c2bc be45 3b3f 5990 8cbf b04d 393f
00000050: a200 b9bf c9db fa3e ab85 4a3e 8bf4 0dbf
00000060: b51e 33bf 8aef 623f 0c51 813e bf24 d6be
00000070: 7fc9 a33e 26be 82be 5590 e63d 26d6 623f
00000080: a401 a83e 3f65 ca3e e9d4 8ebf f09d 4abf
00000090: 14b9 bdbf e16d 26bf 3115 813e 96d5 86bf
000000a0: 7d8b 7ebe b03f 82bb 4730 3c3f 5911 9bbf
000000b0: a81f 063f 8e5f 183d 75e8 fe3e 6bd3 ce3f
000000c0: e03d 4f3e b556 873e 31c3 83bf 9dd9 0dbf
000000d0: 77e3 92bf 0b42 4bc0 9475 65bd b7c2 dbbe
000000e0: 09fc 2ac0 5f4a b0bc 8f04 803f 2d7f 193f
000000f0: 8418 ef3e 85ec 6a3f 3153 83bf 99c3 7d3f
00000100: 568f ba3b 8fb3 4fbf 3593 2e3f 579f cabe
00000110: 3188 883f 4a29 4a3d 4780 273f 5270 613e
00000120: d95a d23f d551 883e 8552 643e 7632 24bf
00000130: d473 97bf 666b f63d cd58 023f 4474 143f
00000140: 0cfa 9fbe f916 53be c892 6d3f c2f5 2bc0
00000150: 292d eb3d 9e52 113f 99ef 91bf 46bf 57bf
00000160: 6689 12bf d42a b23e de37 b63e 0ec8 9bbe
00000170: b9df 043e 7590 c53f 821c 173f 3229 59bf
00000180: 854b 073d 1896 febe bfca 2ec0 5dc0 ed3d
00000190: d24e 60bd 461e 98bf 3ce8 fd3e 9731 4fc0
000001a0: 4e8c 38bf 67bd 623d 76e4 933e 15d3 b5be
000001b0: a8d9 373f 1390 ae3f f732 99bf 736a 533e
000001c0: 3e07 3abe c049 513d d3a8 e4bc 00f4 c5bc
000001d0: 8945 9ebc eee0 d0bd a3a4 4e3d 32bd 87be
000001e0: ee74 82be 5f36 8dbe babd 3ebe c408 58be
000001f0: eb71 d1bd 46a3 35be 2097 a0bd 79c7 00be
00000200: b915 563e 5f64 b8bf 99dc 62bf 9a43 6b3f
00000210: 0723 8abe b199 043f 88c2 8cbf 279c 30be
00000220: d5c5 bb3e 9e8e 13c0 172c 723e 80ca adbe
00000230: 0e89 e63d c089 0fc0 856b 963f f544 9abf
00000240: 88c1 ec3e 5bda 1e3e c060 03bf 37ec 093e
00000250: 6c6a 47bf 0e86 f6bf 4614 91be 9877 06c0
00000260: 0fec abbe 51be 8c3d 83d5 66bf 9900 7a3e
00000270: 64ea 033f e516 e93e 5af4 87bd e8ba a63e
00000280: 881e 0abf 58a7 1c3f d26f 623e b816 1a3f
00000290: eb6f 89bf 8b04 efbf 200d 1f3f e80c bcbf
000002a0: f93f 40c0 e06f a0be 841d 313f 1e3e a5be
000002b0: dc0b 84be 2669 883e a2a2 3fbd 761f 2c3f
000002c0: 97bd b1bf 31ea 8abf 65e2 1ebf 465b 5d3e
000002d0: f4db 4a3f 63e4 28c0 656c 2c3f 1055 27be
000002e0: 8b99 29bf 85f6 56bf a6b6 40bd 8d04 84bf
000002f0: c76f 40c0 b9c3 4b3f 6405 36bf ceed 553f
00000300: 4ccd 04be fc3d 8fbe 117f 21be 7b00 5dbc
00000310: 5e21 63be e698 3f3b 232c b0be a62b 90be
00000320: 3644 88bb f82a 1e3d a71f 81be fcc6 85be
00000330: 7698 d0be 0815 89bd 0a70 07be 2a09 babe
00000340: 17e4 b4bf 0f36 8abf cf3a 0d3f 0ee4 afbf
00000350: 455d 8c3e 766e 523f c0d4 f13e da3d 1d3f
00000360: 8c18 123f 1fff dfbe 700b 1cbe 0883 89be
00000370: e1b1 07bf 4435 ccbe cb1e 683f 11b8 c33e
00000380: e4cb dcbe e584 d0bf 0481 12c0 e6d6 163f
00000390: 7aa9 513e d8ac 61be 5cbf 8b3e 9120 ebbf
000003a0: 0736 85bf f396 40bf b379 fb3d a027 8dbd
000003b0: 3312 ad3f 15bb 2b3f cb29 91bf ec2f 4c3f
000003c0: 65bd 86be ce13 953f a2a6 31bd bdf3 3fbf
000003d0: 80bf f4bf 967a 4ebe ca69 bc3e f672 d3be
000003e0: c003 35be 6ca1 ad3e 8229 693e 82eb 823f
000003f0: 7a3c 1f3e c3eb 063d 9882 bfbf 1eca 493f

fc3.bias f4 [16]
0.33153564 -1.1196432 -1.191937 -0.5539431 -1.1732326 -0.85226125 -0.8509283 -0.26088062
0.1692464 -1.5484838 -0.81272656 0.58799523 -0.35852554 1.2352501 -0.21068056 -0.64104676
00000000: 0abf a93e 7850 8fbf 6491 98bf 37cf 0dbf
00000010: 7c2c 96bf cb2d 5abf 70d6 59bf 2592 85be
00000020: ee4e 2d3e b834 c6bf d90e 50bf db86 163f
00000030: a990 b7be ad1c 9e3f a5bc 57be a41b 24bf

fc4.weight f4 [16, 16]
0.8006117 0.08082395 -0.004290538 0.9193857 -1.584528 0.06770584 0.91768736 -0.024932083
-0.1125195 0.1440161 -0.06457681 -0.6099045 -0.012009472 -1.0027791 0.6245737 0.11618251
-1.9806715 -1.1491032 -0.53351235 0.6986256 -1.5752662 -0.3648779 -2.1041281 0.07309142
0.68545717 0.25401866 -1.0570873 -1.0060319 -0.09978244 0.13489589 -0.15806332 -1.9287643
0.46925634 -0.36075538 0.9829384 0.8167147 -0.06986775 0.45890287 0.6499852 -0.09687367
-0.2998845 0.4913847 0.035048924 -1.6272601 0.19304992 -0.82524174 0.90509015 0.42731246
0.18859155 -0.8753282 0.51674676 0.6388178 -2.0906444 -0.74090266 0.9447853 -0.19776832
-1.0645806 0.23566464 1.1088293 -2.5068622 -0.11205205 0.80735517 -0.7342024 -0.10263057
1.4166113 -0.9691805 -0.5045074 -0.51969224 0.49706507 0.77242535 -1.1158526 -0.008583684
-0.6371948 -0.8599585 1.2069846 -0.3321578 0.04352212 0.37249917 -0.31597507 -0.50608534
1.5224419 0.22766617 0.7728937 0.36656138 0.012969989 -0.64049065 0.5077222 -0.1171816
0.29809052 0.35102072 1.1613302 -1.4073448 -0.04101972 -2.0603616 0.20438746 -0.2238877
1.4913023 -0.42914316 -0.91395324 -1.4338958 0.32056457 1.074172 1.0956895 0.17875472
0.8470966 -0.8923401 0.17076106 0.18868673 -0.1376465 0.83267784 -0.8758675 -0.50506806
-1.2590244 -1.067938 0.7423011 0.25882933 -0.09110186 -0.9019967 -0.21641442 -0.14562932
0.46213108 -1.3949069 -0.7959673 0.09051574 -0.17332044 -1.4899002 -1.1655115 -1.3313018
0.5525738 0.36505273 0.03329058 0.7391479 -1.2887528 0.67209566 1.1470352 0.314388
-0.26349312 0.52968055 0.8463778 -0.33862594 -0.08278052 0.043355532 -0.058011334 -0.022704402
-0.16291963 -0.21917602 0.027212353 0.014324635 -0.15411766 -0.22020523 0.037129313 0.007046908
-0.35048875 -0.12010002 0.0018078089 -0.122237146 -0.2211594 -0.011167287 -0.17234376 -0.05010599
0.88489264 -0.3692261 -0.23617597 -0.25872427 0.4197415 -0.6773977 0.074067935 0.041107316
-0.37261674 -0.7275089 -0.37994942 0.82825893 -0.0895365 -0.5229577 1.026256 -0.9496777
-0.26707038 0.43403497 -0.62377715 -1.1119524 -1.3738219 -1.4189227 -0.98945093 -0.1405297
0.7571171 -2.5227451 -0.98274136 1.3724241 -0.14311717 0.1528418 -2.077151 -0.53977793
-0.29193646 -0.16951251 -0.3806182 -0.23997085 -0.1786584 -0.07069035 -0.04986285 -0.22680575
-0.17899927 -0.025614887 -0.19528529 -0.26198953 -0.13029718 -0.03503829 -0.14759211 -0.18717241
-0.011901769 -0.13417475 -0.00029884442 -0.148053 -0.46848938 -0.12633799 -0.18334708 0.053367805
-0.13489899 -0.06565897 -0.36088094 0.050446216 -0.26908004 -0.12361492 -0.04587948 -0.01800845
0.2126889 -0.9040756 0.51980084 0.56972694 -0.63392925 -0.24976501 -0.04235001 0.19919837
-0.85565585 0.34193358 0.3397536 -1.4318877 -0.08650431 0.47386834 1.068078 0.3362448
1.4925835 -0.4597892 -0.02787517 -1.7540733 -0.08453103 0.7770862 0.228918 -0.1477804
0.6214134 -0.98236406 -0.5946408 0.41196722 -0.046713743 0.47592148 -0.9944719 -0.9395324
00000000: e3f4 4c3f 0787 a53d a497 8cbb dc5c 6b3f
00000010: d0d1 cabf 5ca9 8a3d 8fed 6a3f 5e3e ccbc
00000020: a070 e6bd f578 133e d940 84bd b422 1cbf
00000030: 60c3 44bc 115b 80bf 10e4 1f3f 19f1 ed3d
00000040: a586 fdbf d015 93bf 4494 08bf 21d9 323f
00000050: 53a2 c9bf 47d1 babe 09aa 06c0 f4b0 953d
00000060: 1f7a 2f3f bc0e 823e a34e 87bf a7c5 80bf
00000070: bc5a ccbd 2622 0a3e 5adb 21be c0e1 f6bf
00000080: 5e42 f03e eeb4 b8be daa1 7b3f 3714 513f
00000090: d316 8fbd 51f5 ea3e 6e65 263f b465 c6bd
000000a0: 768a 99be c796 fb3e 768f 0f3d 0f4a d0bf
000000b0: e1ae 453e 0b43 53bf fdb3 673f b3c8 da3e
000000c0: 251e 413e 8215 60bf 8449 043f 9089 233f
000000d0: 1ecd 05c0 ccab 3dbf 73dd 713f c783 4abe
000000e0: 2d44 88bf 1252 713e 1eee 8d3f 6e70 20c0
000000f0: 8c7b e5bd d4ae 4e3f b0f4 3bbf fa2f d2bd
00000100: 8553 b53f 371c 78bf 6627 01bf 8d0a 05bf
00000110: 507f fe3e abbd 453f 42d4 8ebf 95a2 0cbc
00000120: 331f 23bf 3e26 5cbf 797e 9a3f 9610 aabe
00000130: 4044 323d 36b8 be3e 7cc7 a1be cf8e 01bf
00000140: 60df c23f 5221 693e 5ddc 453f efad bb3e
00000150: 1480 543c 32f7 23bf 15fa 013f e8fc efbd
00000160: 529f 983e fdb8 b33e 78a6 943f e023 b4bf
00000170: 4b04 28bd f7dc 03c0 f24a 513e d142 65be
00000180: fee2 be3f a7b8 dbbe d7f8 69bf e689 b7bf
00000190: 0a21 a43e 787e 893f 8e3f 8c3f 7a0b 373e
000001a0: 53db 583f 6770 64bf fddb 2e3e 1837 413e
000001b0: 34f3 0cbe 602a 553f da38 60bf 244c 01bf
000001c0: b627 a1bf 31b2 88bf 7207 3e3f 4785 843e
000001d0: 9d93 babd 41e9 66bf be9b 5dbe da1f 15be
000001e0: 729c ec3e 4f8c b2bf 83c4 4bbf 5160 b93d
000001f0: ea7a 31be 0db5 bebf 7b2f 95bf 1968 aabf
00000200: 7a75 0d3f 31e8 ba3e b45b 083d cc38 3d3f
00000210: daf5 a4bf 760e 2c3f 0dd2 923f 77f7 a03e
00000220: 92e8 86be 2599 073f 37ac 583f 6160 adbe
00000230: d588 a9bd 9295 313d 4b9d 6dbd 95fe b9bc
00000240: 67d4 26be ae6f 60be 71ec de3c e0b1 6a3c
00000250: 05d1 1dbe 7b7d 61be e814 183d c0e9 e63b
00000260: 4373 b3be 00f7 f5bd 00f4 ec3a 7857 fabd
00000270: 9c77 62be fff6 36bc e27a 30be f03b 4dbd
00000280: 5388 623f 340b bdbe 1dd8 71be 8277 84be
00000290: 5ce8 d63e f069 2dbf eeb0 973d 2560 283d
000002a0: 9fc7 bebe 063e 3abf bb88 c2be c708 543f
000002b0: ea5e b7bd 8ee0 05bf 5b5c 833f 141e 73bf
000002c0: 73bd 88be d539 de3e dcaf 1fbf 7554 8ebf
000002d0: 65d9 afbf 429f b5bf a84c 7dbf 05e7 0fbe
000002e0: 6dd2 413f a874 21c0 f094 7bbf 98ab af3f
000002f0: 4f8d 12be 9082 1c3e 0bf0 04c0 e32e 0abf
00000300: b278 95be b094 2dbe 64e0 c2be ebba 75be
00000310: 3af2 36be 1ac6 90bd fd3c 4cbd c43f 68be
00000320: 964b 37be 50d6 d1bc def8 47be 7e23 86be
00000330: a06c 05be 4f84 0fbd 6322 17be 20aa 3fbe
00000340: a3ff 42bc 1b65 09be 38ae 9cb9 359b 17be
00000350: d7dd efbe bf5e 01be 56bf 3bbe 3398 5a3d
00000360: f622 0abe 3678 86bd 63c5 b8be b1a0 4e3d
00000370: dcc4 89be d229 fdbd 1fec 3bbd 7586 93bc
00000380: 1ecb 593e 8071 67bf ab11 053f a0d9 113f
00000390: 3049 22bf 66c2 7fbe 3477 2dbd a8fa 4b3e
000003a0: 430c 5bbf eb11 af3e 2ff4 ad3e 1948 b7bf
000003b0: 2c29 b1bd df9e f23e c8b6 883f 4728 ac3e
000003c0: fa0c bf3f 7d69 ebbe 785a e4bc 7985 e0bf
000003d0: 9b1e adbd 1fef 463f 7b69 6a3e bf53 17be
000003e0: f314 1f3f 367c 7bbf 613a 18bf 5eed d23e
000003f0: e956 3fbd fbab f33e b695 7ebf 3285 70bf

fc4.bias f4 [16]
-1.6838961 -0.12833762 -0.32520825 0.34194633 -0.39391983 -0.7223438 -0.4519272 -0.12864587
-1.1322746 -0.53924745 -1.5753403 -0.45739698 -0.33481663 -0.34475538 0.6372427 -0.5694646
00000000: e889 d7bf f06a 03be b281 a6be 9713 af3e
00000010: dcaf c9be 86eb 38bf 0163 e7be bebb 03be
00000020: 60ee 90bf 1f0c 0abf c0a4 c9bf f02f eabe
00000030: 166d abbe c783 b0be 5622 233f 6fc8 11bf

fc5.weight f4 [16, 16]
0.4545714 1.1391859 -0.15142938 -0.7193235 -0.72466964 0.18405057 -1.1767896 -0.41019693
-0.25694972 0.31034282 0.2986356 -0.20071955 -0.11710173 -0.24574882 -0.34456214 -0.26887247
-0.17536438 0.024572 -0.34944186 0.09527091 -0.06553346 -0.2634366 -0.24592347 -0.40995708
0.024517784 0.16630818 -0.18143606 0.049813464 0.12007258 0.04025234 -0.061188165 -0.044440854
0.68233454 -0.9930885 0.08514522 1.2100961 -0.8656023 0.43066317 -0.73049647 0.087860264
0.5489006 0.018755814 -0.17589287 -0.18255284 0.053723425 -0.1379522 0.4111054 -0.8478151
0.89796066 -0.9007611 -0.18411762 0.40764058 -0.035031106 -0.64117765 -0.6776435 0.120820284
0.23245296 0.09361666 -0.8977606 0.0002575848 0.4008585 -0.13758142 0.19173342 -0.72426385
0.6344187 -1.1758174 0.09504713 1.3603339 -0.91193575 0.09271418 -0.41680634 0.18439348
0.603754 -0.14376695 -0.09152577 0.579982 0.09493208 0.034332316 0.39873904 -0.3301703
-0.16121024 -0.2242856 -0.9449255 -1.15463 0.2712382 -0.39884517 0.62572074 0.36857468
0.17198941 -0.00062894786 -1.2713634 1.9999602 -0.004916211 0.0021613792 -0.74025285 0.4540136
-0.46917227 -0.22405553 -1.0373299 -0.17440805 -0.77853155 -0.2236372 -0.89303213 0.09351198
-0.6196426 0.020721942 0.025875589 -0.06399369 -0.020615194 0.09763653 -0.44340053 -0.6270208
0.5385412 0.5663209 -0.47279376 -0.4240524 -0.62218857 -0.22743209 0.43639767 -0.18365765
0.69850844 0.078090645 -0.7679802 -0.5676754 -0.08386935 -0.12094128 -0.59280974 -0.22740524
0.9799818 -1.2174797 0.114959516 0.3695851 0.037734173 0.19879958 -1.1483426 -0.6698322
0.5732786 0.06273477 -0.1590981 0.0052210134 0.06488681 -0.041977167 -0.21849853 -0.3019029
-0.36802045 -1.3773861 -0.54826146 0.9399933 -0.7732589 0.53853744 -0.45562238 -0.06076267
0.37555054 0.21770364 -0.5242124 -0.3224732 0.09549204 -0.12627387 0.07279899 -0.6777491
0.15479033 -0.26562452 -0.25591877 -0.2494376 -0.29054695 -0.079949945 -0.3838078 -0.32735294
-0.37563422 0.23219475 -0.1950758 0.27011824 0.080528796 0.11030069 -0.21272044 -0.5834684
-0.03699936 -1.9575347 0.1982724 1.2038001 0.29287928 0.3737126 -0.4636697 0.22089516
0.4925046 -0.07065524 -0.50448245 0.14586532 -0.15580432 -0.23235558 -0.114674985 -0.20091501
-0.009556433 -0.11172721 -0.44353807 0.3742416 -0.08710742 -0.1070345 -0.21510467 -0.3980903
-0.1371401 -0.20617409 -0.06868458 -0.19380262 0.20103973 0.07354089 -0.27750337 -0.47278443
0.35509828 -0.047310498 -0.09798464 -0.09071695 -0.10992968 -0.07238236 -0.64153385 -0.6392963
0.19557045 -0.2420555 -0.37506118 0.259249 -0.19525802 -0.17553619 -0.078247875 -0.076396205
0.41215068 -0.3931742 0.31651768 1.0010177 -0.6353904 0.23900558 -0.56884027 -1.2117898
0.668177 -0.17187473 -0.2122908 0.057397887 -0.2928431 0.050755505 0.7038821 -0.39098755
0.3358529 0.24382252 -0.2639519 -0.21126433 -0.83177847 -0.29676065 -0.3205168 -0.26471236
-0.37446856 -0.14169614 -0.03157023 -0.41484404 -0.16165957 0.16172092 -0.028962959 0.18421482
00000000: 95bd e83e d8d0 913f 4e10 1bbe 9625 38bf
00000010: f383 39bf c177 3c3e 0ba1 96bf 5505 d2be
00000020: ea8e 83be 41e5 9e3e c4e6 983e 6d89 4dbe
00000030: 08d3 efbd 94a5 7bbe 736a b0be a7a9 89be
00000040: b892 33be 384b c93c 0bea b2be 651d c33d
00000050: 6836 86bd 29e1 86be 5dd3 7bbe e5e5 d1be
00000060: 85d9 c83c b14c 2a3e 60ca 39be 3409 4c3d
00000070: 9de8 f53d a3df 243d 71a0 7abd 9d07 36bd
00000080: 7aad 2e3f 0c3b 7ebf 9e60 ae3d 6ee4 9a3f
00000090: 1d98 5dbf e27f dc3e d101 3bbf 15f0 b33d
000000a0: c084 0c3f cba5 993c 431d 34be 22ef 3abe
000000b0: 180d 5c3d 5743 0dbe 687c d23e 690a 59bf
000000c0: c0e0 653f 4898 66bf 5489 3cbe 44b6 d03e
000000d0: c77c 0fbd 3824 24bf 0b7a 2dbf a070 f73d
000000e0: 2608 6e3e 17ba bf3d a4d3 65bf 720c 8739
000000f0: 533d cd3e 25e2 0cbe c455 443e 5b69 39bf
00000100: 4469 223f 2f81 96bf 12a8 c23d 6c1f ae3f
00000110: 9f74 69bf efe0 bd3d a467 d5be a5d1 3c3e
00000120: 9f8f 1a3f a537 13be dd71 bbbd b379 143f
00000130: c06b c23d 0ba0 0c3d 8627 cc3e 150c a9be
00000140: 4c14 25be 20ab 65be a3e6 71bf eaca 93bf
00000150: bcdf 8a3e 6f35 ccbe 3c2f 203f d2b5 bc3e
00000160: fe1d 303e fadf 24ba 09bc a2bf b2fe ff3f
00000170: 2b18 a1bb eda5 0d3b 3681 3dbf 7874 e83e
00000180: 5937 f0be d06e 65be 3ac7 84bf 0698 32be
00000190: d84d 47bf 2601 65be c19d 64bf 3583 bf3d
000001a0: e6a0 1ebf 10c1 a93c 0bf9 d33c 200f 83bd
000001b0: 32e1 a8bc a9f5 c73d 6505 e3be 6f84 20bf
000001c0: d6dd 093f 68fa 103f 0612 f2be 651d d9be
000001d0: c047 1fbf f5e3 68be 846f df3e c010 3cbe
000001e0: 73d1 323f fded 9f3d 5a9a 44bf 2d53 11bf
000001f0: b2c3 abbd 10b0 f7bd 61c2 17bf ebdc 68be
00000200: 16e0 7a3f 60d6 9bbf e56f eb3d 423a bd3e
00000210: 268f 1a3d 1e92 4b3e e4fc 92bf 207a 2bbf
00000220: 63c2 123f 167b 803d 9dea 22be 0915 ab3b
00000230: 60e3 843d 40f0 2bbd 14be 5fbe 0493 9abe
00000240: 2d6d bcbe 304e b0bf dd5a 0cbf 67a3 703f
00000250: 4cf4 45bf 97dd 093f 5647 e9be 47e2 78bd
00000260: 2948 c03e b4ed 5e3e c932 06bf 351b a5be
00000270: 5591 c33d f04d 01be a317 953d f780 2dbf
00000280: 5b81 1e3e f0ff 87be c907 83be 926c 7fbe
00000290: 92c2 94be ccbc a3bd 7582 c4be ce9a a7be
000002a0: 2153 c0be 76c4 6d3e f3c1 47be f04c 8a3e
000002b0: 48ec a43d 54e5 e13d 63d3 59be 2f5e 15bf
000002c0: a48c 17bd 7f90 fabf ec07 4b3e 1f16 9a3f
000002d0: 46f4 953e 4257 bf3e 1d66 edbe 5732 623e
000002e0: 9029 fc3e b2b3 90bd c325 01bf b85d 153e
000002f0: 2b8b 1fbe 9fee 6dbe b8da eabd aabc 4dbe
00000300: 9692 1cbc 3cd1 e4bd 6c17 e3be 989c bf3e
00000310: 6065 b2bd e734 dbbd 6644 5cbe 7ed2 cbbe
00000320: 746e 0cbe 4d1f 53be 80aa 8cbd 3274 46be
00000330: 5cdd 4d3e 9b9c 963d ec14 8ebe cd10 f2be
00000340: 71cf b53e a7c8 41bd 2cac c8bd cfc9 b9bd
00000350: d022 e1bd 343d 94bd 903b 24bf eca8 23bf
00000360: 9f43 483e 66dd 77be 0508 c0be 49bc 843e
00000370: b8f1 47be c2bf 33be 6c40 a0bd 9d75 9cbd
00000380: 6a05 d33e 214e c9be 9b0e a23e 5921 803f
00000390: f2a8 22bf e1bd 743e 849f 11bf ee1b 9bbf
000003a0: a60d 2b3f eeff 2fbe c262 59be 0c1a 6b3d
000003b0: 88ef 95be 01e5 4f3d 9e31 343f 852f c8be
000003c0: e9f4 ab3e 9cac 793e b424 87be ad55 58be
000003d0: 6fef 54bf 03f1 97be c71a a4be 6188 87be
000003e0: 58ba bfbe cb18 11be c94f 01bd 7066 d4be
000003f0: 168a 25be 2b9a 253e ba43 edbc cfa2 3c3e

fc5.bias f4 [16]
-0.90483487 -0.43855122 -0.2799278 -1.4709811 -0.18870427 0.43602613 -0.37455615 -0.9953053
-2.1449754 0.016772747 -0.18789795 -0.28660527 -0.45774898 0.051070835 0.2647404 -0.39353538
00000000: 42a3 67bf c989 e0be b252 8fbe 1c49 bcbf
00000010: b13b 41be d13e df3e d3c5 bfbe 54cc 7ebf
00000020: 4747 09c0 0067 893c 5268 40be edbd 92be
00000030: 135e eabe a72f 513d 0e8c 873e 787d c9be

fc6.weight f4 [16, 16]
-0.20351496 -0.113077246 -0.30517435 0.71426696 -0.14468814 -0.10906463 -0.059291814 -0.16013266
0.060880613 0.0072082016 0.2250571 -0.2162635 -0.20198894 -0.06610295 -0.25891218 -0.17619954
-0.24935214 0.0070642526 -0.26305574 -0.03069718 0.038910974 -0.19502893 -0.030784518 0.08317371
-0.026450196 -0.09490542 0.08104804 0.029568082 0.091054805 -0.24003956 -0.3166119 -0.22658415
-0.3353975 -0.015562012 0.09939303 0.8866883 0.122675255 -0.069053605 -0.369792 0.011833987
1.4232947 -0.058273047 -0.17315313 0.2587941 0.30550814 -0.3517783 -0.045261703 -0.14988822
-0.09813645 0.14852336 -0.073543966 -0.31513348 -0.11418088 -0.20103973 -0.15462205 -0.30046865
-0.13264233 -0.059835542 0.17290705 -0.23839502 0.108491465 -0.1517834 -0.08049219 0.090142265
-0.16169347 0.1427769 -0.39776725 -0.013586141 -0.12441571 -0.27007967 -0.38543615 -0.23569348
0.961195 -0.12439421 0.12109566 -0.4462045 0.31880498 -0.19139051 -0.2022475 -0.08544545
0.44602436 -0.2747789 0.44768986 0.031836633 0.3384675 -0.84225696 -0.34428787 -0.4537063
0.5144917 0.47026336 0.11253125 0.33673778 0.1373185 0.018158255 0.4430057 -0.04500841
-0.16161592 -0.17115667 -0.3445112 0.07572778 -0.2113049 -0.45947292 -0.08270992 -0.076094635
-0.57755744 -0.18651806 -0.23408234 -0.26355556 -0.15609808 0.09219165 -0.05090894 -0.07174423
0.24467398 0.15781567 -0.3132711 0.052537333 0.4973897 -0.51853144 -0.5378985 -0.41973606
0.60714376 -0.8242289 0.027231202 -0.5861025 -0.08357734 0.46286812 -0.683675 -0.32433468
-0.063154265 0.032613955 -0.14740494 -0.4491044 0.051835895 -0.19838226 0.09439675 -0.42113364
0.019569889 -0.18934084 0.20218992 -0.12243061 0.13023958 0.09780666 -0.19145331 0.17411135
-0.1423188 -0.09886426 -0.4722057 0.47124833 -0.36581242 -0.08482639 0.014348738 -0.4320428
0.1599732 -0.16064818 -0.10904464 -0.12702066 0.147041 -0.12027809 -0.3304378 -0.32250395
0.20975581 -0.3051138 -0.3200999 0.23215531 -0.33021155 -0.061744712 -0.018501315 1.1055455
0.6911082 -0.24996066 -0.04020408 -0.5805756 -0.27496827 -0.00801886 -0.21774851 -0.27233592
1.0250788 -0.08436266 -0.21011643 0.5563219 -0.21572989 -0.10651836 -0.27921432 0.81730217
-0.17786577 -0.6002787 0.18866658 -0.37952834 0.20378074 -0.12771219 -1.0438999 -0.47499156
-0.14159912 -0.29904348 -0.020460144 0.4597652 -0.054493364 -0.55316174 -0.7708001 -0.117675036
0.21263771 -0.076277 0.1758143 -0.24098079 0.21566464 0.5633823 0.013228664 -0.092606276
-0.14465243 0.09771077 -0.19567044 0.28348556 -0.27139577 -0.103722766 -0.20482838 -0.57577026
0.986534 -0.29410073 -0.043098297 -0.41302234 0.10485717 0.0040275813 -0.33474785 -0.015088331
-0.9866167 -0.14495409 -0.011928616 0.08509325 -0.7815991 0.54717225 -0.6034233 -0.17411235
0.06390473 -0.07468685 -0.14123558 -0.31797504 0.028327879 0.09233946 -0.49477175 0.013560323
-0.2551059 -0.23233205 -0.2604677 -0.3421029 -0.5800056 -0.021490466 -0.054982122 -0.04303157
0.1657461 -0.19382288 0.123526275 0.011844364 0.24823138 0.023560762 -0.22014156 -0.1413167
00000000: 3a66 50be 0b95 e7bd d03f 9cbe 33da 363f
00000010: 2129 14be 475d dfbd f9db 72bd d1f9 23be
00000020: f35d 793d c732 ec3b 5e75 663e 2e74 5dbe
00000030: 30d6 4ebe fc60 87bd 2390 84be a76d 34be
00000040: 2b56 7fbe 3f7b e73b 3eaf 86be a778 fbbc
00000050: 1d61 1f3d aab5 47be d02f fcbc fa56 aa3d
00000060: 15ae d8bc c65d c2bd 84fc a53d c338 f23c
00000070: f17a ba3d eecc 75be f41a a2be ad05 68be
00000080: 39b9 abbe cff7 7ebc 938e cb3d 01fe 623f
00000090: 2a3d fb3d fa6b 8dbd 6155 bdbe 57e3 413c
000000a0: 852e b63f b8af 6ebd 0e4f 31be a980 843e
000000b0: 906b 9c3e 491c b4be 5664 39bd 4c7c 19be
000000c0: c3fb c8bd 8216 183e 389e 96bd 2d59 a1be
000000d0: aad7 e9bd 5cdd 4dbe 3e55 1ebe 07d7 99be
000000e0: 64d3 07be 1d16 75bd 8c0e 313e d31d 74be
000000f0: c630 de3d 1c6d 1bbe 17d9 a4bd 829c b83d
00000100: f992 25be 1c34 123e 26a8 cbbe 6898 5ebc
00000110: aacd febd e247 8abe e357 c5be a259 71be
00000120: e010 763f 64c2 febd 0001 f83d eb74 e4be
00000130: 683a a33e e0fb 43be f819 4fbe 06fe aebd
00000140: 4e5d e43e d2af 8cbe 9b37 e53e 2167 023d
00000150: 9d4b ad3e 279e 57bf 8046 b0be 314c e8be
00000160: bab5 033f 5cc6 f03e c976 e63d e568 ac3e
00000170: 399d 0c3e 9fc0 943c a5d1 e23e bd5a 38bd
00000180: a57e 25be b243 2fbe c663 b0be 2b17 9b3d
00000190: 5060 58be 0940 ebbe d263 a9bd 81d7 9bbd
000001a0: ceda 13bf 97fe 3ebe 48b3 6fbe c1f0 86be
000001b0: 2dd8 1fbe face bc3d e585 50bd a4ee 92bd
000001c0: d18b 7a3e 6e9a 213e 1265 a0be 6331 573d
000001d0: dda9 fe3e 7abe 04bf b7b3 09bf a5e7 d6be
000001e0: c66d 1b3f aa00 53bf f813 df3c d00a 16bf
000001f0: 992a abbd 0dfd ec3e 5305 2fbf 320f a6be
00000200: 0657 81bd 3696 053d 52f1 16be 03f1 e5be
00000210: e051 543d b824 4bbe 1553 c13d d49e d7be
00000220: 0851 a03c 91e2 41be e00a 4f3e e6bc fabd
00000230: 865d 053e dc4e c83d 560c 44be 3f4a 323e
00000240: 05bc 11be 5879 cabd f2c4 f1be 7647 f13e
00000250: c44b bbbe 75b9 adbd f816 6b3c b734 ddbe
00000260: 04d0 233e f580 24be cc52 dfbd b411 02be
00000270: ea91 163e 5c54 f6bd 252f a9be 3d1f a5be
00000280: 3aca 563e e037 9cbe 22e4 a3be 1fba 6d3e
00000290: 7d11 a9be 06e8 7cbd 1290 97bc 8482 8d3f
000002a0: 78ec 303f b0f5 7fbe 09ad 24bd 9aa0 14bf
000002b0: a4c8 8cbe 8961 03bc 77f9 5ebe 9d6f 8bbe
000002c0: c835 833f 55c6 acbd c328 57be 1d6b 0e3f
000002d0: 4ce8 5cbe 4c26 dabd 2ef5 8ebe b73a 513f
000002e0: 7222 36be ddab 19bf d031 413e 8a51 c2be
000002f0: e6ab 503e fcc6 02be 839e 85bf 1832 f3be
00000300: 5cff 10be 3a1c 99be 089c a7bc 5866 eb3e
00000310: 6f34 5fbd 029c 0dbf 2853 45bf 9cff f0bd
00000320: b3bd 593e 1e37 9cbd aa08 343e abc3 76be
00000330: 31d7 5c3e d339 103f 0abd 583c 5ca8 bdbd
00000340: c41f 14be 961c c83d d55d 48be 0525 913e
00000350: 63f4 8abe 9a6c d4bd 88be 51be ae65 13bf
00000360: 7e8d 7c3f 5f94 96be d787 30bd aa77 d3be
00000370: 5bbf d63d cdf9 833b 1264 abbe 0c35 77bc
00000380: e992 7cbf d86e 14be 3e70 43bc 5f45 ae3d
00000390: e116 48bf 7b13 0c3f f379 1abf 824a 32be
000003a0: 7ce0 823d 6bf5 98bd 0fa0 10be a0cd a2be
000003b0: de0f e83c 791c bd3d b952 fdbe 1e2c 5e3c
000003c0: 3e9d 82be 74e8 6dbe 065c 85be 1c28 afbe
000003d0: 3f7b 14bf c60c b0bc ef34 61bd df41 30bd
000003e0: 58b9 293e 8179 46be 58fb fc3d dd0e 423c
000003f0: 5e30 7e3e 8002 c13c ca6c 61be 53b5 10be

fc6.bias f4 [16]
-0.26964554 -0.41076565 -2.2538562 -0.24479412 -0.6719891 -0.08356614 -0.08182674 -0.26946464
-0.48354015 -0.31907 -0.46179822 -0.042285085 -0.4419351 -0.6632883 0.32353303 -0.38894066
00000000: fb0e 8abe e04f d2be 2e3f 10c0 4fab 7abe
00000010: 7a07 2cbf b924 abbd c794 a7bd 45f7 89be
00000020: 9392 f7be 255d a3be d170 ecbe 2033 2dbd
00000030: 5145 e2be 43cd 29bf 1fa6 a53e 3b23 c7be

fc7.weight f4 [16, 16]
-0.57629484 0.23093826 0.060520574 -0.19519028 -0.020792214 -0.35567436 -0.43561348 0.36584792
-0.17666395 -0.33458298 -0.3194227 -0.0514554 -0.52424914 -0.046881106 0.2873044 0.06498825
0.32347006 0.12704158 -0.13108493 -0.22160211 -0.58287364 -0.29499194 0.24039441 -0.010749598
-0.18737042 0.16537374 0.41032138 -0.042686895 -0.20531593 -0.16802695 0.4468862 -0.01372976
-0.07520898 -0.22876324 0.2570261 -0.032713592 -0.24803196 -0.16443934 0.04626286 -0.3407226
-0.09729046 0.08491279 -0.30045193 -0.5256802 -0.13368542 -0.114288434 -0.11883268 -0.21146087
-0.25638545 -0.17554837 -0.05729241 -0.06609076 -0.073690414 -0.2781231 0.023274684 -0.17972183
0.11235303 -0.04847142 -0.05115005 -0.1360021 -0.31229505 0.08870031 -0.09954063 -0.035701334
0.06148058 0.06321764 0.14937277 0.22410998 0.12625435 -0.20329504 -0.0734534 -0.074889004
0.01740551 -0.17755598 0.039270587 -0.24578959 -0.002438874 -0.14939103 -0.12267113 0.23507358
-0.16120043 -0.16072986 -0.28275365 0.08644718 0.10193145 -0.00065878034 -0.12866196 -0.038548507
0.01933822 0.09133792 -0.34954512 -0.09512283 -0.1776912 0.08798119 -0.15634745 -0.027838469
-0.09899142 -0.19756563 0.5285387 -0.055253018 0.011557949 -0.11079015 0.23173034 0.34964207
0.056619246 -0.24220906 -0.020686945 -0.38793105 0.03118468 -0.029099006 -0.59131116 0.05758984
-0.23141402 0.12811643 0.8130359 0.07079419 0.1376142 0.37544802 -0.08601463 -0.191237
0.089898035 0.11131374 -0.3293971 -0.32875776 0.008568716 0.21664989 -0.2519547 -0.14230843
0.14336625 0.10799356 0.71800023 -0.1646802 0.24845096 0.18876912 -0.1336983 0.42812088
-0.124966145 0.26989022 0.17975867 -0.5788487 -0.026203303 0.2034471 -0.63449013 0.029650353
-0.19679157 0.047104217 -0.08015348 0.008032942 -0.027830156 -0.09722109 -0.20226036 -0.08446384
-0.17366107 -0.26246637 -0.1084303 -0.39750874 -0.23391327 -0.07570752 -0.051044963 -0.009265678
0.087394565 0.020956725 -0.14402226 0.24874881 0.11826222 -0.26299852 0.094277404 0.004567157
0.13135606 -0.20290208 0.1123456 -0.24960339 -0.108725004 -0.0005000838 -0.18389736 -0.087025285
0.1031724 0.17972007 0.014878463 0.054418385 -0.24387401 -0.41097003 -0.28434312 -0.29811156
0.0023732544 0.08410519 -0.27161494 -0.25557426 -0.075617105 0.1173856 -0.45803535 -0.19940332
0.16779381 0.09884965 0.22004655 -0.17640457 -0.18121898 -0.2863463 -0.0371024 0.005975165
-0.03479723 -0.15150133 -0.09475841 -0.21140912 -0.1484455 0.03231395 -0.33789325 -0.3238972
0.25769487 -0.18703939 0.44788045 -0.0058368375 -0.023152385 -0.12257396 0.27752635 -0.22155628
0.05990931 0.4630587 -0.04746946 -0.39812115 -0.10881317 0.16293381 -0.28462616 -0.07430188
-0.1303396 0.21174067 -0.22679006 -0.14010176 -0.14775383 0.0037898363 -0.23311277 -0.17375347
0.02703929 0.15966949 -0.05818182 -0.15407586 -0.24095896 -0.2097876 -0.001993873 0.26156205
0.01945807 0.029320441 -0.06099886 -0.10857295 0.054362364 -0.14780201 0.083064646 0.116795346
-0.1323541 -0.09384275 -0.082872726 -0.109784774 0.0067405794 -0.039192118 -0.2874845 -0.14376459
00000000: 0f88 13bf 147b 6c3e 6ce4 773d f6df 47be
00000010: 6f54 aabc f31a b6be bb08 dfbe 6b50 bb3e
00000020: 65e7 34be 764e abbe 5f8b a3be e6c2 52bd
00000030: 3135 06bf 6706 40bd 9019 933e 8f18 853d
00000040: de9d a53e 3017 023e 213b 06be aaeb 62be
00000050: 3537 15bf 2f09 97be f429 763e 151f 30bc
00000060: 08de 3fbe bc57 293e a515 d23e 74d8 2ebd
00000070: 573e 52be 420f 2cbe 45ce e43e caf2 60bc
00000080: 2a07 9abd e940 6abe ed98 833e b0fe 05bd
00000090: 17fc 7dbe c962 28be 207e 3d3d 3173 aebe
000000a0: 3840 c7bd c2e6 ad3d d6d4 99be fa92 06bf
000000b0: d5e4 08be 0e10 eabd 8c5e f3bd 3389 58be
000000c0: f444 83be f4c2 33be 72ab 6abd 985a 87bd
000000d0: 00eb 96bd 2766 8ebe 8daa be3c 0009 38be
000000e0: 5819 e63d f889 46bd b782 51bd 2244 0bbe
000000f0: 23e5 9fbe 82a8 b53d f5db cbbd 903b 12bd
00000100: 10d3 7b3d 4078 813d 2df5 183e 167d 653e
00000110: d248 013e 932c 50be bc6e 96bd 685f 99bd
00000120: 0096 8e3c 3cd1 35be 32da 203d 44b0 7bbe
00000130: 84d5 1fbb f6f9 18be 003b fbbd 21b7 703e
00000140: ba11 25be 5e96 24be 16c5 90be 380b b13d
00000150: 70c1 d03d 00b2 2cba f6bf 03be 0ae5 1dbd
00000160: 306b 9e3c 600f bb3d 94f7 b2be c2cf c2bd
00000170: aff4 35be 7b2f b43d 8c19 20be 800d e4bc
00000180: 03bc cabd a54e 4abe 504e 073f fd50 62bd
00000190: 8d5d 3d3c f2e5 e2bd b84a 6d3e 4904 b33e
000001a0: 95e9 673d a705 78be ab77 a9bc e69e c6be
000001b0: 0477 ff3c 0a61 eebc 2b60 17bf 53e3 6b3d
000001c0: ccf7 6cbe f430 033e 1f23 503f 8bfc 903d
000001d0: bdea 0c3e b93a c03e 7028 b0bd a2d3 43be
000001e0: 761c b83d 75f8 e33d bda6 a8be f052 a8be
000001f0: cd63 0c3c 78d9 5d3e 3500 81be 4db9 11be
00000200: 9ace 123e ba2b dd3d ddce 373f eda1 28be
00000210: ee69 7e3e b14c 413e 35e8 08be a932 db3e
00000220: 40ee ffbd 0d2f 8a3e a812 383e 6e2f 14bf
00000230: 4fa8 d6bc 7054 503e f26d 22bf 4ce5 f23c
00000240: bb83 49be 5af0 403d 8227 a4bd 9a9c 033c
00000250: 11fc e3bc da1b c7bd 571d 4fbe 61fb acbd
00000260: 35d4 31be fe61 86be b510 debd 4486 cbbe
00000270: f686 6fbe 8b0c 9bbd 8614 51bd 12cf 17bc
00000280: ecfb b23d 70ad ab3c 927a 13be 02b8 7e3e
00000290: 7633 f23d bea7 86be 8314 c13d 17a8 953b
000002a0: 3482 063e 90c5 4fbe 7315 e63d 0898 7fbe
000002b0: 37ab debd 0e18 03ba 974f 3cbe 503a b2bd
000002c0: 0d4c d33d 8a08 383e ccc4 733c d0e5 5e3d
000002d0: 1cba 79be aa6a d2be 6c95 91be 14a2 98be
000002e0: 9a88 1b3b 583f ac3d 1d11 8bbe a1da 82be
000002f0: 24dd 9abd dd67 f03d 9c83 eabe 6230 4cbe
00000300: 24d2 2b3e af71 ca3d e253 613e 66a3 34be
00000310: 7891 39be fb9b 92be b0f8 17bd 51cb c33b
00000320: 8a87 0ebd 2a23 1bbe b210 c2bd a27b 58be
00000330: 1902 18be a25b 043d 5800 adbe dbd5 a5be
00000340: 95f0 833e 4187 3fbe 9650 e53e f142 bfbb
00000350: 12aa bdbc 0e08 fbbd ef17 8e3e a6df 62be
00000360: 7763 753d 0816 ed3e 566f 42bd 89d6 cbbe
00000370: 70d9 debd 1fd8 263e 85ba 91be 962b 98bd
00000380: be77 05be 8cd2 583e a73b 68be d676 0fbe
00000390: c84c 17be e75e 783b 1db5 6ebe 6eec 31be
000003a0: 8081 dd3c 6680 233e 0f50 6ebd 10c6 1dbe
000003b0: f2bd 76be 90d2 56be a3ab 02bb 76eb 853e
000003c0: 8866 9f3c 6c31 f03c f1d9 79bd 7f5b debd
000003d0: 12ab 5e3d 6959 17be cc1d aa3d 6632 ef3d
000003e0: d587 07be a130 c0bd 2db9 a9bd d7d6 e0bd
000003f0: 14e0 dc3b ea87 20bd 2b31 93be 0637 13be

fc7.bias f4 [16]
-0.12950855 0.29830837 -0.2814391 -0.34724924 -0.16440135 -0.4053564 -0.08306217 0.4975232
0.12802504 -0.12310048 -0.34361482 -0.018584961 -0.14692241 -0.10106817 -0.3217521 -0.23071499
00000000: e49d 04be e0bb 983e c918 90be a7ca b1be
00000010: d458 28be e08a cfbe 801c aabd 5cbb fe3e
00000020: ff18 033e 1b1c fcbd 48ee afbe 7d3f 98bc
00000030: d472 16be d4fc cebd b1bc a4be 8d40 6cbe

fc8.weight f4 [2, 16]
0.1568633 0.30213514 -0.094758205 0.19688654 0.01684327 0.14374566 -0.12861171 -0.29548454
-0.16978489 -0.089189194 -0.17218836 -0.03155916 -0.109435245 -0.05253956 0.05137802 -0.12770097
-0.01722045 -0.21943735 -0.22456197 -0.04938522 0.030026635 0.1727764 -0.0322382 0.2728935
0.08684547 -0.15918523 0.02107401 0.03998092 0.040549636 0.07193169 -0.0013852235 0.021229826
00000000: c6a0 203e 75b1 9a3e 9710 c2bd a09c 493e
00000010: e6fa 893c 1032 133e cab2 03be c049 97be
00000020: 17dc 2dbe d3a8 b6bd 2552 30be 2e44 01bd
00000030: 961f e0bd b933 57bd c271 523d 0bc4 02be
00000040: e711 8dbc 2fb4 60be 93f3 65be 2848 4abd
00000050: 6bfa f53c 4cec 303e 340c 04bd b2b8 8b3e
00000060: 0adc b13d 7401 23be 67a3 ac3c 08c3 233d
00000070: 6017 263d ec50 933d 6390 b5ba 2cea ad3c

fc8.bias f4 [2]
0.041709192 0.08391323
00000000: 42d7 2a3d b3da ab3d
