data/results/1731779400.pth (torch, 7844 bytes, 8 tensors)

fc1.weight f4 [16, 36]
00000000: 89bd cabc 7649 23bc 3091 b83d 7f19 ad3c
00000010: 1b7a ec3c 53bb b03e 2985 2f3f 3128 b8be
00000020: 0ff9 933e e1db dbbe e6db 0fbd c111 d6be
00000030: 30a5 3d3f 7249 d7be 9e98 ddbd 9ea4 36bf
00000040: b24c ab3c 1bf5 63bf d7fa ba3d 2d8a 05bf
00000050: 2b4d 01be 8203 e33d 9708 48be 30cd 1c3e
00000060: 275b 85bf a175 953f a0f9 b53d 4305 1bbf
00000070: 5dfe aebe 630e 66be 9f36 f83c 42c2 683e
00000080: 2023 033f 6eb4 c2be 02f9 0dbf d808 35bf
00000090: 2ea0 76bc d2f4 d43b 8687 a13b 4f9f d23d
000000a0: c4b3 85bd 1d3d 8c3e 1647 e73f 343a 31c0
000000b0: 3b5a fb3d 10fb 463e f78c e63e 1950 ea3d
000000c0: cbc4 703e 7603 85be b8f2 f5bd 9ca6 27be
000000d0: fc37 a93d 889f 93bb 2100 0dbf d39d 39bc
000000e0: b65a 98be dee1 f5be b49e 7b3e 64d6 d6bd
000000f0: 3d4f 28be cb46 b53e 7e30 3ebe 9c8d 75be
00000100: cb35 b3bd 7099 8abd caca 093e a5d7 963d
00000110: 1871 b23e 7b7e 2abe 1769 03bf 5387 443e
00000120: 0941 f8be 25cb c13e f683 2bbf 7341 8f3e
00000130: 4667 a03c 0e3c 853f 8bd5 143f 2271 473f
00000140: fa15 6abf 2a00 84bf 6ccd 633f 9661 b2be
00000150: 40eb 043e 46aa 11bf 22ea 8d3b 8b92 b7be
00000160: c39a cf3e 83d9 39bf 9820 c6bd 820c 973e
00000170: 0cfd 353e b5db 113d 6692 403e 3d95 5e3e
00000180: a617 39bf 266f 8e3e b96f c63d 3eff db3e
00000190: d113 e93d 89b7 98be 9998 2fbf c925 57bc
000001a0: aa8b ccbd 842c 293f 9374 82be cb8b 863e
000001b0: 4dd4 993c 4c5a 12be 8639 5cbf 9e1b 0e3e
000001c0: 5633 07bc 4b9f 4b3f 65ec b63e b3ca 0bbf
000001d0: d8e0 eb3d b6e6 16bf 6c75 4b3e 33ce afbe
000001e0: a593 b3bd 73d0 22bf 4688 b9be 32f6 613f
000001f0: d2c9 ddbe a21b a63e ae3f 7cbf d637 56be
00000200: a937 ffbe 3be8 22bf 341f 99be 586b bc3e
00000210: 038d 4cbf 7f28 60bf 95ab 543d 36c6 b0bf
00000220: 2ec4 24bd b224 5e3d 001e 773e f8ef 603d
00000230: b545 a1be 2a11 723e a638 1bbf 18a8 833e
00000240: 1c39 a33d 54b6 b73e 3f82 043f e3fc 263e
00000250: a336 cfbd 2966 c63f f1ae e43e b8e5 9a3f
00000260: 32af 113f 41ff 303f 8a1e 3bbf fc17 8a3e
00000270: 47e5 143e dd4a 5d3e 6170 9bbe a763 f1bd
00000280: 414a be3e d311 0bbf 585b 623f 0785 c2be
00000290: 42c6 d13d d0bb 413d 8934 5c3c 2d54 04bf
000002a0: fa20 063e 47bc f9bd 1383 f93e 56c1 053f
000002b0: c279 cabd c513 433e 06a5 943d 345b 98bd
000002c0: 2e03 ffbd 68f9 263f e34c 123e 19af bdbe
000002d0: f877 55bd 11e6 023e f3ec b83e dc7d 153d
000002e0: 227f a53d ce37 c93e 25af 933f 2df5 cd3e
000002f0: edf2 9abf 2773 41be 7da3 46be 94ed dcbe
00000300: 1bf1 c7be 5a10 dc3c 7d3b 68be 929c 113f
00000310: ce20 893d 6f04 883b 6213 ce3e c5c7 d1be
00000320: 8711 15bf 477e 32bf d3ef 20bf 1948 a6be
00000330: 60a2 59be b11b 70bf 46e5 0f3e 75fb 04bf
00000340: f1a7 a0bd 49a7 2fbe c30d 03be e3e6 003f
00000350: 9081 6f3e a477 21bf 1dab 20bf c5be 78bf
00000360: 4f75 b4bd 84fa 993e fae5 eb3d 1a45 573e
00000370: 4e35 26bc 3006 f13f 9787 f53d 2d63 2ebf
00000380: b7c4 4fbf 3f47 64bf 231e 3f3e 00f7 12be
00000390: f233 283f a93f b33d ad8e e13d d713 063f
000003a0: 64ff 1cbf 4ac5 7a3c 2680 27bf 0bb7 bf3d
000003b0: c32e 26bf 31e6 07bf f284 8bbe 0d01 f93c
000003c0: 40ac 883f 9859 cf3e 8c09 7dbb f04e 8e3e
000003d0: e56a 06bd a521 773d a28b 1a3e 71f1 ea3d
000003e0: 18cb aa3e 6be0 0fbf e47d 41bf e8e4 e6bd
000003f0: f7ea c83d fbd2 e93c abc5 dd3d af49 0e3e
-0.02474858 -0.009966245 0.09012067 0.021130322 0.028866818 0.34517917 0.6856256 -0.35968164
0.28900954 -0.42941192 -0.03512182 -0.4181042 0.7408018 -0.42048222 -0.10820125 -0.71344936
0.020910595 -0.89045876 0.09129875 -0.52163965 -0.12627093 0.110846534 -0.19534527 0.15312648
-1.0418442 1.1676522 0.08885503 -0.60554904 -0.3417844 -0.22466426 0.030299483 0.22730353
0.5122547 -0.38028282 -0.5545808 -0.7071662 -0.015052838 0.0064989114 0.0049294857 0.10284292
-0.06528428 0.27390376 1.8068569 -2.7691774 0.122730695 0.1943171 0.45029423 0.11441059
0.2351257 -0.25979203 -0.120091856 -0.1637215 0.08262631 -0.0045051016 -0.5507832 -0.011329132
-0.29756707 -0.48023885 0.24572259 -0.104901105 -0.16436477 0.35405573 -0.18573186 -0.23979801
-0.087504946 -0.06767547 0.13456264 0.0736535 0.3485191 -0.16649811 -0.5133223 0.19192247
-0.48487118 0.378503 -0.6699823 0.2797962 0.019580495 1.0408952 0.5813834 0.77907
-0.91439784 -1.031255 0.88985324 -0.34840077 0.12980366 -0.5690044 0.0043308893 -0.3585399
0.4054776 -0.7259752 -0.096741855 0.2950173 0.17772311 0.03560992 0.18805847 0.21736617
-0.7230171 0.27819175 0.09689278 0.42968172 0.11380733 -0.29827526 -0.6859222 -0.013131567
-0.09987576 0.6608355 -0.25479564 0.2627853 0.01877799 -0.14292258 -0.86025274 0.13877723
-0.008251986 0.79539937 0.3572723 -0.5460617 0.11517495 -0.58945787 0.19869012 -0.34337005
-0.08768395 -0.6359932 -0.3623678 0.8826629 -0.4331804 0.32442957 -0.9853467 -0.20919737
-0.49847153 -0.63635606 -0.2990662 0.36800647 -0.79902667 -0.8756179 0.051921446 -1.3810489
-0.040226154 0.054234214 0.24132538 0.054916352 -0.31498495 0.2363936 -0.60633314 0.25714183
0.07969877 0.35881293 0.5176124 0.16307406 -0.10117843 1.5499927 0.4466472 1.2101355
0.5690795 0.69139487 -0.73093474 0.26971424 0.14540587 0.2161059 -0.30359176 -0.11786585
0.37166026 -0.5432407 0.8842063 -0.37992117 0.10242893 0.047298253 0.01344026 -0.5169094
0.13098517 -0.12194114 0.48732814 0.5224813 -0.09886505 0.1905051 0.07258038 -0.074392706
-0.12451778 0.65224314 0.14287142 -0.3704765 -0.052116364 0.12783076 0.36118278 0.036496982
0.08080889 0.39300388 1.1537825 0.40226117 -1.2105385 -0.18891583 -0.19398303 -0.43150008
-0.39051136 0.026863266 -0.22678943 0.5687953 0.0669571 0.004150919 0.40249163 -0.40972725
-0.5822987 -0.69723934 -0.6286594 -0.3247688 -0.21253347 -0.93792254 0.14052305 -0.5194619
-0.07844532 -0.17153658 -0.12798218 0.50352305 0.23389268 -0.6307318 -0.627611 -0.9716609
-0.08811437 0.3007394 0.11518474 0.21022454 -0.010144545 1.8830013 0.11988752 -0.6812008
-0.8115954 -0.8917121 0.1866384 -0.14352036 0.6570426 0.087523766 0.11013541 0.52374023
-0.61327195 0.015305826 -0.65429914 0.093610846 -0.649151 -0.5308562 -0.27249867 0.030396009
1.0677567 0.40498042 -0.0038610427 0.277946 -0.032816786 0.06033482 0.15092328 0.114718325
0.33358073 -0.5620181 -0.7558272 -0.11274129 0.09810441 0.028542986 0.10828718 0.13895296

fc1.bias f4 [16]
00000000: aad3 c4bd 23f3 a0bf 3e07 8e3e 2f9b 91be
00000010: 7804 c3be 05d9 033f f984 323d 20dc 68bf
00000020: c376 d7be ef14 d0be 556f 04bf 43cf a1be
00000030: a1ce 0d3f 9a5b 03be 2e6f f9be 8559 23be
-0.09610684 -1.25742 0.277399 -0.28438708 -0.38089347 0.5150302 0.043583844 -0.90960884
-0.42082796 -0.4064097 -0.5173238 -0.3160344 0.55393416 -0.12827912 -0.48717636 -0.15952118

fc2.weight f4 [16, 16]
00000000: d361 c53e 0c18 4fbf 284e 993e c0d7 093f
00000010: dd6d 0a3f 4039 b53e cdf5 df3e 4e25 d53e
00000020: 0fb0 433f 3428 8f3e 1d7b a13e 4e6d da3e
00000030: 5f8e 97be 3679 eb3e 622f f93e 1eb7 d83d
00000040: 5650 cbbd 61a3 aebd a3ff 19bd 6924 cdbd
00000050: 43d5 cebd 7f71 063e b796 bfbd 5ceb 85bd
00000060: 9a46 64be df50 3c3c 9dd8 ebbd 1b4a 71be
00000070: 38e3 e2be c3b3 c3bd 2bf9 54bd 2ce1 dabc
00000080: 9f10 bd3e e9e8 6dbf 50de ad3e 3957 a33e
00000090: 1005 333f d279 c83e 94c1 123f 9e85 1b3f
000000a0: a731 4a3f 3c45 b03e 7965 88be 29be 8e3e
000000b0: 9c61 37bf 8988 fa3e de15 a13e bea8 d43d
000000c0: 2ef4 8e3e 3fbe bebf 1c47 593e b382 27be
000000d0: d99d b53c 4d79 3c3f 47d3 903e 6c93 0cbe
000000e0: eaec 323f 8815 51bf 2a9c b8bf 6335 f83e
000000f0: 9fb5 10bf aae6 9dbf 4a3e bb3c 7c9b e03d
00000100: 6008 c6bf 15dc 71be e940 cbbe 3afe 77bf
00000110: ec65 f1bd fc32 66bf 37ca b7be 0f6f b13e
00000120: 0141 3d3d 5f9c 53bf 4d55 a7be 9437 013e
00000130: 1637 c3be 518f 793d 9c7e e7bd 640d 523f
00000140: ca4f d03e 3ea7 d0be 5b46 8f3d 3000 ebbd
00000150: b7de b73e c121 8fbe ff79 e53e 6e4c f3be
00000160: 04d9 62be e755 1e3f 9651 8a3e aa56 69bf
00000170: 6cee e6be dd9a ce3e 027d 0b3e 8a7b 09bc
00000180: b5c2 073f 21d8 aabf a765 1f3e aebc 57bf
00000190: 76f8 ae3e 2a3a 083f 3ab9 9dbf ec3b 163f
000001a0: 1be6 acbe 79a1 07be 7c80 f73c bced a63e
000001b0: 5c81 1dbf b4b7 d43e bcda 48bd b44e 473e
000001c0: 6425 65be 483c e5be 52b5 74be d414 763e
000001d0: bd68 adbe de26 66bc fdf5 2fbd 3faa 353e
000001e0: 6b03 5bbe 42a6 76be 30fa 4bbd 416b b7be
000001f0: 5ebd 87be fb46 c2bd c925 2cbe 4cfc a8be
00000200: e1dd 7a3e baad eebe c04f ac3c f302 e43e
00000210: fd06 343f fd0a 433e 4273 293f e22f e33e
00000220: ee37 cb3e 1378 193e a959 cc3e d16b de3e
00000230: 639d 9dbe 6433 bf3e a307 e83e 86c6 933e
00000240: fcf7 33bf a553 6cbe 07dc debd 2b69 e73e
00000250: 4146 39bf 16c8 8a3e 472e 223f b3a4 c3bf
00000260: 5b18 aebe 5199 b7be 69cc 3f3f 3e67 a0bc
00000270: e3d8 3bbf afe3 69bf e40b 6d3e d135 083f
00000280: 0dd1 3d3f 010f 92bf 5ce0 513e 5cc0 133f
00000290: 5228 e9bd d26f f63e 8aba 04bd eb3b 243f
000002a0: 861f e0bb 1beb e73e 4f0e 0c3f eb19 993e
000002b0: f300 16bf f901 d63e 4493 e23e c011 2e3e
000002c0: 6ce9 0f3f 4b42 93bf dddf be3e 12da 5b3e
000002d0: 707e 113f e9c1 1d3f 298c a83e 54bd a33e
000002e0: af44 a63e 039d 6e3e c4fc 823e 6d16 8d3e
000002f0: 9a77 a6be c5de 933e c9be 663e c360 92be
00000300: 3bda c2bf 3710 c5bd a4b8 373f 1e6f 103f
00000310: f6f0 31bf 4c8f 94be b232 1bbf 2ef7 8abf
00000320: dca4 abbf 3a37 eb3e 0e9a b3bf 62a2 203f
00000330: ce70 d1be d9f0 50c0 cb3c 98be 961f b63e
00000340: 2bd9 b73e 7f69 f8be 41c1 1a3e 75ef d43e
00000350: d596 bf3e c7d4 803c df0f ae3e 3eb3 d73e
00000360: 6c0e 953e e6d2 b13e 3472 a03d 2e5f c93e
00000370: 3dbe a0be 2b61 053f 5785 a13e 58b3 c93e
00000380: edce 4f3e a7c3 3abe a505 53bf 3397 663e
00000390: e824 acbe f77e 45be 383e 2abf 9777 443e
000003a0: 736e 1bbe c8ca b93e 9a33 d03d 5a3c 3ebf
000003b0: b063 9abf 6788 b13d 5e81 ad3e dbc9 8e3d
000003c0: eef5 1dbf 26b2 30be b4cd 473e 2562 2ebf
000003d0: df29 653d e6f5 35be 82d0 c43e 6f45 afbd
000003e0: 0932 703e 55f0 7ebf 138d 3f3f 20c7 513e
000003f0: 88af 7ebf 2961 b8bd b44e 443e 84db 2bbf
0.38551196 -0.8089607 0.2994244 0.53844833 0.5407389 0.3539524 0.4374222 0.41630024
0.7644052 0.2796036 0.3153924 0.42661518 -0.29600808 0.45990914 0.48668963 0.10581802
-0.09927432 -0.08527256 -0.03759731 -0.1001671 -0.1009927 0.13129233 -0.093549185 -0.06539032
-0.22292557 0.011493891 -0.11515925 -0.23563425 -0.4431398 -0.09555771 -0.051995438 -0.026718698
0.36926743 -0.9293352 0.33958673 0.31902483 0.699296 0.39155442 0.57326627 0.6075076
0.78982013 0.34427822 -0.26639917 0.27879456 -0.71633315 0.48932293 0.31461996 0.103837475
0.2792067 -1.4901809 0.21218532 -0.16358452 0.022169994 0.7362259 0.28286192 -0.13728112
0.6989275 -0.8167348 -1.4422657 0.4847823 -0.5652713 -1.2336018 0.02285685 0.10967156
-1.5471306 -0.23619111 -0.3969796 -0.96872294 -0.11787018 -0.89921546 -0.35896465 0.34655043
0.04620457 -0.8266048 -0.32682267 0.12618858 -0.38127965 0.060927693 -0.11303446 0.8205168
0.40685874 -0.40752596 0.06995841 -0.11474645 0.35912105 -0.2795544 0.44819638 -0.4751925
-0.22153097 0.61849827 0.2701537 -0.91147864 -0.45103776 0.40352526 0.13621905 -0.00839127
0.53031474 -1.3347207 0.15566121 -0.8427228 0.34173936 0.5321375 -1.2322152 0.58685184
-0.33769307 -0.1324519 0.030212633 0.32603252 -0.6152551 0.41546404 -0.049036726 0.19463617
-0.22377545 -0.44772553 -0.23897293 0.24031383 -0.3386897 -0.014047353 -0.042959202 0.17740725
-0.21388023 -0.2408686 -0.049799144 -0.35824016 -0.26511663 -0.09486195 -0.16811289 -0.33004987
0.24498703 -0.46616918 0.021034122 0.445335 0.70323163 0.1904716 0.66191494 0.4437247
0.39691108 0.14987211 0.39912155 0.43441632 -0.3078414 0.37343895 0.45318326 0.288624
-0.7030027 -0.23078783 -0.10881811 0.45197424 -0.72372824 0.27105778 0.63351864 -1.5284637
-0.34002957 -0.3585916 0.7492128 -0.01958048 -0.7337782 -0.9136304 0.23149067 0.5320712
0.7414711 -1.1410829 0.20495743 0.5771539 -0.113846436 0.48132187 -0.03240446 0.6415393
-0.0068396954 0.4529656 0.54709333 0.29902586 -0.585952 0.4179838 0.4425298 0.16998959
0.5621555 -1.1504606 0.3728017 0.21469906 0.56833553 0.6162401 0.32919434 0.31980383
0.32474276 0.23302083 0.2558347 0.27556172 -0.32513124 0.28880897 0.22533716 -0.28589448
-1.5222849 -0.09622233 0.71766114 0.5641955 -0.695083 -0.29015577 -0.6062423 -1.0856683
-1.3409686 0.45940572 -1.4031389 0.62747777 -0.40906376 -3.2647002 -0.2973388 0.35570973
0.35907874 -0.48517987 0.15112783 0.4158894 0.37419763 0.01572646 0.33996484 0.42128938
0.29112566 0.34731215 0.078342825 0.3933043 -0.3139514 0.5210139 0.31547043 0.3939464
0.2029378 -0.18238698 -0.8243049 0.22518615 -0.33621907 -0.19286714 -0.6650119 0.19186245
-0.15178852 0.36287522 0.10166092 -0.7431084 -1.2061672 0.08668595 0.33887762 0.069720946
-0.61703384 -0.17255458 0.19512063 -0.68118507 0.055948135 -0.17769584 0.3844033 -0.08558165
0.23456587 -0.9958547 0.7482464 0.20486116 -0.9948659 -0.09002907 0.19170648 -0.6713183

fc2.bias f4 [16]
00000000: cf49 273f a00a debe e9f2 a1bf eb96 76bd
00000010: 7384 1ebf b879 3ebf 7453 b0be c4f7 c5be
00000020: 4188 2d3f 8840 3ebf 807a 84bf 95a3 263f
00000030: fb96 cbbe b13d 763e 5a72 1bbf b716 0ebf
0.65347 -0.4336748 -1.2652255 -0.06020252 -0.6192085 -0.7440448 -0.3443867 -0.38665593
0.6778603 -0.74317217 -1.0349884 0.65093356 -0.39763626 0.24046971 -0.6072136 -0.5550341

fc3.weight f4 [16, 16]
00000000: 07cd 63be f5fd cfbd b26a a43e 54db 91be
00000010: 7333 02bf 2e36 a83d 8a4e 2e3e 5350 e43d
00000020: ef82 3fbe 9c00 d2be 828f d23e 082d a2be
00000030: 1be5 0bbe 5635 adbd 60ae 4d3c 5efd dbbd
00000040: 2cbd e63d 3216 fbbd dff5 033f d8e6 323e
00000050: 6ef5 733f 485b 293e 18aa bb3e eac9 a03c
00000060: 3288 533d 9c0a da3d b917 583f b460 c23d
00000070: 4473 f83e cd97 9d3c a03b 6e3e 6c3b 983c
00000080: d69b 8ebd eea1 65be 26c8 a7be 2495 24be
00000090: 0a24 32be 8620 84be 5c70 c7be b884 0fbe
000000a0: be2c 1ebe a3dd 8bbe 3a6d 0c3e 8366 80be
000000b0: 7ab9 f43d 55d7 b2b9 fe98 83bd a052 c23d
000000c0: f154 4abe fdbe 3cbe bfb7 bb3d eb28 7cbe
000000d0: 6a64 a83b cc93 b8be dd2c 73bd 447d 56be
000000e0: 7d3c 5ebe 8688 093e c8ef 27be d7f4 263d
000000f0: c019 0a3d a79f 21be fb96 05be 8b48 663d
00000100: f19c 95be afbd 07be a57e 423c 0e3c a43d
00000110: 936c 7e3d e8f5 8ebe 1e9c 983c d801 943d
00000120: 00cb 0dbe e06f 86bd 38b3 f23d 0747 6cbe
00000130: 2eec 93bd 742b 7fbe beb4 483d 9a9d c83d
00000140: 0548 edbd fd0e 3a3e 8a2e 94be a694 8bbe
00000150: 4fca 3f3c c5c7 553d c942 f63d 65c9 abbb
00000160: 0777 5cbd 5de8 e13d 5c6d 4a3c e40a f4be
00000170: c3f6 003e e216 89be 119f 32be 02fb 783e
00000180: e178 90bd c56a fcbd 6740 343f a5dc fe3c
00000190: 620d 483f 45b1 2f3e 0771 713e c8d6 e43e
000001a0: 9e99 34be b37a 933e f77b 803f ed36 f6bb
000001b0: 123d d43d a6f8 d3bd 659d e93e 276d 06bd
000001c0: 59a0 f8bd 9692 6ebe 94cc 92bd c2a2 40be
000001d0: e431 46be fff3 90be 5f67 d3bd 069f c13c
000001e0: 9ba3 bbbe 282c 92bb 56dc 3abe 1c3a 94be
000001f0: b2d6 12bd acf1 4bbe bc95 e5bd 2f3a 4bbe
00000200: c86a 643e 893f aa3d 2ebd f13e 44bf 913e
00000210: c9f7 9a3f daaf cf3e df78 063f 29c1 ad3e
00000220: e90b 6bbe 445e dc3e 308b 8f3f f341 0b3e
00000230: 2c87 033e 9145 05bd c817 ce3e ccef 753e
00000240: dc7d b9bf 6b0f 4cbe a050 0dbe 66ef 0c3e
00000250: 4bad 3fbf 493f 49bf a141 b4be 3191 7ebe
00000260: e6bf 8abf 7a5f 4dbd e57f 863c df65 94bf
00000270: d89a 91be c6f1 7fbf 699c 85bd bee1 60be
00000280: 93db 6ebe 2043 37be 727f f73d f0b0 813c
00000290: fa04 d9bd dc31 c2bd 6a21 363e 927e 85be
000002a0: c6b9 443d 6189 243d 8796 143e 63ce 2bbe
000002b0: e35c ed3c ba16 9dbe 2f84 1a3c be1d 9fbd
000002c0: d85d 5fbe a675 6abe 40cb 16be 8514 75be
000002d0: 40b1 553d de16 20be 902b 87be 89b4 4e3e
000002e0: de67 a9be 5611 2cbe 9f54 79be ff9a ccbe
000002f0: 6a7c ea3d 784f 1bbe 3091 abbd 7680 483d
00000300: 4043 aabe 6e69 783d 44f1 a9be 06c4 47be
00000310: 98ac 03be 9da0 5a3d 7028 863d 9660 113e
00000320: 07a9 2ebe 3626 803d 1f2c a0be 0f1c 8abc
00000330: 0829 c33d 566b 833d 990a 5ebe e158 47be
00000340: 3b65 39be 9c2f ca3d 38fc f03f 52b2 ae3e
00000350: de66 8a3f 064f e43e 04d0 7d3f 5175 523e
00000360: 9463 5fbe 98e9 7f3f adc6 e13f 027a bbbe
00000370: 221a 3d3f 8e23 d4bd 96b0 153f 95b3 4f3f
00000380: 68dd 5dbe bbd6 c43d 40e1 2e3f be4b 173d
00000390: 8bc0 5e3f ebe5 d83d cf4b 023f 38f7 b1bc
000003a0: 7e86 d4bd 1dea 8a3e 7f55 463f 4e12 08be
000003b0: b0fb 34be 99d1 d4bd 9410 f63e 5395 f63d
000003c0: 3941 e63e 970a 80be bde4 7f3f 044f 1b3f
000003d0: 47f6 9f3f 05a1 bc3e 51bc 1f3f ce07 163d
000003e0: ec29 7b3e 3fa2 f83e 80df 633f e07c 993e
000003f0: 8d73 1d3f 112a 563e 88cb d73e a82a a0bd
-0.2224618 -0.1015586 0.32112652 -0.28487647 -0.50859755 0.08213459 0.17022148 0.11148133
-0.18702291 -0.4101609 0.41125113 -0.3167498 -0.13661616 -0.08457439 0.012553781 -0.10741685
0.112665504 -0.12260093 0.51547045 0.17470872 0.9529637 0.16538727 0.3665321 0.01962753
0.051643558 0.10646555 0.844112 0.09491101 0.4852544 0.019237423 0.23264933 0.018583022
-0.06963317 -0.22425053 -0.3276989 -0.16072518 -0.1739656 -0.25806063 -0.3895291 -0.14015472
-0.15446755 -0.27317533 0.13713542 -0.2507821 0.11949439 -0.0003411124 -0.06425665 0.09488416
-0.19758965 -0.18432231 0.09165906 -0.24624984 0.0051389234 -0.3605026 -0.059368957 -0.20946223
-0.21702762 0.13430986 -0.16400063 0.04076084 0.033715963 -0.15783559 -0.13045876 0.056221526
-0.292213 -0.13255952 0.011871015 0.08019267 0.062115263 -0.27921987 0.01862913 0.07226914
-0.1384697 -0.06564307 0.118505895 -0.2307397 -0.07222782 -0.2491892 0.049000494 0.09795685
-0.11586002 0.1816978 -0.28941756 -0.27261847 0.011705949 0.05219247 0.12024457 -0.005242514
-0.05382445 0.11030648 0.012355175 -0.4766456 0.12594132 -0.2677527 -0.17443492 0.24314502
-0.07054306 -0.12325052 0.7041077 0.03111107 0.7814542 0.17157467 0.23578273 0.44695115
-0.17636725 0.2880455 1.0037831 -0.007513872 0.10363211 -0.1035016 0.45627895 -0.03281894
-0.12139959 -0.23298106 -0.071679264 -0.18812087 -0.1935497 -0.28311154 -0.10322451 0.023635399
-0.3664826 -0.0044608302 -0.18248114 -0.28950584 -0.03584928 -0.19916409 -0.112102 -0.19846414
0.22306359 0.083128996 0.47214645 0.28466237 1.2106868 0.40563852 0.52528185 0.33936432
-0.22953762 0.4304067 1.1214352 0.13599376 0.12844533 -0.032537047 0.4025252 0.24017256
-1.4491534 -0.19927756 -0.13800287 0.13763198 -0.748738 -0.7861219 -0.3520632 -0.24860074
-1.0839813 -0.05013988 0.016418407 -1.1593589 -0.2843845 -0.9997829 -0.065239735 -0.21961114
-0.23325948 -0.178967 0.12084855 0.01583144 -0.10596652 -0.09482166 0.17786184 -0.26073128
0.04802873 0.040170077 0.14510547 -0.16777949 0.028974956 -0.30681401 0.009430929 -0.07769345
-0.21813142 -0.22896442 -0.14725971 -0.23933609 0.052170992 -0.15633723 -0.26400423 0.20186056
-0.33087057 -0.16803488 -0.24348687 -0.39962003 0.11449511 -0.15167034 -0.08377302 0.048950635
-0.33254433 0.06064742 -0.33191884 -0.19508371 -0.12858808 0.05337583 0.065506816 0.14197001
-0.17056666 0.06257288 -0.31283662 -0.016859083 0.095293105 0.06416957 -0.2168373 -0.19467498
-0.18105023 0.09872362 1.8826971 0.34120423 1.0812643 0.4459154 0.9914553 0.20552565
-0.2181533 0.9996581 1.7638756 -0.36616522 0.73868 -0.10358344 0.58472574 0.81133395
-0.21666491 0.09611269 0.68312454 0.036937468 0.8701255 0.10590728 0.50896925 -0.021724328
-0.10377215 0.2713174 0.77474207 -0.13288233 -0.17674136 -0.1039154 0.48059523 0.120402
0.44971636 -0.2500808 0.999584 0.60667443 1.2497033 0.36841598 0.62396723 0.036628537
0.2452771 0.48561284 0.8901291 0.29978085 0.6150444 0.20914485 0.4214747 -0.07820636

fc3.bias f4 [16]
00000000: c2b9 8a3f e756 48be c9ca abbe f355 86be
00000010: cc32 65be f094 9dbe cee1 4ebe 5088 acbe
00000020: 01a8 15be 05ad a73f 425d dbbe 4d3d 98be
00000030: cfc0 24bd 0c5f 9dbf 6c65 9cbe 8398 6abe
1.0837939 -0.195644 -0.3355315 -0.2623745 -0.22382659 -0.30777693 -0.20203325 -0.33697748
-0.1461487 1.3099676 -0.42844588 -0.2973427 -0.04022294 -1.2294631 -0.3054613 -0.22909741

fc4.weight f4 [2, 16]
00000000: bac3 df3e 14eb d3bd ff0a be3d e2c9 163d
00000010: bb69 533e 8021 613d 70cf e4bd f376 88bd
00000020: bad4 963c adad ed3f b274 29bd 307b 91bc
00000030: 704b d1bc 94bc 6fbf 9139 013e e261 95be
00000040: c1ed d7be 06ac 0e3d ae8f 67bd 98e6 37be
00000050: 188f fb3c ace8 17be f6d7 bdbd 555e 8f3c
00000060: a437 163e 3bca efbf b799 873c 6a61 1a3e
00000070: 033e c8bc 81df 423f c698 633e a10f 923e
0.43704015 -0.10347572 0.09279441 0.036813624 0.20645802 0.05496359 -0.11172378 -0.06663313
0.018411983 1.8568627 -0.041371055 -0.017758936 -0.025548667 -0.9364712 0.12619616 -0.2917624
-0.4217358 0.034832023 -0.056533508 -0.17959058 0.03070788 -0.14834851 -0.09269707 0.017501036
0.14669663 -1.8733591 0.01655279 0.15076223 -0.024443632 0.7612229 0.22226247 0.2852755

fc4.bias f4 [2]
00000000: 0e5d 5e3e 9048 1cbf
0.21715185 -0.6104822
