data/results/1731507491.pth (torch, 7588 bytes, 8 tensors)

fc1.weight f4 [16, 32]
000000 5f f6 b1 3d 89 f0 86 bf f3 a0 24 3f b2 6f 24 bf
       0.0868957 -1.0542156 0.6430809 -0.64232934
000010 7e fb 43 3f 37 47 34 bf 11 36 01 3f 2b ee 76 be
       0.7655562 -0.70421165 0.50473124 -0.24114291
000020 e6 bb bf be 39 1f 9f bc 3b 0e c9 be 1f 97 c6 be
       -0.37448043 -0.019424068 -0.3926867 -0.3878717
000030 ac c7 a4 3e 78 21 42 bf 35 4f 43 be e5 2c 8b be
       0.32183588 -0.7583232 -0.19073184 -0.2718269
000040 0d dd bb be 62 c3 04 bf 47 fe e4 be e0 20 5c 3e
       -0.36692086 -0.5186063 -0.44725248 0.21496916
000050 c0 6d 9b be d1 bc e5 bd 18 5f 00 bf 3e 6b 2a 3e
       -0.3035717 -0.112176545 -0.501451 0.16642472
000060 11 df 1f bf 75 c9 cf 3e 2b 1c ea be 83 fa 13 3e
       -0.6244975 0.40583387 -0.45724615 0.14451031
000070 c2 20 23 3e a3 28 b2 be f9 b8 12 bf de 70 af bd
       0.15930465 -0.34796628 -0.57313496 -0.085664496
000080 9e af 83 bc ad 49 ab bd fb 0b 3b c0 69 13 24 bf
       -0.016074952 -0.08363662 -2.9226062 -0.6409212
000090 18 21 c8 be c4 75 60 3e 10 9c e8 3d fe 8b 09 be
       -0.3908775 0.21919924 0.113578916 -0.13432309
0000a0 1a 56 a5 3e 34 52 33 be 24 ae 35 bf bc 49 84 bd
       0.32292253 -0.17511827 -0.7096884 -0.06459376
0000b0 11 ca 01 bd 6b 32 25 be 18 0e 07 bf d1 17 bf bd
       -0.031686846 -0.16132514 -0.5275588 -0.093307145
0000c0 d6 61 71 be c4 3e 44 be 0f 96 9a be c8 47 14 3d
       -0.23572478 -0.19164568 -0.3019261 0.03620127
0000d0 d8 50 c7 be f5 84 d4 be c4 cc c4 3d c0 dd 0b 3e
       -0.38928866 -0.41507688 0.096093684 0.1365881
0000e0 78 39 94 be 4b 2f ab 3e a7 7a e5 3e 8b 13 f1 be
       -0.28950095 0.3343452 0.4482014 -0.47085223
0000f0 65 a6 f7 3d 67 60 4c bd db bf 11 3e 94 53 c3 3b
       0.12092284 -0.049896624 0.14233343 0.005960891
000100 c7 91 2f be 7c d7 20 3d 9a 61 95 3f a7 1d c1 3d
       -0.17145453 0.039268002 1.1670411 0.09429484
000110 22 28 a9 be 87 9f 84 3e af fa fb be 54 9b e3 be
       -0.3303843 0.2590296 -0.49214694 -0.44454443
000120 19 d0 c1 3e a4 fe 3f 3e bd db 2e 3f 0b ba 82 3e
       0.37854078 0.18749481 0.68304044 0.25532565
000130 80 79 34 bd fa 29 e0 be d6 8f 2a bf 4a cc 38 be
       -0.044061184 -0.43782026 -0.66625726 -0.1804668
000140 5b 8a 28 3e 74 db ac bd c2 5d c2 be df 30 be be
       0.16459028 -0.08440295 -0.37962157 -0.3714666
000150 57 91 f5 be c6 eb ba be e4 e6 5b 3f ae 5d 85 3f
       -0.47962448 -0.36508006 0.85899186 1.0419214
000160 b3 b1 61 bf a5 58 a5 be 9c d4 2f 3d a4 6c a1 be
       -0.8816177 -0.32294193 0.04292737 -0.315282
000170 31 7b 91 be 42 d7 34 3f 47 dd e3 be f1 fb 48 be
       -0.284143 0.7064096 -0.4450476 -0.19627358
000180 75 5b 4b bc 90 b3 98 3b 5c 3f 1d 3f 05 5a b3 be
       -0.012411942 0.0046600774 0.61424804 -0.35029617
000190 da 28 da 3d bb a0 53 bd 3f 7c 5f be 82 1b 87 be
       0.10652323 -0.051666956 -0.2182474 -0.26388174
0001a0 ae 5d e7 be bc b0 d6 be 2f 1f 97 be 1b 3d 99 be
       -0.4518866 -0.41931713 -0.2951598 -0.29929432
0001b0 b0 a3 c8 be 67 b4 cf 3d 09 3d f4 be c2 e3 6b 3d
       -0.39187384 0.10141831 -0.47702816 0.057590254
0001c0 bb 06 87 3d 89 35 88 3e f6 89 a4 be dd 08 8e bf
       0.065930806 0.26603344 -0.32136506 -1.1096455
0001d0 cc 99 f9 3d f7 5d b3 be aa 35 9d bf 82 89 35 bf
       0.121875376 -0.35032627 -1.2282002 -0.70912945
0001e0 ea 6d 45 bf 74 33 2f 3d 03 1b 50 be 5d f6 1b 3f
       -0.7712084 0.04277368 -0.20322804 0.60922796
0001f0 9e 34 05 be 82 08 b1 bd 14 23 d7 bd bc a5 cf bd
       -0.13008353 -0.08644201 -0.105047375 -0.10139033
000200 42 bb 53 bd 87 d5 13 3e b6 db b9 bf 75 b0 3a bf
       -0.051692255 0.14436923 -1.4520175 -0.729255
000210 12 cb 2d 3e 06 3b 8f 3d 95 48 33 3e 1c 0b ad bf
       0.16971996 0.0699368 0.17508157 -1.3519015
000220 60 16 f1 bd 51 8a d6 bc b6 76 07 bf 1b fc 09 be
       -0.11771846 -0.026189001 -0.52915514 -0.13475077
000230 e7 ca a5 be b3 ea d6 3e 46 62 6f bf 13 e4 31 bd
       -0.32381365 0.41975936 -0.9350933 -0.0434304
000240 c7 9b 64 be 1c 41 3d bf 1b e2 82 be a8 a1 42 be
       -0.2232505 -0.73927474 -0.2556313 -0.1900698
000250 16 11 50 3f e3 b3 8c be d9 9e 0e bf 3c c3 30 bf
       0.8127607 -0.27480993 -0.5571113 -0.69047904
000260 1c 6c 34 3e 9b f0 d4 bd 9f 9d 0c bf 75 65 24 be
       0.17619365 -0.10397454 -0.5492801 -0.16054328
000270 bd fb d8 bc 96 b4 07 3f e3 7e 99 be 5b 26 9f 3e
       -0.026487226 0.5300993 -0.2997962 0.3108395
000280 23 9f b2 bc af 7c c6 bd 8b 2c c7 be e5 24 f6 bd
       -0.021804398 -0.0969175 -0.3890117 -0.12018756
000290 a5 52 5f be 36 17 e6 3d a8 2b 0b 3e c3 57 a0 be
       -0.2180887 0.11234896 0.13590872 -0.31316957
0002a0 f5 76 9e 3e 7c a2 4d be 23 38 a2 3e 36 51 3a bd
       0.30950132 -0.20081514 0.31683454 -0.045487605
0002b0 f3 0a 27 be 1b 23 66 be 72 68 a3 bf 0d 8c 08 bf
       -0.1631277 -0.22474329 -1.2766249 -0.533387
0002c0 a7 9a e2 bd b6 00 22 3c 93 81 ab 3d 64 27 07 bf
       -0.11064654 0.009887865 0.08374324 -0.5279448
0002d0 42 a6 10 3f 74 7b 93 bb 1e 68 8c 3f 82 21 56 3f
       0.5650369 -0.0045008007 1.0969274 0.8364488
0002e0 d9 8e 19 3f 6e a0 01 be 29 68 a8 be 25 88 be 3e
       0.59983593 -0.12658855 -0.32891968 0.37213245
0002f0 8c 30 aa be 4d ce 03 3f 51 dc 55 be c7 33 09 bf
       -0.33240163 0.51486665 -0.20884825 -0.5359463
000300 0e fa 55 3d 50 33 c7 bf ca c8 a4 3e a4 01 64 3e
       0.052240424 -1.5562534 0.3218444 0.22266251
000310 e6 36 16 3f 10 53 fb be a6 a5 20 be 1f 2a ea be
       0.5867752 -0.4908681 -0.1568819 -0.4573526
000320 d7 33 31 bf 90 a8 34 bf ad de 1b be d5 0c 2a bf
       -0.69219726 -0.70569706 -0.15221663 -0.6642583
000330 4a 48 54 bf a7 31 37 3d 2c 0f 42 3d e2 d7 c8 3e
       -0.82922804 0.044725087 0.04737775 0.39227206
000340 bc 02 11 bf 43 03 c2 be 1c 26 dc be 12 e3 9d 3a
       -0.566448 -0.37893113 -0.42997825 0.0012045822
000350 5c ef 19 3f 7b f8 e3 bc ff a3 ef 3e 2c c7 93 3e
       0.6013086 -0.027828446 0.46804807 0.28862894
000360 0d df 85 3e a1 89 14 bf a3 b8 b3 bd 27 7c 4e bd
       0.26146737 -0.58022505 -0.08775451 -0.05041137
000370 51 85 bd 3e 77 00 d3 be 2d 12 01 bf e8 f8 17 3f
       0.37015775 -0.41211292 -0.5041836 0.59364176
000380 ce 5f c7 bb 56 86 02 3e ae 1a c5 3e a5 7f 3f 3f
       -0.006084419 0.12746558 0.38496917 0.74804145
000390 ee a7 8b bd 15 08 8b 3e 0e f9 8d bf 2c 9f 09 bf
       -0.068191394 0.27154604 -1.109163 -0.537585
0003a0 14 6f 9d 3e c4 5b a6 be 5b 82 70 be eb 82 b5 be
       0.30748808 -0.32491887 -0.23487227 -0.35451445
0003b0 c0 67 fd be d8 e5 4e be 5f 75 a3 3e 4e f0 e3 3e
       -0.49493217 -0.20204866 0.31925485 0.44519275
0003c0 ef 11 01 be b4 a7 43 bf ce 0a 11 be 88 d0 09 3f
       -0.12604497 -0.7642777 -0.14164278 0.5383382
0003d0 65 9e 38 3d 31 77 b9 3c db 8b 51 bf a7 ad b9 bb
       0.04507293 0.022639843 -0.8185403 -0.005666453
0003e0 f0 68 a3 3e c1 4f 12 be 82 de bd be da 0a a7 3e
       0.31915998 -0.14288236 -0.37083822 0.32625467
0003f0 03 97 c6 3d 60 e2 c9 be e2 e7 f5 be f4 87 e5 3d
       0.09696772 -0.39430523 -0.48028475 0.112075716

fc1.bias f4 [16]
000000 fe cb dd 3d 4a 0f 30 3e 57 e0 8f 3d 98 67 31 be
       0.10829924 0.17193332 0.07025211 -0.17324674
000010 1f 8d f2 be 58 42 23 bd eb b7 03 3f 2e ce c3 be
       -0.47373292 -0.039858192 0.5145251 -0.3824324
000020 a9 76 10 bd 3a 75 d3 be c8 31 ce be 8d 78 3d be
       -0.035269413 -0.41300374 -0.40272355 -0.18503018
000030 ee c0 5f bf c5 5f 81 bf 30 51 b5 be 31 7b ac be
       -0.8740376 -1.0107352 -0.35413504 -0.33687738

fc2.weight f4 [16, 16]
000000 68 a0 8d be df 55 20 bc 33 e8 92 3e d0 fb 3d bb
       -0.27661443 -0.009786098 0.2869278 -0.0028989203
000010 e4 c5 d2 be 8a 6c 0c 3f 20 b5 64 be bd 56 81 bf
       -0.41166604 0.5485312 -0.22334719 -1.0104595
000020 79 93 40 3f 0a 13 ab be 64 2d 57 bf 09 87 80 3c
       0.75225025 -0.33412963 -0.84053636 0.01568939
000030 15 e5 84 3e 3d 80 8c 3d 04 a6 16 3f a6 81 77 bf
       0.25956026 0.06860397 0.5884707 -0.966822
000040 6e df 32 3f 80 5d 39 bf a2 37 4d bf a9 97 fe 3d
       0.69872177 -0.72408295 -0.80163014 0.12431271
000050 7b 2d b1 be 86 9a aa be ed 9b 79 3e b5 60 10 3f
       -0.3460501 -0.33321017 0.24375887 0.56397563
000060 23 eb e1 3e 8a 1a 10 bf 5e 7a 6d 3e ae bd 2d bd
       0.44124708 -0.56290495 0.2319121 -0.04241722
000070 85 3f 8b 3e 74 10 63 be 0a 6d 0a 3f 4a da b1 3d
       0.271969 -0.22174245 0.5407263 0.086842135
000080 31 9a c6 bf f0 f1 ed 3e 2e 50 b0 3e a6 eb 60 3d
       -1.5515805 0.46473646 0.34436172 0.05491223
000090 24 e2 0d c0 9c 4c e4 3d 53 89 e7 3e 3e e7 aa 3e
       -2.2169275 0.111474246 0.45221958 0.3337955
0000a0 e4 e1 07 3e e1 bd d0 bf 82 a1 81 bf a2 c1 0c 3e
       0.13269764 -1.6307946 -1.0127413 0.1374574
0000b0 c1 5e 62 bf a2 9b 79 bd 17 a6 13 bf 3d 90 20 bd
       -0.88425833 -0.06093944 -0.5767531 -0.039200056
0000c0 14 53 d9 3e 25 c8 4c bf d8 40 2b bf 83 17 a5 3d
       0.42446196 -0.79992896 -0.6689582 0.08061125
0000d0 f7 4e aa 3d f3 ac 99 3e 86 60 03 3e 4c 64 10 3f
       0.083158426 0.30014762 0.1282979 0.5640304
0000e0 30 d2 9c 3e 9e 66 b1 bf bb cc 3d bf fe 4e fa bf
       0.3062911 -1.3859441 -0.7414052 -1.9555357
0000f0 55 19 48 3d c6 2c 26 3f a5 b1 89 be 07 c4 37 bf
       0.048852284 0.6491207 -0.26893345 -0.7178349
000100 d1 d1 16 3f 0c be 29 be 7d 1d c0 3d 20 6b 15 bf
       0.58913904 -0.16576403 0.093806244 -0.58366585
000110 93 15 09 3e a4 64 38 bf 98 b3 e1 be 0b b1 81 3e
       0.13387136 -0.72028565 -0.44082332 0.25330386
000120 3c dd d7 3e 64 87 e7 be 84 5b bf 3e 03 b0 d3 bf
       0.42160976 -0.45220482 0.37374508 -1.653809
000130 78 e5 35 3f ba 75 ac 3e c5 2c 3c 3d 6f 47 f3 3d
       0.71053267 0.33683568 0.045941133 0.11878859
000140 eb 0b 83 3c 83 f2 d8 bd 77 91 94 bf 1b e4 a2 be
       0.015996894 -0.105931304 -1.1606892 -0.31814656
000150 84 2a 2e 3f 3a c8 88 3e cb 6f ab 3e aa 39 19 3e
       0.68033624 0.2671526 0.3348373 0.14963403
000160 ae 6e 64 be 71 09 81 be e6 f9 f5 be 62 39 09 3f
       -0.22307846 -0.25202516 -0.4804222 0.53603184
000170 0e 2e 19 c0 5f da 4c bf 2c c2 86 be d6 d0 c0 be
       -2.393436 -0.8002071 -0.26320016 -0.3765933
000180 5c ff d5 3e f4 54 5a bf 9e 67 cc be 01 78 fb 3d
       0.41796386 -0.8528588 -0.39922804 0.12278748
000190 31 2a 3e be f2 25 c3 3e 5a 23 18 3f b0 f1 43 3e
       -0.18570782 0.38114887 0.5942894 0.19135165
0001a0 ad 7b a8 be 7f 0c de 3e 53 04 5b 3e c7 07 0e bd
       -0.32906857 0.4336891 0.21388368 -0.034675386
0001b0 8f 1a 04 c0 e2 3e 8f bf e1 d0 22 c0 31 4d de bd
       -2.064121 -1.1191065 -2.543999 -0.10854567
0001c0 b9 0a 73 be d0 9a bd bd 4f 97 dc be 4f 95 d9 be
       -0.23734559 -0.09258044 -0.4308419 -0.42496726
0001d0 0d 7d b6 3e f7 aa 2f 3d 99 2a c6 3d 1b a3 87 bf
       0.3564228 0.042887654 0.096760936 -1.0596651
0001e0 64 27 5c 3f eb 42 0d c0 e4 12 f5 3e 90 f7 03 c0
       0.85997605 -2.2072093 0.47865975 -2.061985
0001f0 4b 38 4b 3e 7c 54 96 be 57 45 36 3e 24 ab b0 be
       0.19845693 -0.2936133 0.17799889 -0.3450557
000200 2a b6 b0 3e 25 b7 d4 3e 6a 21 00 c0 c3 d8 0d bf
       0.3451398 0.41545978 -2.0020394 -0.5540888
000210 0a 8e a7 be 59 66 d6 3e b2 13 44 bf ba 41 23 3e
       -0.32725555 0.4187496 -0.7659255 0.15943041
000220 21 31 f0 bd 30 0e c9 bf 62 96 b4 3e ca cf f2 3e
       -0.117281206 -1.5707455 0.35270983 0.47424155
000230 e1 12 48 bf ae 0e c5 3e 63 89 99 bd b2 ee 90 bb
       -0.78153807 0.38487762 -0.074969076 -0.004422986
000240 aa 84 55 be 3e ce 0e 3f 1a 2b f5 be a6 a6 9f 3d
       -0.20851389 0.5578345 -0.47884446 0.077954575
000250 fd fc 22 bf 66 b6 b9 be 2d d2 78 3e c9 43 c3 be
       -0.6366728 -0.3627197 0.24298926 -0.38137653
000260 d8 18 11 be 3e 72 66 3f 46 1f 02 bf 62 27 cb 3e
       -0.14169633 0.9001807 -0.5082897 0.39678484
000270 ae 4a 00 3f 81 42 fe 3e f2 d6 05 3f dc bd 3a bd
       0.5011395 0.49660113 0.52281106 -0.04559122
000280 f5 c0 16 3e 02 c7 13 bf 20 fa b8 3d 1a 95 f9 3e
       0.14722045 -0.57725537 0.090320826 0.48746568
000290 c0 4e 4b bf 5c 51 36 bf c7 3a 0a bf 04 84 27 bf
       -0.7941704 -0.71217895 -0.5399594 -0.65435815
0002a0 c2 c6 83 bf a4 21 55 bf 97 5d e6 bd 6f b0 39 3f
       -1.0295031 -0.83254457 -0.112483196 0.7253484
0002b0 4d 92 c9 be dc 5c c4 3e 93 10 0d bf 73 56 0b bf
       -0.3936943 0.38352096 -0.55103415 -0.54428786
0002c0 a3 59 13 be 95 8a c8 3e 9c b9 ad 3e 27 9d 89 3e
       -0.14389662 0.3916823 0.3393067 0.2687771
0002d0 4e a7 dc 3e 67 03 60 3e 82 cb 2e be 58 5a 82 be
       0.43096393 0.21876298 -0.1706982 -0.25459552
0002e0 36 8f a2 bd 7d 12 36 3f 61 59 8a 3c cf 14 b5 3e
       -0.079374716 0.7112196 0.016888322 0.35367438
0002f0 73 30 c3 bc 5b c9 eb 3e a8 e3 be be ba 2a ed bf
       -0.023826813 0.4605206 -0.37283063 -1.8528664
000300 85 2c 81 3e 6a cc 15 3e 3f 8e 9c be e0 e9 7d 3e
       0.25229278 0.14628759 -0.30577275 0.24796247
000310 bc ae d3 3e 01 83 05 c0 6f 78 20 3e d2 93 96 3e
       0.4134425 -2.0861208 0.15670942 0.29409653
000320 76 a0 80 3e 35 1e 4b be 20 f8 8d 3e 33 13 9d bf
       0.25122422 -0.19835742 0.27728367 -1.2271484
000330 b6 00 98 bf ca 7a e3 be d8 21 b8 3e f6 24 62 be
       -1.1875217 -0.44429618 0.3596332 -0.22084412
000340 2a 8e 95 bd 66 e6 cc be 0a f8 51 bf 14 a3 47 3e
       -0.07302506 -0.4001953 -0.820191 0.19495803
000350 83 dc 7e be 2d 4f 22 3f 04 c2 c9 3e 7c 48 d2 3d
       -0.24888806 0.6340206 0.39405835 0.102677315
000360 bc de 15 3f b7 ac 5b 3e 5f 3b 87 be 1f 1d df be
       0.5854299 0.21452604 -0.26412484 -0.43576905
000370 40 77 72 bf 4d e4 91 bd 17 e6 88 be ab 70 25 3e
       -0.9471321 -0.07123623 -0.26738045 0.1615626
000380 6f 47 8e 3e f2 19 b0 be 21 83 07 3f 78 78 cb bf
       0.27788875 -0.34394795 0.5293446 -1.5896139
000390 8f 9d c8 bd b3 57 d2 bd de 8b dd 3e 1a ab c8 be
       -0.09795677 -0.102706335 0.43270773 -0.3919304
0003a0 48 0e f6 3d 21 12 6e 3c 72 f3 cd be 5e 70 e6 3e
       0.12014443 0.014530689 -0.40224797 0.45007604
0003b0 4b 07 88 3d af 04 87 bf d2 27 77 bf 88 c2 f7 3e
       0.06642016 -1.0548304 -0.96545136 0.48390603
0003c0 77 b3 ea be 5f 3f 09 be ab a0 0a bf 45 b7 fe 3e
       -0.45840046 -0.1340308 -0.5415141 0.497492
0003d0 90 76 80 3f 80 4c 95 be 8d ea b6 bd aa 35 7a be
       1.0036182 -0.29159927 -0.08931456 -0.24434534
0003e0 4f 95 05 bf 4d de 8b bc e8 6f b0 bf 20 40 08 3f
       -0.5218095 -0.017073775 -1.3784151 0.53222847
0003f0 37 ee 2d 3a 78 03 f7 3e 5c c6 fe 3d 7a 8e 25 3e
       0.0006634923 0.48244834 0.12440178 0.16167632

fc2.bias f4 [16]
000000 09 62 cf 3e ad 60 f0 3d 9c 95 fe be 74 f0 16 3d
       0.40504482 0.117371894 -0.49723518 0.036850408
000010 9f c5 04 bf 0e 70 1e 3e 97 cd b0 3d f0 82 51 3e
       -0.51864046 0.15472433 0.08632963 0.20460105
000020 3c 32 d3 be 1a 3d 2c be f5 95 38 3f 68 94 17 3e
       -0.41249263 -0.16820183 0.72103816 0.14802706
000030 f6 8e ac be 1f 08 2b 3f ac 83 f8 be 67 16 0e 3f
       -0.3370282 0.66809267 -0.48537958 0.55502933

fc3.weight f4 [16, 16]
000000 4c 24 94 bf 2c d7 ba 3e d8 58 d3 3e 09 83 83 bf
       -1.1573577 0.36492288 0.4127872 -1.0274364
000010 c4 49 46 bf 30 75 07 bf 57 16 28 bf 5f 61 8a 3d
       -0.7745631 -0.5291319 -0.6565909 0.06756853
000020 0f 78 05 bf a6 08 9b be b0 bc e6 bd 11 73 ee be
       -0.5213632 -0.30280036 -0.11266458 -0.46572164
000030 63 99 00 bf 25 b2 b0 bd 17 da be 3e 76 3f 40 3f
       -0.5023405 -0.086277284 0.37275764 0.75096834
000040 0d aa 25 3e bb f9 a4 be fa 4a dd be ce 14 87 bf
       0.1617815 -0.3222178 -0.43221265 -1.0553224
000050 07 fe da 3e 33 97 1f 3e 93 ef 30 bf 75 4a 12 bf
       0.42771932 0.15585022 -0.6911556 -0.5714486
000060 eb 19 8b bf 1d fc 6f 3e 13 e4 8a 3e 4d 59 bc be
       -1.0867285 0.23436017 0.27127132 -0.3678688
000070 30 9b 06 3e 25 5b d9 bf ac c1 82 bf 9a eb f4 3d
       0.13145137 -1.698094 -1.0215354 0.11959
000080 d2 6b 8d bf d9 5b ed be e4 3e 62 3f 97 8b 3b 3e
       -1.1048529 -0.46359137 0.88377213 0.18314968
000090 d2 78 ae be 8c c5 94 bf ed f0 4b 3f 1f 84 10 be
       -0.34076554 -1.1622787 0.796645 -0.141129
0000a0 d6 94 51 3e c1 1a bb bf 00 bf e4 bf bd 0f 99 bd
       0.20466933 -1.461754 -1.7870789 -0.07473705
0000b0 dd 7f 38 be da ce 26 3f f6 60 09 3f 04 5a a7 be
       -0.18017526 0.6515938 0.53663576 -0.32685864
0000c0 83 d8 d6 3d 8d 99 8c 3d a7 7d 97 bd 9f 96 a2 bf
       0.10490515 0.06865225 -0.07397013 -1.2702216
0000d0 22 01 dd 3e 94 8d 09 3e b8 88 23 bf 3f 00 94 be
       0.43164927 0.13432914 -0.6388049 -0.28906438
0000e0 5a 08 13 3d e3 81 26 3d b7 f3 a3 be bb 05 90 3e
       0.035896637 0.040651213 -0.32021877 0.28129372
0000f0 e6 ca 71 bd 19 99 84 bf e6 63 8e bf 64 f6 a4 3e
       -0.05903139 -1.0359222 -1.1124237 0.3221923
000100 fd 56 f7 3e 87 e3 3c bf 8b 08 83 bf 6a 5e 11 3e
       0.48308554 -0.7378468 -1.0236982 0.14196172
000110 40 51 04 bf 40 48 f9 be f7 e6 af be 67 73 1b be
       -0.5168648 -0.48687935 -0.343559 -0.15180741
000120 fd 6c c0 bd 89 0c 05 3e 57 b4 59 3f 73 22 61 3e
       -0.09395788 0.12993063 0.850408 0.21985798
000130 19 94 72 bf 79 41 0c bc bd d2 93 be 66 c4 bb 3e
       -0.9475723 -0.008560532 -0.28871718 0.36673278
000140 7d a9 09 3f 2f e8 96 bd 55 9a 89 bf 3d 3f 11 bf
       0.53774244 -0.07368504 -1.0750223 -0.5673712
000150 d5 94 85 bf a9 2c d0 be ba 3b e7 be c2 cb 23 be
       -1.0436045 -0.40659073 -0.45162755 -0.15995696
000160 52 e6 9e be 14 0b 6b 3e f7 dc 8e 3e ab e1 02 be
       -0.31035095 0.22953445 0.27902958 -0.12781398
000170 dc 42 d0 bd 5e 4c b0 be 9b 9c 3d bd 98 ae cf 3d
       -0.101690024 -0.34433264 -0.04629193 0.10140723
000180 72 e6 b5 3e 98 1a fb be 4b d6 01 bf dd 01 5d bf
       0.35527378 -0.49043727 -0.5071761 -0.8633097
000190 ea cf 1c bf 4b 53 45 be 59 29 45 bf 9a 17 2c 3e
       -0.6125475 -0.19270055 -0.77016217 0.16805878
0001a0 dd 34 5f bf cd 21 68 3e da ef b5 3e ce d3 80 3e
       -0.8719004 0.22669144 0.35534555 0.25161594
0001b0 a5 4d b5 bd 50 32 a4 be 70 df ed bd 77 86 91 3e
       -0.088527 -0.32069635 -0.11614883 0.284229
0001c0 78 37 02 bf 0c 08 ad bd 87 d1 aa 3f 28 cb 56 3f
       -0.5086589 -0.084488004 1.3345193 0.8390374
0001d0 87 ed 06 bf 8b b9 2a 3f 36 18 d4 3e 0e 34 26 3f
       -0.5270619 0.66689366 0.4142472 0.6492318
0001e0 03 64 4d 3f 62 49 a2 bf 4c a8 99 bf a7 c0 a0 bf
       0.8023073 -1.2678645 -1.2004485 -1.2558793
0001f0 5c 36 3c 3f 12 b4 d2 3c 23 32 d0 3e 80 05 7e 3e
       0.73520446 0.02572063 0.4066325 0.24806786
000200 ad 52 98 3e fc 2e 95 bc 57 23 18 3f db 11 12 3f
       0.29750577 -0.01821088 0.59428924 0.57058495
000210 99 18 c4 3e 34 e8 8d be 46 08 87 3e 35 a7 30 3f
       0.38300017 -0.2771622 0.263735 0.6900514
000220 fc d1 23 3d 17 64 a3 be 76 d3 ad bf 30 83 f8 bd
       0.03999518 -0.319123 -1.3580158 -0.12134397
000230 f2 af ae 3e 0f a7 85 3e 37 82 db ba b8 30 5a 3f
       0.3411861 0.26104018 -0.0016747181 0.8523059
000240 b9 9d 9a be 21 c4 93 be ec 56 45 3e 0b 04 a5 3e
       -0.30198458 -0.28860572 0.1927144 0.32229647
000250 a0 46 cb bd 42 a7 89 3d 3d 98 0c bf 52 6a aa 3f
       -0.0992558 0.06721355 -0.549198 1.3313696
000260 de aa e0 3d 51 d3 21 c0 10 28 c5 3d 6a 67 8e bd
       0.1097009 -2.5285227 0.09626782 -0.069533184
000270 42 3e 6a bf 3b 40 80 be c5 08 8e 3c e0 21 69 be
       -0.9150125 -0.25049004 0.017338166 -0.22766829
000280 b6 4b fc be dc 85 99 be 23 8d ca 3d 75 dc 8a be
       -0.49276513 -0.2998494 0.09890201 -0.2712132
000290 97 3e 0d 3c 92 36 00 be 0d cf a6 be 1f 87 55 3d
       0.00862088 -0.12520817 -0.32579842 0.052130815
0002a0 8c fb 10 bd 7a d6 b7 bd cc f6 b8 bd 2e d7 2e be
       -0.035396144 -0.08976455 -0.09031448 -0.17074272
0002b0 13 9e 27 be 2c 7c 34 be 1f 96 8c 3d c9 84 9a bd
       -0.16368894 -0.17625493 0.06864571 -0.07544858
0002c0 da b1 3b be 45 61 9c 3e bb 5a 61 3f 0b 0f 12 3f
       -0.18329564 0.3054296 0.8802907 0.57054204
0002d0 8a f5 14 3e 08 27 1f 3f 45 4a 05 3f cd 22 c2 3e
       0.1454679 0.6216893 0.5206645 0.37917176
0002e0 4b e1 10 bf 47 c0 56 be 44 ea 2e bf 6c e0 d7 bf
       -0.5659377 -0.20971785 -0.6832621 -1.6865363
0002f0 be 61 a1 3d 94 56 85 3e 1d 32 56 3f 7a 1a 85 3e
       0.07879971 0.26042616 0.83670217 0.25996763
000300 2a 2a b9 be 80 3e 4b bd ad 60 b8 3e a3 73 8b 3e
       -0.3616498 -0.04962015 0.36011258 0.2723666
000310 f6 2f ce 3d 2c 49 4b 3e 4b b7 e2 3e ce ce d7 3e
       0.100677416 0.19852132 0.44280466 0.42149967
000320 63 19 e8 3e ac d3 63 be 0e 29 1f bf 2a 3c 0c be
       0.4533187 -0.22248715 -0.6217202 -0.13694826
000330 59 2a 8b 3d 13 6c 9c 3d 3b de e3 3e 91 47 a5 be
       0.067951865 0.07637801 0.44505486 -0.32281163
000340 a2 75 25 3e 3e 72 0d be f9 ca ff 3e 51 f7 5d 3f
       0.16158155 -0.13813111 0.49959543 0.867055
000350 29 db 07 3f aa 53 4e 3f 0b e9 fb bd bc a5 73 3f
       0.53068787 0.8059641 -0.12300309 0.95174766
000360 45 8f 86 3e aa 69 7c be 2d b8 d9 bf ac 8c e0 be
       0.2628118 -0.24649683 -1.7009331 -0.43857324
000370 0a 6c fb 3d 8f 37 aa 3e d1 05 e9 3e 01 cd 19 bf
       0.12276466 0.33245513 0.4551225 -0.60078436
000380 6b ba a3 bf 36 be 8c bf e8 9c ec bd 4c 11 f0 bc
       -1.2791265 -1.0995548 -0.11553365 -0.029305123
000390 81 ea b3 bf 9d 3d 42 3e 12 ab a8 3e 37 f5 63 bf
       -1.405594 0.18968816 0.32943016 -0.89046043
0003a0 7d e5 30 3f 9c c2 c5 be 73 d6 19 bf 3f ad c9 3e
       0.6910017 -0.38625038 -0.6009285 0.3938999
0003b0 c8 b1 85 be 11 7d 44 bf 4c 3a 55 3e 06 c4 28 bf
       -0.261122 -0.76753336 0.2082302 -0.6592411
0003c0 3f d6 6e 3e 46 36 8a bf 24 bb 71 bf 38 7d 0f bf
       0.23323916 -1.0797813 -0.9442618 -0.56050444
0003d0 0a 90 2c bf 62 4a 0e be b8 b3 63 3f c2 bd d4 be
       -0.67407286 -0.13895562 0.88946104 -0.41551024
0003e0 06 4c 45 bf 4d 06 89 3e 76 c0 11 3d 9f b4 42 bd
       -0.7706913 0.2676262 0.035583936 -0.047535535
0003f0 be 72 14 3f d3 3f de be 55 c6 2a bf e9 c8 0b c0
       0.5798758 -0.4340807 -0.6670888 -2.1841376

fc3.bias f4 [16]
000000 5e c7 8c bb 0c 4b 6b 3d 00 6d f4 be 82 7e ae 3e
       -0.0042962274 0.057444617 -0.4773941 0.34080893
000010 23 ae 3d 3e 05 7b 86 be b1 71 4f 3e d3 c7 2a bd
       0.18523459 -0.2626573 0.20258214 -0.041694473
000020 84 3b 19 bd 9f 76 b9 be 05 83 89 be 01 99 a7 3d
       -0.037410274 -0.36223313 -0.26857772 0.0818348
000030 7f c8 81 be b8 90 94 be 5d f4 e0 be 98 74 b9 bf
       -0.2534828 -0.29016662 -0.43936434 -1.4488707

fc4.weight f4 [2, 16]
000000 56 33 29 3e 76 11 7a 3e c3 83 13 c0 4b 89 47 3e
       0.1652349 0.24420723 -2.304917 0.19485967
000010 ce 50 87 3e e5 af 1e 3e 01 c9 9a 3e f4 51 62 bf
       0.26428837 0.15496786 0.3023148 -0.884063
000020 ae 3c 7d be d0 d5 18 3f 50 d0 4f bd f8 d5 36 be
       -0.24730179 0.5970125 -0.05073577 -0.1785506
000030 74 ec 93 3d 62 98 b3 be 9c 24 a4 be bb 75 a7 bf
       0.07222834 -0.35077196 -0.3205918 -1.3082803
000040 50 e9 a0 be 63 b4 0e be f0 49 05 40 1a e5 25 be
       -0.31428003 -0.13936 2.0826378 -0.16200677
000050 92 19 26 be f0 b8 a9 bc a9 d7 8e 3d 4d f8 81 3f
       -0.16220692 -0.020718068 0.06974728 1.01539
000060 01 cb 5b 3e f4 93 61 be 34 97 df 3d a2 e7 89 3e
       0.21464159 -0.22029096 0.109175116 0.26934534
000070 36 8c f4 3d f3 4f 61 3d 61 1b 7f 3e 87 a7 77 3f
       0.119408056 0.055007886 0.24912788 0.9674

fc4.bias f4 [2]
000000 83 74 a0 be 4e 0d f0 bb
       -0.3133889 -0.007325805
