data/results/1731501784.pth (torch, 7588 bytes, 8 tensors)

fc1.weight f4 [16, 32]
-0.3886637 -0.059881277 -1.9820205 -0.05799869 0.5739943 0.5791448 0.38688642 0.5118239
0.14867589 0.33150008 -0.85312605 -0.3410592 -0.719425 0.03263703 0.5966743 -0.17610498
0.012993597 -1.2944444 -0.9940696 0.32471636 0.6963342 0.21929955 -0.49990353 -0.5456507
-0.6554206 0.4435274 -0.38224572 -0.6655153 0.26833534 1.0290049 -0.32309106 0.16279191
0.03902301 0.0029634405 0.7651735 -2.8883717 -0.97439003 1.2449065 1.0894428 -0.28198168
0.31778467 -0.08893352 0.5762361 0.42454705 0.27900118 0.46387276 0.8641949 0.9278706
0.34616318 0.34438995 0.3287348 -0.25708458 0.4184351 0.35476494 -0.34625813 -0.25796232
-1.0371789 0.34318233 0.60122824 -0.7705266 0.41217083 0.49549365 0.09272313 0.10867516
0.035375383 -0.101585574 1.021788 0.9988878 -0.15957946 0.67179835 0.6418494 -0.53061676
-0.43276083 -0.32069826 -0.99691117 0.7111698 1.2679526 0.026448015 -0.6997674 0.316835
-0.23273318 0.75632 0.8730012 0.37225366 1.133171 0.29749674 -0.8566979 -0.17381981
1.1629294 -0.32727423 -0.3429149 0.017655492 0.29747978 0.24579397 0.43971497 -0.6711816
-0.12650557 -0.031639565 1.3469006 -0.30528224 0.10478875 -0.33589828 -0.81228364 0.89784724
0.4274886 0.95669085 0.505131 0.3455319 0.29769444 -0.7562419 -0.74355155 -0.7954248
0.2829769 -0.98003 -0.71522045 -0.64638907 -0.79450035 -0.17433372 1.6351997 -0.77224576
-0.6218996 -0.1477166 0.10180181 -0.25450385 -1.0544901 1.1727248 -0.27638176 -0.34648982
0.04150576 -0.2408737 1.5249473 -0.52005357 0.9618807 0.6830353 0.25124592 0.11538987
-0.26975977 -0.31365404 -0.27340424 -0.31016532 0.2883788 0.34477228 -0.023624327 -0.18024161
-0.34736425 -0.6859998 0.55876714 -0.09238692 0.38786718 -0.49958146 0.17184032 -1.1671144
0.8367346 -0.1774677 -0.35930106 0.44893917 0.02922307 -0.32834917 -0.64576924 -0.45345527
0.1799564 -1.2495308 1.434994 0.36996362 -0.8136685 0.72025245 0.3007603 -0.8845482
-0.3989131 -0.06739937 0.9895112 0.21422532 0.051898777 0.35099202 0.34247687 -0.051184624
-0.38066766 -0.022761011 -0.025467586 0.98468477 0.6796402 0.4184122 1.2107863 -0.11934547
-0.46609813 -0.36864254 0.19779174 -0.3318206 0.41784212 0.13023558 0.25718066 -0.30624777
0.07885123 -0.16855909 0.73149806 -0.9190308 0.7680293 -0.041482195 0.5885421 0.056534853
-0.519276 -0.075916186 -0.9457111 -0.5438738 1.4102504 -0.35594237 -0.5857121 -0.64645797
-0.23199415 0.07402319 0.09352077 0.8262375 1.4484684 -0.16877382 0.00036021194 -1.1012534
-0.16062933 -0.21783179 -0.838937 -0.04107597 0.017709352 0.37117574 0.29595557 -0.26999077
-0.12508364 -0.46187183 -1.8857862 0.33486804 -0.19119056 -0.5772239 0.77456814 -0.8812347
-0.2828592 0.18877757 0.6074958 -0.3385189 -0.24466984 -0.517185 -0.08008032 -0.52275276
-0.46850836 1.1908917 -1.0679936 0.18739596 -0.511183 -0.04925477 -0.0904754 -0.51483923
0.51345694 -0.2540387 -0.28905642 -0.77086604 1.052727 0.4095764 -0.16581395 -0.31920528
00000000: eefe c6be 1246 75bd d9b2 fdbf 0990 6dbd
00000010: 4af1 123f d542 143f fa15 c63e e406 033f
00000020: 7e3e 183e 61ba a93e 7866 5abf 509f aebe
00000030: 3d2c 38bf 68ae 053d a6bf 183f dd54 34be
00000040: 19e3 543c 5bb0 a5bf 587b 7ebf 3941 a63e
00000050: f542 323f 1090 603e 5bf3 ffbe c4af 0bbf
00000060: a5c9 27bf 0616 e33e b6b5 c3be 365f 2abf
00000070: 4063 893e 6fb6 833f 316c a5be ecb2 263e
00000080: 97d6 1f3d 4836 423b 69e2 433f 15db 38c0
00000090: a071 79bf 1959 9f3f dd72 8b3f e75f 90be
000000a0: acb4 a23e c722 b6bd 3684 133f 3b5e d93e
000000b0: 3ed9 8e3e bb80 ed3e e13b 5d3f ed88 6d3f
000000c0: 4d3c b13e e153 b03e ed4f a83e 97a0 83be
000000d0: 203d d63e c0a3 b53e bf48 b1be a313 84be
000000e0: 47c2 84bf 98b5 af3e 18ea 193f 3b41 45bf
000000f0: 0e08 d33e 58b1 fd3e a0e5 bd3d 1591 de3d
00000100: c7e5 103d 190c d0bd f3c9 823f 1cb7 7f3f
00000110: cc68 23be fafa 2b3f 3e50 243f 80d6 07bf
00000120: d492 ddbe 9032 a4be 9235 7fbf 390f 363f
00000130: 454c a23f 82a9 d83c f523 33bf 3238 a23e
00000140: 9b51 6ebe 309e 413f 027d 5f3f 0898 be3e
00000150: bf0b 913f 7e51 983e 8e50 5bbf d2fd 31be
00000160: dfda 943f 7d90 a7be 8b92 afbe 40a2 903c
00000170: 454f 983e 6ab1 7b3e 5222 e13e 8fd2 2bbf
00000180: ad8a 01be 7d98 01bd 3d67 ac3f f44d 9cbe
00000190: 7c9b d63d dcfa abbe d2f1 4fbf 51d9 653f
000001a0: c9df da3e b1e9 743f 4450 013f 8fe9 b03e
000001b0: 686b 983e 1299 41bf 6559 3ebf f6a0 4bbf
000001c0: 59e2 903e 3fe3 7abf b018 37bf c179 25bf
000001d0: 6064 4bbf 8a84 32be 394e d13f e6b1 45bf
000001e0: d034 1fbf 0543 17be 787d d03d 544e 82be
000001f0: 88f9 86bf d91b 963f e981 8dbe 1d67 b1be
00000200: f201 2a3d 98a7 76be 7931 c33f 3b22 05bf
00000210: d03d 763f 67db 2e3f 4ea3 803e 8651 ec3d
00000220: f41d 8abe 4397 a0be a4fb 8bbe fdcd 9ebe
00000230: 63a6 933e fe85 b03e ce87 c1bc 4291 38be
00000240: bad9 b1be af9d 2fbf 5d0b 0f3f 5a35 bdbd
00000250: 8796 c63e 24c9 ffbe e9f6 2f3e 0164 95bf
00000260: 3d34 563f 18ba 35be 4ff6 b7be 5bdb e53e
00000270: 3865 ef3c 621d a8be 2251 25bf 4a2b e8be
00000280: 7e46 383e a0f0 9fbf e2ad b73f df6b bd3e
00000290: 944c 50bf 7762 383f 41fd 993e c071 62bf
000002a0: 563e ccbe ae08 8abd 9b50 7d3f e25d 5b3e
000002b0: d093 543d 3ab5 b33e 2159 af3e f8a6 51bd
000002c0: dfe6 c2be 4d75 babc 66a1 d0bc 4d14 7c3f
000002d0: e6fc 2d3f 203a d63e 0cfb 9a3f 666b f4bd
000002e0: 6aa4 eebe b7be bcbe eb89 4a3e 64e4 a9be
000002f0: 67ef d53e 7a5c 053e 2fad 833e 82cc 9cbe
00000300: c17c a13d c19a 2cbe 7543 3b3f 9a45 6bbf
00000310: 919d 443f 3ce9 29bd b2aa 163f 1791 673d
00000320: 46ef 04bf f279 9bbd 1f1a 72bf 503b 0bbf
00000330: 1683 b43f 143e b6be 3af1 15bf 457e 25bf
00000340: e08f 6dbe 7899 973d d187 bf3d 4d84 533f
00000350: 6a67 b93f 0bd3 2cbe d4da bc39 dff5 8cbf
00000360: 047c 24be 4c0f 5fbe 93c4 56bf 473f 28bd
00000370: 3413 913c bf0a be3e 7d87 973e 3b3c 8abe
00000380: ed15 00be 777a ecbe 7161 f1bf d373 ab3e
00000390: 75c7 43be f2c4 13bf 194a 463f 9998 61bf
000003a0: ecd2 90be e84e 413e d884 1b3f 5952 adbe
000003b0: bb8a 7abe 3c66 04bf 2701 a4bd 20d3 05bf
000003c0: 54e0 efbe 246f 983f 04b4 88bf bae4 3f3e
000003d0: e4dc 02bf 5fbf 49bd 2b4b b9bd 81cc 03bf
000003e0: ea71 033f 5c11 82be 34ff 93be 7a57 45bf
000003f0: c2bf 863f ffb3 d13e 22cb 29be e06e a3be

fc1.bias f4 [16]
-1.3175102 -1.2687857 -0.8892113 -0.9632766 0.17831421 0.016679902 -0.27244157 -0.44690862
-0.9071587 -1.1661141 -0.3196937 -0.36035764 -0.54487765 -0.99066573 -1.4083179 0.1348573
00000000: 2da4 a8bf 9267 a2bf 5aa3 63bf 4c99 76bf
00000010: 0098 363e 4aa4 883c 767d 8bbe 35d1 e4be
00000020: 8d3b 68bf 3a43 95bf e5ae a3be cc80 b8be
00000030: 1a7d 0bbf 459c 7dbf c343 b4bf 0818 0a3e

fc2.weight f4 [16, 16]
0.2616109 1.1698172 -0.99310005 -0.13526592 0.40027788 -1.0240247 -0.2647446 -1.6591607
-0.6141344 -0.35440502 -0.41952616 -0.64479667 -0.27785972 0.13753055 -0.1359672 0.020939723
0.30754903 -0.58889306 -3.5436578 -2.9713037 0.7465671 -0.7972845 -0.23719247 0.44238606
-0.258739 -0.35598454 -0.077562094 -0.67232215 1.0743862 0.16493681 -1.1594347 -0.47453964
-0.9159971 -1.1110044 -0.6804591 -1.9679666 0.19402239 -0.4693969 -1.8992457 -0.14906609
-0.8165545 -1.3191048 0.5664198 -0.01567488 -0.11604435 0.38956213 0.7415905 0.029855838
0.82695717 -0.83752894 -0.111818105 -1.8859774 -0.041016135 0.8897049 1.0945136e-05 -0.4281481
-1.9464096 -0.23754866 -0.16871709 -0.1027589 0.63257056 -1.6024808 -0.81306314 0.7683766
-0.20765339 -0.269641 0.2602752 0.6116513 -0.90263087 -0.35521474 -1.3505677 0.5764361
-0.074524224 -0.24625126 0.025369482 -1.3479067 0.7021686 -0.48263055 -0.4339003 0.82290184
-1.182694 -3.158134 -1.8758609 0.19762768 0.2326165 -1.0869844 -0.07422075 -1.913787
0.49937227 -2.7585077 -2.5440512 -0.82454544 -0.014208814 0.5586856 0.10455699 -0.42520908
0.24581157 -1.485019 -0.25804853 -0.42284793 0.3058058 0.15004052 0.48672977 0.22414412
0.51223844 -0.98609006 -1.5229342 0.49770686 0.23688705 -0.38124073 -1.7110448 0.26052395
-0.33251643 -1.0484155 0.9283107 -0.4805439 0.62409 0.59952253 -0.068433724 -0.40759408
-0.049723864 -0.12076353 -0.5690785 0.45702797 -0.29195395 -2.7210186 0.5613163 -1.3008341
0.94086426 -0.92303383 0.612106 -1.7235703 -0.3443266 -0.037466537 -0.02776907 -1.1124015
-0.3113383 0.14669119 -1.6591306 -0.951204 0.050834686 -1.1905285 -1.5295566 0.47426087
0.3840295 -0.08599034 -0.3629805 -3.8155806 0.10430754 0.5279844 0.29274604 0.5504419
0.063893415 -2.2766628 -1.2629559 -0.11303316 0.00064138614 0.30315778 -0.38037226 -0.529834
-1.3623005 0.36702323 0.09533701 -0.6538253 -0.39590088 0.6848838 0.3864285 -1.3278835
-0.8699669 -0.24106775 -0.80651605 -3.7476149 0.13785018 0.31848907 -2.9758627 -0.054658826
-0.07872573 -1.8395015 0.35347816 -0.75505364 -0.038577266 0.20672798 0.7546389 0.2651123
0.8293354 0.15626468 -0.21500356 -0.05339622 0.92533547 -1.409981 -0.90867066 -1.1213712
-1.043457 0.8108662 0.63116086 -2.305007 -0.8412507 -0.052445125 0.47207737 -0.16278711
0.55713767 0.7238914 -0.73821557 0.64881307 -0.16213806 -0.13530399 1.0708587 -1.8442469
-0.338412 0.12484053 -1.053649 0.34388134 -0.09845606 -2.0167034 0.55494213 -1.660074
-0.0018772347 -1.3817259 -1.8446182 0.5280164 -1.0205929 0.31612206 0.27289525 -0.075617835
-2.1573305 0.51013476 -0.26890704 -0.19342642 -0.11805077 0.32161137 0.73991543 -0.9116638
0.0044689057 -0.9542922 0.1059983 0.54694927 -0.17748117 -0.66261137 0.59109795 -1.1195519
-0.18385655 -1.0319293 -0.7265734 -0.25894007 0.062256202 0.2807264 -0.48039347 0.03950524
0.16776861 -0.55057275 -1.1875811 -0.7930196 0.8045355 0.48486212 0.6319908 -0.57821095
00000000: ddf1 853e 92bc 953f ce3b 7ebf 2683 0abe
00000010: 39f1 cc3e 3e13 83bf 9b8c 87be 615f d4bf
00000020: e937 1dbf 9374 b5be 22cc d6be 6511 25bf
00000030: a143 8ebe cfd4 0c3e fc3a 0bbe c889 ab3c
00000040: 1177 9d3e b2c1 16bf 4acb 62c0 d729 3ec0
00000050: 051f 3f3f d61a 4cbf 95e2 72be 6d80 e23e
00000060: 7079 84be 9b43 b6be e0d8 9ebd 4e1d 2cbf
00000070: 7d85 893f 32e5 283e 5b68 94bf dcf6 f2be
00000080: c97e 6abf 6435 8ebf 9132 2ebf 54e6 fbbf
00000090: cead 463e ca54 f0be 7c1a f3bf c8a4 18be
000000a0: b709 51bf 6dd8 a8bf e300 113f 9b68 80bc
000000b0: a9a8 edbd b074 c73e e0d8 3d3f 3b94 f43c
000000c0: 77b3 533f 4c68 56bf e400 e5bd b567 f1bf
000000d0: 8900 28bd b3c3 633f 00a1 3737 3a36 dbbe
000000e0: f323 f9bf f53f 73be 2cc4 2cbe 4273 d2bd
000000f0: 25f0 213f 171e cdbf e824 50bf 54b4 443f
00000100: 17a3 54be 630e 8abe ca42 853e 2e95 1c3f
00000110: d112 67bf b5de b5be 67df acbf 5191 133f
00000120: 28a0 98bd 4a29 7cbe a9d3 cf3c 3588 acbf
00000130: 52c1 333f 5a1b f7be 2e28 debe b2a9 523f
00000140: 8462 97bf de1e 4ac0 361c f0bf e95e 4a3e
00000150: 0533 6e3e 4e22 8bbf 0c01 98bd f9f6 f4bf
00000160: b9ad ff3e 648b 30c0 bcd1 22c0 6915 53bf
00000170: 16cc 68bc 0506 0f3f fa21 d63d 01b5 d9be
00000180: 07b6 7b3e 1a15 bebf f01e 84be 867f d8be
00000190: 9492 9c3e 39a4 193e a534 f93e 0986 653e
000001a0: 0f22 033f 6670 7cbf 82ef c2bf 6fd3 fe3e
000001b0: 8592 723e fc31 c3be 8403 dbbf 6563 853e
000001c0: 983f aabe 7b32 86bf c5a5 6d3f da09 f6be
000001d0: 5dc4 1f3f 4f7a 193f fb26 8cbd 2cb0 d0be
000001e0: 40ab 4bbd df52 f7bd 21af 11bf 92ff e93e
000001f0: fd7a 95be 2b25 2ec0 6db2 0f3f bb81 a6bf
00000200: 7bdc 703f f24b 6cbf fbb2 1c3f f49d dcbf
00000210: 934b b0be 8376 19bd f67b e3bc 2c63 8ebf
00000220: bc67 9fbe 3736 163e 645e d4bf 1b82 73bf
00000230: 0838 503d 3d63 98bf 83c8 c3bf 52d2 f23e
00000240: 849f c43e b41b b0bd 95d8 b9be 7932 74c0
00000250: 319f d53d fc29 073f cfe2 953e c3e9 0c3f
00000260: 8dda 823d d8b4 11c0 8aa8 a1bf ee7d e7bd
00000270: b222 283a 7f37 9b3e 27c0 c2be 33a3 07bf
00000280: dd5f aebf 78ea bb3e 0d40 c33d 1861 27bf
00000290: 85b3 cabe 8b54 2f3f f5d9 c53e 16f8 a9bf
000002a0: 27b6 5ebf 77da 76be d677 4ebf ecd8 6fc0
000002b0: 9928 0d3e 0011 a33e 8974 3ec0 efe1 5fbd
000002c0: f53a a1bd c974 ebbf 17fb b43e 324b 41bf
000002d0: 3203 1ebd 80b0 533e 0430 413f cdbc 873e
000002e0: 534f 543f d903 203e e529 5cbe ffb5 5abd
000002f0: c9e2 6c3f 427a b4bf a49e 68bf 1789 8fbf
00000300: 0090 85bf ed94 4f3f c293 213f 3c85 13c0
00000310: 355c 57bf b3d0 56bd 20b4 f13e aab1 26be
00000320: 93a0 0e3f f250 393f b2fb 3cbf 9d18 263f
00000330: 8507 26be 218d 0abe e611 893f 4810 ecbf
00000340: 5644 adbe 64ac ff3d f8dd 86bf 3711 b03e
00000350: 55a3 c9bd ab11 01c0 b010 0e3f 4e7d d4bf
00000360: 8b0d f6ba 65dc b0bf 731c ecbf 152c 073f
00000370: caa2 82bf c0da a13e edb8 8b3e 86dd 9abd
00000380: b411 0ac0 3198 023f 2fae 89be 9311 46be
00000390: 9ac4 f1bd 3faa a43e 196b 3d3f cc62 69bf
000003a0: e66f 923b 7e4c 74bf a315 d93d de04 0c3f
000003b0: a0bd 35be e6a0 29bf 3252 173f 7a4d 8fbf
000003c0: e444 3cbe 4216 84bf b700 3abf cb93 84be
000003d0: 5c00 7f3d 5fbb 8f3e 22f6 f5be 3fd0 213d
000003e0: 89cb 2b3e 56f2 0cbf a802 98bf 5503 4bbf
000003f0: 0af6 4d3f d93f f83e 26ca 213f a205 14bf

fc2.bias f4 [16]
0.5555358 -0.25898495 -0.6132665 -0.45098868 0.69233644 -0.6651726 -0.15437749 -0.5024485
-1.7864634 0.48734215 0.4551621 -0.5819794 -1.1053791 -1.8226212 -0.8657478 1.1920325
00000000: 9837 0e3f ad99 84be 09ff 1cbf fde7 e6be
00000010: f63c 313f c048 2abf 2215 1ebe 77a0 00bf
00000020: d5aa e4bf e984 f93e 020b e93e 9afc 14bf
00000030: 107d 8dbf a74b e9bf a6a1 5dbf 8594 983f

fc3.weight f4 [16, 16]
0.06804738 0.5467852 0.105850756 -1.2062693 0.080838405 0.31972674 0.5162911 1.3960122
0.64442813 -0.22526023 0.4392942 0.49140322 -0.513276 0.82638043 -1.4559324 -0.18739814
-1.2936413 0.006308511 -0.6272658 -1.0002114 -0.6500748 0.72509795 -0.0048796693 0.28449085
1.3573192 0.08150045 -0.3471254 0.42096004 -1.2773824 0.535692 0.065739535 -1.2611086
-1.1209497 0.7016461 0.12073646 -0.011295378 -0.121197365 0.7094678 -2.8776777 -0.45885482
-0.41851372 -0.3738053 0.08181936 0.6619766 -1.2572414 -0.7386973 0.38617754 0.29410765
0.64064735 -0.38869196 0.73310995 0.395945 0.07412051 1.2010564 -0.71243006 0.23308618
-0.6432507 0.12931497 -0.037931144 -1.2189875 -0.07872624 -1.1843828 -0.5739601 -1.1864609
-2.1416702 1.2620682 -0.4793633 -1.9152308 -1.9070829 1.2807884 0.28211728 1.0318444
0.8765049 0.6690066 0.13459058 0.27689573 -0.25184807 -0.14718309 0.066123314 0.3120896
-1.180693 1.0095266 -1.2216151 -0.46909696 -0.7812296 1.1778419 0.539602 0.7026698
1.6164881 0.5944938 0.18919744 0.7151653 -2.0021183 -0.7657324 0.1791448 -0.024511904
-0.01628535 -0.14582653 -0.018319324 -0.21011512 -0.11659456 -0.63286936 -0.43150753 -0.8560681
-0.9141346 0.6669085 -0.5206523 -0.28049332 -0.7365613 -0.56034315 -1.0061758 -1.5268855
-0.13233632 -1.3503423 0.72730315 0.31747463 0.15235926 1.0260446 0.20936841 -1.1102498
-2.1631217 0.50389177 -0.7952205 0.25487036 -1.593574 -0.904249 -0.17857048 0.436431
-0.084090374 1.0002346 -0.35777766 0.6340085 -0.4491254 -0.5765229 0.05398062 0.52180785
0.4190661 0.5190476 0.43586642 0.4827986 -1.0073366 -3.3359962 0.684916 0.1268963
-0.20933503 -0.7181359 0.048384033 -0.03430517 -0.4887381 -0.32764247 -0.41997576 -0.24002944
-0.4607189 -0.17607431 -0.76948047 -0.34102955 -0.27621153 -0.25698504 -0.3560013 -0.044329345
0.23171234 0.61163837 -0.2172044 -1.5532345 -1.0830457 1.2066534 0.71677756 -0.893078
2.5851946 0.5836939 -0.13521141 0.64871085 -1.1149383 -2.1424773 0.06913933 -0.3567702
-0.44031936 0.6428853 0.07799884 0.28724557 -0.62720716 -0.29596967 -0.0986412 0.38009176
0.7262246 0.767472 -0.4768982 0.81911755 -2.1698954 0.38074347 0.2910509 0.12305017
0.34324616 0.65256387 -0.4045017 0.5094491 -0.38628086 -1.4818271 0.7011958 -1.6169587
-2.1909697 -1.8833952 0.43564925 -1.5139012 -0.7718912 0.29937068 0.62936556 -0.053988967
0.3067722 0.8362496 0.053325485 0.64941514 0.20612343 -0.53817093 -1.0314958 0.21636738
-1.0900968 -1.5391812 -1.7978939 -0.21459894 -0.87816614 0.22905621 -1.2731472 -1.2651347
0.16887376 0.33051446 -2.229668 0.26159737 -0.04988926 0.50285554 0.18945844 0.7766757
0.74041563 0.432828 -0.72958297 -0.30345705 0.40468442 0.32586008 -0.6485205 0.38257417
0.46557078 0.76176804 -0.2523474 -0.36124355 0.014678493 0.28974512 0.22204308 0.33633262
0.5668877 -0.28733665 0.3876976 0.81859374 -2.2599943 0.6854149 0.50311834 0.10909225
00000000: 6d5c 8b3d 1dfa 0b3f 48c8 d83d 0867 9abf
00000010: 9b8e a53d 39b3 a33e a72b 043f 87b0 b23f
00000020: 3ef9 243f 9eaa 66be 2beb e03e 3499 fb3e
00000030: 0e66 03bf ab8d 533f fe5b babf 4ce5 3fbe
00000040: 0a96 a5bf a0b7 ce3b 7e94 20bf ed06 80bf
00000050: 4d6b 26bf 05a0 393f a2e5 9fbb c9a8 913e
00000060: a3bc ad3f b5e9 a63d 6cba b1be 1388 d73e
00000070: 4481 a3bf 1c23 093f 73a2 863d 026c a1bf
00000080: 487b 8fbf 149f 333f ad44 f73d 4010 39bc
00000090: 5336 f8bd af9f 353f df2b 38c0 05ef eabe
000000a0: 6e47 d6be 6963 bfbe e990 a73d 4c77 293f
000000b0: 49ed a0bf 441b 3dbf 10b9 c53e 4795 963e
000000c0: 7701 243f a202 c7be 18ad 3b3f 4eb9 ca3e
000000d0: 7ecc 973d 37bc 993f d161 36bf 25ae 6e3e
000000e0: 14ac 24bf 256b 043e b05d 1bbd c807 9cbf
000000f0: 393b a1bd db99 97bf 0def 12bf f3dd 97bf
00000100: 2011 09c0 738b a13f 1b6f f5be 4826 f5bf
00000110: 4b1b f4bf e0f0 a33f ad71 903e 7a13 843f
00000120: a062 603f 0444 2b3f 1dd2 093e 47c5 8d3e
00000130: 3bf2 80be 2ab7 16be a96b 873d 35ca 9f3e
00000140: f320 97bf 2b38 813f e25d 9cbf 7a2d f0be
00000150: aafe 47bf 86c3 963f 5b23 0a3f 2be2 333f
00000160: 15e9 ce3f bf30 183f f9bc 413e 1315 373f
00000170: b522 00c0 0a07 44bf bc71 373e 30cd c8bc
00000180: db68 85bc 8d53 15be 6812 96bc 6b28 57be
00000190: 21c9 eebd ba03 22bf 8eee dcbe 4727 5bbf
000001a0: ba04 6abf 84ba 2a3f 7849 05bf d29c 8fbe
000001b0: 488f 3cbf a672 0fbf 5eca 80bf fc70 c3bf
000001c0: 2c83 07be 04d8 acbf 8a30 3a3f 098c a23e
000001d0: 1104 1c3e 6e55 833f ac64 563e aa1c 8ebf
000001e0: 9670 0ac0 0dff 003f 9293 4bbf 5e7e 823e
000001f0: 3cfa cbbf dd7c 67bf 2edb 36be e273 df3e
00000200: 9337 acbd b007 803f a22e b7be 624e 223f
00000210: c4f3 e5be 0197 13bf c81a 5d3d 3395 053f
00000220: d58f d63e 4ee0 043f e229 df3e 6131 f73e
00000230: 68f0 80bf f680 55c0 a856 2f3f 1bf1 013e
00000240: ec5b 56be c1d7 37bf 562e 463d 9483 0cbd
00000250: e13b fabe c1c0 a7be 1007 d7be 47ca 75be
00000260: 59e3 ebbe d34c 34be acfc 44bf 6d9b aebe
00000270: 996b 8dbe 8b93 83be cd45 b6be b092 35bd
00000280: 0046 6d3e 5594 1c3f d56a 5ebe 63d0 c6bf
00000290: 3ea1 8abf 9e73 9a3f bc7e 373f c3a0 64bf
000002a0: d473 2540 f76c 153f dc74 0abe ea11 263f
000002b0: 4cb6 8ebf 591e 09c0 ec98 8d3d 95aa b6be
000002c0: 8a71 e1be 2294 243f dbbd 9f3d da11 933e
000002d0: a690 20bf 5689 97be 6604 cabd 639b c23e
000002e0: dbe9 393f 0c79 443f 002c f4be b0b1 513f
000002f0: 91df 0ac0 cff0 c23e a004 953e ba01 fc3d
00000300: f6bd af3e 6d0e 273f d91a cfbe 426b 023f
00000310: 9bc6 c5be 83ac bdbf 9181 333f 81f8 cebf
00000320: d938 0cc0 1813 f1bf 6b0d df3e 84c7 c1bf
00000330: a99a 45bf 1d47 993e 1a1e 213f 8923 5dbd
00000340: 3f11 9d3e 7414 563f d36b 5a3d 1240 263f
00000350: 0512 533e 92c5 09bf 0e08 84bf 698f 5d3e
00000360: 4b88 8bbf e403 c5bf 6321 e6bf d3bf 5bbe
00000370: 7fcf 60bf b68d 6a3e 7df6 a2bf efef a1bf
00000380: 3eed 2c3e 3139 a93e e1b2 0ec0 17f0 853e
00000390: ae58 4cbd 24bb 003f 6501 423e 38d4 463f
000003a0: e18b 3d3f a29b dd3e f3c5 3abf b95e 9bbe
000003b0: cc32 cf3e 22d7 a63e 7105 26bf c3e0 c33e
000003c0: 4b5f ee3e 3b03 433f ae33 81be eaf4 b8be
000003d0: 107e 703c 7959 943e 435f 633e ca33 ac3e
000003e0: 8d1f 113f ca1d 93be 4d80 c63e 5c8f 513f
000003f0: bfa3 10c0 5a77 2f3f 5dcc 003f c26b df3d

fc3.bias f4 [16]
-0.20285702 -0.4713661 -1.8578236 0.49049425 0.04004284 -1.1050378 -0.55685 -0.5286769
0.1543614 -0.5809774 -0.9772915 0.53981394 -1.4974828 0.5131355 -0.9506622 -0.4237904
00000000: c0b9 4fbe e656 f1be 2acd edbf 1022 fb3e
00000010: f603 243d e171 8dbf b98d 0ebf 5f57 07bf
00000020: ea10 1e3e efba 14bf c72f 7abf 3f31 0a3f
00000030: 84ad bfbf d95c 033f 995e 73bf 0efb d8be

fc4.weight f4 [2, 16]
-0.13494429 -0.2651324 0.8487153 0.25544998 -0.35918573 -0.7651606 0.5380879 0.18179503
-0.35954925 -0.1262229 -0.7130676 -0.16008645 0.37972438 0.53562176 -0.2681006 0.01580955
0.09362551 0.459907 -0.6638483 -0.23214164 0.25619924 1.0999398 -0.29471818 -0.12704965
0.071479 0.22559518 0.655794 0.28155676 -0.47420847 -0.14484937 -0.021715213 0.22608998
00000000: d62e 0abe 6fbf 87be 6845 593f 57ca 823e
00000010: 31e7 b7be 91e1 43bf 21c0 093f 7a28 3a3e
00000020: d716 b8be 9340 01be 998b 36bf b4ed 23be
00000030: 3c6b c23e 821e 093f 7b44 89be 0883 813c
00000040: bbbe bf3d ee78 eb3e f6f1 29bf 8ab6 6dbe
00000050: 8c2c 833e d4ca 8c3f 4de5 96be 4e19 02be
00000060: 9563 923d 6c02 673e 1ee2 273f 3528 903e
00000070: 74cb f2be 6553 14be 1ae4 b1bc 2284 673e

fc4.bias f4 [2]
-0.030531634 -0.06202933
00000000: 7a1d fabc 7712 7ebd
