data/results/1731777590.pth (torch, 14114 bytes, 16 tensors)

fc1.weight f4 [16, 32]
000000 48 14 c0 bd 70 55 4c 3e 66 01 f9 bf 98 72 ce be
       -0.09378868 0.19954467 -1.9453552 -0.40321803
000010 c8 4d 1f bf 36 6a 0c bf 09 c6 e6 bc 9b 54 1b 3f
       -0.6222806 -0.54849565 -0.028170602 0.6067597
000020 6e b6 9e be 7a 2b 30 3f 39 ce 55 3f bc ca db 3d
       -0.30998558 0.6881634 0.83517796 0.10732028
000030 cf df e5 be cf 4e 48 3c ac 4e b8 be cf 01 51 bf
       -0.44897315 0.012225821 -0.35997522 -0.81643385
000040 c1 a2 26 3f 87 cf 06 3f 0f 24 c4 3e a1 e1 e3 3b
       0.6509209 0.5266041 0.3830876 0.0069543873
000050 60 87 9b 3e 4c 82 5e 3d b3 69 88 bf 7d 65 3c 3f
       0.3037672 0.05432348 -1.0657257 0.7359236
000060 b3 34 70 3f b9 76 1b 3f cf 70 17 3f a1 54 51 bf
       0.9383041 0.6072803 0.5915651 -0.8176976
000070 8c e8 aa 3e 9f ad 8c 3d 35 00 19 3f 9c 60 ca 3d
       0.33380544 0.06869053 0.5976594 0.09881708
000080 17 6a 31 bd 89 77 4a 3d a1 3e e6 3e 38 1a ba 3e
       -0.043314066 0.049430404 0.44969657 0.36348128
000090 92 5f 6f bf a6 3e ad be db c3 1b 3f 1a 3a 52 bd
       -0.93505204 -0.3383686 0.60845727 -0.05132494
0000a0 a1 8d 50 3f 61 0e 24 3e ed 46 00 be f0 1d ff bc
       0.8146611 0.1602111 -0.12527056 -0.031142205
0000b0 9d 20 52 bf cf 30 78 3e f8 ed 90 3e e9 02 55 bf
       -0.82081014 0.24237369 0.28306556 -0.83207566
0000c0 37 1c 41 be 72 5d f6 3e b4 9a 19 3f f3 dc e8 be
       -0.1885842 0.48118168 0.60001683 -0.4548107
0000d0 b2 00 34 bf 00 ee 44 bf 0e a5 83 3e 40 6e 96 be
       -0.7031356 -0.7692566 0.25711864 -0.2938099
0000e0 05 4c 7b be 23 d4 b5 3c 68 11 92 be 49 06 75 bd
       -0.24540718 0.022195881 -0.28528905 -0.059820447
0000f0 8b d9 89 3e d5 cb 0c 3e 21 3a 50 be df a6 b0 be
       0.26923785 0.13749631 -0.20334674 -0.34502313
000100 3d e7 e2 bd 9f 28 a5 3f 21 a9 e6 bf ae d0 01 3d
       -0.110792615 1.2903022 -1.8020364 0.031693153
000110 ff bb 03 bf b6 4a a6 bd 0a 87 31 bc 50 ed ba 3c
       -0.51458734 -0.08119719 -0.0108354185 0.022818238
000120 20 fa 20 bf 8b af d2 bd 78 f6 0c 3d 67 bc 27 3f
       -0.6288166 -0.102873884 0.03441474 0.65521854
000130 66 be 53 bc 8a 40 c7 be ee e7 71 3e 7b fc a1 be
       -0.0129238125 -0.38916427 0.2362363 -0.3163794
000140 c9 9c df 3e 30 59 e8 3e e9 71 dd bd 2d 97 c1 be
       0.43674305 0.45380545 -0.10812742 -0.3781065
000150 77 5a 74 bf 06 b8 5f be 88 f5 ac 3c b3 8a fe 3e
       -0.9545054 -0.21847543 0.021113172 0.49715194
000160 01 15 82 3d c6 31 ca 3e de 95 59 3e d1 47 f0 3e
       0.063516624 0.394911 0.21248576 0.46929792
000170 13 18 84 be 87 40 d4 be 2e 80 49 3e 1f 4b 6d 3e
       -0.25799617 -0.4145548 0.19677803 0.23173188
000180 32 e9 27 bd bb ff 91 3d 51 2e 59 c0 27 b8 b6 bf
       -0.040993877 0.07128855 -3.393452 -1.4274949
000190 89 25 de bc 8f f6 a4 3e 3f d7 6e 3e f4 69 dd 3e
       -0.027117508 0.3221936 0.23324297 0.43244898
0001a0 f5 8c d3 be 86 58 7d 3e b9 79 0f 3f 1a ae 00 bf
       -0.4131848 0.247408 0.5604511 -0.5026566
0001b0 75 e3 e2 3d 89 4b d1 be 02 2a 40 bf fa fa 03 3f
       0.1107854 -0.4087794 -0.750641 0.51554835
0001c0 4e cd 24 3f fc 91 b2 bd 3f d6 f7 3d b5 f5 c0 be
       0.6437577 -0.087192506 0.12101411 -0.3768746
0001d0 03 56 b0 be da 57 af bd 1b 89 c3 bd b1 e5 ba 3e
       -0.34440622 -0.08561678 -0.09547635 0.36503366
0001e0 c6 75 20 3f fe 6c cf 3e 69 bd b5 3e 11 eb 71 be
       0.6267971 0.40512842 0.3549607 -0.23624827
0001f0 d6 ad 1d 3f 44 00 b4 be e6 b1 0c 3f 7a 58 bf 3d
       0.6159338 -0.35156453 0.5495895 0.093430474
000200 9c 13 c7 bd 3f ae 84 3e 2c 0e 97 3e ef e8 30 bf
       -0.09720537 0.2591419 0.29503 -0.6910543
000210 36 32 3e bd d8 0b 2c 3f ba 9d 82 3f 24 c6 71 be
       -0.046434604 0.6720557 1.0204384 -0.23610741
000220 fd a8 1a bf c2 04 96 be 98 a0 83 bd 33 20 47 3e
       -0.60414106 -0.29300505 -0.06427115 0.19445877
000230 b4 c8 f6 3e f0 2f 84 be 7e 21 a5 be 9f 91 23 bf
       0.482 -0.25817823 -0.32252115 -0.63894075
000240 6c ff 32 be 2b 19 ad 3d d8 70 ec be 33 83 41 3f
       -0.17480248 0.08452066 -0.46179843 0.7559082
000250 da eb 54 3f 29 13 ca 3e 36 8c d5 3e 59 db 07 be
       0.8317238 0.39467743 0.41708535 -0.13267268
000260 c5 6c 54 be 08 ba 5f be aa 18 96 be 7d 94 a3 be
       -0.20744617 -0.21848309 -0.29315692 -0.31949225
000270 67 15 36 3e 5f 84 d8 3e 89 86 7a bd 4a a6 1f 3e
       0.17781602 0.4228849 -0.06116346 0.15590778
000280 b9 5a 9c bd 07 88 ae be ba 60 b3 3e 86 a6 04 bf
       -0.076344915 -0.34088156 0.35034734 -0.51816595
000290 16 64 41 3f 4e 78 bd be c3 aa 2b 3f e4 66 92 3e
       0.75543344 -0.37005848 0.67057437 0.28594124
0002a0 ba 4f 28 bf 96 96 08 3f c1 64 13 3f 59 be ad 3d
       -0.65746653 0.53354776 0.57575613 0.084835716
0002b0 eb c4 9f 3e 78 d4 be bb e5 03 8e be 21 9e bb be
       0.31204924 -0.005823668 -0.27737346 -0.3664408
0002c0 d0 8c c5 3e d2 28 b2 bd a6 f6 e1 be 98 8a ca 3d
       0.38583994 -0.08699192 -0.4413349 0.09889716
0002d0 0b bb 3b 3f f1 e8 0b 3e b3 59 0c bf bd f9 b2 3e
       0.7333228 0.13663079 -0.5482437 0.3495616
0002e0 3f 5f b3 3e e4 fe a6 3e dc 56 f4 3e 46 53 2f bf
       0.35033605 0.3261634 0.47722518 -0.6848644
0002f0 cc 7a 9c 3f e5 65 04 bb 9b a5 f8 3d 24 70 8d bd
       1.2224975 -0.0020202335 0.12140962 -0.06906155
000300 45 16 72 bc 27 d2 1a 3e d8 1e b9 3e 84 ed 84 bf
       -0.014775817 0.1511923 0.36156344 -1.0384984
000310 8a 6a b1 3e 4d a6 ca 3e 77 e7 03 3f a1 56 e1 3e
       0.34651595 0.39580002 0.5152506 0.44011405
000320 00 0c 88 3e e2 01 6a 3d fe 31 b6 3d 20 4a 00 bf
       0.26571655 0.0571307 0.08896254 -0.50113106
000330 ab 0c 29 bd 0e 83 ff bd b5 7b 9a bf 74 7f 0a bd
       -0.041271847 -0.124761686 -1.2069002 -0.033812955
000340 b9 97 08 3f d6 a5 3f bf 7a d1 a5 3e 2f 07 c1 be
       0.5335651 -0.7486242 0.3238638 -0.37700793
000350 95 6d 57 3f 8a b8 c1 3e e9 d2 cc be b1 9f 22 3f
       0.84151584 0.37836105 -0.40004662 0.6352492
000360 ae 98 14 3f b1 0d a8 3e 48 33 f5 3e 34 64 85 3e
       0.5804547 0.32822946 0.47890687 0.2605301
000370 2f 92 81 bd 6b c7 8d 3d 15 aa 8d 3e 52 00 ec 3d
       -0.063267104 0.069228016 0.27668825 0.115234986
000380 db e6 41 3e e6 c6 cf 3c a8 39 26 c0 76 bf cc be
       0.1893572 0.025363397 -2.597269 -0.39989823
000390 42 10 a5 bd f2 73 0b 3f 5e 3f f2 3a ea 11 1d 3f
       -0.080597416 0.54473794 0.001848202 0.6135546
0003a0 41 c4 68 3f 12 fc 14 bd ae 27 d7 3e a0 02 f6 3e
       0.9092446 -0.036373205 0.4202246 0.48048878
0003b0 63 b4 48 3e 98 70 23 3f 12 06 8b be 79 b0 bb 3e
       0.19600062 0.6384368 -0.2715307 0.36658075
0003c0 aa 2f 16 3f a4 96 94 bd c4 a0 7a be 9c 35 ca bd
       0.5866648 -0.07255295 -0.2447539 -0.098735064
0003d0 d7 b1 42 be 88 be 26 3f 79 24 c0 3e 52 09 88 3f
       -0.19013153 0.6513448 0.37527826 1.0627844
0003e0 88 47 d7 3e f4 ae 0a 3f 5e 1c 63 3f 27 0f 17 bf
       0.42046762 0.5417321 0.8871516 -0.59007496
0003f0 1d 68 94 be c3 e7 ea 3e fa 1a c4 3e 21 46 74 3e
       -0.28985682 0.45879945 0.3830183 0.23854877

fc1.bias f4 [16]
000000 ac fe 26 bf 58 58 23 3e c4 4d 9c be d4 6c 8f be
       -0.6523235 0.15951669 -0.3052808 -0.28012717
000010 86 7e c2 bc 00 02 ab be d0 bb a4 be fb 0f 1d bf
       -0.023741972 -0.33399963 -0.3217454 -0.6135251
000020 1f 8d 79 be 79 c9 b4 bd 02 46 d4 be a5 e8 cd be
       -0.2437024 -0.0882749 -0.41459662 -0.40216556
000030 3b b8 90 be fc 8c 16 bf 04 a7 f4 be ff f6 5a be
       -0.28265557 -0.58808875 -0.47783673 -0.21383284

fc2.weight f4 [16, 16]
000000 02 be 1f bf c3 6e f0 3e 8d 05 56 3e 6c de 20 3e
       -0.62399304 0.46959504 0.20900555 0.15709847
000010 91 a4 ef 3d 73 05 d0 bf 06 f6 aa 3c 02 2c a0 bf
       0.117013104 -1.6251663 0.020869266 -1.251343
000020 7d f6 21 be 64 3b d2 3e 34 0f 52 3f 46 4b 7a 3e
       -0.15816684 0.41060936 0.8205445 0.24442777
000030 e1 1b 9d 3e 26 6d cc bf 7a d1 99 be 01 46 83 3e
       0.30685332 -1.597081 -0.3004263 0.25639346
000040 f2 4d c0 3d ff 5d 94 be 02 fc 21 3f 91 09 29 3f
       0.09389867 -0.28977963 0.6327516 0.6603022
000050 af 37 96 be d8 b9 cb bd 66 54 e5 3e 0f ae bb 3e
       -0.29339358 -0.09947556 0.44790953 0.36656234
000060 d3 07 57 3e be 4b b0 3e 16 c4 36 3e b7 8f b1 3e
       0.20999078 0.34432787 0.17848238 0.34679958
000070 ba 11 03 3f 66 0a 9e 3f 33 4b 99 be c2 b9 ff 3e
       0.51198924 1.2346923 -0.29940185 0.4994641
000080 80 73 4e be 8f 7d 8b 3e 76 79 5d 3e f6 d5 41 3f
       -0.20161247 0.2724423 0.21628365 0.75717103
000090 5d 82 2a 3d b2 bc 8b bf d4 6a 7e 3e 32 c4 74 3f
       0.04162823 -1.091696 0.24845439 0.9561187
0000a0 64 30 40 bd 04 de c2 bf 2b fb 29 3d 5e a8 72 3f
       -0.04692115 -1.5224004 0.041499298 0.9478816
0000b0 d8 d4 ff be a7 0d 38 3f 5a 40 77 3f 70 10 79 3e
       -0.49967074 0.7189583 0.9658257 0.24322677
0000c0 6c 68 45 3d bd 76 ea bd e7 87 64 3d 5f 00 e3 bd
       0.048195288 -0.11448429 0.05579367 -0.11084055
0000d0 10 24 2c be 10 44 b5 be 1e 9f 1f be c9 f4 83 bd
       -0.16810632 -0.3540349 -0.15588042 -0.064431734
0000e0 84 7d 3e be 49 1c ba 3c 47 4a 5b bd ce 37 0b be
       -0.18602568 0.022718566 -0.053537633 -0.13595507
0000f0 51 9b 5a be a2 9a 0c bd 2f 34 13 be 26 e4 d4 bd
       -0.21348311 -0.034327157 -0.14375375 -0.10395078
000100 33 dd 3f be 9a 7a 9a bd f5 f6 72 be 50 b8 b7 bd
       -0.18736725 -0.07542916 -0.23727019 -0.08970702
000110 92 4c 7d bd f0 3d a2 be 31 78 32 be 2b d4 b6 bc
       -0.0618406 -0.3168788 -0.17428662 -0.022317966
000120 75 3b 06 be b1 5d 18 be 25 19 1b be 66 dd d9 bd
       -0.13108619 -0.1487949 -0.1514631 -0.106379315
000130 3e c4 4e be ab 28 84 be d4 b0 ce bd 76 83 df bc
       -0.20192048 -0.25812277 -0.10092321 -0.027284365
000140 ff 9a 21 be 7f 2b a2 bd 7b 3a 12 be f5 82 da 3c
       -0.15781783 -0.079184525 -0.14280121 0.026673773
000150 8f c4 97 be 4c 1c 9a bc 55 78 30 3d 70 3b 35 bd
       -0.2964215 -0.018812321 0.043083508 -0.044246137
000160 43 fb 69 be 28 63 6d be 4b 2f 44 3d aa 13 ad bd
       -0.22849755 -0.23182356 0.047896665 -0.08451016
000170 a7 fd ae bd dd 9a eb 3d b6 ae 34 be a2 73 95 be
       -0.08544474 0.11504147 -0.17644772 -0.29189783
000180 6f 26 85 3e 0b 4a 02 bf cf e3 60 3e 3c 73 d8 3e
       0.26005885 -0.5089423 0.21961902 0.42275417
000190 af 4e c7 bf b9 4b b2 3e 8f 28 1f bf 21 98 7f 3f
       -1.5570887 0.34823397 -0.6217126 0.99841505
0001a0 19 a4 31 3f 94 01 34 3f 9a 6d cf be 35 eb f0 3e
       0.6939102 0.7031491 -0.40513307 0.4705445
0001b0 8d 4a 67 3f b4 ca 74 3f 7a ee e0 be f8 82 cd be
       0.9034813 0.956218 -0.43931943 -0.40138984
0001c0 e6 10 7a be 51 c1 ef 3d 65 a2 d1 3e 7a 1f 0a c0
       -0.24420509 0.11706794 0.4094421 -2.1581712
0001d0 f0 23 f4 bc 54 b8 1f 3f 4b da 1f bf eb 6b bf 3e
       -0.029802293 0.6239064 -0.62442464 0.37387022
0001e0 58 f6 9f bd 93 06 0f 3f f7 70 e7 be 00 87 00 c0
       -0.07810658 0.55869406 -0.45203373 -2.0082397
0001f0 d6 cd 6b bf 97 4f 9d be e3 6e 19 be 64 86 ae be
       -0.92110956 -0.30724785 -0.14983706 -0.34086907
000200 c3 50 df 3e b7 83 80 bf 43 10 0d 3f a0 87 67 3f
       0.43616304 -1.0040196 0.5510294 0.9044132
000210 78 65 95 be 2f 0a c5 be 44 bd 4b 3f b1 df 40 3f
       -0.29178977 -0.38484332 0.7958567 0.75341326
000220 8f 90 0b 3f 59 bd ce 3e ef d2 18 3e e6 2c 59 3e
       0.54517454 0.40378836 0.14924215 0.21208534
000230 24 b1 9f bd 24 5b 2a 3f 1f 3c 08 bf 1e 56 cc bf
       -0.07797459 0.6654532 -0.5321674 -1.5963781
000240 e7 cd 33 3f 2e 2e e8 be ab e4 12 bf b5 37 73 be
       0.7023606 -0.45347732 -0.5738017 -0.2375172
000250 1b 85 a6 be 0e d8 a2 be fd 15 0d 3f 67 43 82 be
       -0.32523426 -0.31805462 0.55111676 -0.2544205
000260 d5 b3 05 3f d2 48 94 3f 58 49 43 3f 74 1c c4 3e
       0.52227527 1.1584723 0.7628379 0.38302958
000270 9a 93 d5 bd 57 45 62 3f 8f e4 36 3f bc ce e4 3d
       -0.104285434 0.88387054 0.714425 0.11172244
000280 0f cf f6 3e 1a a7 e3 3d 68 2b 7e 3d ae 80 c4 3e
       0.48204848 0.111158565 0.062053114 0.38379425
000290 32 d8 31 3e be 96 75 3e 28 ce 76 3f b6 17 f2 3e
       0.17367628 0.23983285 0.9640832 0.47283715
0002a0 a2 fe a6 3f d2 57 2c bd 3a e2 3a 3f ff 80 05 3e
       1.3046458 -0.04207594 0.73001444 0.1303749
0002b0 61 16 62 3f 94 ed 3c be 55 45 88 3e ee 5f e2 be
       0.883154 -0.18450004 0.26615396 -0.44213814
0002c0 e7 33 8d bf 18 09 d4 bf da 15 3d 3e 25 d8 15 3f
       -1.1031464 -1.6565275 0.18465367 0.58532935
0002d0 4f 57 7c bf 2e 17 f2 3c 87 ee 02 3f a1 a3 1a 3f
       -0.9857072 0.029552069 0.51145214 0.6040593
0002e0 cb f6 82 bf e5 92 e1 3d 4d 91 08 3e 60 3f 8f 3e
       -1.0231565 0.11014346 0.13336678 0.2797804
0002f0 c3 81 85 bf f0 63 54 bf 39 a5 34 3f 24 91 22 bc
       -1.0430225 -0.8296499 0.7056461 -0.0099222995
000300 79 6d c1 bf 28 89 1b 3e 25 87 85 bf d2 0e d1 bd
       -1.5111533 0.1518904 -1.0431868 -0.10207905
000310 1b 64 08 bd db 25 26 be a8 f8 47 3e 7f 2a 14 bf
       -0.033298593 -0.16225378 0.19528449 -0.57877344
000320 49 bc 8d 3d 06 9c ed 3e b0 df 90 3f b4 36 03 3f
       0.06920678 0.464081 1.1318264 0.51255345
000330 d1 b5 00 bf 2c 12 39 bf 05 d7 9a bf 55 ae be 3e
       -0.5027743 -0.72293353 -1.2096869 0.3724238
000340 69 55 b0 be c8 8e 49 be e2 31 f5 3e ef 01 bf 3d
       -0.34440163 -0.19683373 0.4788962 0.09326541
000350 a8 d8 ae bf f2 2a 33 bf 6b 60 15 3f f1 79 75 3f
       -1.3659868 -0.69987404 0.5835025 0.9588919
000360 b5 32 08 3e aa 97 1d 3f 4b 2c 65 3f eb f4 a2 3f
       0.13300593 0.61559546 0.8952071 1.2730993
000370 7e b6 ee be 42 7b b8 3d b9 a1 01 3f e3 87 0e bf
       -0.46623605 0.090078846 0.50637394 -0.55676097
000380 54 b9 04 3e 8d 27 93 be 8b 8a 25 bf 84 e4 ee 3e
       0.12961322 -0.28741112 -0.64664525 0.4665872
000390 69 ac dd 3b e9 16 fe be a8 2b fa 3e 03 ae f4 3f
       0.0067649377 -0.49626854 0.48861432 1.9115604
0003a0 6a 6e 6b 3e 44 51 aa 3e 1c b2 f0 3d ee f4 9e 3e
       0.22991338 0.33265126 0.11752722 0.31046242
0003b0 7b bd 5a 3f 08 10 12 3f c6 68 6f 3e 87 3c 8b bf
       0.85445374 0.5705571 0.23379812 -1.0877846
0003c0 91 54 91 3f 8d 8a b4 bf 3f 5e 8f bd 85 a9 c5 be
       1.1353933 -1.4104782 -0.07000398 -0.38605896
0003d0 2e db 51 be f1 43 17 3f d4 c7 1b be eb bf 3b bf
       -0.20493767 0.59088045 -0.15212947 -0.7333972
0003e0 44 6f 7b 3f ae 3f 28 3f 36 0f 0b 3e 31 1d c5 3e
       0.9821665 0.6572217 0.13580021 0.38498834
0003f0 ba 88 05 bf 27 28 2c 3f f9 8a 48 3f 1a 52 49 be
       -0.52161753 0.6724877 0.78337055 -0.19660226

fc2.bias f4 [16]
000000 56 7c 9b bf 9b e4 82 3e 91 16 64 be 05 0b b2 be
       -1.2147319 0.25565037 -0.22274233 -0.34774032
000010 f9 86 20 be d6 21 d4 bd f4 d4 92 be ba f2 8e 3e
       -0.15676488 -0.10358016 -0.28678095 0.2791956
000020 88 02 ea be f0 9a ce 3e 33 f6 d3 be b3 21 08 3f
       -0.45705056 0.40352583 -0.41398773 0.5317642
000030 8c 48 35 3d 1b 10 11 3e b4 df 6e 3e dc f1 96 be
       0.04425864 0.141663 0.23327523 -0.294814

fc3.weight f4 [16, 16]
000000 11 20 25 bf 59 ee 97 bf e7 8d 69 bf a6 39 50 3d
       -0.64502054 -1.1869613 -0.9123215 0.050836228
000010 7c 26 20 3e 78 8e 66 be 9e 35 36 3f 20 62 9c 3e
       0.1563968 -0.22515285 0.71175563 0.30543613
000020 da 1c 54 3d 43 d8 82 bf 86 7b a1 bf 4f 2a 9f be
       0.051785327 -1.0222248 -1.2615821 -0.31086966
000030 f5 12 60 3e aa a5 c4 bf 0d 53 97 3d 66 d9 1e bf
       0.21882232 -1.5363057 0.073888876 -0.62050474
000040 fe 0f 07 c0 40 44 87 3e 2f 6f 71 bf f8 22 28 3e
       -2.110351 0.26419258 -0.9431028 0.1641959
000050 f8 db cd 3c d9 46 4c be c7 52 4e 3f 10 fc 5d bf
       0.025129303 -0.19948901 0.8059506 -0.8671274
000060 17 2d 2f 3f af 4c 7e 3e e7 d7 36 be ad 6a e7 3f
       0.68428177 0.2483394 -0.17855798 1.807943
000070 35 56 f9 bd 5e 4a 43 3d da 69 e9 bd b9 0f d5 3e
       -0.12174646 0.047678344 -0.11397143 0.41613558
000080 88 01 02 3f 39 bb 71 3e 42 79 9f 3e 72 00 3e be
       0.50783587 0.23606576 0.311472 -0.18554857
000090 b2 20 52 bd 94 48 cf bd fc 07 82 be 04 4f 80 3e
       -0.051300712 -0.10121265 -0.25396717 0.25060284
0000a0 3c 42 05 3f 2f eb 7d 3e 13 cd 88 3e b6 48 9f 3f
       0.5205419 0.24796747 0.2671896 1.2444065
0000b0 07 11 9e be 7e f4 11 3f 2f 75 62 3e 5c 86 84 3f
       -0.30872366 0.5701369 0.22115014 1.0353503
0000c0 33 37 45 3f 26 82 f4 3d a2 1e 8a 3e d1 b0 89 3e
       0.7703735 0.11938886 0.26976496 0.26892713
0000d0 d5 1c 46 3d 3e b4 35 bd d7 34 bf bd 05 84 ed 3d
       0.04836734 -0.044361345 -0.0933625 0.11597446
0000e0 a2 ca dd 3e 99 ee 76 3e 8d fb b0 3d 9c 97 b2 3f
       0.4331866 0.24114455 0.086417295 1.3952518
0000f0 8e fc 55 be 52 eb 6f 3f 9e e4 f8 3e 04 4e 91 3f
       -0.20897123 0.93718445 0.4861192 1.1351933
000100 b4 1a f5 3e c9 a0 9a 3e ae 29 d0 be 5f a8 3f 3e
       0.47871935 0.30200794 -0.406568 0.18716572
000110 ce cf 4e be 62 1e 9c bd ef ca c4 3f 46 82 9d bd
       -0.20196459 -0.076229826 1.537443 -0.07690863
000120 cc 20 c2 3f 13 0b 92 3e 2c 44 25 3e 0c 64 96 3f
       1.5166259 0.28524074 0.16139287 1.1749282
000130 b2 00 00 c0 63 7a a8 3e 1a c6 d5 bd 39 24 b1 bd
       -2.0000424 0.32905874 -0.104381755 -0.08649487
000140 26 87 08 be 62 04 85 bc 95 43 dd be cf 4c 2c be
       -0.13332805 -0.016237441 -0.43215623 -0.16826175
000150 6a cf e6 3d a0 9c c2 bd 8d 77 4a 3f 12 e7 bb bf
       0.1127003 -0.0950253 0.7908867 -1.4679892
000160 00 61 b7 3f 6f 2a 0b 3f 92 54 bf bd fe d1 a3 3f
       1.4326477 0.54361624 -0.093423024 1.279846
000170 c8 f0 8b bd d7 c5 34 3f 2b 0d 29 3f 87 1b f8 3e
       -0.06833035 0.7061438 0.6603572 0.48458502
000180 b4 7e 73 bf d5 de 8e 3e ad ea 25 bf b9 fb c8 3c
       -0.9511521 0.27904382 -0.6481121 0.024534093
000190 15 2f a7 be 56 42 82 3e 26 97 5c 3f 40 21 87 3d
       -0.32653108 0.25441235 0.86168134 0.06598139
0001a0 26 a8 5c 3d 17 8e bb bf 9e 9d 06 bf 87 b3 c6 be
       0.053871296 -1.4652737 -0.52584255 -0.38808843
0001b0 35 5b 93 3e 2f f8 c0 bf bc 16 3c bf 79 33 eb 3e
       0.28780523 -1.507574 -0.7347219 0.45937708
0001c0 b4 ec 2b 3d ff e6 15 bd 33 4b 0b bf 4d 78 04 be
       0.041973785 -0.03659725 -0.5441162 -0.12936516
0001d0 24 fd c9 bd f3 d0 30 3e 43 6d b7 bc 05 f2 2d 3d
       -0.09862736 0.17267208 -0.022390967 0.042467136
0001e0 28 f3 da bd 01 db 29 be 74 43 fc bc f9 ae 04 3e
       -0.106909096 -0.1658745 -0.030793883 0.12957372
0001f0 e2 62 50 be e2 04 36 be 56 77 f0 3d 24 c5 3f be
       -0.20350221 -0.177753 0.117415115 -0.18727547
000200 d2 f2 01 3e c1 5f 6f be 35 ea 65 be 04 97 73 3e
       0.12690285 -0.23376371 -0.22452624 0.23788077
000210 72 91 48 3e f0 c2 0e bd 0a 9c b3 3c ed ee 2b be
       0.19586733 -0.034853876 0.021924991 -0.16790362
000220 94 28 c8 3c c3 8a 90 be 98 71 43 bc e8 f5 11 be
       0.024433412 -0.28230867 -0.011928938 -0.14253962
000230 10 eb 27 be 47 b0 c8 3c 5f e2 35 bc bf c9 1a be
       -0.16398263 0.024498118 -0.011101334 -0.15116023
000240 67 72 45 bf b7 6c 17 3b 43 6e 02 3f f7 78 45 be
       -0.7712769 0.002310557 0.50949496 -0.19284426
000250 90 a0 a0 3d 74 f5 a5 3d dc 67 9b 3f 3f ee d9 bf
       0.07843125 0.08103457 1.214107 -1.7025832
000260 a6 2a aa 3f 0c 0c 07 bd 15 d5 ce be 5e 7e 0f 3f
       1.3294265 -0.032970473 -0.40396944 0.56052196
000270 2a c7 98 bf 8b 9a 1f 3f ce 49 ce 3e dc b7 1e 3f
       -1.193578 0.6234519 0.40290684 0.619993
000280 d5 47 3f 3b 94 35 d3 bd 50 c8 ac be e1 86 4f 3e
       0.0029187102 -0.103129536 -0.33746576 0.20266296
000290 e8 f1 ad 3d ce 06 f6 bd dd 94 47 be 01 98 05 be
       0.084934056 -0.12013017 -0.1949038 -0.13046266
0002a0 64 1c 91 be 60 6e c7 be c8 9a 02 be 80 ef 34 3e
       -0.28341973 -0.38951397 -0.12754357 0.17669487
0002b0 5a d2 67 be 47 5c 98 be 89 c5 bd bc 31 77 56 be
       -0.22638837 -0.29757902 -0.023165481 -0.20943905
0002c0 66 00 79 bf 71 7b 7c bc 3a 48 06 3e 55 ed 2a be
       -0.9726623 -0.01541029 0.1311349 -0.16692097
0002d0 bc 36 87 bb 88 38 dc 3d 0f 6f 84 3e 94 0d bf 3b
       -0.004126398 0.1075297 0.2586598 0.005830476
0002e0 1f df 70 bd c0 99 dd 3e fc a7 9c 3e 93 c3 6d bf
       -0.058806535 0.43281364 0.30596912 -0.9287655
0002f0 de 3e ff 3e e3 a2 84 bf f6 d8 25 bf f3 32 1f bf
       0.4985265 -1.0362209 -0.6478418 -0.6218712
000300 fe e5 dc 3e 12 bb ae be 44 d4 f5 be 18 cd 84 3d
       0.4314422 -0.34127098 -0.48013508 0.06484431
000310 af 5e be 3d d9 9d d8 3d 5e 3a 96 3e 7d c6 92 bf
       0.09295403 0.10576982 0.29341406 -1.1466824
000320 45 b5 af 3f 2a dc 32 3e 08 50 9a 3e 14 3f 96 3f
       1.3727194 0.17466798 0.30139184 1.1738
000330 4e c6 a7 be b5 fa d2 3e a4 b0 01 3f 3c b4 8a 3e
       -0.32768482 0.412069 0.5066016 0.27090633
000340 55 5f 36 bf 46 74 da bf 70 b0 51 be c2 09 aa 3d
       -0.71239215 -1.7066734 -0.20477462 0.083026424
000350 ca 9a 4e be 15 b4 bf 3d de d8 4e 3f 38 12 72 be
       -0.20176235 0.0936052 0.80799663 -0.23639762
000360 14 62 8d bd 7b f6 7e bf 92 05 28 be f9 8a d2 be
       -0.069034725 -0.9959485 -0.16408375 -0.41121653
000370 cf c3 9b be c1 74 9e bf d7 5b a1 3d bb 4a 35 3f
       -0.30422828 -1.237938 0.07878845 0.70817155
000380 ce 69 c8 3e dd 7d 11 be d2 ba 1c bf e6 2f 90 3c
       0.39143223 -0.1420817 -0.61222565 0.017600965
000390 6d e5 90 be 65 87 04 3e 12 72 00 3f b6 0c 6f bf
       -0.28300038 0.12942274 0.5017406 -0.9337877
0003a0 a2 e1 6a 3f 61 f1 b2 3e 7c fa 32 3e 3c 1d 8e 3f
       0.9175054 0.34949782 0.17478365 1.1102672
0003b0 e7 1a 1c be f9 66 11 3f 39 ed 4a 3f 34 5b 62 3f
       -0.15244637 0.5679775 0.79268223 0.88420415
0003c0 48 21 02 3e 59 e2 2e be be 66 2c be 00 20 c6 bb
       0.12708008 -0.17078532 -0.16836068 -0.006046295
0003d0 5c cd de bd 14 e8 3a bb dc 7b 6f be 57 5f 6a be
       -0.10879013 -0.0028519677 -0.23387092 -0.22887932
0003e0 d3 0f d9 bc 25 a1 48 bd 5a 2c b1 bd c9 78 64 bd
       -0.026496803 -0.048981804 -0.086510375 -0.055779252
0003f0 c9 ec 21 be bb 60 ad bd be 7f 58 3b 83 24 b1 3d
       -0.15812983 -0.084657155 0.0033035125 0.08649542

fc3.bias f4 [16]
000000 ae 87 b0 3e 74 ce 02 be e5 b6 b1 bd b4 00 3b bd
       0.34478515 -0.12774068 -0.086774625 -0.045654967
000010 1c 0a 73 bf d9 fc a0 3d 4b 3b 4a 3f 17 ee 9c be
       -0.949373 0.07860727 0.78996724 -0.30650398
000020 b7 3b d8 be c0 ab 21 bf 78 ae bf be 56 10 2d 3e
       -0.4223306 -0.63152695 -0.37437797 0.16900763
000030 13 56 e0 3d 88 be 10 3f ef 86 38 3e 52 be ca be
       0.10953917 0.5654073 0.18020223 -0.39598328

fc4.weight f4 [16, 16]
000000 96 98 99 be 1c da a8 bd 31 0f 74 bd 02 6d a0 be
       -0.29999226 -0.08244726 -0.0595848 -0.31333166
000010 d2 bc 54 bd 42 ae e7 3d c4 91 ee bc d5 f0 80 be
       -0.051937886 0.11312534 -0.02912224 -0.2518374
000020 18 de 2f 3e 9c 44 89 3d 01 ae 34 3e 28 ef 82 bd
       0.17174566 0.06702539 0.17644502 -0.06393272
000030 9b 67 0b 3d ce 5a 57 3d 46 9d 7b be 44 15 b6 bd
       0.034034353 0.052576832 -0.24571714 -0.08890775
000040 75 18 e2 bd 73 e4 72 3d 98 9d 8e bd af ea 84 be
       -0.11039821 0.059299897 -0.06963652 -0.259603
000050 78 a6 b3 bd 28 e0 c3 bd 12 28 76 be f8 8b 24 3e
       -0.08771986 -0.09564239 -0.24038723 0.16069019
000060 42 29 7f be 1a 7e 12 be e3 8a dd bd 5e f2 c6 bd
       -0.24918082 -0.14305916 -0.10817506 -0.097141966
000070 37 b1 13 be c2 03 2b be fb d4 22 3d c4 3d bc bd
       -0.14423071 -0.16700652 0.039753895 -0.09191468
000080 c4 9a e5 bd 80 b6 be 3b 22 8f 5f be e8 8e 4e be
       -0.1121116 0.0058200955 -0.21831945 -0.20171702
000090 80 9b 04 bd 4c 40 35 be 90 0f 65 be f6 ad 2d 3e
       -0.03237486 -0.17700309 -0.22369218 0.16960892
0000a0 20 6a 1c be 64 99 8e bd a8 1b 50 bd 54 ce 2e be
       -0.15274858 -0.06962851 -0.050807625 -0.17070895
0000b0 f0 0f f2 3c f4 bb 93 3d 80 1a 8b 3b f0 09 1c be
       0.029548615 0.072135836 0.0042451024 -0.15238166
0000c0 2a 7a cb be 7f b9 b6 3e 3b 85 ff 3e 47 22 ff 3e
       -0.3974164 0.35688397 0.49906334 0.4983084
0000d0 ed 5b a5 3f b8 f7 2e 3f 48 ac a4 3d b2 28 3c 3d
       1.2918679 0.6834674 0.080406725 0.045937248
0000e0 08 ae 92 be 97 37 b0 3f d7 2b 88 3c 63 60 51 3e
       -0.286484 1.3766965 0.016622467 0.20446925
0000f0 00 1e 41 3f 67 1d 26 be 7a 23 93 3e 32 6d 1c be
       0.754364 -0.16222154 0.28738004 -0.1527603
000100 9a ad 39 3e 99 7c 8b be 41 58 d4 be dc d9 df be
       0.1813263 -0.27243498 -0.41473582 -0.437209
000110 60 99 11 be cf 50 e3 3d cf b2 a1 be 30 bb 49 be
       -0.14218664 0.110993974 -0.31581733 -0.19700313
000120 ec 6c f8 3d 1e 4f 32 be fb 67 36 be 92 48 a3 be
       0.1213015 -0.17412993 -0.17813103 -0.31891304
000130 8d 42 27 be 04 ad 87 3d 80 34 a6 bd 85 c2 06 3e
       -0.16333981 0.06624797 -0.08115482 0.13160141
000140 dd 2c c8 bd d4 bb 48 3d c4 70 37 ba 65 e5 8f be
       -0.09774182 0.04900725 -0.00069976994 -0.28104702
000150 93 d0 41 3d 68 de 35 be 86 84 4c be 82 51 33 3e
       0.047318053 -0.17760623 -0.19972429 0.17511562
000160 be 2e 25 be a4 e7 15 be 33 12 be bd d6 74 58 3d
       -0.16131112 -0.14639145 -0.09280815 0.0528458
000170 cb f5 87 bc 66 63 94 bd 57 36 99 3d 10 31 f9 3d
       -0.016596695 -0.07245521 0.07481068 0.12167561
000180 1f c0 ec 3d 85 53 42 bb 4a 0a 94 3c e5 27 c8 be
       0.11560082 -0.0029651832 0.018071312 -0.39092937
000190 f7 13 45 be e5 a8 9a be 01 69 5a be 90 2c fd bc
       -0.19245897 -0.3020698 -0.21329118 -0.030905038
0001a0 f0 c2 f2 bc 03 0a 05 bd 4c 3b 55 3e c1 6e 6e be
       -0.029633969 -0.03248025 0.20823401 -0.23284437
0001b0 3b 68 67 3c 7b ff c7 3d e7 e8 e0 bd 10 78 db 3c
       0.014123972 0.09765526 -0.109819226 0.026790649
0001c0 3a 2d 8c 3d bd 39 1d be 87 5e 21 be 11 7f b8 bc
       0.06844564 -0.15354057 -0.15758716 -0.022521527
0001d0 84 42 13 3e b0 1c 63 3d 26 48 1c bc 92 f9 25 3e
       0.14380842 0.05544728 -0.009538686 0.16208485
0001e0 14 ff 87 bd 00 c7 a8 be 9b 57 4f 3e 00 02 00 be
       -0.06640449 -0.32964325 0.20248263 -0.12500763
0001f0 26 fe 58 3d bb 4f c5 bd 1c d1 09 be 63 d5 4c 3e
       0.05297675 -0.09634348 -0.13458675 0.20003276
000200 1c 15 1b be 24 48 56 be 60 43 dc bd 11 db 31 be
       -0.15144771 -0.20925957 -0.10755038 -0.17368723
000210 c8 f0 32 be 58 29 cc bc c1 c2 3d 3c b1 47 2e be
       -0.17474663 -0.024922058 0.0115820775 -0.17019536
000220 22 60 53 be c4 92 49 be eb 4e 56 3e 75 f9 18 be
       -0.2064214 -0.19684893 0.20928542 -0.1493891
000230 79 fc 43 be ad ab 70 be 13 95 2e 3c 71 89 bf bd
       -0.1913928 -0.23502989 0.010655659 -0.09352387
000240 89 b8 89 3d d4 eb 1e bf c3 52 76 3e 12 d3 ea 3d
       0.067246504 -0.62078595 0.24055009 0.1146604
000250 ff fa 56 bf 78 f0 2c 3e 97 ad 13 bf cf 1b 51 bd
       -0.8397674 0.16888607 -0.5768675 -0.05105191
000260 ed 7c 71 3e 72 5c 9d be 10 fc e4 3d 19 55 56 bc
       0.23582812 -0.30734593 0.111808896 -0.013081812
000270 e9 37 4b bf a6 cc b7 be 76 bb 0f bf a0 ec 42 bc
       -0.7938219 -0.35898322 -0.5614542 -0.011897236
000280 e6 74 c1 3a a7 2d 03 3f bc 9e 3f 3e e3 ee 45 3e
       0.001475957 0.51241535 0.18712896 0.1932941
000290 fe 12 e4 3f 19 21 18 3f 54 41 2e bf cf a9 f7 bd
       1.7818296 0.59425503 -0.6806843 -0.12092935
0002a0 90 56 f1 3c 2d 55 eb 3f c9 db 59 be 4f 51 08 bf
       0.029460222 1.8385369 -0.21275248 -0.5324907
0002b0 2d 4b 0c 3f cc 42 88 bf 94 a2 1c 3f 30 10 37 3d
       0.5480221 -1.0645385 0.61185575 0.044693172
0002c0 fe 25 f3 be 2f 7c fd 3e b7 ce 55 3d 4b 2a 14 3e
       -0.47489923 0.49508807 0.05219909 0.14469258
0002d0 d9 58 a6 3f d8 21 2f 3f f3 b7 fa bd 01 7b 1f be
       1.2995864 0.68411016 -0.12242117 -0.15574266
0002e0 a5 b5 60 be ce 8b d4 3f 66 0b 60 be 70 82 8a be
       -0.21944292 1.6605165 -0.21879348 -0.2705264
0002f0 8f 29 da 3e 89 36 88 be cc 2f cd 3e 68 6f a1 3d
       0.42609832 -0.26604107 0.4007553 0.07882577
000300 b1 c2 e3 3f b8 ad b3 3d 9d 84 fc be 8b 91 e5 be
       1.779379 0.087733686 -0.49319926 -0.44837603
000310 d9 23 ee 3d b1 55 74 be de 7f 9a 3f 78 e3 89 3b
       0.11627931 -0.23860814 1.2070272 0.0042080246
000320 b8 0a 87 3c 58 05 12 3e 7c 63 05 3e d6 ce 30 3e
       0.016484603 0.14259851 0.13026232 0.17266402
000330 22 52 8c be ab 66 91 3f b1 c0 13 3f ca 27 f7 3d
       -0.27406412 1.1359457 0.577159 0.12068136
000340 f4 ce 09 3e 78 5a 5c 3f 9d 9c 2e bd 20 4d a6 3e
       0.13457853 0.86075544 -0.042629827 0.32480717
000350 d9 06 e4 3f 29 33 25 3f 07 ff 77 bf a9 70 89 3d
       1.781459 0.6453119 -0.96873516 0.06710941
000360 8e 6a 0c be c9 bc c7 3f 0e 35 a0 bd db e0 5b bf
       -0.13712522 1.5604488 -0.078226194 -0.8588998
000370 68 a9 4c 3e bf d7 be bf c4 e3 b9 3e ef 2e e9 3d
       0.19986498 -1.490959 0.36306584 0.11385905
000380 55 d3 ed be 92 e8 32 bf 40 08 49 3e eb 3b 57 3e
       -0.46450296 -0.69886124 0.19632053 0.2101895
000390 8c 57 44 bf 98 3d 3d 3e 1c de fd 3d 90 ad fc 3a
       -0.76696086 0.18480527 0.123958796 0.00192778
0003a0 46 ae 92 3c 4d 30 bc bf 67 38 2f 3c 7d a6 d2 3e
       0.017905366 -1.470224 0.0106946 0.41142645
0003b0 9e 10 d9 3d c4 92 27 3f be bd 85 3e 1e c3 fc bd
       0.105988726 0.6545832 0.26121324 -0.12341903
0003c0 cc 0e 2a bf 51 4f 1a 3e d7 be cd 3e 40 7f c3 3e
       -0.6642883 0.1506932 0.40184662 0.38183022
0003d0 e4 80 9d 3f 34 ee ad 3d 83 a5 3e be e0 9b 79 3e
       1.2304959 0.08492699 -0.18617825 0.24375868
0003e0 2b 33 7c be 69 42 a4 3f fe 51 3d 3d f0 ee 97 3e
       -0.24628894 1.2832767 0.046220772 0.29674482
0003f0 ac 28 e6 3e 50 51 82 3e dd 5c e7 3d 51 2d 21 be
       0.44952905 0.25452662 0.11297009 -0.15739943

fc4.bias f4 [16]
000000 ba 39 88 be 7f 16 0a be a0 6a 46 bc bf 2d 01 3e
       -0.26606542 -0.13485144 -0.012110382 0.12615107
000010 8b 5c f9 3d a9 45 cc be f8 5e be be 01 81 79 be
       0.12175854 -0.39896896 -0.3718183 -0.24365617
000020 00 0f 9e bb c9 4d 79 bf 40 55 78 3e af 0e 84 3e
       -0.0048235655 -0.97384316 0.2425127 0.25792453
000030 51 66 0d 3f 09 84 68 3e c0 f2 d8 3e 14 68 79 3e
       0.5523425 0.22706617 0.42372704 0.24356109

fc5.weight f4 [16, 16]
000000 99 c8 5d 3c 0b 28 ab 3d b2 90 13 be c1 c8 3a bf
       0.013536596 0.08357247 -0.14410666 -0.72962576
000010 d0 39 df 3d 29 c7 02 3e 20 44 63 be 12 bb e2 3d
       0.10899699 0.12771286 -0.22193956 0.11070837
000020 4d 25 09 3e 38 09 0f 3e 98 51 3d bf a9 a1 de be
       0.13393135 0.1396836 -0.7395263 -0.43482712
000030 16 63 1b 3f fc be 04 3d d9 19 71 3c f6 07 12 bf
       0.6069807 0.0324087 0.014715635 -0.570434
000040 41 d9 8a 3d 79 d5 9b bc ac bd 96 bd 7c ce 56 3d
       0.06779719 -0.01902269 -0.07360396 0.052443013
000050 dd 29 54 3d c6 23 c1 3d ca 48 43 bd 83 72 a0 3d
       0.051797736 0.09430651 -0.04767684 0.078343414
000060 2f a5 e8 3a 82 97 bd be 33 f9 f5 3e 54 4b bc 3e
       0.0017749424 -0.37029654 0.48041686 0.3677622
000070 72 3e 78 bf 01 7b 2d 3f d0 63 c1 be 94 f4 14 bd
       -0.96970284 0.67765814 -0.37771463 -0.03636606
000080 18 2d 6c bd 28 67 61 be fe 75 50 be 19 6b 9d bf
       -0.057660192 -0.22012007 -0.2035751 -1.2298309
000090 c4 be a6 bc 93 ac e5 bc 42 7e 60 be 26 25 0b be
       -0.020354636 -0.028036391 -0.21923164 -0.1358839
0000a0 ee 2e 89 3e 6f d9 53 3e f7 74 ec be cb d7 5a bf
       0.26793617 0.20688413 -0.46182987 -0.85485524
0000b0 96 fc f7 3e 47 b7 56 be a8 de 85 be 81 1c 95 bf
       0.48434895 -0.20968352 -0.26146436 -1.1649324
0000c0 10 72 f5 3d aa bd 0c be 00 ae 0e 3e 96 c4 4a be
       0.11984646 -0.13744226 0.13933563 -0.19801554
0000d0 c0 df fc 3b 56 eb 2d be 90 68 9b bd b0 b7 74 3e
       0.0077171028 -0.16984305 -0.07588303 0.23898196
0000e0 c0 ab 0b 3c f9 f6 95 bd 4c d2 6f 3e f0 88 83 bc
       0.008524835 -0.07322497 0.23420066 -0.016056508
0000f0 e0 37 aa bc 72 1b 46 be 55 00 79 3d a2 16 64 be
       -0.020778596 -0.19346407 0.060791332 -0.22274259
000100 22 00 0e bd 14 7d 2f be 9a 5a 0e be 38 5f c3 3e
       -0.034668095 -0.17137557 -0.13901749 0.38158584
000110 2f bf 8f 3d 32 f7 d4 bd fd 38 57 bc 51 5f 0a bd
       0.07018887 -0.10398711 -0.013136146 -0.033782307
000120 44 0c 72 be dd 8b af be a5 74 e7 3e c8 71 7b 3e
       -0.23637491 -0.34286395 0.4520618 0.24555123
000130 02 8f 7e bf 6d 8c 4c 3f f1 7a b6 bd 98 16 0f 3e
       -0.9943696 0.7990177 -0.08910168 0.13973463
000140 40 93 b0 bd 28 cf 75 3e 74 6f 39 be ac bb b2 bd
       -0.08621836 0.24004805 -0.18108922 -0.08727202
000150 e8 33 ab 3d 54 2c 49 bd 0d 39 ec 3d 22 e3 23 be
       0.0835951 -0.04911454 0.11534319 -0.16004613
000160 48 15 cc 3d 13 12 72 3c a5 58 9b bd 68 ac 82 be
       0.099649966 0.014774817 -0.07585267 -0.2552216
000170 0d 48 3b be af a5 c2 bc ab 12 77 be 21 9d 05 bc
       -0.18289204 -0.023760645 -0.24128215 -0.008155138
000180 d7 47 fa bd c6 48 58 3e 42 96 05 3e 17 85 dd bc
       -0.122207336 0.21121511 0.130456 -0.027041001
000190 b6 b7 66 be 35 8a a0 bd e6 74 3a 3d 0c 1d 58 3c
       -0.22531018 -0.07838861 0.04552164 0.013190519
0001a0 22 d8 3d 3e 5f 77 8e be cc f3 af 3e bc 56 76 3d
       0.1853948 -0.27825448 0.3436569 0.06014131
0001b0 ec f7 81 bf 32 af ec 3e 64 62 c3 bf 92 ec d5 3c
       -1.0153785 0.46227413 -1.5264401 0.026113782
0001c0 82 2a 48 be b8 fa 49 3e 48 52 92 3d 20 ae ea bd
       -0.19547465 0.19724548 0.071446 -0.11458993
0001d0 83 5e bb bd 8d 8e 07 3d a3 8e 9a bd 92 31 1b be
       -0.09148886 0.03309493 -0.07546737 -0.15155628
0001e0 b7 b8 38 3e df df 35 3b 4c 17 e0 bc f3 82 87 3c
       0.18039213 0.0027751846 -0.027354859 0.016541934
0001f0 86 ab 3c bf fc 7c 8e 3e 74 d0 8b bf dc d7 54 3c
       -0.73699224 0.2782973 -1.092299 0.012990918
000200 12 e6 16 bd e4 f3 e1 3d bc 9a df 3d 7a 2c 03 be
       -0.036840506 0.110328466 0.10918185 -0.12809935
000210 7f 66 f7 bd ef 0b 28 be f0 d0 b4 3c 73 59 8f bd
       -0.120800965 -0.16410802 0.022072285 -0.06999483
000220 97 7d 37 be 56 7d 3d be 88 9b 93 3d 63 7b a2 be
       -0.17919002 -0.18504843 0.072073996 -0.31734762
000230 e3 a9 bc bd 6e 62 89 be 21 4b f2 bd b4 fc 69 be
       -0.09212091 -0.26832908 -0.11830736 -0.22850305
000240 95 64 4f 3e b3 8b 9a 3d ec a9 a9 3d 0f 12 56 3d
       0.20253213 0.07546177 0.08284363 0.052263316
000250 c4 4b 10 bc c1 54 fb 3d a3 44 b0 bd 95 87 95 3c
       -0.008807126 0.12272025 -0.086068414 0.018253127
000260 6d 9a bd bd 50 f0 34 3e 78 79 e8 bd e4 1d 4d bd
       -0.0925797 0.17669797 -0.11351293 -0.050077334
000270 57 91 8c bd 8e 8e bb be de 98 94 be 1c 77 45 3c
       -0.06863659 -0.36632198 -0.29022878 0.012052324
000280 17 eb 0e 3e 50 dd 5d 3d c0 5c 51 bc 8d 93 04 3e
       0.13956867 0.05416614 -0.012778461 0.12946911
000290 f3 3e b4 bd 88 fa 4c be 90 cc ec bd 1c a5 0a be
       -0.08801069 -0.20017445 -0.11562455 -0.13539547
0002a0 90 b3 46 be fc af 5c be ca 6c b6 3b 66 4e 2e 3c
       -0.19404435 -0.21551508 0.005567168 0.010638809
0002b0 28 97 f2 bd 44 64 89 be c3 5c 0b be ec 2a 6c be
       -0.11845237 -0.2683431 -0.13609605 -0.23063248
0002c0 f0 71 03 be d0 74 c9 3c 34 77 5f 3e fc eb 74 be
       -0.12836432 0.024591833 0.21822816 -0.23918146
0002d0 e0 46 37 be 67 5c 97 3d 6d 51 50 3e a1 eb 1a 3e
       -0.1789813 0.07390671 0.20343561 0.15128948
0002e0 a8 5e 16 3e 3c 3a a0 3d 16 96 ce bc 4e cc a8 3d
       0.14684546 0.07823607 -0.02521805 0.08242093
0002f0 46 62 56 be 07 41 05 3e a0 7f ce bd 91 e2 fa 3c
       -0.20935926 0.13013087 -0.10082936 0.030625613
000300 31 98 88 bd bd 7b 16 be 96 53 29 3e f0 30 fd bd
       -0.06669653 -0.1469564 0.16535792 -0.1236285
000310 9c a1 38 3e 59 97 e8 3d 30 f5 95 bc d2 34 fb bd
       0.18030399 0.11356992 -0.018305391 -0.12265934
000320 d0 2e 17 be e2 c1 1f be 7d a9 29 be 9c 83 69 bd
       -0.14763951 -0.15601304 -0.16568561 -0.057010278
000330 4b 30 8b bd 72 09 63 bd 1f 0e a5 be 1c c4 84 be
       -0.067963205 -0.05542893 -0.32237336 -0.2593087
000340 29 7f c1 3d 2d e1 62 3e 4c 91 d7 3d 0d 92 b8 bf
       0.09448082 0.2215621 0.1052576 -1.4419571
000350 ad bd 74 be fb 11 e2 bd 8a 91 3b be d3 45 03 3c
       -0.2390048 -0.11038586 -0.18317237 0.008012253
000360 04 e3 18 be fe c2 a7 bd ea 17 10 bf 6a 88 80 bf
       -0.1493035 -0.08191489 -0.5628649 -1.004163
000370 d1 61 c4 3e f9 fb 30 be 89 3e 57 bd b6 b4 af bf
       0.38355878 -0.1728362 -0.052549873 -1.3727024
000380 6c 0e 31 3c ea 61 8b bd e0 bb ea 3c 19 32 cf be
       0.010806661 -0.06805785 0.028654039 -0.4046791
000390 fb bb 40 3c 08 0b a4 3d b5 fd 32 3e 8d 2c 83 be
       0.011763568 0.080099165 0.17479594 -0.25619927
0003a0 f3 21 5b 3e ae 3e 78 3e 7e 23 7f bf 1c a0 57 be
       0.2139967 0.2424266 -0.9966353 -0.2105717
0003b0 be a5 5a 3f d7 d9 5f bf 90 18 87 bd 88 6b f8 be
       0.8540915 -0.8744177 -0.06596482 -0.4851954
0003c0 7a a1 b5 3d 20 fb 56 3e 80 e8 1f 3b 44 f6 f2 3d
       0.0886869 0.20994234 0.0024400055 0.11863378
0003d0 16 7b cd bc ee d1 c9 bc 2c f9 82 3d c0 50 56 3d
       -0.025083106 -0.024636235 0.06395182 0.052323103
0003e0 dc 05 f3 3d b0 59 5d bd 66 76 62 be 96 c0 0b be
       0.11866352 -0.05404061 -0.22115478 -0.13647684
0003f0 98 06 59 be 74 4a a8 3d 69 17 00 be 45 c0 20 be
       -0.21193922 0.08217326 -0.1250893 -0.15698345

fc5.bias f4 [16]
000000 f7 4e e1 3e 95 bb 9f be 4b 48 cc bd 90 dd 97 be
       0.44005558 -0.311978 -0.09974726 -0.29661226
000010 d5 fb 27 3e 76 c8 9f be ef da d5 bf c3 4e 29 bf
       0.1640466 -0.31207627 -1.6707438 -0.66135806
000020 bc d3 41 3c d7 29 83 bc 5d 8b ad bd 4a 0f 3f be
       0.011830267 -0.016011162 -0.08473847 -0.18658176
000030 00 8a c7 3d 12 35 fb ba 29 d6 87 3e 0a 97 c6 bb
       0.09743118 -0.0019165596 0.2653058 -0.0060604857

fc6.weight f4 [16, 16]
000000 30 a7 03 3f 6c ae 0f bf 6f 33 60 3f ae 9d 41 be
       0.5142698 -0.5612552 0.8757848 -0.18907806
000010 b4 6d cc be 47 4c 5c 3e 99 99 22 be 8f 9b 92 3d
       -0.39927447 0.21513472 -0.15878905 0.07158577
000020 21 13 76 be 5d 6a 2d 3c cc 70 2e 3e 96 0e 60 3e
       -0.24030735 0.010584441 0.17035216 0.21880564
000030 6c 72 3b bc c4 bf 5a 3f 5b 0c 25 3f 70 78 3d bd
       -0.0114408545 0.8544886 0.6447198 -0.046257436
000040 7b 41 a4 be 96 6f e8 3e 73 de f9 bc 2a d6 1d 3e
       -0.32081208 0.45397633 -0.03050158 0.15413728
000050 c6 7f c4 3e 65 e3 b8 bd 98 5d 95 3f de 6f 90 3d
       0.38378733 -0.09027747 1.1669188 0.07052587
000060 cf 04 86 bd 1b 13 34 bd a0 d0 95 bd db 4c 36 be
       -0.06543886 -0.043963533 -0.07315183 -0.17802756
000070 29 0b a1 bc 0e 9a 3e bd 37 81 7a be 56 5c 47 bd
       -0.019658642 -0.046533637 -0.24463354 -0.048672043
000080 85 86 39 3d df 8b 10 3e e8 59 93 be 00 c6 7c 3e
       0.045294303 0.14115857 -0.2877953 0.24684906
000090 3c 29 55 be 60 db 18 3e 36 5d 8d 3f 35 c8 05 3e
       -0.20816511 0.14927435 1.1044071 0.13064654
0000a0 39 51 b6 bd c2 f8 f5 3c 6e c4 a7 bd 47 fe 70 3e
       -0.08902211 0.030025844 -0.08191763 0.23534499
0000b0 61 7b 66 3d 40 dc 72 be 0e 2c 82 be a4 ea 49 be
       0.056270007 -0.23716831 -0.25424236 -0.19718415
0000c0 7e b3 a5 be 72 38 93 3d 19 21 0b be 80 ff c5 bd
       -0.32363504 0.071885005 -0.13586845 -0.096678734
0000d0 82 b0 ef bd 68 69 db 3d 64 b3 38 3f e8 b3 00 3e
       -0.11703588 0.10713464 0.7214873 0.12568629
0000e0 5c 30 05 3e 11 6e c6 bd 6a 0a b6 bd 20 af 36 3e
       0.13006729 -0.09688962 -0.08888705 0.17840242
0000f0 7f a3 56 3d 02 05 8a be 1c 4b 3f 3d e4 51 be 3d
       0.052402016 -0.26956946 0.04670249 0.09292963
000100 02 d3 15 3d c0 4a e4 be 54 09 59 be 00 ba 41 3d
       0.036578186 -0.4458828 -0.21194965 0.047296524
000110 0f 32 92 bd a8 ee ab bd ec 4a 92 bd 7b a2 7b bd
       -0.07138454 -0.083951294 -0.071431965 -0.06143425
000120 84 0f 24 3e 14 bc 80 be 67 8f 44 be 02 a1 38 3e
       0.16021544 -0.25143492 -0.19195329 0.1803017
000130 1c 63 f5 3d de 53 7c be 1f 3d ba 3c 99 d6 29 3e
       0.11981794 -0.24641368 0.022734223 0.16585769
000140 73 c4 bb be 14 bc 03 be 90 79 44 be e2 2f 33 be
       -0.36673316 -0.12864715 -0.19186997 -0.17498735
000150 e2 0e e4 bd f0 34 1a 3e 40 73 f9 3d 90 01 d6 bd
       -0.11135651 0.15059257 0.12180185 -0.10449517
000160 00 36 b4 bb d8 b3 dd 3d 46 6b 04 be c4 b7 95 3d
       -0.0054996014 0.10825318 -0.12931547 0.07310441
000170 24 3e 8b bd d5 7e 91 3d cb d6 82 bd 9c e7 aa 3d
       -0.06798962 0.071042694 -0.06388625 0.08344957
000180 60 6c 40 3c 22 9c bb 3d d3 7e 54 bd 1e 1f 51 be
       0.011744589 0.09160639 -0.05187876 -0.20422027
000190 36 0c 1e be c9 ed e7 3d a4 99 9e 3d 4a ed ea bc
       -0.15434346 0.11324651 0.077441484 -0.028677601
0001a0 4c be 72 3d 9f d0 56 be 45 ce b7 3d d1 dc 5d be
       0.059263512 -0.2097802 0.0897489 -0.21666266
0001b0 68 b5 8e be c5 fe af be 25 1a b6 bd c4 b4 ef bd
       -0.27872777 -0.3437406 -0.088917054 -0.117044
0001c0 f6 82 13 bd db ba de bd 53 c6 b5 bc 40 3d fe 3b
       -0.036013566 -0.108754836 -0.022189295 0.0077587664
0001d0 e4 07 73 bd b0 d5 b8 3c d4 e4 41 3e 17 cc d4 bd
       -0.059333697 0.022562832 0.18934947 -0.103904895
0001e0 a8 cb 86 3d 20 a1 c9 3d 00 4d bc 3c b0 de 1e bd
       0.06581813 0.09845185 0.022985935 -0.03878659
0001f0 08 57 27 bd c2 92 80 be b1 a4 f3 bd 00 16 49 be
       -0.040854484 -0.25111967 -0.11896647 -0.19637299
000200 d8 fc e9 bd 64 23 7e be 00 4b 57 3c 30 d3 45 bd
       -0.11425179 -0.24818188 0.01314044 -0.048297107
000210 d4 79 ca bd e6 ca 6a be 98 a0 76 3e 60 f8 4b be
       -0.09886518 -0.22928962 0.24084699 -0.19918966
000220 80 6e 74 bb 62 fc 0a be 5c 3d ad bd 62 1e 03 3e
       -0.0037297308 -0.13572839 -0.08458969 0.12804559
000230 1e a7 2b be cc 26 04 3e 04 2f 1e be a0 4f 05 3e
       -0.16762969 0.12905425 -0.15447623 0.13018656
000240 a0 0b fc 3c ce 2b 1f 3e 78 89 a5 bd 40 f7 d5 3c
       0.030767262 0.15544054 -0.08082861 0.026118875
000250 58 00 49 be 10 ba e4 bc 28 60 1a be 42 96 5e be
       -0.19629037 -0.027920753 -0.15075743 -0.21737006
000260 88 b2 18 3e 0e d9 72 be ca 3f 3d 3e 58 42 4a 3d
       0.14911854 -0.23715612 0.18481365 0.049379677
000270 20 6c 71 3d 8a b1 2d be 98 12 e7 3c fc d1 40 3e
       0.058941007 -0.16962257 0.028207108 0.18830103
000280 20 e7 09 be 3c 71 9c be d8 7e 6b be a0 47 40 3e
       -0.13467073 -0.3055514 -0.22997606 0.18777323
000290 c9 c0 29 bd d8 13 27 3e 10 d5 8e bd 0d 27 36 be
       -0.04144362 0.16316164 -0.06974232 -0.17788334
0002a0 a8 a8 7d 3e 76 a4 32 be 74 78 7f be 00 eb b9 3b
       0.24771369 -0.1744555 -0.24948293 0.005673766
0002b0 16 75 26 3e 4c 74 8d bd 6c 1a 82 3d 90 f9 fc bc
       0.16255602 -0.069069475 0.06352696 -0.03088072
0002c0 06 2d 6b 3d 22 44 1f be 01 2d c5 3d 16 f7 0f be
       0.057415985 -0.15553334 0.096277244 -0.140591
0002d0 c0 94 70 be fe 65 35 be c0 b9 2e 3c e8 2f 16 3d
       -0.23494244 -0.17714688 0.010664403 0.03666678
0002e0 a8 59 34 be b0 5c b5 3c 08 2d a8 bd 00 32 8c bd
       -0.17612326 0.022138923 -0.08211714 -0.06845474
0002f0 5c f3 10 3e 55 06 68 be 29 e7 4d be 0e d1 40 3e
       0.14155334 -0.22658665 -0.20107712 0.18829748
000300 4c 92 24 3e c8 26 51 3d 68 04 68 bd b4 0f 46 be
       0.16071433 0.051062375 -0.056644827 -0.19341928
000310 0e 28 0f be fc a1 5b be 1c ba c2 bd de d0 51 be
       -0.13980123 -0.21448511 -0.09508154 -0.20489833
000320 00 c6 e9 3a 40 ca 0a 3d 9c 67 f8 bd 7c 3f 6b 3e
       0.0017835498 0.033884287 -0.12129137 0.22973436
000330 cc f2 d5 bd 86 e6 15 be 4e de 6f be 4e 25 05 be
       -0.104467005 -0.14638719 -0.23424646 -0.13002512
000340 3e 45 32 be b4 7f f6 bd 58 25 3a be 4a 43 47 3e
       -0.17409226 -0.12036076 -0.18178308 0.19459262
000350 ff f1 10 be e4 a3 29 be 08 3c 79 3d a6 11 40 be
       -0.14154814 -0.16566426 0.060848266 -0.18756732
000360 80 a5 04 bc 66 18 46 be 2e 4e 5d be 0c f5 b2 bd
       -0.008096099 -0.19345245 -0.21611854 -0.08738145
000370 ae f1 52 3e 88 97 00 3d a8 dd 10 bd 6c 1e 91 bd
       0.20600006 0.03139451 -0.035367638 -0.07085881
000380 6f 2a 9c 3e b0 17 8e be c9 8a c8 3e 96 9c 56 be
       0.30501124 -0.27752447 0.39168385 -0.2095817
000390 f3 41 60 bd f9 00 50 3e 46 fd 65 be 8b 98 2c bc
       -0.054750394 0.20312871 -0.22459897 -0.010534416
0003a0 81 0e 21 be b2 fc 95 3d 84 15 8f bd a3 b9 52 bc
       -0.15728189 0.073235884 -0.06986526 -0.012861642
0003b0 aa 96 fa bd 51 2a 57 3f 8a c6 a1 3d 00 cc 4a ba
       -0.12235768 0.84048945 0.078991964 -0.0007736087
0003c0 e5 6a c4 3b 1c e4 09 3e 7b de 85 be a4 db 3a be
       0.005994188 0.13465923 -0.26146302 -0.18247849
0003d0 a0 d3 73 be c1 2f 62 be 34 a3 85 3f 2c 2d ac 3c
       -0.23811197 -0.22088529 1.0440431 0.021017633
0003e0 8e 6a 3a be 65 3c 4e be 4a 23 05 be 45 09 47 be
       -0.1820471 -0.20140226 -0.13001743 -0.1943713
0003f0 dd e6 9d bc d2 40 6a bc 89 11 aa be b2 52 6e 3c
       -0.019275123 -0.014297681 -0.33216503 0.014546083

fc6.bias f4 [16]
000000 af 48 d2 3e 2b 43 eb bb 3c 95 c9 be 15 b5 bf be
       0.41071078 -0.007179638 -0.3937167 -0.37442842
000010 56 9a 56 be 92 19 ae be 7d 9a 3e bc 40 13 ad be
       -0.20957312 -0.34003884 -0.011633513 -0.3380375
000020 7c 82 79 be 1d 42 87 be fe ba da be d4 00 77 be
       -0.24366182 -0.26417628 -0.4272079 -0.2412141
000030 fa d9 1d be 87 4a 87 be fb 39 ff be 5d a3 06 bf
       -0.15415183 -0.26424047 -0.49848923 -0.5259302
