data/results/1731780517.pth (torch, 7844 bytes, 8 tensors)

fc1.weight f4 [16, 36]
0.19348252 -0.15107574 1.4512774 0.02147155 0.06818833 1.1437974 -0.04281434 -0.15826319
-0.67285556 -1.301686 -0.39664495 -0.6484074 0.23668148 -0.24936421 -0.6278601 -0.90608543
-1.326445 -1.0218658 0.333642 -0.86098385 0.20628692 -0.5868072 -0.2659899 0.33706683
-1.1524031 -0.033959087 0.26354674 -1.6985935 -0.73805 -0.28151152 0.41645458 0.7021605
-0.3866429 -0.7664118 0.30705258 -1.1547418 0.044123843 0.034307983 0.8047053 -0.086893454
-0.06397426 0.45485258 0.5874492 0.45849046 0.74518317 0.6766522 0.95060813 0.10531436
-0.68580955 -0.583679 -0.14744073 0.40578258 0.9836099 -0.20282786 1.4626203 0.24368475
0.35911262 -0.00094432605 0.7215172 0.75203156 0.8324959 0.6284131 -0.4019672 -0.5113517
-0.06732535 0.02301327 -1.078756 0.6920226 0.039520554 -0.97327965 -0.14426178 0.35833994
-0.37748545 0.31099385 -0.68518734 0.25711316 0.03883456 1.142686 0.35139093 -0.14617829
-0.69216007 -0.41183692 1.0925764 -0.61584634 -1.6034666 -0.7555205 -0.17879464 0.6860093
-0.896458 -0.1861503 -0.33130047 -0.3604691 0.07350245 -0.10819061 0.33206618 0.18509713
-1.3900023 0.48495558 1.0689585 0.6218837 -0.17224365 0.18681233 0.42932945 -1.1525707
0.66346294 0.88698465 -0.6107542 0.07165177 0.0881755 -0.01112564 -0.39649516 0.11976252
0.08825755 0.771942 -0.13533035 0.802592 1.1242228 -0.23887089 0.66968036 -0.20949414
1.0742279 -0.4325564 -0.019449448 -0.9811516 0.54493195 -0.57147914 0.15008521 1.5033004
0.13858719 1.4061528 0.19556 -0.175567 0.15103202 -0.2674052 0.39815807 -0.70639557
0.011801898 -0.18793605 -0.75625646 0.13706152 0.061105967 0.026971351 0.856138 -1.6583529
0.09779003 0.017876238 0.77985513 -0.061937813 0.0850569 0.7987589 -0.36687586 0.5343862
0.8656133 0.82598513 1.1262574 -0.37439895 -0.46418935 -0.2815506 -0.24553631 -0.86751086
0.4875763 -0.4973095 0.8741021 -1.3460749 -0.08925284 0.7450407 0.041696426 -1.886128
-0.16383949 0.51172537 0.20116042 0.24319768 -0.47471392 0.35039997 0.27976292 -1.3537402
0.09384624 1.3036401 0.0041295826 0.032937504 0.24922085 0.1110342 0.91160744 0.019406097
-0.025402209 0.786772 0.12920922 -0.17670798 -0.40201333 -0.7096175 0.9618578 -0.6492101
-1.1753038 0.021139441 -0.43808073 -0.81734 0.8821247 0.4989588 1.2483889 0.72920734
-0.5945686 0.037706938 -0.6370616 -0.3403915 -0.07668637 0.2615624 -0.22868381 -0.8461489
-0.88607216 -0.5458106 0.07268783 0.53493655 -0.48465586 -0.21102737 -1.210999 -0.40888497
0.17497109 0.00048419018 0.27726287 -0.03304998 -0.15672019 -2.3414328 -2.2394814 -0.69485396
0.12256415 -0.31031772 0.056403674 -0.16128571 1.0605185 0.3772568 -0.1371993 0.07107473
0.08444185 0.33753034 0.9341667 -0.3899533 0.1809842 -0.28856152 0.20681465 0.3351465
-0.46274066 0.32796836 0.1448338 -0.022178885 0.4430485 0.068381384 0.11150594 -0.21157032
0.6306355 0.032321427 0.12654385 -0.05068574 -0.11905515 0.07224639 -1.5150942 0.18528599
00000000: 4820 463e 99b3 1abe 75c3 b93f 1be5 af3c
00000010: 53a6 8b3d f467 923f 175e 2fbd bf0f 22be
00000020: 4340 2cbf a69d a6bf 0c15 cbbe 07fe 25bf
00000030: a15c 723e 5559 7fbe 71bb 20bf 37f5 67bf
00000040: f3c8 a9bf 80cc 82bf 20d3 aa3e 7069 5cbf
00000050: e13c 533e ff38 16bf d42f 88be 0694 ac3e
00000060: f281 93bf af18 0bbd 99ef 863e 836b d9bf
00000070: d8f0 3cbf 4722 90be 8939 d53e cac0 333f
00000080: 0ff6 c5be 9033 44bf ff35 9d3e 94ce 93bf
00000090: 34bb 343d 8786 0c3d 2b01 4e3f 32f5 b1bd
000000a0: f004 83bd 70e2 e83e 1263 163f 43bf ea3e
000000b0: 53c4 3e3f 1439 2d3f 0e5b 733f 0eaf d73d
000000c0: 3791 2fbf fd6b 15bf b4fa 16be bcc2 cf3e
000000d0: dccd 7b3f 1bb2 4fbe 2437 bb3f 7f88 793e
000000e0: 9cdd b73e a68c 77ba 5ab5 383f 2485 403f
000000f0: 741e 553f aedf 203f a5ce cdbe f2e7 02bf
00000100: e0e1 89bd 5386 bc3c ad14 8abf 6528 313f
00000110: 4ee0 213d db28 79bf 5cb9 13be 5578 b73e
00000120: c645 c1be 963a 9f3e 7068 2fbf 56a4 833e
00000130: fd10 1f3d 8943 923f 83e9 b33e c3af 15be
00000140: 6731 31bf 4adc d2be 8bd9 8b3f 1ba8 1dbf
00000150: 653e cdbf cb69 41bf f115 37be 4e9e 2f3f
00000160: 467e 65bf 2f9e 3ebe 37a0 a9be 688f b8be
00000170: 7488 963d 0a93 ddbd 9404 aa3e 1a8a 3d3e
00000180: 98eb b1bf 194c f83e a2d3 883f c533 1f3f
00000190: a460 30be bb4b 3f3e 12d1 db3e 7087 93bf
000001a0: b5d8 293f 6d11 633f 635a 1cbf 2abe 923d
000001b0: 5b95 b43d 5148 36bc 6a01 cbbe 0d46 f53d
000001c0: 60c0 b43d fe9d 453f 0a94 0abe ab76 4d3f
000001d0: 88e6 8f3f 929a 74be 2c70 2b3f a285 56be
000001e0: 4d80 893f 0878 ddbe 7354 9fbc c02c 7bbf
000001f0: a980 0b3f 754c 12bf f0af 193e 266c c03f
00000200: cde9 0d3e d1fc b33f e140 483e d6c7 33be
00000210: 23a8 1a3e 56e9 88be 60db cb3e 57d6 34bf
00000220: bf5c 413c 4f72 40be 069a 41bf db59 0c3e
00000230: 404a 7a3d 06f3 dc3c dc2b 5b3f e844 d4bf
00000240: 2446 c83d 3071 923c 96a4 473f 81b2 7dbd
00000250: 5032 ae3d 777b 4c3f 27d7 bbbe 89cd 083f
00000260: d598 5d3f c373 533f 3429 903f 38b1 bfbe
00000270: 3aaa edbe 6627 90be df6d 7bbe 3115 5ebf
00000280: 9aa3 f93e 5a9f febe 28c5 5f3f 2f4c acbf
00000290: 31ca b6bd fdba 3e3f dfc9 2a3d a46c f1bf
000002a0: 8ac5 27be 6f00 033f fffc 4d3e d008 793e
000002b0: b40d f3be a067 b33e 163d 8f3e 5c47 adbf
000002c0: 7532 c03d aedd a63f 7351 873b 7ae9 063d
000002d0: c033 7f3e e665 e33d 1b5f 693f 89f9 9e3c
000002e0: 4b18 d0bc e469 493f 6c4f 043e f0f2 34be
000002f0: b1d4 cdbe 7ea9 35bf 503c 763f a232 26bf
00000300: 5b70 96bf 9f2c ad3c 1e4c e0be 323d 51bf
00000310: edd2 613f 8777 ff3e 35cb 9f3f 55ad 3a3f
00000320: a635 18bf 9772 1a3d 7816 23bf cb47 aebe
00000330: be0d 9dbd 82eb 853e 172c 6abe 379d 58bf
00000340: a0d5 62bf 3eba 0bbf 5bdd 943d 9af1 083f
00000350: d024 f8be 8f17 58be 0402 9bbf 5f59 d1be
00000360: 9f2b 333e e8da fd39 66f5 8d3e 6a5f 07bd
00000370: 427b 20be 09da 15c0 aa53 0fc0 f3e1 31bf
00000380: ea02 fb3d f7e1 9ebe 8a07 673d 1528 25be
00000390: 12bf 873f ce27 c13e f97d 0cbe a18f 913d
000003a0: d9ef ac3d c7d0 ac3e 8d25 6f3f f5a7 c7be
000003b0: ec53 393e 56be 93be 38c7 533e 5298 ab3e
000003c0: 58ec ecbe 78eb a73e 504f 143e 7eb0 b5bc
000003d0: 41d7 e23e 8a0b 8c3d 3a5d e43d e4a5 58be
000003e0: 5471 213f 7963 043d b694 013e da9b 4fbd
000003f0: 30d3 f3bd eaf5 933d 9bee c1bf 9cbb 3d3e

fc1.bias f4 [16]
0.31350952 -1.4797348 -0.33875054 -1.2118868 -0.7506475 0.12962532 0.3840137 -0.08090919
-0.72744095 -0.31543592 0.016810963 1.0630896 -0.43785024 0.50289994 0.39740673 0.11029136
00000000: 5284 a03e f367 bdbf b670 adbe 1b1f 9bbf
00000010: 6f2a 40bf 80bc 043e 729d c43e b8b3 a5bd
00000020: 9239 3abf d180 a1be 25b7 893c 5213 883f
00000030: e82d e0be 0dbe 003f e578 cb3e 70e0 e13d

fc2.weight f4 [16, 16]
0.16383396 -0.99664956 -0.3035945 -0.9769789 -1.1599139 -0.19254312 0.75564414 -0.47204098
-0.6191268 0.7876664 -0.34918153 -0.3093891 -0.6527051 0.14064054 0.7442681 -0.4216121
0.036204048 1.099469 0.28181902 0.5005475 0.35118166 0.4209848 -0.16697359 1.1762133
0.11563099 -1.5293783 -0.6176184 0.7513012 0.22391118 0.3211233 -0.5839037 0.1018672
0.46058637 -0.4134603 0.04102795 0.5050711 0.82509065 -0.063085675 0.48590633 -0.5905691
0.11891561 -1.9748673 -0.815745 -0.3694478 0.8330912 0.022591254 -1.35047 0.4671771
0.3220857 0.7929609 -0.38052148 1.0752832 0.58235496 0.2314628 -0.32943556 -0.7543852
0.62135476 -0.79235065 -1.0957413 0.23079935 0.27028602 0.26940903 -1.2880075 -1.2828685
-0.6750241 -0.19324723 0.8091683 0.20849459 0.43366092 -1.4710068 0.34112996 -2.5515232
-0.9407331 -0.30369067 -0.35646722 -0.09626834 1.379954 -2.1647553 -0.09523623 -0.542084
0.43398997 -0.1287586 -0.38687465 -0.42256895 0.6048945 -0.008700596 -0.7311425 0.26701653
0.20170823 0.14398922 1.1114725 0.74106145 1.0375634 0.16890451 -1.1838804 0.54071105
0.03683296 0.49012947 0.95353013 0.95754546 0.0042446945 0.47132894 -0.18772009 0.6575318
0.2835488 -0.12570916 0.8065902 1.0495049 0.78702295 0.45584872 -0.1529225 0.2026794
-0.16934876 0.7435048 -1.9411457 1.6957114 -0.8006491 -0.7137079 0.20676757 -0.15103275
0.03591619 -0.52126145 -1.237672 -0.6331822 -0.7597209 -0.90131384 0.02218838 -0.0794025
-1.3624407 0.22165725 -2.2090166 0.28334135 -1.9058745 0.61756825 0.6041369 1.0460424
-0.75785697 0.18392557 0.53115857 -0.22927763 -0.40095073 -0.46133384 -0.8676222 -0.92699885
-0.692255 0.06739305 0.4434269 1.1474082 0.16202281 0.61964643 -0.54054135 0.5263476
0.33681494 -0.8073588 0.15603592 0.65115094 -0.1685884 0.14459589 0.049507122 0.21961899
0.5902164 -0.33727378 -0.37359136 0.384439 0.34124473 0.09968962 -0.13995832 0.2862128
-0.2146857 0.24388148 1.1824752 0.40307108 -0.4805075 0.5287598 -0.6290324 0.32875842
-1.6233023 0.22231624 0.39958078 -2.5090454 -2.386388 0.6473559 -0.56466156 -3.377051
-2.6784368 -0.7609747 0.2781649 -1.2102338 0.05515604 0.60116905 -0.10904241 0.53712857
0.29544836 0.34653792 -0.0051411623 0.43460783 -1.404657 0.3293029 -1.8884573 -0.80272704
-0.14071529 -0.45957264 -1.055131 0.3625329 0.2847555 -1.1151675 -0.758936 -0.34872398
0.069408074 0.019323029 0.6733253 0.94346595 0.5604161 0.45203188 -1.8937072 -0.39423168
0.03782204 -0.26039228 0.0257477 0.79759336 -2.0236688 -0.83527696 -0.025084674 -0.026276512
0.4246974 0.60657066 0.9027281 0.19141637 0.59455127 0.28492785 -1.4081702 0.7888177
1.0036458 -0.6682869 0.26959503 0.37774274 0.35801044 0.39265573 -0.5602779 0.6321842
0.9053153 -1.7177119 0.4680406 -0.6645409 -0.59723455 0.20144872 -0.6867492 0.31387675
0.4271683 -0.9660623 -0.03872268 0.22869359 -1.4284539 0.7313911 -0.12956727 0.2121449
00000000: 17c4 273e 6d24 7fbf bd70 9bbe 4a1b 7abf
00000010: 0f78 94bf 062a 45be e571 413f 5baf f1be
00000020: 187f 1ebf 81a4 493f ecc7 b2be 4068 9ebe
00000030: ae17 27bf 1304 103e 5b88 3e3f 8bdd d7be
00000040: b24a 143d 66bb 8c3f 954a 903e e223 003f
00000050: 15ce b33e 528b d73e 20fb 2abe 288e 963f
00000060: f1cf ec3d abc2 c3bf 3d1c 1ebf 4755 403f
00000070: f948 653e 466a a43e b67a 15bf c09f d03d
00000080: fad1 eb3e 12b1 d3be ec0c 283d 574c 013f
00000090: 2439 533f 1033 81bd b7c8 f83e 892f 17bf
000000a0: 078a f33d 74c8 fcbf aad4 50bf 4328 bdbe
000000b0: 7745 553f 4b11 b93c 33dc acbf d631 ef3e
000000c0: 6be8 a43e 7cff 4a3f b6d3 c2be e1a2 893f
000000d0: 3715 153f 9604 6d3e c7ab a8be 631f 41bf
000000e0: 1b11 1f3f 7ed7 4abf 4041 8cbf aa56 6c3e
000000f0: ee62 8a3e fbef 893e 6edd a4bf 0935 a4bf
00000100: 61ce 2cbf 9ae2 45be a725 4f3f 9b7f 553e
00000110: ce08 de3e f349 bcbf 96a8 ae3e 284c 23c0
00000120: e2d3 70bf 587d 9bbe df82 b6be 5628 c5bd
00000130: 55a2 b03f 5a8b 0ac0 360b c3bd 04c6 0abf
00000140: ef33 de3e 4bd9 03be 6f14 c6be f55a d8be
00000150: 5eda 1a3f f28c 0ebc 282c 3bbf 64b6 883e
00000160: 9a8c 4e3e e971 133e bb44 8e3f 34b6 3d3f
00000170: e1ce 843f 4ef5 2c3e 6589 97bf 0a6c 0a3f
00000180: 28de 163d 40f2 fa3e 8d1a 743f b321 753f
00000190: 1417 8b3b 0752 f13e b239 40be 0154 283f
000001a0: 4f2d 913e e7b9 00be b27c 4e3f 2d56 863f
000001b0: 567a 493f 0165 e93e b797 1cbe 308b 4f3e
000001c0: c369 2dbe 5556 3e3f 7677 f8bf 120d d93f
000001d0: 57f7 4cbf 90b5 36bf e1ba 533e 54a8 1abe
000001e0: db1c 133d 6471 05bf 096c 9ebf 3b18 22bf
000001f0: 127d 42bf 81bc 66bf 68c4 b53c c79d a2bd
00000200: 7564 aebf 1efa 623e 8760 0dc0 1e12 913e
00000210: b2f3 f3bf f418 1e3f b7a8 1a3f b8e4 853f
00000220: ea02 42bf fc56 3c3e 02fa 073f c1c7 6abe
00000230: 6a49 cdbe f333 ecbe 7d1c 5ebf cc4f 6dbf
00000240: a037 31bf 5e05 8a3d da08 e33e 46de 923f
00000250: 4fe9 253e 26a1 1e3f eb60 0abf b7be 063f
00000260: 0273 ac3e 11af 4ebf e1c7 1f3e d4b1 263f
00000270: 70a2 2cbe f210 143e fbc7 4a3d cde3 603e
00000280: 6c18 173f 26af acbe 5e47 bfbe 30d5 c43e
00000290: a1b7 ae3e 122a cc3d 3c51 0fbe 7c8a 923e
000002a0: 91d6 5bbe 11bc 793e 595b 973f 555f ce3e
000002b0: 1405 f6be cd5c 073f 4408 21bf 0653 a83e
000002c0: 5fc8 cfbf dea6 633e da95 cc3e 3394 20c0
000002d0: 95ba 18c0 1eb9 253f a98d 10bf 9b21 58c0
000002e0: 826b 2bc0 3dcf 42bf a16b 8e3e f1e8 9abf
000002f0: 4deb 613d 37e6 193f a151 dfbd 4281 093f
00000300: 0245 973e 6b6d b13e 3277 a8bb eb84 de3e
00000310: cdcb b3bf 649a a83e f8b8 f1bf 857f 4dbf
00000320: ab17 10be 1b4d ebbe 880e 87bf ea9d b93e
00000330: 79cb 913e cfbd 8ebf a149 42bf f38b b2be
00000340: d225 8e3d 544b 9e3c 0c5f 2c3f fc86 713f
00000350: 6e77 0f3f b970 e73e ff64 f2bf bcd8 c9be
00000360: 49eb 1a3d 2352 85be d7ec d23c 142f 4c3f
00000370: ca83 01c0 b6d4 55bf 607e cdbc d741 d7bc
00000380: f071 d93e 3748 1b3f 3019 673f a702 443e
00000390: 8334 183f 10e2 913e ec3e b4bf f5ef 493f
000003a0: 7777 803f da14 2bbf 5c08 8a3e 7f67 c13e
000003b0: 254d b73e 2c0a c93e 5f6e 0fbf d3d6 213f
000003c0: bec2 673f fcdd dbbf 04a3 ef3e 5a1f 2abf
000003d0: 5de4 18bf 9348 4e3e ccce 2fbf 74b4 a03e
000003e0: ceb5 da3e dc4f 77bf ac9b 1ebd a72e 6a3e
000003f0: 94d7 b6bf 723c 3b3f 48ad 04be 833c 593e

fc2.bias f4 [16]
0.047861967 0.29143253 0.7684227 -0.2817078 -1.4027753 -1.5128722 0.3872578 -0.47851443
-0.77061516 -1.4428067 -1.6407312 0.4984615 0.4660248 -1.51467 -1.1215283 0.06948748
00000000: e90a 443d a536 953e 5ab7 443f 013c 90be
00000010: 248e b3bf cca5 c1bf a846 c63e d8ff f4be
00000020: 0947 45bf e4ad b8bf 7b03 d2bf 5936 ff3e
00000030: cd9a ee3e b5e0 c1bf 3d8e 8fbf 744f 8e3d

fc3.weight f4 [16, 16]
0.55714834 -0.67350143 -0.32453877 -0.20551161 0.6738214 -1.1956911 -0.60432315 -0.25389808
0.55053526 -0.036075536 -1.0272591 -0.29080546 -0.30399576 -0.91832054 0.7975773 -1.1276965
0.31141546 -1.485704 -1.2252506 -0.6094557 0.644986 -0.055559523 -1.1204718 0.6619178
0.72217256 0.040904325 -1.6611701 0.106111616 -0.44311458 -0.94296604 0.28076154 -1.5750351
-0.17789449 0.0423005 -0.13044804 -0.087581865 -0.12175145 -0.0878435 -0.35294002 0.031929195
-0.20928991 -0.1188231 -0.14753385 -0.023210745 -0.16458401 -0.09735492 0.02421996 -0.19450504
0.38186687 -0.3903419 -1.2509806 0.3736286 0.42225215 -0.6614914 -0.25179458 0.8086094
0.893565 -0.48398405 -0.5364795 -1.5483971 -0.100492805 -0.45043153 -0.5522279 -0.38082612
-1.5584697 0.38856792 0.79764533 0.4842405 -2.273022 0.51983356 -0.02583354 -1.3240955
-1.3435551 0.37395617 0.25043288 1.0059705 0.760767 0.5095843 0.3545669 -0.16373062
-1.0681814 -0.0910024 0.7360588 0.38149467 -2.297796 0.11333145 -0.31578502 -0.45436463
-0.75287145 0.26779482 -0.62030625 0.296883 0.013770066 0.4918554 -0.77553886 -0.4781775
-0.45160285 0.5009339 0.6399026 0.6599768 -0.9372442 0.5338609 0.26223457 -0.71730715
-0.8181698 0.25509164 0.30370173 0.9565519 0.7249365 0.7299371 0.6706597 0.47675672
-0.5000635 -0.18834402 0.08826297 0.3633745 -1.2552288 0.50550526 -0.5330825 -0.79226947
-0.111325994 -0.8008454 -0.4816492 0.64918375 -0.5453629 0.22338125 0.35165447 -0.08638607
0.18591915 -0.20957847 -0.7468061 -0.89586276 -1.1264279 -0.13386197 -0.817506 -1.5151535
-1.0610025 -0.48176292 -0.5544576 -1.4434682 -0.18897517 -0.13589868 0.7278387 -1.0761279
-0.36746174 -0.06408186 0.008591923 -0.27903438 -0.099774025 0.004566531 -0.48050126 -0.05460113
-0.10509459 0.016001297 -0.24999544 -0.18791446 -0.15436915 -0.07710149 0.040285118 -0.31324753
-0.5667067 0.09737488 0.030636221 0.13706397 -0.62505925 0.13164918 -0.4819553 -0.6032051
-0.11177212 0.003191332 -0.4822193 0.08889246 0.2757 0.087411 0.08191464 -0.3335345
-1.8145595 -0.016701069 0.3513602 0.3091142 0.5814826 0.53014094 -0.7023981 -0.01676117
0.59474224 0.25556397 -0.36609364 0.16119936 -0.7181632 0.00038664654 -1.0417908 -0.16482094
-0.21065092 0.14928383 0.008921847 0.0917247 -0.696647 -0.11585283 -0.2911927 -0.48673666
-0.7862213 -0.1417864 0.01017851 0.29567295 -0.22781661 0.15259473 0.079124 0.013548912
-0.14128442 0.30844972 -0.027799852 0.30383387 -1.396573 0.60802454 -0.35726994 -0.64158446
-1.6581929 -0.10857286 0.1284269 1.213115 0.4764209 0.01993653 0.52809995 0.8072711
-0.90060383 0.50509703 0.7077239 0.74406886 -1.8600082 0.32950366 0.10351589 -1.4527199
-1.254709 0.35326535 -0.13559638 1.1512548 1.0350176 0.3733611 0.8018009 0.041122545
-0.3545383 -0.6389403 -0.1766685 -1.4486915 -0.5660372 -0.6485041 -0.30992824 -0.5246594
0.44939232 -1.0725707 -0.91658014 0.21979247 0.11775447 -0.20137814 -0.7399173 -0.21652709
00000000: 46a1 0e3f 976a 2cbf f229 a6be a371 52be
00000010: 8f7f 2c3f 680c 99bf ecb4 1abf eefe 81be
00000020: e1ef 0c3f f1c3 13bd 3a7d 83bf 74e4 94be
00000030: 55a5 9bbe 0e17 6bbf 072e 4c3f 5c58 90bf
00000040: d971 9f3e 8c2b bebf 03d5 9cbf 4a05 1cbf
00000050: cd1d 253f 6292 63bd 9f6b 8fbf 7273 293f
00000060: 4de0 383f 4b8b 273d 39a1 d4bf 0c51 d93d
00000070: eadf e2be 3966 71bf fabf 8f3e c09a c9bf
00000080: f929 36be 4a43 2d3d 2c94 05be 1f5e b3bd
00000090: d358 f9bd 4be7 b3bd 8eb4 b4be 30c8 023d
000000a0: 1850 56be 8759 f3bd 1d13 17be 7624 bebc
000000b0: b688 28be 0462 c7bd f068 c63c 542c 47be
000000c0: 0e84 c33e e5da c7be 2220 a0bf 3f4c bf3e
000000d0: 6f31 d83e 8057 29bf 38eb 80be 0701 4f3f
000000e0: adc0 643f c2cc f7be b856 09bf e031 c6bf
000000f0: 2ccf cdbd f69e e6be cf5e 0dbf a4fb c2be
00000100: ef7b c7bf 60f2 c63e 7c32 4c3f 5fee f73e
00000110: 3179 11c0 d013 053f dca0 d3bc f67b a9bf
00000120: 9df9 abbf 2f77 bf3e bd38 803e a4c3 803f
00000130: a0c1 423f 1e74 023f cb89 b53e 00a9 27be
00000140: 2bba 88bf 775f babd 596e 3c3f 4553 c33e
00000150: 170f 13c0 521a e83d 93ae a1be 7ba2 e8be
00000160: 2fbc 40bf 671c 893e 64cc 1ebf 0c01 983e
00000170: d89b 613c 79d4 fb3e b789 46bf aed3 f4be
00000180: 7d38 e7be 343d 003f a8d0 233f 3df4 283f
00000190: 3cef 6fbf 1cab 083f 9c43 863e 71a1 37bf
000001a0: 9373 51bf 5f9b 823e cb7e 9b3e 96e0 743f
000001b0: 7095 393f 28dd 3a3f 5bb0 2b3f 7519 f43e
000001c0: 2904 00bf 41dd 40be 37c3 b43d 390c ba3e
000001d0: 56ab a0bf cb68 013f 1878 08bf 2cd2 4abf
000001e0: e2fe e3bd 3404 4dbf b99a f6be e830 263f
000001f0: e79c 0bbf 0ebe 643e 0e0c b43e 2eeb b0bd
00000200: 9761 3e3e bd9b 56be af2e 3fbf 4357 65bf
00000210: ca2e 90bf 1d13 09be 1348 51bf 8df0 c1bf
00000220: eece 87bf a1a9 f6be eff0 0dbf 91c3 b8bf
00000230: b582 41be 0629 0bbe a353 3a3f 8fbe 89bf
00000240: f223 bcbe 5a3d 83bd 23c5 0c3c 98dd 8ebe
00000250: 5356 ccbd d7a2 953b 4304 f6be 6fa5 5fbd
00000260: d53b d7bd 2715 833c cefe 7fbe a66c 40be
00000270: f212 1ebe 63e7 9dbd 0202 253d fb61 a0be
00000280: b113 11bf 7b6c c73d d0f8 fa3c 7f5a 0c3e
00000290: e203 20bf 0bcf 063e d8c2 f6be a66b 1abf
000002a0: c8e8 e4bd ab25 513b 73e5 f6be 400d b63d
000002b0: 8d28 8d3e 8a04 b33d ddc2 a73d 09c5 aabe
000002c0: 7c43 e8bf aed0 88bc 7ce5 b33e 3744 9e3e
000002d0: 0bdc 143f 51b7 073f 5dd0 33bf b94e 89bc
000002e0: 0741 183f 48d9 823e a070 bbbe 7211 253e
000002f0: 8bd9 37bf d2b6 ca39 6759 85bf d2c6 28be
00000300: e0b4 57be dcdd 183e f02c 123c 29da bb3d
00000310: 7557 32bf 4044 edbd 3617 95be 8c35 f9be
00000320: cd45 49bf 7430 11be c4c3 263c 7262 973e
00000330: c248 69be cb41 1c3e c40b a23d 41fc 5d3c
00000340: ddac 10be 1fed 9d3e 84bc e3bc 1d90 9b3e
00000350: e7c2 b2bf 7fa7 1b3f 16ec b6be e13e 24bf
00000360: aa3f d4bf 735b debd 5782 033e 5a47 9b3f
00000370: 71ed f33e ef51 a33c 8f31 073f 52a9 4e3f
00000380: f98d 66bf 0a4e 013f 652d 353f 4c7b 3e3f
00000390: c014 eebf b4b4 a83e 2400 d43d baf2 b9bf
000003a0: 4e9a a0bf 32df b43e c7d9 0abe 515c 933f
000003b0: 757b 843f 3029 bf3e d342 4d3f 1d70 283d
000003c0: 0b86 b5be 9791 23bf 96e8 34be b96e b9bf
000003d0: d0e7 10bf 5d04 26bf eaae 9ebe 1450 06bf
000003e0: c016 e63e ff49 89bf ffa4 6abf 4711 613e
000003f0: 4129 f13d 1236 4ebe 386b 3dbf 47b9 5dbe

fc3.bias f4 [16]
-0.54722273 -0.6963276 -0.41058168 0.5065566 -2.2040608 -0.02510424 0.23544958 -0.29283792
0.5710994 -0.16003509 -0.32577154 -0.9857023 -0.5958366 -0.50452185 -0.8840867 -0.06194012
00000000: ca16 0cbf 8742 32bf c337 d2be b1ad 013f
00000010: 550f 0dc0 68a7 cdbc b219 713e daee 95be
00000020: 9233 123f 3de0 23be 87cb a6be fc56 7cbf
00000030: bf88 18bf 5828 01bf 8253 62bf ecb4 7dbd

fc4.weight f4 [2, 16]
0.17197259 0.8743505 0.05407041 0.04928517 -1.5566874 -0.37006193 -0.16986805 0.023889182
0.3145879 0.09843198 0.115853235 0.05922964 -0.07707266 -0.38418302 -0.19658826 0.09827946
-0.19548425 -0.8783693 -0.11059131 -0.27743223 1.6137995 0.4097721 0.16315372 -0.16905768
-0.13617009 0.014233842 -0.030948618 -0.31502935 -0.023282 0.11924656 0.1416258 -0.028498808
00000000: 9519 303e 6fd5 5f3f ef78 5d3d 3fdf 493d
00000010: 8841 c7bf c278 bdbe e4f1 2dbe 3fb3 c33c
00000020: aa11 a13e b596 c93d 7644 ed3d c79a 723d
00000030: 45d8 9dbd a3b3 c4be 6f4e 49be be46 c93d
00000040: 062d 48be cfdc 60bf b27d e2bd 990b 8ebe
00000050: fb90 ce3f a6cd d13e c511 273e 751d 2dbe
00000060: 2c70 0bbe 0f35 693c f587 fdbc 874b a1be
00000070: e5b9 bebc 8a37 f43d 5b06 113e 5576 e9bc

fc4.bias f4 [2]
0.107874915 -0.122534335
00000000: 86ed dc3d 48f3 fabd
